models_submitted/less_loss-CNN_2L_Drop_R400.pt (torch, 160903 bytes, 22 tensors)

conv1.weight f4 [32, 1, 1]
-0.52447426 -0.66939574 0.1473813 0.3903335 0.52011985 -0.5512042 -0.2240548 0.0039367797
0.10574159 -0.20477727 0.719335 0.9141536 -0.5576685 0.32103655 -0.042953007 0.63001823
-0.0041335295 -0.015113075 0.48286638 -0.8507546 -0.031488907 -0.2843006 0.7722624 0.0868671
-0.5026177 0.5355215 0.8810011 0.15079047 0.7529216 -0.21057063 0.2986461 0.72380936
00000000: f243 06bf 855d 2bbf 20eb 163e cbd9 c73e
00000010: 9326 053f b81b 0dbf 9f6e 65be 1a00 813b
00000020: 0c8f d83d 22b1 51be 5726 383f f805 6a3f
00000030: 5dc3 0ebf e75e a43e 7eef 2fbd e048 213f
00000040: 8f72 87bb d59c 77bc 433a f73e 0ecb 59bf
00000050: 83fa 00bd d98f 91be fdb2 453f 61e7 b13d
00000060: 8eab 00bf f017 093f 4a89 613f d168 1a3e
00000070: 78bf 403f d49f 57be 24e8 983e 924b 393f

conv1.bias f4 [32]
-0.15587544 0.21451779 0.2649735 -0.7516387 -0.3160533 -0.21974015 -0.47282228 -0.13577512
-0.52502453 0.9397018 -0.055053547 -0.8847224 -0.6491361 0.6018483 0.25993335 -0.2836555
0.547283 -0.9981375 0.3775955 0.48180687 0.017171161 0.68413293 0.009159171 0.5092964
0.5953703 0.17212093 -0.096351154 0.61373556 0.18875971 0.38771304 0.4236694 0.5269107
00000000: d09d 1fbe 8daa 5b3e 9baa 873e 656b 40bf
00000010: bdd1 a1be 9003 61be c315 f2be a208 0bbe
00000020: 0268 06bf 4c90 703f d47f 61bd 2b7d 62bf
00000030: c92d 26bf bb12 1a3f fc15 853e 4b3b 91be
00000040: bd1a 0c3f f085 7fbf 3354 c13e 64af f63e
00000050: 89aa 8c3c 5623 2f3f 5910 163c 4061 023f
00000060: 306a 183f 7840 303e c153 c5bd c61d 1d3f
00000070: 3a4a 413e 5382 c63e 32eb d83e 9fe3 063f

conv2.weight f4 [64, 32, 1]
-0.06740955 0.059553783 -0.16636033 -0.04266288 0.15264976 -0.1721965 0.04093269 -0.02320513
-0.11383787 0.0645669 0.08261955 0.10089474 -0.14730588 -0.08982403 -0.009471428 -0.176174
0.08964683 0.044431105 0.1718837 0.1294768 -0.11879281 -0.11385906 -0.12053361 0.118625596
0.1636823 -0.069037154 -0.08605287 -0.06460057 0.12184898 0.016797092 -0.046548415 -0.03418296
0.14693661 0.07899528 0.008087536 0.14172529 0.0049724123 -0.1399492 0.091868356 0.036284484
0.0412654 -0.11497273 -0.11342184 0.11845509 0.13630687 -0.047969382 0.014638762 0.10553461
-0.020716717 0.060850058 0.11836009 0.07858551 0.012690478 -0.0045040254 -0.101734355 -0.06650056
-0.056488495 -0.16765654 -0.0057826624 0.15935092 -0.031870108 -0.13206537 -0.15851036 -0.15558103
0.05759942 -0.042168554 0.08999123 -0.060197473 -0.0934604 0.06804951 -0.10917754 -0.1714615
0.06878694 0.005732218 -0.08135295 0.14877252 0.077842854 0.06968796 0.1007329 -0.12718906
-0.025983935 0.07916068 0.030384222 0.04693848 -0.05811485 -0.031670738 -0.073209316 0.0008295031
-0.063586175 -0.012167089 -0.17432009 0.13745776 -0.12677263 0.06038277 -0.018515687 0.13416341
0.06425013 -0.017830012 0.14715652 -0.035120115 0.13099058 -0.1616891 0.11145795 -0.101762876
-0.15621959 -0.007311507 0.032685727 0.13345991 0.052334983 -0.07264482 0.10628088 -0.015225997
-0.025151242 -0.11138491 -0.0055020526 0.0735478 0.10088207 0.10284592 -0.13280073 0.13190524
-0.1436923 0.12172746 -0.17111796 0.09072618 0.12388387 0.13165624 0.16244751 0.089333914
0.004483873 0.0683 0.07667275 -0.122914515 -0.14859076 -0.103591286 -0.054261394 -0.15133992
-0.029728122 0.09872731 -0.15403335 -0.032455657 -0.14655125 -0.080325186 -0.09507011 -0.14059953
0.14224878 -0.1470187 -0.13489662 0.0028102505 0.14735177 -0.11875244 -0.055204205 0.10487937
-0.03751351 0.12912637 0.083623074 -0.12963551 0.12119819 -0.16509618 0.010929572 -0.09864817
0.16062863 -0.13146372 -0.16596647 -0.15322971 0.062464222 -0.11567757 -0.078532085 0.16231821
0.12983517 -0.1694495 0.0036422927 -0.122372665 0.08148285 -0.0781209 0.09446306 0.08177394
-0.010723042 0.14566496 0.12103572 -0.07645105 -0.10827316 0.10824842 0.057025947 0.14081007
-0.0502013 0.15866305 0.06238752 -0.07131357 -0.086427584 -0.15374058 0.1449986 0.109729335
-0.12477041 0.07267695 0.16118449 0.112056084 -0.01947203 0.11008129 0.1363397 0.10946942
0.17562681 -0.05896336 -0.087223664 0.16328774 0.14060767 -0.03447539 0.1524949 -0.10678283
0.06312692 -0.07754231 -0.13217042 0.15281714 -0.038548935 0.12622654 0.078991644 0.025221663
-0.0033014466 -0.12978436 0.010919387 -0.0094916355 0.025514677 0.16478842 -0.14601555 0.06370314
0.12533131 0.048775982 0.14907885 0.065179996 0.08843777 -0.053958796 -0.16915518 -0.1304246
0.17010324 -0.13893309 0.045517106 0.033577673 -0.0840267 -0.06707939 -0.044542544 0.06511108
0.17066945 0.053563543 -0.16817345 -0.0444096 0.109470874 0.047668338 -0.1353095 0.027130498
0.105361305 -0.13566959 -0.009269338 0.14992608 0.008320537 0.045230053 0.13173574 0.0940035
00000000: 050e 8abd abee 733d 5d5a 2abe 46bf 2ebd
00000010: 3850 1c3e 4754 30be 09a9 273d af18 bebc
00000020: d423 e9bd a73b 843d 7034 a93d e7a1 ce3d
00000030: 5ad7 16be a9f5 b7bd 0c2e 1bbc f566 34be
00000040: c298 b73d 64fd 353d 4802 303e 9195 043e
00000050: a549 f3bd f02e e9bd 53da f6bd faf1 f23d
00000060: 559c 273e 5a63 8dbd 7d3c b0bd 4e4d 84bd
00000070: f58b f93d 0e9a 893c 8da9 3ebd 6e03 0cbd
00000080: 8d76 163e 47c8 a13d 9681 043c 6f20 113e
00000090: 9eef a23b d84e 0fbe 7a25 bc3d 0a9f 143d
000000a0: e805 293d d376 ebbd b649 e8bd 9598 f23d
000000b0: 0794 0b3e 8b7b 44bd 6bd7 6f3c 8822 d83d
000000c0: 1bb6 a9bc e93d 793d c666 f23d 71f1 a03d
000000d0: b9eb 4f3c 8196 93bb 1a5a d0bd 7231 88bd
000000e0: 7b60 67bd 28ae 2bbe 7d7c bdbb e32c 233e
000000f0: 3b8a 02bd 253c 07be 8a50 22be a250 1fbe
00000100: 5fed 6b3d efb8 2cbd 524d b83d a091 76bd
00000110: 2b68 bfbd 8b5d 8b3d 7998 dfbd 9a93 2fbe
00000120: 2be0 8c3d 54d5 bb3b 609c a6bd d357 183e
00000130: 136c 9f3d 90b8 8e3d 0d4d ce3d d93d 02be
00000140: 43dc d4bc ff1e a23d 55e8 f83c 9042 403d
00000150: d609 6ebd 2db9 01bd c4ee 95bd 0373 593a
00000160: 7839 82bd 7858 47bc f780 32be bac1 0c3e
00000170: afd0 01be ec53 773d 36ae 97bc 2262 093e
00000180: 9295 833d 3f10 92bc 33b0 163e 1cda 0fbd
00000190: 6522 063e d491 25be 1144 e43d 0e69 d0bd
000001a0: 07f8 1fbe 5e95 efbb 78e1 053d b7a9 083e
000001b0: 355d 563d cfc6 94bd caa9 d93d 7676 79bc
000001c0: fa09 cebc c61d e4bd 904a b4bb 3ba0 963d
000001d0: 429b ce3d e2a0 d23d eafc 07be 2b12 073e
000001e0: 1324 13be 3f4c f93d 8c39 2fbe a6ce b93d
000001f0: d4b6 fd3d e5d0 063e a458 263e b3f4 b63d
00000200: 74ed 923b dfe0 8b3d 9a06 9d3d 9bba fbbd
00000210: 2d28 18be ab27 d4bd 3241 5ebd daf8 1abe
00000220: 6488 f3bc 8b31 ca3d ebba 1dbe 39f0 04bd
00000230: 8811 16be 8881 a4bd 1eb4 c2bd 53f9 0fbe
00000240: aaa9 113e 128c 16be 5722 0abe 2e2c 383b
00000250: 62e3 163e 7b34 f3bd ce1d 62bd ffca d63d
00000260: c4a7 19bd b439 043e 9342 ab3d 2cbf 04be
00000270: c236 f83d f90e 29be f311 333c 0d08 cabd
00000280: d57b 243e 6d9e 06be 1df3 29be 40e8 1cbe
00000290: 7cda 7f3d 5de8 ecbd 6ed5 a0bd bf36 263e
000002a0: 83f3 043e 2b84 2dbe 88b3 6e3b 859e fabd
000002b0: 7be0 a63d dafd 9fbd d975 c13d 1879 a73d
000002c0: b3af 2fbc 3229 153e 93e1 f73d 5e92 9cbd
000002d0: 52be ddbd 59b1 dd3d 0a94 693d 8430 103e
000002e0: e19f 4dbd 9178 223e 0e8a 7f3d d90c 92bd
000002f0: f200 b1bd 2c6e 1dbe 837a 143e c6b9 e03d
00000300: a187 ffbd a7d7 943d 8c0d 253e a97d e53d
00000310: cf83 9fbc 4d72 e13d a29c 0b3e 8131 e03d
00000320: 84d7 333e 9083 71bd 52a2 b2bd e734 273e
00000330: 75fb 0f3e 1136 0dbd a027 1c3e f5b0 dabd
00000340: b048 813d 81ce 9ebd af57 07be 197c 1c3e
00000350: 7de5 1dbd 8841 013e 5fc6 a13d a99d ce3c
00000360: 155d 58bb 31e6 04be 3be7 323c ce82 1bbc
00000370: 2804 d13c 4cbe 283e 1a85 15be cb76 823d
00000380: da56 003e 53c9 473d 20a8 183e 177d 853d
00000390: dd1e b53d e603 5dbd 0437 2dbe 078e 05be
000003a0: 8b2f 2e3e 7a44 0ebe 2570 3a3d be88 093d
000003b0: 3116 acbd eb60 89bd 3e72 36bd f558 853d
000003c0: f9c3 2e3e 7265 5b3d a935 2cbe d7e6 35bd
000003d0: 4432 e03d e03f 433d 938e 0abe c740 de3c
000003e0: abc7 d73d f8ec 0abe 6cde 17bc 3986 193e
000003f0: dd52 083c 2643 393d bce5 063e e884 c03d

conv2.bias f4 [64]
-0.15287074 -0.1218408 0.04173772 -0.040013094 0.07954152 -0.040136307 0.100950256 0.13867353
0.07755705 -0.11415557 -0.1467693 0.080377825 -0.1462831 0.12509605 0.15241417 -0.14796965
-0.078372516 -0.027665107 -0.10159924 -0.029022405 -0.095808074 0.07175274 0.023325067 -0.024045119
-0.11601462 -0.009084922 -0.096892804 0.14117533 0.10925701 0.11721849 -0.113551445 -0.07909841
-0.1631692 -0.038202133 0.0066867745 0.06931063 -0.113901466 -0.09862863 0.17327546 0.04316826
-0.03494918 0.10087693 -0.1286629 0.030373117 0.13444343 -0.071060635 0.0309216 0.11035278
0.15104444 -0.0020119192 0.058289897 0.14721654 -0.06826196 -0.16025722 -0.02002155 -0.068719804
0.17078762 0.0016490076 0.10194693 0.17566632 -0.11093122 0.025494963 0.14545614 0.1342195
00000000: 268a 1cbe ab87 f9bd 2cf5 2a3d c5e4 23bd
00000010: aae6 a23d f865 24bd 02bf ce3d 6f00 0e3e
00000020: 3bd6 9e3d 65ca e9bd b14a 16be 219d a43d
00000030: 3dcb 15be 2e19 003e 7612 1c3e 5b85 17be
00000040: c581 a0bd efa1 e2bc 4313 d0bd 65c0 edbc
00000050: 0637 c4bd 1af3 923d 3614 bf3c 45fa c4bc
00000060: 1399 edbd edd8 14bc bc6f c6bd 4490 103e
00000070: 24c2 df3d 3f10 f03d a98d e8bd 59fe a1bd
00000080: d415 27be d779 1cbd bb1c db3b bbf2 8d3d
00000090: 2c45 e9bd cffd c9bd 1f6f 313e 34d1 303d
000000a0: df26 0fbd 9098 ce3d 35c0 03be 0bd1 f83c
000000b0: 8aab 093e 3d88 91bd 4c4f fd3c a300 e23d
000000c0: 65ab 1a3e 67da 03bb 63c1 6e3d efbf 163e
000000d0: edcc 8bbd 781a 24be 3c04 a4bc f8bc 8cbd
000000e0: f3e2 2e3e 8323 d83a 8dc9 d03d dfe1 333e
000000f0: e82f e3bd d0da d03c 74f2 143e d670 093e

fc1.weight f4 [16, 896]
-0.032239188 -0.0320495 -0.006104915 -0.012535118 0.018693652 0.020065317 0.0052375123 0.031215299
0.010691878 0.0051111737 0.013864293 -0.015810536 0.024082378 0.019292915 -9.5143805e-05 0.022454884
-0.029967103 0.029741114 -0.031799838 -0.013907679 0.0032627226 -0.027145768 0.018222844 -0.031567883
0.001115238 -0.010080044 -0.017298609 -0.015033964 -0.031345785 0.032446824 0.0090122735 0.018485634
0.020815814 0.010101052 -0.032522593 0.020417785 -0.029183943 -0.014639721 0.0017380215 0.013953308
-0.007262096 0.019026894 0.010133128 0.017125947 -0.009624589 0.029122913 -0.013366071 -0.0038564326
-0.032616377 -0.024775261 0.00028430525 -0.008653844 0.008477296 0.024968792 -0.0036065092 -0.007140431
-0.039106973 -0.028043916 0.0025522402 -0.028191708 0.004120187 0.010001746 0.019269532 0.019950422
0.03284146 0.029074065 -0.030095039 -0.0026697821 0.030025313 -0.014527967 0.030276496 0.017335298
0.010045149 8.2164624e-05 0.009345131 0.028168079 0.023495605 -0.014687903 -0.01690586 -0.015704883
0.0036292358 0.011055428 0.029738557 -0.03384863 0.029484835 0.015250799 0.015302865 -0.025430175
-0.03368004 0.028314719 -0.03204056 0.00057728897 -0.016099932 -0.021957204 -0.03322893 0.02389699
-0.021425487 -0.025158519 -0.022741118 0.023572803 0.018291324 0.004044153 0.005295699 0.0017114901
0.009660582 0.015824618 0.0052781827 -0.03074083 0.01736116 -0.015947565 -0.014164211 -0.03271743
-0.022419829 0.007938324 -0.031279612 -0.032727804 0.008215121 0.0144779775 -0.021672096 -0.02817849
0.0063265 -0.025316922 0.023459448 0.02874331 0.031285975 -0.02006559 -0.02725739 0.020736348
-0.031060653 -0.010536306 0.012847958 0.011181532 0.02655814 -0.014005832 -0.024704508 0.018346153
0.027269108 -0.02890417 -0.029259458 -0.0057501285 -0.028963815 0.025430292 0.021790653 -0.019696634
0.027523143 -0.0250303 0.021383267 0.018810948 -0.006818125 0.0051662363 -0.02285679 0.018507801
-0.002424282 0.008589689 0.032251325 0.0081686145 -0.015966177 0.01793755 -0.000121760466 -0.024413897
-0.03209534 -0.0039783786 0.007798049 0.012430993 0.020981211 -0.00014543017 0.014845679 0.0032191123
-0.033395257 -0.02812852 0.0054604625 -0.000379441 0.01976886 0.0070298314 0.01650847 -0.007454452
0.014164449 0.015498147 0.02052534 0.031130051 -0.0047380906 -0.00016817288 0.010682145 0.026223982
0.002655642 0.012403032 -0.004288117 0.013836574 0.008264013 0.010881605 0.0026259506 0.023453843
-0.00066147046 0.0029665872 -0.02857738 -0.014520849 -0.00326576 0.029968124 -0.020444155 -0.029557783
-0.019034449 0.011159208 -0.032092363 0.013296151 -0.013569803 -0.019642632 0.018343784 0.024518836
0.02202211 -0.0011137422 0.021110797 0.01492257 0.011035872 0.01562438 0.022931188 0.028045634
0.02482628 0.004373143 -0.029362645 0.014876267 -0.03142985 0.008406404 -0.017723562 -0.044069715
-0.017858079 0.022220887 0.007499597 -0.0120139085 0.0017910405 0.008761365 -0.00032954972 -0.021039618
-0.006924264 0.016530454 0.008438804 0.022503806 0.027329773 -0.014744794 -0.024184832 -0.02210124
0.02606658 0.0016338376 0.027546382 -0.030903853 -0.031927682 0.019080628 -0.010977359 0.012994741
-0.023705143 -0.0055405227 -0.02366174 -0.016162908 -0.034823004 0.0023283698 0.014247739 -0.017280228
00000000: 3d0d 04bd 5646 03bd bd0b c8bb 1860 4dbc
00000010: 6e23 993c 0560 a43c 709f ab3b 3ab7 ff3c
00000020: fd2c 2f3c a27b a73b 0f27 633c 1985 81bc
00000030: 6848 c53c 2d0c 9e3c f187 c7b8 4ef3 b73c
00000040: 927d f5bc a3a3 f33c 8c40 02bd 09dd 63bc
00000050: 67d3 553b cd60 debc 1348 953c 534d 01bd
00000060: 2d2d 923a c526 25bc d0b5 8dbc 0451 76bc
00000070: 7064 00bd f6e6 043d 37a8 133c 2f6f 973c
00000080: ed85 aa3c e27e 253c 6936 05bd 3343 a73c
00000090: 2a13 efbc 71db 6fbc 53ce e33a 6a9c 643c
000000a0: e0f6 edbb 4ade 9b3c 6b05 263c b74b 8c3c
000000b0: 74b0 1dbc 2d93 ee3c 5dfd 5abc 34bc 7cbb
000000c0: c098 05bd 7df5 cabc ce0e 9539 dac8 0dbc
000000d0: 5be4 0a3c 5a8b cc3c 2f5b 6cbb 47fa e9bb
000000e0: a22e 20bd 5bbc e5bc 7c43 273b 4cf2 e6bc
000000f0: a202 873b 5dde 233c 23db 9d3c 116f a33c
00000100: c484 063d bc2c ee3c df89 f6bc 83f7 2ebb
00000110: a5f7 f53c b606 6ebc 6a06 f83c c102 8e3c
00000120: 6994 243c cc4f ac38 521c 193c bec0 e63c
00000130: db79 c03c 88a5 70bc 287e 8abc 87a7 80bc
00000140: 79d8 6d3b d321 353c 469e f33c dca4 0abd
00000150: 2e8a f13c 7dde 793c deb8 7a3c f152 d0bc
00000160: 15f4 09bd 45f4 e73c f63c 03bd 3555 173a
00000170: 01e4 83bc 98df b3bc 0f1b 08bd 9fc3 c33c
00000180: 8184 afbc 3d19 cebc 954b babc c01b c13c
00000190: b0d7 953c d084 843b 8b87 ad3b 1454 e03a
000001a0: 6b47 1e3c a1a2 813c 9bf4 ac3b 31d4 fbbc
000001b0: fe38 8e3c 78a4 82bc 0211 68bc b602 06bd
000001c0: caa9 b7bc be0f 023c 0d1f 00bd 970d 06bd
000001d0: b798 063c 0a35 6d3c ae89 b1bc 94d6 e6bc
000001e0: 874e cf3b 6f65 cfbc 072e c03c 1777 eb3c
000001f0: b925 003d 9860 a4bc e44a dfbc 46df a93c
00000200: e972 febc 78a0 2cbc 3e80 523c bf32 373c
00000210: 7590 d93c b878 65bc 1c61 cabc ac4a 963c
00000220: 7763 df3c 70c8 ecbc 88b1 efbc 936b bcbb
00000230: 8645 edbc 3053 d03c 5082 b23c d65a a1bc
00000240: 3778 e13c 580c cdbc f62b af3c 6b19 9a3c
00000250: 946a dfbb 8849 a93b 2a3e bbbc ac9d 973c
00000260: b4e0 1ebb c4bb 0c3c f719 043d a7d5 053c
00000270: 80cb 82bc c5f1 923c a759 ffb8 a7ff c7bc
00000280: 6776 03bd 0f5d 82bb c786 ff3b 5dab 4b3c
00000290: cae0 ab3c 9d7e 18b9 4a3b 733c bef7 523b
000002a0: 77c9 08bd c86d e6bc aeed b23b b5ef c6b9
000002b0: 4ef2 a13c 805a e63b c53c 873c 7a44 f4bb
000002c0: 0112 683c f1eb 7d3c c224 a83c 7304 ff3c
000002d0: fc41 9bbb 9057 30b9 2a04 2f3c add3 d63c
000002e0: 480a 2e3b 1636 4b3c 5583 8cbb ccb2 623c
000002f0: c865 073c c248 323c 2418 2c3b 4622 c03c
00000300: 8866 2dba 136b 423b 1c1b eabc dbe8 6dbc
00000310: 5c06 56bb b67f f53c 807a a7bc 2a23 f2bc
00000320: 22ee 9bbc 1cd5 363c 4873 03bd 19d8 593c
00000330: e153 5ebc 96e9 a0bc b445 963c badb c83c
00000340: b667 b43c fdfa 91ba 8df0 ac3c cc7d 743c
00000350: cdcf 343c 66fd 7f3c 30da bb3c f5bf e53c
00000360: 7c60 cb3c 954c 8f3b ee89 f0bc 96bb 733c
00000370: 96bc 00bd 04bb 093c 0131 91bc 7282 34bd
00000380: 1b4b 92bc 9408 b63c 2ebf f53b fcd5 44bc
00000390: 59c1 ea3a d48b 0f3c 6ac7 acb9 475b acbc
000003a0: f0e4 e2bb e06a 873c e942 0a3c e759 b83c
000003b0: b0e2 df3c 2694 71bc 451f c6bc a90d b5bc
000003c0: 9589 d53c 7e26 d63a f3a8 e13c 142a fdbc
000003d0: 9ac6 02bd fa4e 9c3c 61da 33bc e5e7 543c
000003e0: 4a31 c2bc 468d b5bb 44d6 c1bc 1368 84bc
000003f0: 91a2 0ebd 9097 183b 596f 693c 448f 8dbc

fc1.bias f4 [16]
-0.0126761375 0.0022952335 -0.018045079 -0.022347922 0.02772425 0.011019839 0.014643036 0.017705712
-0.033105362 0.030341338 0.01681084 0.01568715 0.00021199424 -0.011789227 0.017964095 -0.031929582
00000000: 93af 4fbc a16b 163b 46d3 93bc fd12 b7bc
00000010: f71d e33c 8e8c 343c 58e9 6f3c 920b 913c
00000020: 7d99 07bd 668e f83c e3b6 893c 5782 803c
00000030: c54a 5e39 9a27 41bc 7029 933c 98c8 02bd

fc2.weight f4 [32, 16]
0.24901727 0.12039722 0.18462774 0.08477144 0.18008149 -0.10647884 0.18864806 -0.18863821
-0.23720768 0.07860392 -0.12067879 0.21434963 0.06707641 0.07444736 -0.22102715 -0.037242047
-0.0910234 0.2322648 0.13986637 -0.006541891 0.18097317 -0.033645917 -0.14102301 0.2310627
-0.05941511 -0.123012096 0.21249747 -0.24449445 -0.14160997 -0.20912284 0.006103947 -0.032431092
-0.07130743 -0.04989182 0.23539253 -0.09051166 0.21036917 -0.17749938 0.22395466 0.23326546
-0.03674374 -0.084005415 -0.053075124 0.1111492 0.11741433 0.21230012 -0.033357207 -0.036080662
0.044766717 0.046930004 0.16513199 -0.21281034 -0.16428116 -0.08297727 0.055612735 -0.048073076
-0.18185666 0.1545133 0.20764312 0.07817812 0.16630667 -0.01173846 0.18117711 -0.23289582
0.17901173 0.19610983 -0.18483476 -0.056943394 -0.087444544 0.12012496 -0.13253376 -0.0615656
-0.21699919 -0.1687587 -0.18508066 -0.20828113 -0.15426925 0.011152655 -0.053259537 -0.068461165
-0.15434374 -0.22290088 -0.12016738 -0.09674486 -0.21899188 -0.1863134 0.11499844 -0.041532695
0.06464749 -0.13870509 0.042607658 -0.12544334 0.09633398 -0.12300306 0.04273578 0.14381652
-0.2134909 0.22016606 -0.18200336 -0.20226867 0.06863561 0.10412322 -0.17695002 0.1996145
-0.01615709 -0.24189597 -0.2083298 0.13669255 -0.24535918 -0.1555271 -0.15616167 0.017980168
-0.1540792 -0.24884446 0.13578287 -0.098759495 -0.19025224 0.058744222 0.18321402 0.15711367
0.15750568 0.23114562 0.20928791 -0.17302823 0.15381859 -0.0052456236 0.102300785 -0.03371773
0.0155489 0.10886881 -0.03368573 0.060825676 -0.19524884 -0.1293059 -0.024520505 -0.23859541
-0.081476234 0.2134401 -0.07110189 0.19767469 0.027960708 0.18841062 -0.09466733 -0.025224373
0.19326003 -0.24370918 -0.15235622 -0.19823337 -0.17456654 -0.041675735 -0.04545883 -0.1963507
0.15729627 -0.20342 0.22978449 -0.13740392 0.18777494 -0.19116972 0.09061011 0.11128781
-0.21995696 0.08570996 -0.015489623 -0.14344999 0.24926823 0.07677174 0.14760923 0.07292907
0.23621629 -0.11706499 -0.11389373 -0.00029223034 -0.1763368 0.04166418 -0.16344129 -0.10280778
0.13448788 -0.24476804 -0.16992843 -0.23826928 -0.044027507 0.16564387 -0.007820736 0.06255001
-0.046520367 -0.14475879 0.1962236 -0.0134349335 0.23300272 0.23024264 0.13476361 -0.21093886
-0.1259523 -0.123555265 -0.05452636 -0.008215977 0.021073848 0.028401213 0.025047373 -0.16812576
0.17442872 0.103689484 -0.14295122 -0.052478794 0.11540758 0.19890198 -0.16160393 -0.04479908
-0.22085002 -0.19855107 0.16747844 -0.1560776 0.06088376 -0.17403513 -0.030426702 -0.21345772
-0.20090394 -0.08546057 -0.15815774 0.19716975 -0.06183533 0.032993857 0.16757579 0.0009519756
0.19214278 0.16283138 -0.1877382 -0.032122795 0.19158211 0.11763466 0.20800747 -0.23246464
-0.17473133 -0.014434063 0.12929481 0.04814098 0.24682112 0.22517774 0.016553387 -0.21912646
-0.06800466 -0.008876824 -0.052132796 0.0044905078 -0.0707117 0.16352773 -0.14438702 0.08359167
0.044354483 0.03130039 -0.1789009 0.13392062 0.0070923595 -0.22360906 0.07620067 -0.019538045
00000000: 62fe 7e3e d192 f63d 0e0f 3d3e a69c ad3d
00000010: 4867 383e 9411 dabd f52c 413e 602a 41be
00000020: 92e6 72be 18fb a03d 7126 f7bd 787e 5b3e
00000030: 5b5f 893d dc77 983d f154 62be 1e8b 18bd
00000040: 7a6a babd d3d6 6d3e 2139 0f3e 5c5d d6bb
00000050: 0851 393e 4dd0 09bd 5668 10be b39b 6c3e
00000060: 425d 73bd c4ed fbbd f098 593e c15c 7abe
00000070: 3402 11be 4c24 56be 9e03 c83b 77d6 04bd
00000080: a109 92bd 5d5b 4cbd bd0a 713e 2d5e b9bd
00000090: 046b 573e 66c2 35be 5f54 653e 24dd 6e3e
000000a0: 9b80 16bd 080b acbd 4d65 59bd 31a2 e33d
000000b0: ed76 f03d 3465 593e 91a1 08bd 51c9 13bd
000000c0: 4e5d 373d ad39 403d 5c18 293e f4ea 59be
000000d0: 5239 28be fdef a9bd 2eca 633d 46e8 44bd
000000e0: a238 3abe bc38 1e3e 66a0 543e da1b a03d
000000f0: 4c4c 2a3e ab52 40bc 7e86 393e 3e7c 6ebe
00000100: da4e 373e 04d1 483e 5345 3dbe 7a3d 69bd
00000110: 2016 b3bd 1304 f63d eeb6 07be 362c 7cbd
00000120: 0935 5ebe 15cf 2cbe c985 3dbe a647 55be
00000130: c2f8 1dbe a0b9 363c ac26 5abd 5e35 8cbd
00000140: 490c 1ebe 2140 64be 511a f6bd 2b22 c6bd
00000150: 683f 60be f1c8 3ebe 4d84 eb3d 301e 2abd
00000160: e765 843d b508 0ebe 5e85 2e3d 3874 00be
00000170: c04a c53d 07e9 fbbd b70b 2f3d a344 133e
00000180: 5c9d 5abe 3673 613e 175f 3abe 851f 4fbe
00000190: d490 8c3d 8e3e d53d 6332 35be be67 4c3e
000001a0: e05b 84bc 94b3 77be 6854 55be 22f9 0b3e
000001b0: 703f 7bbe 7f42 1fbe d8e8 1fbe 254b 933c
000001c0: f0c6 1dbe 15d1 7ebe aa0a 0b3e 6b42 cabd
000001d0: 7cd1 42be c89d 703d 759c 3b3e 68e2 203e
000001e0: 2b49 213e 70b1 6c3e 924f 563e 502e 31be
000001f0: 9f82 1d3e 7be3 abbb 1383 d13d 9a1b 0abd
00000200: d0c0 7e3c 9cf6 de3d 0cfa 09bd 5824 793d
00000210: 50ef 47be c468 04be 3adf c8bc 5b52 74be
00000220: 03dd a6bd 0b90 5a3e de9d 91bd 3c6b 4a3e
00000230: db0d e53c b7ee 403e f2e0 c1bd 58a3 cebc
00000240: f5e5 453e e68e 79be 4503 1cbe b0fd 4abe
00000250: 92c1 32be 2db4 2abd 0a33 3abd 2810 49be
00000260: 4612 213e 554d 50be a04c 6b3e 9db3 0cbe
00000270: 1348 403e ffc1 43be cb91 b93d ddea e33d
00000280: 663c 61be b488 af3d 30c8 7dbc 8ee4 12be
00000290: 2c40 7f3e 813a 9d3d e026 173e d65b 953d
000002a0: afe2 713e c5bf efbd 1e41 e9bd 7e36 99b9
000002b0: a291 34be 0fa8 2a3d 275d 27be e38c d2bd
000002c0: 31b7 093e 79a4 7abe b801 2ebe ddfc 73be
000002d0: 3056 34bd 8c9e 293e 8b22 00bc 381a 803d
000002e0: 248c 3ebd a63b 14be d7ee 483e 321e 5cbc
000002f0: 4498 6e3e bac4 6b3e 79ff 093e 5b00 58be
00000300: a4f9 00be 8b0a fdbd 0857 5fbd 4e9c 06bc
00000310: 10a3 ac3c a9a9 e83c 2630 cd3c 2929 2cbe
00000320: 719d 323e 275b d43d ce61 12be 01f4 56bd
00000330: cf5a ec3d f6ac 4b3e 807b 25be 3d7f 37bd
00000340: 8226 62be f950 4bbe 787f 2b3e ced2 1fbe
00000350: 4061 793d 4436 32be 6b41 f9bc a994 5abe
00000360: c3b9 4dbe f405 afbd 1af4 21be dee6 493e
00000370: 0b47 7dbd 9124 073d fd98 2b3e 008e 793a
00000380: 14c1 443e 45bd 263e 713e 40be 3193 03bd
00000390: 1a2e 443e 71ea f03d e9ff 543e 360b 6ebe
000003a0: c5ec 32be d97c 6cbc dc65 043e 7a2f 453d
000003b0: adbe 7c3e fe94 663e f89a 873c b062 60be
000003c0: 0746 8bbd 1970 11bc 3389 55bd 1c25 933b
000003d0: 4cd1 90bd d073 273e 31da 13be 1c32 ab3d
000003e0: 0cad 353d d634 003d cc31 37be 7d22 093e
000003f0: 0667 e83b c6f9 64be 190f 9c3d 400e a0bc

fc2.bias f4 [32]
0.1555193 0.011020897 0.25066113 0.115382224 -0.23212855 0.12737003 0.20830122 -0.17892867
-0.20975038 0.2501116 -0.24421066 -0.19726089 0.13928616 0.017085422 -0.11735626 -0.011743589
-0.049383428 0.17818175 0.14510351 -0.06711237 -0.12000794 0.2329578 -0.07594283 0.10912585
-0.1398747 0.20334472 -5.2666082e-06 -0.09153531 0.19219166 0.19620961 0.19313769 0.021945352
00000000: 7440 1f3e fe90 343c a856 803e 844d ec3d
00000010: 1bb3 6dbe 4a6d 023e ea4c 553e 1439 37be
00000020: cec8 56be a10e 803e 5c12 7abe c2fe 49be
00000030: 08a1 0e3e baf6 8b3c 7b58 f0bd 2f68 40bc
00000040: 4746 4abd 4775 363e 0496 143e 3672 89bd
00000050: b9c6 f5bd 7d8c 6e3e ea87 9bbd 607d df3d
00000060: 503b 0fbe 9939 503e d2b7 b0b6 dd76 bbbd
00000070: e4cd 443e 2ceb 483e e3c5 453e bdc6 b33c

fc3.weight f4 [64, 32]
-0.092124626 -0.09710525 0.01043662 0.068201244 -0.0921696 -0.038417798 -0.14731956 -0.13142417
-0.045791317 -0.12115316 -0.10641507 -0.119300954 -0.032948405 -0.056037106 0.05584549 0.013162848
-0.03414158 0.084604494 0.009084034 0.15949558 0.00019353742 -0.14650925 -0.107352875 -0.09288636
-0.12395073 -0.13284926 -0.09175854 -0.12347126 -0.04281211 -0.17115353 -0.06729818 -0.021106303
0.11061877 -0.053719617 -0.12750818 0.051180523 -0.09160479 0.12772383 0.12432816 -0.11448023
0.08245857 0.077916704 -0.044577274 -0.0042980057 -0.15700708 -0.15869132 -0.09616082 -0.054529786
-0.10212277 -0.03399216 -0.1164163 -0.11059363 0.011135203 0.1595 0.030570602 -0.059702702
0.018480154 -0.035593566 0.16495264 0.03632097 0.05650489 0.00464669 -0.15881366 0.10576574
0.05715115 0.15971042 -0.020404223 0.07427958 0.09406449 -0.06795831 -0.06277718 -0.116862446
0.059325125 -0.09470333 -0.11338446 -0.057600453 0.17644441 -0.095652476 0.16047089 0.13046135
0.0617268 0.12505665 0.08028875 -0.15337546 -0.016981654 0.1419146 -0.019497972 0.033797607
0.06618474 -0.06676475 -0.053488996 0.0958352 -0.17021656 0.10419333 -0.080100626 -0.1659332
-0.1654524 0.04416001 0.0768642 0.07817489 -0.08919274 -0.0003184961 0.15841353 0.05948565
0.107658155 -0.16415407 -0.1334115 -0.1738569 0.13171835 0.047561955 0.083067834 -0.01416112
0.16594934 0.102524236 -0.16355771 0.04969863 0.030029071 -0.127092 0.14456868 -0.042066164
0.13743657 -0.08105405 -0.17627 0.03994256 0.15073922 0.03817547 0.093725674 -0.067764945
-0.12065611 0.11373736 0.08707951 0.14667566 0.1086888 -0.080970265 -0.08180239 0.15666457
0.036599994 -0.082061 0.124177516 -0.113816544 -0.12486871 0.07106499 0.058764327 0.123620085
-0.1475179 -0.042293 0.0043531796 -0.008846119 -0.12269712 0.12595996 -0.02489957 -0.033115413
0.0068993624 0.005620691 0.10496963 -0.084355354 0.12524335 -0.06890072 0.060732875 -0.1373934
-0.08664619 -0.03724379 -0.16300943 -0.09148956 -0.1408006 0.10647276 -0.050952636 -0.063436076
0.12266874 -0.10322281 -0.10512575 0.16399458 0.05676362 0.06530374 0.13202892 0.035770893
-0.14158699 -0.016469609 0.13753846 0.05084734 -0.073307075 -0.038038846 0.10979745 -0.01877178
-0.09729024 -0.16134813 0.13480878 0.11505498 0.047716137 0.0012770382 -0.08184237 0.0015371151
0.026851248 -0.17064893 -0.013407138 -0.05959583 -0.0766391 0.03745739 0.07003475 -0.16660735
-0.13427036 -0.15438454 0.06392364 0.020030634 0.09575499 -0.034046844 -0.036686897 0.14990231
-0.13109109 -0.10555779 0.10850066 -0.09960792 0.15413316 0.010532466 -0.15302552 0.14940433
-0.05242644 0.1455086 -0.08127553 -0.12499238 0.107954316 0.13618611 0.09746238 -0.12912866
0.10373408 -0.13860263 -0.023241382 0.10408825 -0.023002546 0.14423656 -0.055165347 0.100406334
-0.17349048 -0.14612553 0.11311777 -0.056018014 -0.08017043 0.14094503 -0.1632399 0.019638868
0.099682145 -0.07171043 -0.09593148 -0.10314301 -0.046525512 0.07089015 0.13038677 0.09171021
0.12581132 0.07172423 0.14662622 -0.08635451 -0.16022205 0.17143889 0.012090058 -0.13104044
00000000: d6ab bcbd 1edf c6bd 5bfe 2a3c 18ad 8b3d
00000010: 6ac3 bcbd fb5b 1dbd f0da 16be 0f94 06be
00000020: ad8f 3bbd 261f f8bd 25f0 d9bd 0f54 f4bd
00000030: e8f4 06bd 2a87 65bd 3ebe 643d fca8 573c
00000040: 0bd8 0bbd 1f45 ad3d 33d5 143c cf52 233e
00000050: 4ef0 4a39 8506 16be d3db dbbd 343b bebd
00000060: e1d9 fdbd a309 08be e7eb bbbd 80de fcbd
00000070: c05b 2fbd df42 2fbe a1d3 89bd 20e7 acbc
00000080: 188c e23d 1a09 5cbd 8191 02be aba2 513d
00000090: 4b9b bbbd 09ca 023e c39f fe3d 9c74 eabd
000000a0: 0ae0 a83d cb92 9f3d a996 36bd 49d6 8cbb
000000b0: 77c6 20be fa7f 22be f7ef c4bd a05a 5fbd
000000c0: be25 d1bd 5d3b 0bbd ab6b eebd ea7e e2bd
000000d0: 6d70 363c f853 233e 336f fa3c d28a 74bd
000000e0: b163 973c 8fca 11bd 58e9 283e 4cc5 143d
000000f0: ac71 673d 4343 983b 0ca0 22be b59b d83d
00000100: 5317 6a3d 218b 233e c226 a7bc e41f 983d
00000110: e2a4 c03d ba2d 8bbd 5291 80bd 9455 efbd
00000120: e7fe 723d d2f3 c1bd 1d36 e8bd 74ee 6bbd
00000130: d8ad 343e 72e5 c3bd 7b52 243e a997 053e
00000140: 3ed5 7c3d da0e 003e 6e6e a43d 750e 1dbe
00000150: 1c1d 8bbc 1052 113e 36ba 9fbc 5c6f 0a3d
00000160: dd8b 873d f5bb 88bd 4717 5bbd 3f45 c43d
00000170: 404d 2ebe 5063 d53d cc0b a4bd 65ea 29be
00000180: 5b6c 29be 20e1 343d fa6a 9d3d 281a a03d
00000190: afaa b6bd d3fb a6b9 2837 223e 3aa7 733d
000001a0: e17b dc3d 0118 28be 069d 08be 8b07 32be
000001b0: 2de1 063e 53d0 423d 781f aa3d 0b04 68bc
000001c0: a0ee 293e 3af8 d13d ac7b 27be ca90 4b3d
000001d0: 87ff f53c 6824 02be d009 143e 924d 2cbd
000001e0: 2cbc 0c3e aaff a5bd 1f80 34be cf9a 233d
000001f0: 625b 1a3e e25d 1c3d 3ff3 bf3d 59c8 8abd
00000200: 8d1a f7bd 22ef e83d be56 b23d 2532 163e
00000210: 3c98 de3d bdd3 a5bd 0388 a7bd ad6c 203e
00000220: e0e9 153d 990f a8bd c850 fe3d a618 e9bd
00000230: 2bbb ffbd 858a 913d ddb2 703d 872c fd3d
00000240: ef0e 17be 6d3b 2dbd 1ea5 8e3b 50ef 10bc
00000250: a148 fbbd a6fb 003e 2ffa cbbc 07a4 07bd
00000260: 0c14 e23b c62d b83b 51fa d63d 80c2 acbd
00000270: cb3f 003e d21b 8dbd 09c3 783d dbb0 0cbe
00000280: 8f73 b1bd f28c 18bd f2eb 26be e15e bbbd
00000290: 082e 10be 640e da3d b6b3 50bd c6ea 81bd
000002a0: c039 fb3d 7b66 d3bd 2b4c d7bd 32ee 273e
000002b0: f880 683d f8bd 853d 9732 073e 8084 123d
000002c0: 2efc 10be 46eb 86bc e2d6 0c3e 4d45 503d
000002d0: 0522 96bd 9fce 1bbd 7cdd e03d 47c7 99bc
000002e0: 1b40 c7bd 7238 25be 500b 0a3e f2a1 eb3d
000002f0: ff71 433d 4b62 a73a f99c a7bd 0679 c93a
00000300: 26f7 db3c 98be 2ebe 9da9 5bbc c21a 74bd
00000310: f6f4 9cbd ec6c 193d 616e 8f3d 1e9b 2abe
00000320: 2b7e 09be fb16 1ebe 66ea 823d 4917 a43c
00000330: 311b c43d b474 0bbd 0045 16bd fe7f 193e
00000340: be3c 06be af2e d8bd 9835 de3d 3dff cbbd
00000350: 15d5 1d3e 5d90 2c3c b9b2 1cbe 73fd 183e
00000360: 1bbd 56bd 3500 153e c973 a6bd 01fc ffbd
00000370: 2717 dd3d 5f74 0b3e 5b9a c73d 4e3a 04be
00000380: 8972 d43d d9ed 0dbe b664 bebc 382c d53d
00000390: d66f bcbc c0b2 133e 0ff5 61bd d6a1 cd3d
000003a0: 7da7 31be eea1 15be 4aaa e73d 2573 65bd
000003b0: 6530 a4bd e553 103e 5c28 27be b1e1 a03c
000003c0: 2726 cc3d ebdc 92bd b977 c4bd a43c d3bd
000003d0: 8991 3ebd db2e 913d 1c84 053e 90d2 bb3d
000003e0: afd4 003e 27e4 923d 2f25 163e a2da b0bd
000003f0: 4011 24be ad8d 2f3e 6115 463c 772f 06be

fc3.bias f4 [64]
-0.09826149 -0.137751 -0.07583934 -0.16223091 -0.043009907 0.04624541 0.073859386 -0.038728546
-0.10274292 0.012823982 0.031334348 0.028844273 -0.075754344 -0.06701312 0.026493343 -0.13457035
-0.15597059 0.0671695 0.04474438 -0.17277648 -0.15186913 0.07629223 0.051408615 0.14342436
-0.047168594 0.134128 0.043843422 0.16605668 0.08169191 -0.09911027 -0.068471014 -0.06943566
0.16295269 0.13125077 -0.11159216 -0.08561778 0.000985412 -0.073007405 0.03190498 0.07524331
-0.11290685 -0.08163309 0.14840204 0.15116544 0.1263582 0.07465663 -0.13756256 -0.1593522
-0.031377643 0.009739927 -0.13008684 0.16859505 -0.17137729 -0.037705686 -0.11291267 0.09114189
0.040410034 -0.04264621 -0.005554256 -0.1689035 -0.10153512 -0.104755506 -0.09150949 -0.08111081
00000000: 523d c9bd 990e 0dbe a851 9bbd dc1f 26be
00000010: 282b 30bd d46b 3d3d 9743 973d d3a1 1ebd
00000020: e16a d2bd ae1b 523c 7258 003d d34a ec3c
00000030: 1825 9bbd 2d3e 89bd 9108 d93c cfcc 09be
00000040: c1b6 1fbe 2a90 893d e245 373d 51ec 30be
00000050: 9583 1bbe 1a3f 9c3d d791 523d d6dd 123e
00000060: db33 41bd da58 093e 2995 333d c30a 2a3e
00000070: 174e a73d 53fa cabd 883a 8cbd 4934 8ebd
00000080: 12dd 263e 9a66 063e 6e8a e4bd 6058 afbd
00000090: f128 813a e884 95bd ccae 023d 2a19 9a3d
000000a0: b53b e7bd 402f a7bd b4f6 173e 1dcb 1a3e
000000b0: 0b64 013e 93e5 983d 33dd 0cbe 392d 23be
000000c0: d885 00bd 3794 1f3c 7c35 05be 2ea4 2c3e
000000d0: 877d 2fbe 4771 1abd c23e e7bd 99a8 ba3d
000000e0: fe84 253d cbad 2ebd 7a00 b6bb 0af5 2cbe
000000f0: a5f1 cfbd 0e8a d6bd 5469 bbbd 6d1d a6bd

fc4.weight f4 [128, 64]
-0.046609387 0.06398465 -0.1218789 -0.10109969 -0.060465433 -0.099290006 -0.10030019 0.03471096
-0.09777517 -0.010860015 -0.012878755 0.027251216 0.064242795 0.023803245 0.12469298 0.07668136
0.12265241 -0.016829105 -0.11891691 0.021934034 -0.08632161 0.009907449 0.06274523 0.0878546
-0.025751159 -0.06248687 -0.030050645 -0.069438174 0.1199587 0.054639667 -0.038944997 -0.11009748
0.027262243 0.04607656 -0.083305955 0.022090172 0.017321661 0.1048636 -0.055212583 0.030677259
-0.12313498 -0.110413104 0.06449902 0.05103561 0.059186835 -0.10297543 -0.023917232 -0.019788055
0.09625442 -0.072589315 0.026261121 -0.09357722 0.050369985 0.08896685 0.04590343 -0.023085423
0.020425191 0.11335032 -0.08953516 -0.020139309 0.10617531 -0.051907554 0.05834389 -0.039905008
0.0074239937 -0.02418382 -0.09808649 -0.0078020077 0.08576541 0.118078075 0.039558455 0.105367504
-0.10658301 -0.11500916 -0.045283888 -0.09486612 -0.066617526 -0.0077476446 0.03824216 0.08241175
-0.04387298 0.06365208 0.097258136 -0.05732613 -0.021537071 -0.074125566 -0.11293343 -0.06954395
-0.075199574 -0.10011814 0.054653812 -0.015885463 0.012690846 0.11959557 -0.0056857313 -0.12337839
-0.0050258557 -0.0162311 0.03780509 0.07358216 -0.055575445 0.080423295 -0.065589465 0.07826539
-0.006437438 -0.08197989 -0.05603854 0.109616235 0.01791537 0.042898446 0.09606436 -0.102909535
0.038062695 0.08714875 -0.05326227 -0.084078506 -0.014091494 0.088327676 0.012678754 0.008453619
-0.057491295 0.04167965 0.0446175 0.039948806 0.009837002 0.014895519 0.008621901 0.08486543
-0.05494936 0.023387674 0.0011078869 0.06895794 0.016710842 -0.0037281658 0.044871453 -0.092274174
0.027158068 -0.0079508005 0.013814843 -0.11326094 0.103679016 0.07643862 -0.08138022 -0.112766825
-0.041326977 0.018902829 -0.0093369605 -0.011554838 0.050574124 -0.07054432 -0.07269387 0.02588305
-0.08084733 -0.10857972 0.07283731 0.10067356 0.042863645 -0.06420655 -0.022288894 -0.021555156
-0.041695878 0.038506296 0.10382038 0.006180956 -0.08983671 0.12312829 0.04282254 -0.1162367
-0.02698237 -0.017157363 -0.068000615 -0.016417814 -0.044970088 0.022899855 0.10338519 -0.1177067
0.0611307 0.12142997 -0.09391129 0.02584827 0.06638592 0.058379978 -0.063762344 -0.073604845
-0.021659276 0.105835 0.07110059 -0.10842744 0.112052046 -0.041139733 -0.11727405 0.024544692
0.019297654 -0.012994724 -0.018132515 -0.03351526 -0.115981914 0.015686907 -0.054660343 -0.034939427
-0.088064104 0.05955796 -0.034974575 -0.03950898 -0.081212915 0.11709475 -0.039613083 0.018310398
-0.014977176 -0.12039509 -0.103635706 -0.11530279 -0.02396527 -0.011213151 0.06112479 0.10896563
-0.10851116 -0.11307974 0.053268645 0.104593605 0.005432406 0.0039062737 0.029880323 -0.0074192923
0.08679489 0.0016328328 -0.12102317 -0.0324224 0.040374313 0.034703262 -0.11533873 0.031646598
-0.09112501 -0.033411115 -0.08037351 0.1172982 -0.08213854 0.10588334 0.011954755 0.096446134
-0.121406496 -0.07720267 -0.053901594 0.011226038 0.11029959 -0.014095494 -0.08363895 0.12312549
-0.11016432 -0.044871353 -0.04861237 -0.0027033438 -0.00031489707 0.04654919 0.020805685 -0.06174166
00000000: 7ce9 3ebd 620a 833d a59b f9bd 5b0d cfbd
00000010: 9aaa 77bd 8f58 cbbd 306a cdbd 142d 0e3d
00000020: 593e c8bd 34ee 31bc 6a01 53bc f13d df3c
00000030: ba91 833d 06ff c23c 085f ff3d 1e0b 9d3d
00000040: 3031 fb3d 31dd 89bc b58a f3bd 01af b33c
00000050: 62c9 b0bd da52 223c 9280 803d 1ded b33d
00000060: 18f4 d2bc 3bf2 7fbd c52c f6bc 9a35 8ebd
00000070: e8ac f53d d8cd 5f3d ca84 1fbd ca7a e1bd
00000080: 1155 df3c c6ba 3c3d 509c aabd 73f6 b43c
00000090: 28e6 8d3c bac2 d63d 9726 62bd e04e fb3c
000000a0: 312e fcbd 4420 e2bd 1018 843d b70a 513d
000000b0: e56d 723d c8e4 d2bd 12ee c3bc 8f1a a2bc
000000c0: 0a21 c53d b5a9 94bd 9021 d73c 6aa5 bfbd
000000d0: c250 4e3d 4034 b63d 3c05 3c3d a41d bdbc
000000e0: bb52 a73c 3624 e83d 365e b7bd 31fb a4bc
000000f0: 7172 d93d 049d 54bd 01fa 6e3d 6f73 23bd
00000100: f944 f33b 251d c6bc 92e1 c8bd fca7 ffbb
00000110: c6a5 af3d ebd2 f13d 0c08 223d ebca d73d
00000120: 3148 dabd ec89 ebbd 997b 39bd 2b49 c2bd
00000130: c56e 88bd f4df fdbb d0a3 1c3d 7ec7 a83d
00000140: 27b4 33bd 065c 823d 462f c73d cece 6abd
00000150: 836e b0bc 25cf 97bd a449 e7bd 0f6d 8ebd
00000160: 3c02 9abd bd0a cdbd addc 5f3d 3b22 82bc
00000170: 44ed 4f3c 86ee f43d 5f4f babb cfad fcbd
00000180: efaf a4bb 15f7 84bc 83d9 1a3d 3eb2 963d
00000190: 14a3 63bd f8b4 a43d c553 86bd 9b49 a03d
000001a0: 25f1 d2bb 13e5 a7bd ab88 65bd 7a7e e03d
000001b0: 41c3 923c 48b6 2f3d 64bd c43d 3cc2 d2bd
000001c0: a1e7 1b3d 0b7b b23d 8a29 5abd 5a31 acbd
000001d0: 02e0 66bc 24e5 b43d 8cba 4f3c 0c81 0a3c
000001e0: fe7b 6bbd 48b8 2a3d d7c0 363d 5ca1 233d
000001f0: 602b 213c 560c 743c e042 0d3c edcd ad3d
00000200: 9512 61bd 8297 bf3c 8436 913a d239 8d3d
00000210: 2de5 883c 3e54 74bb 21cb 373d 3efa bcbd
00000220: 997a de3c 1344 02bc a757 623c 5af5 e7bd
00000230: aa55 d43d da8b 9c3d acaa a6bd 4bf2 e6bd
00000240: 7a46 29bd 1bda 9a3c 0dfa 18bc 8150 3dbc
00000250: d026 4f3d 8a79 90bd 86e0 94bd b108 d43c
00000260: 4993 a5bd 0b5f debd ba2b 953d f02d ce3d
00000270: ca91 2f3d b97e 83bd 3397 b6bc 7094 b0bc
00000280: 4cc9 2abd c7b8 1d3d c89f d43d 9e89 ca3b
00000290: 4ffc b7bd af2a fc3d b066 2f3d 820d eebd
000002a0: 220a ddbc 998d 8cbc e843 8bbd a77e 86bc
000002b0: 8e32 38bd 7a98 bb3c 9dbb d33d 3610 f1bd
000002c0: 2f64 7a3d 47b0 f83d 9054 c0bd c0bf d33c
000002d0: 57f5 873d d81f 6f3d d595 82bd 23be 96bd
000002e0: cb6e b1bc 05c0 d83d 309d 913d 350f debd
000002f0: 8b7b e53d 2382 28bd 612d f0bd f311 c93c
00000300: 1d16 9e3c d3e7 54bc a48a 94bc 4c47 09bd
00000310: ed87 edbd d481 803c 86e3 5fbd a51c 0fbd
00000320: f45a b4bd 0cf3 733d 8041 0fbd 2bd4 21bd
00000330: f552 a6bd 5fcf ef3d 5441 22bd b0ff 953c
00000340: d462 75bc b391 f6bd f53e d4bd df23 ecbd
00000350: d052 c4bc 5db7 37bc fd5d 7a3d 5f29 df3d
00000360: 193b debd 5a96 e7bd 3930 5a3d 2c35 d63d
00000370: 5302 b23b 3300 803b 94c7 f43c 891d f3bb
00000380: 85c1 b13d c704 d63a ffda f7bd 5acd 04bd
00000390: 895f 253d 0225 0e3d b636 ecbd dd9f 013d
000003a0: c09f babd 18da 08bd de9a a4bd 0a3a f03d
000003b0: 4038 a8bd 5dd9 d83d e0dd 433c 8d85 c53d
000003c0: f8a3 f8bd 6f1c 9ebd ebc7 5cbd 6bed 373c
000003d0: c0e4 e13d c9f0 66bc e64a abbd 3829 fc3d
000003e0: d59d e1bd 06cb 37bd c41d 47bd 952a 31bb
000003f0: c518 a5b9 5daa 3e3d af70 aa3c d3e4 7cbd

fc4.bias f4 [128]
-0.08701448 -0.07467045 -0.116148405 -0.038169667 -0.003947019 -0.016644025 0.095499545 0.100767165
0.110787354 -0.09815599 0.03799057 0.040690433 -0.05791177 -0.044434674 0.03173721 0.07781596
-0.038736444 -0.06979129 -0.0068795946 -0.024791617 -0.109161936 -5.801149e-05 0.054128014 -0.05552424
-0.11302241 -0.11712131 0.081630096 -0.01923934 -0.09347388 0.10310319 -0.031364746 0.09268862
0.1065533 0.0017198428 0.090408176 0.0019497422 -0.040738318 0.113002196 -0.051277258 -0.01885191
-0.04348268 -0.055803426 -0.08950343 0.098452255 0.05550339 -0.06616624 0.029820064 -0.09123685
0.061710097 0.026938733 -0.06035005 -0.01827027 -0.09331089 0.014429914 0.10364266 0.06685824
-0.07235129 -0.047384717 -0.057690278 -0.0061466824 -0.06400829 0.04865264 -0.038556322 0.013127915
0.078957096 0.008611183 0.0627882 0.0017188763 0.024987277 -0.11329403 0.086097464 0.008852197
0.0011605279 -0.064050995 0.08015917 0.07881204 -0.010822082 0.09199614 0.017079083 -0.105430104
0.104705095 -0.046295147 0.033214 -0.06884438 -0.02561828 0.04709299 0.105019085 0.029545266
-0.07694629 -0.0014275853 -0.10326086 -0.10412821 0.0894718 0.04851504 -0.0025190548 0.10688424
-0.05727297 0.010387032 -0.026261872 -0.022251835 -0.08318793 -0.07690607 0.102585725 0.003877011
-0.047442045 -0.03917691 -0.10806816 0.054628722 0.05981604 -0.076249816 0.067423314 -0.11079192
-0.07823312 -0.059787102 0.023877244 0.11385637 0.03291271 0.122439995 -0.06639408 -0.017155554
0.010465584 0.06014649 -0.04771179 -0.08542228 0.086843014 0.03712853 0.015765367 -0.0797247
00000000: a634 b2bd d2ec 98bd 37df edbd cc57 1cbd
00000010: ff55 81bb 0d59 88bc 4495 c33d 045f ce3d
00000020: 7be4 e23d 0206 c9bd 009c 1b3d 03ab 263d
00000030: e434 6dbd 2201 36bd e0fe 013d f95d 9f3d
00000040: 1baa 1ebd bcee 8ebd 396e e1bb ca17 cbbc
00000050: 4b90 dfbd 5d51 73b8 56b5 5d3d 636d 63bd
00000060: 4b78 e7bd 4cdd efbd ae2d a73d d29b 9dbc
00000070: 3c6f bfbd c427 d33d 5278 00bd 88d3 bd3d
00000080: 9e38 da3d 596c e13a ec27 b93d 7e8e ff3a
00000090: 39dd 26bd b26d e73d 1a08 52bd 526f 9abc
000000a0: e51a 32bd 2292 64bd 934d b7bd 56a1 c93d
000000b0: 8657 633d 2a82 87bd 3549 f43c 63da babd
000000c0: bac3 7c3d 9eae dc3c 9d31 77bd 89ab 95bc
000000d0: c819 bfbd 726b 6c3c 9a42 d43d f9ec 883d
000000e0: ea2c 94bd 7a16 42bd a44c 6cbd 1c6a c9bb
000000f0: c716 83bd fe47 473d 3ced 1dbd 7716 573c
00000100: 42b4 a13d eb15 0d3c 1a97 803d eb4b e13a
00000110: 1eb2 cc3c b306 e8bd de53 b03d ce08 113c
00000120: db1c 983a 2b2d 83bd 7e2a a43d 3568 a13d
00000130: 1a4f 31bc 7968 bc3d 6fe9 8b3c bdeb d7bd
00000140: a06f d63d fb9f 3dbd 670b 083d 48fe 8cbd
00000150: 6ddd d1bc 94e4 403d 3f14 d73d ea08 f23c
00000160: 0496 9dbd d01d bbba 6e7a d3bd 2c41 d5bd
00000170: fe3c b73d b5b7 463d ba16 25bb 20e6 da3d
00000180: 1097 6abd 5f2e 2a3c 2323 d7bc 7b49 b6bc
00000190: 6f5e aabd ee80 9dbd 7718 d23d 7315 7e3b
000001a0: 9752 42bd f877 20bd d752 ddbd 5ec2 5f3d
000001b0: aa01 753d dd28 9cbd 3c15 8a3d e0e6 e2bd
000001c0: b038 a0bd 52e3 74bd 369a c33c 872d e93d
000001d0: 7acf 063d d2c1 fa3d 9ff9 87bd ce89 8cbc
000001e0: d777 2b3c 2a5c 763d 706d 43bd e0f1 aebd
000001f0: c0da b13d 1614 183d 5f26 813c b446 a3bd

fc5.weight f4 [64, 128]
0.07171015 -0.05338688 0.047210783 0.01637807 0.05227725 -0.03402646 -0.046579108 -0.06066777
-0.036337472 0.049856063 -0.011419224 0.048319448 0.02163119 0.05077516 -0.024563616 0.06000858
-0.06385783 0.019549347 0.019561257 -0.057502903 0.07910156 -0.014428604 0.0862821 0.057496265
0.0065909815 0.08128203 -0.0060660215 0.04632917 -0.06450174 0.0865789 -0.03873604 -0.019707823
-0.072423846 -0.005687081 -0.044179026 0.012120288 -0.053378034 0.019450191 0.04227162 0.057893865
0.007380696 -0.08402877 0.08633742 -0.044420015 0.08264776 0.07997342 -0.06856292 -0.023686927
-0.031111876 -0.083221644 0.056270555 0.07612504 0.006748311 -0.08531821 0.07785646 0.07392631
0.006250368 0.03347099 0.04751953 0.037223767 0.03915145 -0.0037343376 0.0034472498 -0.02477961
0.06024461 -0.060294002 -0.04163573 0.010161362 -0.06220195 0.045253802 -0.020965239 -0.042261872
0.073966436 -0.05608387 -0.062868886 -0.02974253 -0.021395586 -0.04969404 0.006714396 0.036419984
0.06101013 -0.042656805 0.07556852 -0.06076223 0.049320582 0.049598083 0.022312665 -0.02472976
-0.06003329 -0.0575972 -0.08237942 0.045980055 -0.017896907 0.06059873 0.057868253 0.01500258
-0.07060856 0.067731075 -0.031882577 -0.041231915 0.045035873 -0.011689202 -0.08350597 -0.04895071
0.008909253 -0.0798857 0.072726026 0.0010263824 0.063007176 -0.003136141 -0.040452376 0.018166479
0.0072603994 0.055915922 0.0037962203 -0.007145157 0.008876552 0.00917677 0.021493232 0.017605692
0.042729057 -0.014936581 0.08088333 -0.029469496 -0.029738292 -0.08265878 0.018335242 0.047153268
-0.023441853 -0.035186276 -0.028511746 -0.06567158 0.025736706 0.04081977 0.04561086 -0.004325404
0.009225635 -0.06043777 -0.078577355 -0.024530137 0.043075286 -0.03333111 -0.07080312 -0.05084487
-0.009556307 -0.05694387 0.076933116 0.048878927 0.04449598 0.025921667 0.074852586 -0.042664975
0.06274993 -0.023581672 -0.024932217 -0.012445643 -0.027868608 0.05435612 0.036232203 0.047226727
0.03048189 -0.038904183 0.01624715 0.069997676 0.061244227 -0.055274807 -0.029520161 0.056877784
-0.05468633 -0.07653498 0.032915 -0.0075202556 0.022226427 -0.0042335144 -0.088148415 -0.070597045
0.006117731 -0.024579728 0.009378296 -0.051205847 -0.01997727 -0.072578646 0.04636893 -0.08618972
0.0750034 -0.064965665 -0.03631544 0.031783655 -0.057736438 0.0643191 0.0012083877 -0.0094723385
0.060835145 -0.026342535 -0.0014456287 0.07056491 0.06808891 -0.05082644 -0.01581018 0.04723756
-0.0514774 0.07590973 -0.08466988 -0.050905928 0.033755124 -0.031811263 -0.0466646 0.033914316
0.010231892 0.06963424 0.009034341 0.065809324 -0.07587135 0.0067714895 -0.051731724 0.003341767
0.0019131016 0.002973918 0.067945905 0.011801822 -0.037352514 0.044440057 -0.020553647 -0.030178647
0.035719663 -0.02218631 0.0690889 -0.043177634 -0.025117142 -0.01502845 -0.07800298 0.079610415
-0.05472458 -0.033809222 0.032770216 0.0018526237 -0.034684945 0.078713894 0.049771935 -0.081384234
-0.07909497 -0.00076145865 0.007388671 0.07881259 0.029624848 0.059084993 0.0130443 0.083093785
0.044796813 0.04061295 0.07949312 -0.04699441 0.06134852 0.012911795 0.03853998 0.077010304
00000000: c5dc 923d 33ac 5abd 1860 413d 4d2b 863c
00000010: ab20 563d 545f 0bbd bcc9 3ebd c57e 78bd
00000020: 9ad6 14bd df35 4c3d b217 3bbc 9dea 453d
00000030: e533 b13c 9df9 4f3d a339 c9bc 8fcb 753d
00000040: e5c7 82bd f425 a03c ee3e a03c 2a88 6bbd
00000050: 0000 a23d f465 6cbc abb4 b03d 3481 6b3d
00000060: 29f9 d73b 3177 a63d 7ac5 c6bb a8c3 3d3d
00000070: 7d19 84bd 4750 b13d afa9 1ebd 4d72 a1bc
00000080: f452 94bd b15a babb 11f5 34bd 2c94 463c
00000090: eda2 5abd 0256 9f3c 0225 2d3d 1e22 6d3d
000000a0: c4d9 f13b 4717 acbd acd1 b03d c3f1 35bd
000000b0: 3b43 a93d 1bc9 a33d b76a 8cbd 160b c2bc
000000c0: 55de febc 1c70 aabd f47b 663d 72e7 9b3d
000000d0: f020 dd3b 50bb aebd 3573 9f3d ad66 973d
000000e0: e3cf cc3b e018 093d d7a3 423d f377 183d
000000f0: 455d 203d cabb 74bb 41eb 613b 9cfe cabc
00000100: 0dc3 763d d8f6 76bd 3a8a 2abd d77b 263c
00000110: 79c7 7ebd 0d5c 393d 4bbf abbc c91a 2dbd
00000120: b77b 973d 33b8 65bd 67c1 80bd 9ba6 f3bc
00000130: cc45 afbc fa8b 4bbd 7004 dc3b 1f2d 153d
00000140: c2e5 793d e7b8 2ebd abc3 9a3d d1e1 78bd
00000150: 6104 4a3d 5c27 4b3d 0dc9 b63c 1196 cabc
00000160: 78e5 75bd 0beb 6bbd 8bb6 a8bd 9555 3c3d
00000170: 899c 92bc 6036 783d 4307 6d3d 62cd 753c
00000180: 399b 90bd 97b6 8a3d 4e97 02bd cce2 28bd
00000190: 8977 383d 1184 3fbc 2e05 abbd 8a80 48bd
000001a0: 1ef8 113c 1d9b a3bd 62f1 943d ae87 863a
000001b0: e809 813d b787 4dbb 64b1 25bd ded1 943c
000001c0: a5e8 ed3b 1808 653d 02ca 783b ec21 eabb
000001d0: f56e 113c 2a5a 163c 9312 b03c d039 903c
000001e0: aa04 2f3d 90b8 74bc 29a6 a53d 036a f1bc
000001f0: b89d f3bc 0249 a9bd ca33 963c c923 413d
00000200: 2109 c0bc 7c1f 10bd 7791 e9bc d27e 86bd
00000210: c9d5 d23c a232 273d 74d2 3a3d 1ebc 8dbb
00000220: 1e27 173c 988d 77bd 2aed a0bd 6df3 c8bc
00000230: b66f 303d 3486 08bd 3a01 91bd b642 50bd
00000240: 0f92 1cbc fa3d 69bd 1c8f 9d3d 4535 483d
00000250: 6b41 363d ad59 d43c 504c 993d 78c1 2ebd
00000260: 0983 803d 5a2e c1bc a63e ccbc cfe8 4bbc
00000270: b54c e4bc 86a4 5e3d 3868 143d d070 413d
00000280: 28b5 f93c fe59 1fbd be18 853c f15a 8f3d
00000290: 3adb 7a3d d667 62bd 44d4 f1bc aef8 683d
000002a0: c6fe 5fbd 5fbe 9cbd e1d1 063d 7a6c f6bb
000002b0: 3214 b63c 4bb9 8abb 2887 b4bd 2f95 90bd
000002c0: 3f77 c83b 6d5b c9bc 6da7 193c 39bd 51bd
000002d0: 5fa7 a3bc 1da4 94bd 59ed 3d3d 3c84 b0bd
000002e0: 629b 993d b80c 85bd 80bf 14bd 942f 023d
000002f0: 0b7d 6cbd bbb9 833d c362 9e3a de31 1bbc
00000300: 462e 793d 4dcc d7bc 407b bdba 5684 903d
00000310: 3372 8b3d 632f 50bd 5a84 81bc 2c7c 413d
00000320: f7d9 52bd 8f76 9b3d 6767 adbd bc82 50bd
00000330: d042 0a3d 874c 02bd 6123 3fbd bde9 0a3d
00000340: aaa3 273c 659c 8e3d c604 143c 0ac7 863d
00000350: 7062 9bbd 5fe3 dd3b a5e4 53bd 8c01 5b3b
00000360: 0ac1 fa3a 11e6 423b 3927 8b3d 6e5c 413c
00000370: f3fe 18bd c706 363d 1f60 a8bc 3639 f7bc
00000380: c84e 123d 10c0 b5bc 7b7e 8d3d 08db 30bd
00000390: 77c2 cdbc e339 76bc 07c0 9fbd c90a a33d
000003a0: e226 60bd 8a7b 0abd 103a 063d bcd3 f23a
000003b0: cd11 0ebd c034 a13d a8dd 4b3d c7ac a6bd
000003c0: 8bfc a1bd a09c 47ba aa1c f23b 7f68 a13d
000003d0: cfaf f23c 1b03 723d c2b7 553c 132d aa3d
000003e0: dd7c 373d c459 263d 4acd a23d 367d 40bd
000003f0: 9648 7b3d fe8b 533c 19dc 1d3d 94b7 9d3d

fc5.bias f4 [64]
-0.042692192 0.032026634 0.040582277 0.06796572 -0.020196069 0.042973533 0.0029498518 -0.076341525
0.028003708 -0.036198694 -0.032483675 0.06420876 -0.074660495 -0.049305726 -0.02410036 0.04260152
0.08627779 0.008900244 0.023948643 0.0073370887 -0.0060416367 0.034566693 -0.008817713 0.06229347
-0.060090985 0.08528999 0.0053511714 0.010572508 0.053678684 0.014675496 0.058830395 -0.003100072
0.06320766 0.0035939706 -0.015805496 -0.020615688 -0.03104988 -0.08545742 0.025122285 0.04238913
-0.071211964 0.044627566 0.028477069 -0.07261929 -0.057069425 -0.055198688 0.021164175 -0.029887
0.031752747 0.055051837 -0.047467485 -0.04014493 0.018980913 0.014276994 0.047064148 0.005972941
-0.054693293 0.0086709 -0.04722502 0.0264185 0.036797028 -0.043148898 -0.064784676 0.059663344
00000000: 02de 2ebd 5c2e 033d 9a39 263d 9d31 8b3d
00000010: 3a72 a5bc 0405 303d 4d52 413b f258 9cbd
00000020: 0868 e53c 1545 14bd 9a0d 05bd e27f 833d
00000030: 9ae7 98bd cdf4 49bd 1e6e c5bc ee7e 2e3d
00000040: 69b2 b03d 54d2 113c f22f c43c f66b f03b
00000050: ecf8 c5bb ce95 0d3d 2b78 10bc 7027 7f3d
00000060: f721 76bd 85ac ae3d e158 af3b 5038 2d3c
00000070: 2ede 5b3d 7e71 703c 24f8 703d 942a 4bbb
00000080: 0573 813d d288 6b3b 877a 81bc 3be2 a8bc
00000090: 515c febc 4d04 afbd 40cd cd3c 39a0 2d3d
000000a0: 94d7 91bd 65cb 363d be48 e93c 6cb9 94bd
000000b0: a1c1 69bd 0518 62bd 7e60 ad3c 95d5 f4bc
000000c0: 2b0f 023d 097e 613d 446d 42bd 036f 24bd
000000d0: dc7d 9b3c 0eea 693c 56c6 403d a9b8 c33b
000000e0: 1306 60bd 6410 0e3c 066f 41bd 9c6b d83c
000000f0: 7bb8 163d e6bc 30bd d4ad 84bd 8d61 743d
