models_submitted/less_loss-CNN_2L_FC_N400.pt (torch, 160817 bytes, 22 tensors)

conv1.weight f4 [32, 1, 1]
0	0x3f742db1	0.9538222
1	0x3f314c93	0.6925747
2	0x3f2dfc55	0.67963153
3	0x3f22aacc	0.63541865
4	0xbf397537	-0.7244448
5	0xbec711d1	-0.3888078
6	0x3e97826b	0.2959169
7	0xbe041657	-0.12899147
8	0x3ee88edc	0.45421493
9	0xbf505390	-0.81377506
10	0xbf12f0be	-0.57398593
11	0x3e8c13a9	0.2735875
12	0xbdfecbb3	-0.12441196
13	0xbf6ffa9c	-0.93741775
14	0x3d34891c	0.04407607
15	0xbeaaacd8	-0.33334994
16	0x3f2e0b03	0.6798555
17	0x3f2eb836	0.68249834
18	0x3f0191c0	0.5061302
19	0xbf79872d	-0.97471887
20	0x3f7c2048	0.9848676
21	0x3f64166b	0.8909671
22	0x3f342dad	0.70382196
23	0x3ef03f66	0.4692337
24	0xbf58d3f4	-0.84698415
25	0x3f39af2d	0.7253292
26	0x3d8e48c5	0.069474734
27	0x3eb0b754	0.34514868
28	0x3e8134bc	0.25235546
29	0x3f24f56c	0.64436984
30	0x3ef39bac	0.47579706
31	0x3f3a3a42	0.72745144

conv1.bias f4 [32]
0	0xbf01139f	-0.50420564
1	0x3f0558c0	0.52088547
2	0xbf678cf4	-0.9044945
3	0x3e8c4b23	0.27401075
4	0xbe72ae99	-0.23699416
5	0x3f28bd2f	0.6591367
6	0xbe87021c	-0.26368797
7	0x3ed69a14	0.41914427
8	0xbf49c779	-0.78819996
9	0xbf472e9a	-0.77805483
10	0xbf495e50	-0.78659534
11	0x3eb40266	0.3515808
12	0x3f2228e9	0.63343674
13	0xbe846f24	-0.25866044
14	0xbf54178a	-0.8284842
15	0xbf413cfe	-0.7548369
16	0x3f714027	0.94238514
17	0xbf69cfc7	-0.9133267
18	0xbecf5f03	-0.40502176
19	0x3f2ebdae	0.6825818
20	0x3f12145d	0.5706232
21	0xbf3f4de6	-0.7472824
22	0xbf29154e	-0.66048133
23	0xbe0693b8	-0.13142288
24	0xbd163119	-0.036667917
25	0xbf77a00c	-0.9672859
26	0xbf0dbe8f	-0.55368894
27	0xbf2dde3f	-0.67917246
28	0x3e4491c5	0.19196232
29	0xbf6feba1	-0.93718916
30	0x3eeac72d	0.45855084
31	0xbf5a04b1	-0.8516341

conv2.weight f4 [64, 32, 1]
0	0xbd95676d	-0.072951175
1	0x3e1a09b8	0.1504277
2	0xbdb97ab5	-0.09056608
3	0xbe283f4a	-0.16430393
4	0xbdce5ffb	-0.100769006
5	0xbba2ce90	-0.004968472
6	0xbe157163	-0.14594035
7	0xbd0d9584	-0.034566417
8	0x3db36e90	0.087613225
9	0xbdd32119	-0.10309047
10	0x3d70b65f	0.058767673
11	0xbc1b6c5e	-0.009486286
12	0x3d50b4c0	0.050953627
13	0x3dc0a69c	0.09406778
14	0xbd8f0375	-0.06983081
15	0x3d8e9968	0.06962854
16	0xbe08f8de	-0.13376185
17	0xbdabae71	-0.083828814
18	0xbe156c8a	-0.14592186
19	0x3db4b0f2	0.08822812
20	0x3cc949a8	0.024571255
21	0x3dc61024	0.09671047
22	0x3cf276d9	0.029597687
23	0xbcce6ea4	-0.025199242
24	0x3d89fc75	0.067376055
25	0xbd9c09b9	-0.07619042
26	0xbcda986e	-0.026684012
27	0x3c800ab0	0.015630096
28	0xbdd244bf	-0.102670185
29	0xbd31ca96	-0.04340609
30	0x3e178df0	0.14800239
31	0xbd176469	-0.036960993
32	0x3e311717	0.17293964
33	0x3dfc82af	0.123296134
34	0x3e355f7f	0.1771221
35	0x3e1b5aba	0.15171328
36	0xbdebad92	-0.11507715
37	0xbc204ace	-0.00978346
38	0xbdad1716	-0.08451669
39	0x3d621905	0.05519964
40	0x3cabe557	0.020983381
41	0xbe2525d0	-0.16127706
42	0xbe13f091	-0.14447238
43	0x3dbd46a4	0.09241989
44	0xbc92c26b	-0.017914971
45	0x3e0175c4	0.1264258
46	0x3deada87	0.11467462
47	0xbcdcd3c6	-0.02695645
48	0x3caeabf7	0.021322234
49	0x3e34d934	0.17660981
50	0x3e2aa685	0.16665085
51	0xbe261b0d	-0.16221257
52	0xbd63ba88	-0.055597812
53	0xbd9fbf76	-0.0780019
54	0xbd2f7bcb	-0.042842668
55	0xbbc4ffc6	-0.006011936
56	0x3d39ddab	0.045377415
57	0x3e26a44e	0.16273615
58	0xbdc6e56c	-0.097117275
59	0xbdb6563c	-0.08903167
60	0x3d374863	0.044746768
61	0xbd0dc79a	-0.034614183
62	0xbdfe02d9	-0.12402887
63	0x3e1c5fab	0.1527087
64	0x3e0d34b4	0.13789636
65	0x3dd833fe	0.10556792
66	0x3e2ca8d1	0.16861273
67	0xbd02d91a	-0.031945325
68	0xbe189ff6	-0.1490477
69	0x3ddff34b	0.10935076
70	0x3df0a5ea	0.117503956
71	0xbdce1749	-0.10063035
72	0x3bb90786	0.005646649
73	0xbbd88f54	-0.006608883
74	0x3cb736d8	0.022365019
75	0x3e0801e2	0.13281968
76	0x3e0860f7	0.13318239
77	0x3ca37c6f	0.019956795
78	0x3dac0116	0.083986446
79	0x3e057ef7	0.13036714
80	0xbe0b9113	-0.1362956
81	0x3de3e795	0.11128155
82	0xbd9c6fd3	-0.07638516
83	0x3dac35b7	0.08408683
84	0xbe0e2164	-0.13879925
85	0x3d2d29ee	0.042276315
86	0xbd9527fb	-0.07283016
87	0xbd4531bc	-0.048143134
88	0x3e06260d	0.13100453
89	0xbda29015	-0.07937638
90	0x3e09ea68	0.13468325
91	0x3e04773f	0.12936114
92	0x3d8296b0	0.063763976
93	0x3d845661	0.06461788
94	0x3d18d21c	0.03730975
95	0x3cb93733	0.022609329
96	0xbd94a89e	-0.07258724
97	0xbe1464a0	-0.1449151
98	0x3c37e50c	0.011224043
99	0x3e05f459	0.13081492
100	0x3e0084ec	0.12550706
101	0xbe1f938c	-0.15583628
102	0x3d94ebbd	0.07271526
103	0xbc94e45d	-0.018175298
104	0xbe03f26e	-0.12885448
105	0xbd4e3d07	-0.05035117
106	0x3d2a64c6	0.04160001
107	0xbe07aee7	-0.13250314
108	0x3e145b5e	0.14487979
109	0x3db4950c	0.08817491
110	0x3d02f70c	0.031973884
111	0xbdda9d15	-0.10674492
112	0xbd8c6391	-0.06854928
113	0xbcd0d9d8	-0.025494501
114	0xbdc57ecc	-0.09643325
115	0x3e098e2b	0.13433139
116	0xbe2c2416	-0.1681064
117	0x3d7e56ec	0.062094614
118	0xbdd41332	-0.10355224
119	0xbe2629cc	-0.16226882
120	0xbe074c5f	-0.13212727
121	0x3d4a267e	0.049353115
122	0xbcd515c0	-0.026011348
123	0x3cc216d9	0.023692535
124	0xbe044d6d	-0.1292016
125	0xbe0c3166	-0.13690719
126	0xbd7800ce	-0.060547642
127	0x3dbdc6d5	0.0926644
128	0xbe0ee82d	-0.13955756
129	0xbd8f8214	-0.07007232
130	0xbcb85980	-0.022503614
131	0x3e0f8670	0.14016128
132	0x3e356e37	0.17717825
133	0x3e1d6449	0.15370287
134	0xbdf52275	-0.11969463
135	0xbdaaf3ed	-0.083473064
136	0xbc4fa439	-0.012673431
137	0xbd5ea620	-0.054357648
138	0xbdfb5e8e	-0.12273894
139	0x3e259393	0.16169576
140	0xbd9d50db	-0.076814376
141	0xbe2973ac	-0.16548032
142	0xbe12e31b	-0.14344446
143	0xbd780835	-0.0605547
144	0x3d7fedee	0.062482767
145	0x3e213d42	0.15746024
146	0x3dc2fb16	0.09520547
147	0x3dd8b4e0	0.10581374
148	0xbe0cd58c	-0.13753337
149	0xbdf77242	-0.1208234
150	0xbd8916b7	-0.06693786
151	0x3caa2d61	0.020773591
152	0x3e0c0295	0.1367286
153	0xbdfc5fb7	-0.12322944
154	0xbd3f485c	-0.046699867
155	0xbd9ce72b	-0.07661279
156	0xbddf8533	-0.109140776
157	0x3dd6de33	0.104916
158	0xbe09b7dc	-0.13449043
159	0x3d3c3422	0.045948155
160	0x3d6be44f	0.05759078
161	0x3ce34700	0.027743816
162	0xbdd59c4a	-0.104302004
163	0xba9855a5	-0.0011622204
164	0x3de6c2ee	0.11267649
165	0xbe236d70	-0.15959716
166	0xbc8210a4	-0.015877075
167	0xbe2afb29	-0.16697372
168	0x3dea9319	0.11453838
169	0xbd16b16c	-0.036790296
170	0x3de13163	0.10995748
171	0x3de920fc	0.113832444
172	0x3b13ce24	0.002255329
173	0x3e027f00	0.12743759
174	0x3da84e61	0.082180746
175	0x3e350dd9	0.17681064
176	0x3df97ebf	0.12182378
177	0xbdf6f9a7	-0.12059336
178	0xbe269114	-0.1626628
179	0xbcafa562	-0.021441165
180	0xbdfbe889	-0.12300212
181	0xbdb0f2ce	-0.08640061
182	0xbdbeb96f	-0.093127124
183	0x3d067f5f	0.032836314
184	0xbc9251c9	-0.017861264
185	0x3d18471b	0.037177186
186	0xbd850cbf	-0.06496572
187	0x3ccc2f96	0.024925034
188	0xbd84debb	-0.06487795
189	0x3d653736	0.055960856
190	0xbdc04389	-0.09387881
191	0x3dc846a5	0.097790994
192	0x3d3bceeb	0.04585163
193	0xbe250a5f	-0.16117238
194	0xbe0eb43d	-0.13935943
195	0x3d8cc224	0.06872967
196	0x3e066d77	0.13127695
197	0x3dbb1f69	0.091368504
198	0x3d1f15f6	0.038839303
199	0x3def96c1	0.11698676
200	0xbd34e433	-0.04416294
201	0x3dc8c2ce	0.09802781
202	0x3e0a372c	0.13497609
203	0xbde2c8e4	-0.11073473
204	0xbd41e04f	-0.047333058
205	0x3d60fede	0.05493056
206	0xbe045534	-0.12923127
207	0xbd4a7cf9	-0.04943559
208	0xbdb215a8	-0.08695537
209	0x3e13c3a1	0.14430095
210	0x3d580eaa	0.05274836
211	0xbdcc9d90	-0.0999099
212	0x3e24f593	0.16109304
213	0xbdfa8732	-0.12232818
214	0x3df4cbcf	0.11952936
215	0x3dc64075	0.09680263
216	0x3bedae99	0.0072534797
217	0x3e1fd520	0.15608644
218	0x3c093d0e	0.008376373
219	0xbd884f88	-0.066557944
220	0xbe0fef7c	-0.140562
221	0xbd08b408	-0.033374816
222	0xbaa4345b	-0.001252781
223	0xbe1f62bc	-0.15565008
224	0xbc8b696b	-0.01701804
225	0x3dcf27b2	0.10114993
226	0x3e1be247	0.15223037
227	0x3d65f789	0.05614427
228	0xbc9fcf63	-0.01950807
229	0xbe0f6a2c	-0.14005345
230	0x3d517fa8	0.051147133
231	0x3e309b40	0.17246723
232	0xbc9cba9f	-0.019131957
233	0xbcef956d	-0.029246056
234	0x3d2474e5	0.04015054
235	0x3dc2b2dd	0.09506772
236	0xbd8901c0	-0.06689787
237	0xbd909f4b	-0.07061633
238	0x3e342fb6	0.17596325
239	0xbd8b2133	-0.067934416
240	0xbe11e121	-0.14246036
241	0x3e14d23b	0.14533322
242	0xbe2f0622	-0.17092183
243	0xbd843296	-0.06454961
244	0x3e2ce7ee	0.16885349
245	0xbe06f126	-0.13177928
246	0xbd1c8129	-0.038209114
247	0x3e0ae523	0.13563971
248	0x3d7d4ef9	0.061842892
249	0xbe26fb2c	-0.16306752
250	0xbdb6421c	-0.08899328
251	0xb9680c3c	-0.00022129802
252	0x3e21efe5	0.15814169
253	0xbca528cc	-0.020161055
254	0x3de00919	0.10939235
255	0x3e11daed	0.1424367

conv2.bias f4 [64]
0	0xbe27c2dc	-0.16382927
1	0x3e2c61ae	0.16834137
2	0xbdaa1db0	-0.08306444
3	0xbc8299db	-0.015942505
4	0xbe252763	-0.16128306
5	0x3d510df7	0.05103871
6	0x3dd11463	0.102089666
7	0x3dd94456	0.10608737
8	0xbd4a01e8	-0.049318224
9	0xbe226df2	-0.15862253
10	0xbe2cfeec	-0.1689412
11	0x3d85f2a1	0.065404184
12	0xbca7e38a	-0.020494241
13	0xbca2a61d	-0.0198546
14	0xbe2c9496	-0.16853556
15	0xbe18a748	-0.14907563
16	0x38927317	6.98326e-05
17	0x3c55cba8	0.013049044
18	0x3ba713ce	0.0050987964
19	0xbe07281e	-0.13198897
20	0x3d50b3dc	0.050952777
21	0x3d8761a0	0.06610417
22	0x3ce2787b	0.02764534
23	0xbe05e01d	-0.13073774
24	0x3db06a3c	0.086140126
25	0xbc81f456	-0.015863579
26	0x3d961139	0.07327504
27	0x3e1568f6	0.1459082
28	0x3da2a831	0.07942236
29	0xbd9a3ba0	-0.07530904
30	0x3c45b276	0.012066474
31	0xbe104018	-0.1408695
32	0xbdcbe2fe	-0.09955405
33	0xbdf4df5c	-0.11956665
34	0x3cb9fd80	0.022703886
35	0xbdd40a6e	-0.10353552
36	0xbcb4988e	-0.0220454
37	0x3d0a1eb6	0.033720694
38	0xbe04db86	-0.12974367
39	0xbdf462b5	-0.11932889
40	0x3e08ed76	0.13371834
41	0x3c251e59	0.010078036
42	0xbced74da	-0.028986383
43	0x3d4eb78e	0.05046802
44	0xbbb73c95	-0.0055919387
45	0x3dbbfd36	0.091791555
46	0x3c362935	0.011118223
47	0x3d8abf0b	0.0677472
48	0x3c337da7	0.010955251
49	0x3e08ba9e	0.13352439
50	0x3c3be7ba	0.011468822
51	0xbc8c7a70	-0.017148226
52	0x3e1a5f90	0.15075517
53	0x3e054ae3	0.13016848
54	0x3cc04176	0.023468714
55	0xbd88556e	-0.066569194
56	0xbc361def	-0.011115535
57	0x3e0a53f0	0.13508582
58	0x3e1082aa	0.14112344
59	0xbd9f487c	-0.07777497
60	0xbd931e5d	-0.07183526
61	0x3dba48c8	0.09095913
62	0x3e11404a	0.1418468
63	0xbe02b4d0	-0.12764287

fc1.weight f4 [16, 896]
0	0x3cd3317b	0.02578043
1	0xbb93439c	-0.0044941436
2	0xbc9f6c21	-0.01946074
3	0xbce4e495	-0.027941028
4	0xbc900e39	-0.017584907
5	0xbc9ec403	-0.019380575
6	0x3cd5479c	0.026035123
7	0xbbf95198	-0.0076086037
8	0xbc428784	-0.01187313
9	0x3c87b4be	0.016565677
10	0xbb01ddae	-0.001981597
11	0x3cf5c541	0.030001285
12	0x3c477ea9	0.012176194
13	0xbbdbe433	-0.006710553
14	0x3cbf491e	0.023350295
15	0xbc6a456a	-0.014298776
16	0x3cad0f9b	0.021125605
17	0xbc6a2164	-0.0142901875
18	0xbb4d5410	-0.0031330623
19	0x3cf3e28c	0.029771112
20	0x3c53bd22	0.012923511
21	0xbcf98014	-0.03045658
22	0x3cbd9d2e	0.023146238
23	0xbc0c51d9	-0.008564436
24	0x3cb22d80	0.021750212
25	0xbc52be2b	-0.012862722
26	0x3b1f1be4	0.0024278099
27	0x3c0ca6e3	0.008584711
28	0xbca36d72	-0.019949649
29	0x3c84ae94	0.016196527
30	0x3ca37127	0.019951416
31	0x3c37e3bc	0.01122373
32	0xbcc83bb3	-0.02444253
33	0xbcf26e5f	-0.029593645
34	0x3c2cf809	0.010557183
35	0xbce25534	-0.027628519
36	0xbcc2fcd9	-0.023802208
37	0xbcec7688	-0.028865114
38	0xbb3fca49	-0.0029264858
39	0xbb87f0d3	-0.0041485815
40	0xbce7e7bd	-0.028308744
41	0x3bd15487	0.0063882503
42	0xbc82b1eb	-0.015953979
43	0xbb8daf3c	-0.004323868
44	0x3cb035fb	0.021510115
45	0xbd089e2f	-0.03335398
46	0x3c3ae30b	0.01140667
47	0x3c604d66	0.013690328
48	0xb88edb06	-6.811884e-05
49	0x3c6a8c85	0.014315729
50	0x3cc04399	0.023469733
51	0xbaa8ecd4	-0.0012887963
52	0xbc669d07	-0.014075524
53	0x3c8681b9	0.016419278
54	0xbc92ddf6	-0.017928105
55	0xbc80d5a0	-0.015726864
56	0x3cbc08dd	0.022953445
57	0xbd049e41	-0.032377485
58	0x3d007122	0.03135789
59	0x3c79fa75	0.0152574675
60	0xbbd9cf93	-0.006647059
61	0x3cff85ad	0.031191671
62	0x3cc85ca2	0.024458233
63	0x3c60de9e	0.013724951
64	0xbcce4912	-0.025181327
65	0x3a4c4433	0.0007792145
66	0x3cbfc9b8	0.023411617
67	0x3c9592c2	0.018258456
68	0x3c5ffe74	0.013671506
69	0xbce4722e	-0.027886476
70	0xbc718cc6	-0.014743036
71	0x3c5884e9	0.013215282
72	0x3c278416	0.010224363
73	0xbc4f87af	-0.012666627
74	0xbaa47316	-0.0012546505
75	0x3b1d258a	0.0023978674
76	0xbcd7817d	-0.026306862
77	0xbc457ccc	-0.01205368
78	0xbc14c5fd	-0.009080407
79	0xbcb506e7	-0.022098018
80	0xbca78522	-0.020449225
81	0xbca9e1ed	-0.020737613
82	0xbbe0c991	-0.006859966
83	0xbc5efe84	-0.013610486
84	0x3cfb4d1e	0.03067642
85	0xbc4a631e	-0.012352733
86	0xbcc1eaa2	-0.023671452
87	0xbcd28d65	-0.025702188
88	0x3d07d511	0.03316218
89	0x3cd4ef22	0.025992934
90	0x38d8cf87	0.000103383376
91	0xbb4874b5	-0.003058714
92	0x3b5df4e4	0.003386789
93	0x3c740453	0.014893609
94	0x3cb6e82c	0.022327505
95	0xbcee6525	-0.029100964
96	0xbb66e56f	-0.0035231968
97	0x3cd67d2e	0.026182737
98	0xbce2ee77	-0.0277016
99	0xbd016498	-0.031590074
100	0xbd0153d9	-0.031574104
101	0xbccc7cbe	-0.024961825
102	0x3c827c5f	0.015928445
103	0xbca1ea6e	-0.019765105
104	0x3c9a4b3e	0.018834706
105	0x3c9c2e24	0.01906497
106	0x3ca11bb6	0.019666534
107	0x3c5e9d0f	0.01358725
108	0x3cbe79a7	0.023251368
109	0x3ca195ef	0.019724814
110	0xbcd769d3	-0.026295578
111	0xbc9a4dc0	-0.018835902
112	0xbc7dd253	-0.01549204
113	0xbce5ee5b	-0.028067758
114	0xbb86512c	-0.004099032
115	0xbc9f378b	-0.019435665
116	0xbc86690a	-0.016407508
117	0xbc6c51ed	-0.0144238295
118	0xbc70344b	-0.014660905
119	0x3cea534e	0.028604176
120	0xbc5b8889	-0.013399252
121	0x3cb07bc9	0.0215434
122	0x3cf27177	0.02959512
123	0xbc67f136	-0.01415663
124	0xbc1527ca	-0.009103725
125	0x3cdacd9d	0.026709372
126	0xbcf3e053	-0.029770052
127	0xbb366fcd	-0.0027837635
128	0x3cda4d6c	0.026648246
129	0x3bf8c1d7	0.007591467
130	0x3c17d3f1	0.009266839
131	0x3c8c3441	0.01711476
132	0xbcc80167	-0.024414731
133	0x3cf08531	0.029360386
134	0x3d075a9a	0.03304539
135	0x3c1eeaff	0.009699582
136	0x3bcb0953	0.00619618
137	0xbcc4523e	-0.023964997
138	0xbcd44146	-0.025910031
139	0x3c8f972f	0.017528145
140	0xbcec48e7	-0.028843356
141	0xbc5ea85a	-0.013589943
142	0x3cfacda4	0.030615635
143	0x3cf29bc1	0.029615285
144	0xbc3fe640	-0.011712611
145	0x3ae34fc7	0.0017342501
146	0x3cda8542	0.02667487
147	0xbcca6aef	-0.024709193
148	0x3c237ccf	0.009978487
149	0x3d071e1c	0.0329877
150	0x3cff9129	0.031197147
151	0xbc28fe05	-0.010314469
152	0xbd06e577	-0.03293368
153	0x3c62573d	0.013814745
154	0x3b95bd36	0.004569675
155	0x3b85bee7	0.004081595
156	0xbc2bc2cd	-0.010483456
157	0x3b5a789f	0.0033336056
158	0x3d028669	0.031866465
159	0xbcff193d	-0.031139964
160	0xbafc47de	-0.0019247492
161	0xbbffbc48	-0.0078044273
162	0x3b5a1431	0.0033276195
163	0xbcf57ef4	-0.029967763
164	0xbc28a9af	-0.010294362
165	0xbcaa3e58	-0.020781681
166	0xbc403680	-0.011731744
167	0xbcaf9d97	-0.02143745
168	0x3b3a12b5	0.0028392498
169	0xbc4313eb	-0.011906604
170	0xbb288b0e	-0.0025717649
171	0x3cd4e5ca	0.025988478
172	0xbd0051f4	-0.031328157
173	0x3c606de2	0.013698073
174	0x3b658a20	0.0035024956
175	0x3d0211da	0.031755306
176	0x3cbca436	0.02302752
177	0xbc02c3b0	-0.007981226
178	0x3c8cfa7d	0.017209286
179	0x3bf8110c	0.0075703915
180	0xbc27cbbb	-0.010241444
181	0x3ba299ce	0.0049621826
182	0x3cf18f9b	0.029487422
183	0xbca53cc8	-0.020170584
184	0x3a313396	0.0006759701
185	0xbc82f741	-0.01598704
186	0xba967ce8	-0.0011481317
187	0x3c2399a0	0.0099853575
188	0x3cc918ff	0.024548052
189	0x3cbda5e6	0.023150396
190	0x3c44da83	0.012014988
191	0x3be2adb3	0.006917679
192	0x3b583fc2	0.0032996987
193	0xbcdd58b4	-0.027019836
194	0x3c730afc	0.014834162
195	0xbb9b6b03	-0.0047429814
196	0xbcbed8bb	-0.023296705
197	0xbc69cb0c	-0.014269602
198	0x3ce7abf9	0.028280245
199	0xbbe59cea	-0.007007231
200	0xbc7833ab	-0.015149037
201	0xbab5cdb8	-0.0013870513
202	0x3d00ab8f	0.03141361
203	0xbcbe7953	-0.023251211
204	0xbcae180b	-0.021251699
205	0x3c92c433	0.01791582
206	0x3c2273ec	0.009915333
207	0xbcfacca5	-0.03061516
208	0x3ce594f2	0.028025124
209	0x3b3dfb80	0.0028989017
210	0x3c6f7b23	0.01461676
211	0x3c317879	0.010831946
212	0xbca4d3df	-0.02012056
213	0x3cf987d4	0.030460276
214	0x3c1bfb85	0.009520416
215	0xbbcc2141	-0.00622955
216	0x3c321f1c	0.010871675
217	0xbc22a86b	-0.009927849
218	0xbc5d451a	-0.013505245
219	0x3c5e4617	0.013566515
220	0x3ce9e90d	0.02855351
221	0xbb5fa9fb	-0.0034128416
222	0xbd00b3eb	-0.031421583
223	0xbbce624e	-0.00629834
224	0x3cfd8270	0.030945987
225	0xbc25aac7	-0.010111517
226	0xbcb35a32	-0.021893594
227	0x3c98cc36	0.018652063
228	0xbd058cd9	-0.032605026
229	0x3c84e953	0.016224539
230	0xbb481323	-0.0030528984
231	0xbcbf4a77	-0.023350937
232	0x3c591f45	0.013252084
233	0x3cd730c9	0.02626838
234	0x3cae7328	0.021295145
235	0xbcabc030	-0.020965666
236	0xbc81c6f0	-0.015841931
237	0x3c22cbe2	0.009936305
238	0x3ca7e704	0.020495899
239	0xbc977cb7	-0.018492086
240	0x3cf39ad0	0.029736906
241	0x3cf9f175	0.030510643
242	0x3b4ff6e8	0.003173286
243	0xbc75e71d	-0.015008715
244	0x3d06e30c	0.032931373
245	0x3c06ed6d	0.008235318
246	0x3c8e34a3	0.017359084
247	0xbca55444	-0.020181783
248	0xbca2562c	-0.01981648
249	0xbcc48677	-0.0239899
250	0x3c66383b	0.014051492
251	0x3caefe05	0.02136136
252	0xbae3507f	-0.0017342715
253	0xbcb36f57	-0.021903677
254	0x3b2ab2b8	0.0026046466
255	0xbcc898bc	-0.024486892

fc1.bias f4 [16]
0	0xbcf9b9b7	-0.030484064
1	0xbcf42732	-0.029803846
2	0x3c5e1735	0.013555338
3	0x3cc6f40b	0.02428629
4	0x3c23b773	0.009992468
5	0x3c4a3780	0.012342334
6	0xbcf9e7a6	-0.030505966
7	0xbcf95039	-0.030433761
8	0x3cee41ec	0.029084168
9	0xbca2be00	-0.01986599
10	0xbce6a49c	-0.028154664
11	0xbc72b5bf	-0.014813839
12	0x3ba3c6d2	0.0049980665
13	0xbcccf9a9	-0.025021391
14	0x3c0beb3b	0.00853997
15	0x3c0f2932	0.008737849

fc2.weight f4 [32, 16]
0	0xbe0f9f0c	-0.14025515
1	0x3bad7e80	0.005294621
2	0xbdc158f8	-0.094407976
3	0xbe5c3508	-0.21504605
4	0x3e6b69bc	0.22989553
5	0x3d0911f0	0.033464372
6	0x3e1e5e2c	0.15465611
7	0xbe4ce76c	-0.20010155
8	0x3e338442	0.17530921
9	0x3c8f9ef0	0.017531842
10	0xbe11e7d6	-0.14248595
11	0x3e6afc7a	0.22947875
12	0xbe77b5d4	-0.24190456
13	0xbe24058a	-0.16017738
14	0xbd3331c8	-0.043748647
15	0xbd98b38c	-0.07456121
16	0xbcec16a0	-0.028819382
17	0xbd89356a	-0.06699641
18	0xbe064873	-0.13113575
19	0x3e352cfe	0.17692944
20	0xbe4362f4	-0.19080716
21	0xbde8b30d	-0.11362276
22	0x3e1686d2	0.14699867
23	0xbcf02e23	-0.029318875
24	0x3dfbe446	0.12299399
25	0x3e7ab795	0.24484093
26	0xbe7cd04e	-0.24688837
27	0xbe604fd1	-0.21905448
28	0x3c8676b7	0.01641403
29	0x3d9fd1b6	0.07803671
30	0xbe14a5ff	-0.14516447
31	0xbe443178	-0.19159496
32	0x3e7e8734	0.24856263
33	0x3dddd212	0.10831083
34	0x3df21fa8	0.11822444
35	0x3e706834	0.2347725
36	0x3e78a014	0.24279815
37	0xbd87995b	-0.06621047
38	0x3dce56a8	0.10075122
39	0x3dd14764	0.10218695
40	0xbdf9cbd7	-0.121970825
41	0x3c4c93ed	0.01248644
42	0xbdeda250	-0.11603224
43	0xbc7d7d33	-0.015471744
44	0x3e03c60e	0.1286852
45	0xbce15824	-0.027507849
46	0xbe547e1a	-0.20751229
47	0xbdfc4e30	-0.123196006
48	0xbe7b1990	-0.2452147
49	0xbd399699	-0.045309637
50	0xbe5635e0	-0.20918989
51	0x3e5c3856	0.21505865
52	0x3c81cbb0	0.015844196
53	0xbd4af33f	-0.049548384
54	0xbccaaa5c	-0.024739437
55	0x3e79b53c	0.24385542
56	0x3e4ae16b	0.19812553
57	0x3e1d580e	0.15365621
58	0x3e717a8e	0.23581907
59	0xbe1443a2	-0.14478925
60	0x3ccd82f1	0.025086852
61	0xbb957a28	-0.0045616813
62	0xbdf60f24	-0.120146066
63	0x3e621016	0.22076449
64	0x3d84fe80	0.064938545
65	0x3e49fd04	0.19725424
66	0x3d89ab6a	0.06722148
67	0xbe18f555	-0.14937337
68	0xbd57c0e3	-0.052674185
69	0xbdb0bf7b	-0.08630272
70	0xbe49198d	-0.19638653
71	0xbdcd03d7	-0.10010498
72	0xbdc83835	-0.09776346
73	0x3ce538ce	0.027981188
74	0x3d846210	0.064640164
75	0x3e094783	0.13406186
76	0x3a496cab	0.00076837343
77	0xbe61ce9b	-0.2205147
78	0xbdb38723	-0.0876601
79	0xbe0e4070	-0.13891768
80	0x3df5c20c	0.11999902
81	0x3e601b52	0.21885422
82	0x3d943fdb	0.07238742
83	0xbe244bd8	-0.16044557
84	0x3e668afe	0.22513959
85	0x3dcb0ef6	0.09914963
86	0x3e224b1d	0.15848966
87	0xbe628bc2	-0.22123626
88	0xbd8b97a7	-0.06816035
89	0xbd017e76	-0.031614743
90	0x3d990224	0.074711114
91	0x3e660e68	0.22466433
92	0xbd8ddda2	-0.06927039
93	0x3e41496d	0.18875666
94	0xbc65b648	-0.01402051
95	0x3e2a100d	0.16607685
96	0x3dd49a5c	0.10381004
97	0x3e44eeae	0.19231674
98	0xbe136f3e	-0.14397904
99	0x3da01798	0.07817
100	0xbddd5810	-0.10807812
101	0xbc03e620	-0.008050472
102	0xbe686f72	-0.22698763
103	0x3dbebad4	0.093129784
104	0xbdbc5a50	-0.09196913
105	0xbe57fc3e	-0.21092317
106	0xbc04c980	-0.008104682
107	0x3e6e9de6	0.23302421
108	0xbe13cc1a	-0.14433327
109	0xbe1192c0	-0.14216137
110	0xbdd1ebc0	-0.10250044
111	0x3e3847b6	0.17996106
112	0xbd8a7edc	-0.06762478
113	0xbde5ec24	-0.11226681
114	0x3dbe5656	0.09293811
115	0xbe69cbb4	-0.22831613
116	0x3e66f4a1	0.22554256
117	0x3c9b6525	0.018969128
118	0x3d8381df	0.06421255
119	0x3e6e69ab	0.23282497
120	0x3dcbad65	0.09945182
121	0xbd984b00	-0.0743618
122	0x3de08858	0.109635055
123	0xbe5ff372	-0.21870211
124	0xbca4b2bc	-0.020104758
125	0xbe6fa592	-0.23403004
126	0xbe4050b9	-0.18780793
127	0xbbbd2a36	-0.005772854
128	0xbd935d68	-0.0719555
129	0x3e234783	0.15945248
130	0xbe66bb0c	-0.2253229
131	0xbe200fe2	-0.15631059
132	0xbd222ec8	-0.039595395
133	0xbe7ce77e	-0.24697682
134	0x3d7ce075	0.061737496
135	0x3df69aef	0.1204127
136	0x3e63236c	0.22181481
137	0xbdc0937f	-0.09403133
138	0x3d0a5206	0.03376963
139	0xbd87fa84	-0.06639579
140	0xbe4dc202	-0.2009354
141	0x3e541b4f	0.20713542
142	0x3e39c691	0.18142153
143	0xbe69c594	-0.22829276
144	0xbe24f40a	-0.16108719
145	0x3e261f29	0.16222824
146	0xbe7c8348	-0.24659455
147	0x3e6d8be2	0.23197892
148	0x3dd53cec	0.104120106
149	0x3dbf4979	0.09340186
150	0x3da0c6a5	0.078503884
151	0xbe5fb1dd	-0.21845193
152	0x3dcbe0d5	0.09954993
153	0x3e1db1d8	0.15399873
154	0xbe39d0ee	-0.18146107
155	0x3e2e10e9	0.16998638
156	0x3e0088e4	0.1255222
157	0xbe039d73	-0.12853031
158	0x3cc5396e	0.024075236
159	0xbde4dd80	-0.1117506
160	0x3e4204f8	0.18947208
161	0xbe30812a	-0.17236772
162	0xbe7db900	-0.24777603
163	0xbd65cbc0	-0.056102514
164	0xbc8714f0	-0.016489476
165	0xbe60cd8a	-0.21953407
166	0x3d3a7758	0.04552397
167	0x3e7b194c	0.24521369
168	0x3daf3544	0.085550815
169	0xbdb026d0	-0.08601153
170	0x3d81f078	0.06344694
171	0x3e0c506c	0.13702554
172	0xbe3ad49e	-0.1824517
173	0x3da9a410	0.082832456
174	0x3e4ba5ec	0.19887513
175	0xbd437fa8	-0.047729164
176	0xbe7cbae4	-0.24680668
177	0x3d74e7e6	0.059791468
178	0x3e28286b	0.16421668
179	0x3cc60a5c	0.024174862
180	0xbe212b23	-0.15739112
181	0xbd28a1a9	-0.041169796
182	0x3e5416fb	0.20711891
183	0x3e3e3c4b	0.18577687
184	0xbdd60de5	-0.10451869
185	0xbda221cf	-0.07916605
186	0x3e74f119	0.23920096
187	0x3e7ee89c	0.24893421
188	0x3d9f0cb2	0.07766093
189	0x3e046b86	0.12931642
190	0x3e80540d	0.25064126
191	0xbe761e2d	-0.24034949
192	0x3e2cf942	0.1689196
193	0xbe6d274f	-0.23159526
194	0xbe39162d	-0.18074866
195	0xbd196b03	-0.03745557
196	0xbcfc33a6	-0.030786347
197	0x3e60b6e9	0.21944775
198	0x3e0de75d	0.1385779
199	0x3e4a1648	0.19735062
200	0xbd295b76	-0.04134699
201	0x3dccb4f7	0.09995454
202	0x3e7f5c2b	0.24937503
203	0xbe47489b	-0.1946129
204	0xbdb4f53a	-0.08835836
205	0xbde56396	-0.11200635
206	0x3e55f70b	0.2089502
207	0x3e439754	0.19100696
208	0x3e2f0bcd	0.17094345
209	0xbd915f8a	-0.07098301
210	0xbd544733	-0.051825713
211	0xbdee99b7	-0.116504125
212	0xbd9298e7	-0.0715807
213	0x3dafd59f	0.08585667
214	0xbe047b24	-0.129376
215	0x3ddb94b5	0.10721723
216	0x3e4d5f26	0.20055827
217	0x3e15b4aa	0.14619699
218	0x3e491451	0.19636656
219	0xbd012ba3	-0.031535756
220	0x3e3b64e7	0.1830021
221	0xbdca08ad	-0.09864936
222	0x3d8692a5	0.06570939
223	0x3dc82e85	0.09774498
224	0xbe13680d	-0.14395161
225	0x3d0d6e9e	0.03452932
226	0xbdb84a7b	-0.08998581
227	0xbc29664e	-0.010339333
228	0xbc0b8063	-0.0085144965
229	0x3e69ad38	0.22819984
230	0x3e067ef5	0.13134368
231	0x3b713d22	0.003681012
232	0xbe02787f	-0.12741278
233	0xbe54646d	-0.20741434
234	0xbe5c7ee2	-0.21532777
235	0xbe77b1e8	-0.2418896
236	0x3d3e4854	0.046455696
237	0x3e6aada6	0.22917804
238	0x3e4a1315	0.19733842
239	0x3d9d1ee5	0.07671908
240	0xbd3b89a8	-0.045785576
241	0x3dd66251	0.10467971
242	0xbd994747	-0.07484298
243	0xbd86f2ac	-0.06589255
244	0x3e60b444	0.21943766
245	0x3e361369	0.17780842
246	0x3e3afea5	0.18261202
247	0xbde45564	-0.111490995
248	0x3e4502ad	0.19239302
249	0x3e39f76b	0.18160789
250	0x3c276f60	0.010219425
251	0x3e688270	0.22706008
252	0xbe68ecab	-0.22746532
253	0xbe7f4254	-0.24927646
254	0xbe5ee5a2	-0.21767285
255	0x3e6e734a	0.23286167

fc2.bias f4 [32]
0	0xbd2c8268	-0.042116553
1	0xbd0d1c2a	-0.034450687
2	0xbe30d034	-0.17266923
3	0x3e693e22	0.22777608
4	0xbe22e23d	-0.15906616
5	0xbe791e87	-0.24328052
6	0xbe2b4014	-0.16723663
7	0xbe0d559f	-0.13802193
8	0xbe4992ec	-0.19684952
9	0x3cdf8739	0.027286159
10	0xbdc02d2c	-0.09383616
11	0x3d1c3c17	0.038143244
12	0xbe2f902d	-0.17144842
13	0x3e6b1c0e	0.22959921
14	0x3ddaa314	0.10675636
15	0x3e2fe9d7	0.17179047
16	0xbe23adc2	-0.15984252
17	0x3dff43ee	0.124641284
18	0x3dc36736	0.0954117
19	0xbe4362e9	-0.190807
20	0x3da42741	0.080152996
21	0x3e24ada2	0.1608186
22	0x3dced1a8	0.100985825
23	0xbdb925b7	-0.09040397
24	0x3e1d3c58	0.1535505
25	0x3e71343d	0.23555084
26	0xbc49d164	-0.012317989
27	0x3df03ec9	0.11730725
28	0x3e15e332	0.1463745
29	0x3c995fd6	0.018722456
30	0x3e7cd7b4	0.24691659
31	0x3e5c43dc	0.21510261

fc3.weight f4 [64, 32]
0	0x3cb4c873	0.022068238
1	0xbdc146b2	-0.09437312
2	0x3e1bef01	0.15227892
3	0xbcfaf97a	-0.030636538
4	0xbb96d978	-0.004603561
5	0xbd5da397	-0.05411109
6	0xbc1c9094	-0.0095559545
7	0xbcdd2d99	-0.026999282
8	0x3dc753a1	0.09732748
9	0xbc882bf5	-0.016622523
10	0x3e08feab	0.13378398
11	0xbded967c	-0.11600968
12	0xbbe89625	-0.0070979767
13	0x3e344adf	0.17606686
14	0x3dbf4458	0.093392074
15	0xbdc0e931	-0.09419478
16	0xbe30feb7	-0.17284666
17	0x3b1ab20c	0.002360466
18	0xbcaab3f0	-0.020837754
19	0xbd8fa4ff	-0.070138924
20	0x3ce84e3e	0.028357621
21	0x3d93700d	0.07199106
22	0xbe31c5d0	-0.17360616
23	0x3e298b60	0.16557074
24	0x3cf63619	0.030055093
25	0x3d35586c	0.04427378
26	0xbd9adcd5	-0.075616516
27	0x3dda760f	0.10667049
28	0x39ab6d53	0.00032697115
29	0xbca0ffe3	-0.019653266
30	0xbdd12135	-0.10211412
31	0x3cfe129e	0.031014737
32	0xbc9a7081	-0.018852474
33	0xbd60b052	-0.054855652
34	0x39d14efa	0.0003992243
35	0x3ddd6f4f	0.10812246
36	0x3e01bbdd	0.1266932
37	0xbdfd1703	-0.12357905
38	0x3e1417c7	0.14462195
39	0x3c0ac392	0.008469479
40	0xbe2c3a73	-0.16819172
41	0xbcef4178	-0.029206023
42	0x3de8fef1	0.11376751
43	0xbddf3d7c	-0.10900399
44	0xbd8f009a	-0.069825366
45	0x3d999c4b	0.07500514
46	0x3e152edc	0.14568657
47	0x3c4c8f39	0.012485319
48	0x3e029d29	0.12755264
49	0x3e363e26	0.17797145
50	0x3de77bee	0.113029346
51	0x3bd542ea	0.006508221
52	0x3e18a2b2	0.14905813
53	0x3df6d1a7	0.12051707
54	0xbdb2b07d	-0.08725069
55	0x3e2214e8	0.15828288
56	0x3e255624	0.16146141
57	0xbdea1668	-0.11430055
58	0xbd90e933	-0.07075729
59	0xbe02f6fb	-0.12789528
60	0xbd598844	-0.05310847
61	0x3d967c97	0.073479824
62	0xbdbaec67	-0.091271214
63	0x3e21cc34	0.15800554
64	0xbe0aae8a	-0.13543144
65	0xbbff35e2	-0.0077884058
66	0x3e2f2525	0.17104013
67	0x3d95333b	0.07285162
68	0xbddd140c	-0.10794839
69	0x3cccd273	0.025002694
70	0x3e289102	0.16461566
71	0xbdbeee27	-0.09322768
72	0x3e16532c	0.14680165
73	0xbd6b3a6f	-0.057428773
74	0xbe1e4136	-0.15454563
75	0x3e0bb2c0	0.13642406
76	0xbd7ad380	-0.06123686
77	0x3e238fcd	0.15972824
78	0x3da8ee45	0.08248571
79	0xbddf6e20	-0.109096766
80	0xbdb7d295	-0.08975712
81	0x3babaafa	0.005238888
82	0xbdfb3409	-0.12265784
83	0xbdbe1454	-0.09281221
84	0xbdef00d0	-0.11670077
85	0xbcf755f0	-0.030192345
86	0x3df454e2	0.119302526
87	0xbdff93a6	-0.124793336
88	0x3c611c56	0.013739666
89	0xbc02577b	-0.007955427
90	0xbded1e35	-0.11578027
91	0x3d7d2f32	0.061812587
92	0xbd3511ef	-0.044206556
93	0x3dee5ad4	0.11638418
94	0x3e1d0978	0.15335643
95	0x3e21ff8b	0.15820138
96	0xbda36a51	-0.079792626
97	0x3d3ef6cc	0.046622083
98	0xbcda92a4	-0.026681252
99	0xbd917d9f	-0.071040384
100	0xbc0c5873	-0.00856601
101	0xbe188f64	-0.14898449
102	0xbe22a17c	-0.15881914
103	0x3d5b7583	0.053578865
104	0xbc120358	-0.00891193
105	0xbe0213f6	-0.12702927
106	0xbd1087f5	-0.03528591
107	0x3b801299	0.003908467
108	0x3b850fa2	0.0040607015
109	0xbdbd0f8f	-0.09231483
110	0xbe12a0f3	-0.1431921
111	0xbdf004b2	-0.117196456
112	0x3e2190fd	0.15777965
113	0xbdcde059	-0.100525565
114	0xbdc11f23	-0.09429767
115	0xbe05c460	-0.13063192
116	0x3d17225d	0.036898006
117	0xbe1b3823	-0.15158133
118	0xbe2db1a8	-0.16962302
119	0x3d816fcf	0.06320154
120	0x3d0d2d22	0.03446687
121	0xbd46b02e	-0.04850786
122	0x3e192e72	0.14959124
123	0x3d00fdff	0.03149223
124	0xbdf3b1ad	-0.11899123
125	0x3d811db5	0.06304494
126	0xbd17f62a	-0.037099995
127	0xbc51026a	-0.012756923
128	0x3ddf4fce	0.109038934
129	0x3dcc230d	0.09967623
130	0xbcd797b0	-0.026317447
131	0xbdabf649	-0.083965845
132	0x3df1175c	0.117720336
133	0xbd608668	-0.05481568
134	0x3d7f6f44	0.06236197
135	0x3d9066d6	0.070508644
136	0xbd65ba1a	-0.056085683
137	0x3cec6b23	0.02885968
138	0xbd6a7ad9	-0.057246063
139	0x3d11ae9f	0.035566922
140	0x3d33e2f6	0.04391762
141	0x3e01bba0	0.1266923
142	0x3d12c8a8	0.035835892
143	0x3d03767f	0.03209543
144	0xbdb01a3d	-0.085987546
145	0x3da21ef3	0.07916059
146	0x3daecc34	0.085350424
147	0x3ca3133d	0.019906634
148	0xbd682b82	-0.056682117
149	0xbe2974f6	-0.16548523
150	0x3d75ca07	0.06000712
151	0x3ca895d2	0.020579252
152	0xbdc5e705	-0.09663204
153	0x3da0bd65	0.07848624
154	0x3d8135b0	0.06309068
155	0x3d68ff8b	0.05688433
156	0xbe09c1aa	-0.13452783
157	0xbcfa5ee5	-0.030562827
158	0x3cb3f062	0.02196521
159	0xbc23f25a	-0.010006512
160	0xbdb442ce	-0.088018045
161	0x3db9595c	0.09050247
162	0xbc8ccd81	-0.017187836
163	0xbe1f4bd1	-0.15556265
164	0x3e280c52	0.1641095
165	0xbda18a7f	-0.07887744
166	0xbdd8f11b	-0.10592862
167	0xbcf5e85c	-0.030018024
168	0xbccce4c1	-0.025011422
169	0x3dccafe2	0.099944845
170	0xbd3ca8e5	-0.046059508
171	0xbccebcf7	-0.02523659
172	0x3ce450d9	0.027870582
173	0xbd0f939a	-0.035052873
174	0x3d965d60	0.073420286
175	0x3d845d76	0.06463139
176	0xbd9bad6d	-0.07601438
177	0x3c8217d2	0.015880499
178	0x3e0680d4	0.13135082
179	0xbd0fdf45	-0.035125036
180	0x3db9bc24	0.09069088
181	0x3b3bbea9	0.0028647578
182	0x3df650d1	0.12027133
183	0x3cc9fc2e	0.024656381
184	0x3d35c824	0.044380322
185	0x3e34a2fb	0.17640297
186	0xbe32bb55	-0.17454274
187	0x3cae8636	0.021304231
188	0xbbe6da89	-0.0070450944
189	0x3e25085e	0.16116473
190	0xbe282708	-0.16421139
191	0x3c5cfb51	0.013487653
192	0xbcd90fe6	-0.026496839
193	0x3d885157	0.06656139
194	0x3ba4b807	0.0050268206
195	0xbd42dc2a	-0.047573246
196	0x3cdbf88c	0.026851915
197	0xbe1a5558	-0.15071619
198	0x3de7646c	0.11298451
199	0xbc5f11a3	-0.013615045
200	0xbdc05984	-0.09392074
201	0x3de208f5	0.11036865
202	0x3e29e028	0.16589415
203	0xbd2fdd46	-0.042935632
204	0x3dc5df04	0.096616775
205	0x3def965f	0.11698603
206	0xbbb0fa14	-0.0054009054
207	0x3da3cf20	0.0799849
208	0xbdc97858	-0.09837407
209	0xbde13499	-0.1099636
210	0x3e16ccbf	0.14726542
211	0x3d85e633	0.06538048
212	0xbe091470	-0.13386703
213	0x3db7327b	0.08945175
214	0x3dfa4e18	0.122219265
215	0x3e2dd527	0.16975842
216	0xbc39f238	-0.011349253
217	0x3ce614ff	0.028086184
218	0x3bc545cd	0.006020284
219	0x3be5e092	0.0070152963
220	0x3dc57be6	0.096427724
221	0x3d4db6bf	0.05022311
222	0x3d94dfce	0.0726925
223	0x3e2a6893	0.16641454
224	0xbcec1087	-0.028816475
225	0x3d96b810	0.07359326
226	0xbe31acfb	-0.17351143
227	0x3cf6a31c	0.030107073
228	0x3d9c5a57	0.076344185
229	0x3dc28420	0.09497857
230	0xbd870564	-0.06592825
231	0x3e029c76	0.12754998
232	0xbdf63c8d	-0.12023268
233	0xbcbdbfdc	-0.023162775
234	0xbdc570b9	-0.09640641
235	0x3d9fb906	0.07798962
236	0x3d42af3f	0.04753041
237	0xbe11bf7b	-0.142332
238	0xbe1d0b89	-0.15336432
239	0x3acc9328	0.0015607821
240	0x3d493269	0.04912034
241	0xbcd465ad	-0.025927389
242	0xbe0549d3	-0.13016443
243	0x3caaa95a	0.020832706
244	0xbd6cdb20	-0.05782616
245	0xbd4abdf6	-0.049497567
246	0xbdc4e47e	-0.09613894
247	0x3d4645ec	0.048406526
248	0xbddcd9fa	-0.10783763
249	0xbdfba316	-0.122869655
250	0xbc8c68da	-0.01713984
251	0xbde43f5c	-0.11144897
252	0xbdf730e9	-0.12069876
253	0x3dda02f7	0.10645097
254	0xbe1d7b61	-0.15379097
255	0xbe272a89	-0.1632482

fc3.bias f4 [64]
0	0x3d936b40	0.07198191
1	0xbe3419da	-0.17587987
2	0xbdb82e73	-0.089932345
3	0x3b90d79e	0.004420235
4	0xbd9dc9d5	-0.07704512
5	0xbdb7f86d	-0.0898293
6	0x3dbd3210	0.09238064
7	0x3d80d205	0.06290058
8	0xbd0ae24e	-0.033907227
9	0xbd854e9a	-0.06509133
10	0xbcf09347	-0.029367102
11	0xbd2af54a	-0.041737832
12	0x3dfe3718	0.12412852
13	0x3da4d8f0	0.0804919
14	0xbe192f61	-0.1495948
15	0x3e24bd82	0.16087916
16	0xbc628b21	-0.013827116
17	0xbe20d04c	-0.15704459
18	0x3dcee56a	0.10102351
19	0xbca50ad5	-0.020146767
20	0xbca717be	-0.020397063
21	0x3e2badde	0.16765544
22	0x3d3188d2	0.043343373
23	0x3e113598	0.141806
24	0x3dcef91d	0.10106108
25	0xbe1d1962	-0.15341714
26	0x3d9bcf1b	0.076078616
27	0xbe1653ea	-0.14680448
28	0xbdb0101d	-0.08596823
29	0xbc162910	-0.0091650635
30	0x3e17c4c8	0.1482116
31	0xbcc2143a	-0.023691285
32	0x3c0c0eb1	0.008548425
33	0xbd2abde1	-0.04168499
34	0x3dac90df	0.084260695
35	0xbb96f87e	-0.0046072593
36	0x3d913c4b	0.07091578
37	0xbd645f34	-0.055754855
38	0x3e298bfb	0.16557305
39	0x3e0142ca	0.12623134
40	0xbaf279e3	-0.001849946
41	0xbdc06004	-0.093933135
42	0x3e279eb7	0.16369139
43	0xbe2276a0	-0.15865564
44	0xbd800a69	-0.062519856
45	0xbe13d3b8	-0.14436233
46	0x3b38c628	0.0028194282
47	0x3e1771b1	0.14789464
48	0xbdb073d8	-0.086158454
49	0xbd8f5982	-0.06999494
50	0x3e0ab1f2	0.13544443
51	0x3e0d28fe	0.13785169
52	0x3dd3096c	0.103045315
53	0xbe20ec82	-0.1571522
54	0xbe2e4259	-0.17017497
55	0xbd4e57f2	-0.05037684
56	0xbd6bab4b	-0.057536405
57	0xbd4f9991	-0.05068356
58	0xbb9aba63	-0.004721926
59	0xbdca8ad7	-0.09889763
60	0x3cac2a5d	0.021016294
61	0x3dd06e74	0.10177317
62	0x3d958eb2	0.073026076
63	0x3d47f466	0.04881706

fc4.weight f4 [128, 64]
0	0xbdcebf7a	-0.10095115
1	0x3d2c2614	0.0420285
2	0xbdc8bb0a	-0.098013
3	0xbceff9d8	-0.02929394
4	0xbcda3d38	-0.02664052
5	0x3dec2178	0.11529821
6	0x3d94651c	0.072458476
7	0xbc13fbe0	-0.00903222
8	0xbde9f060	-0.11422801
9	0xbcf55d90	-0.02995184
10	0x3ded0a64	0.115742475
11	0x3da1282a	0.07868989
12	0x3d3e64b4	0.046482757
13	0xbb04db80	-0.0020272434
14	0x3db6f858	0.089340866
15	0x3c4b0ae0	0.0123927295
16	0x3debeb28	0.11519462
17	0xbc2c6080	-0.010521054
18	0x3d5e1fc0	0.054229498
19	0xbde2aed6	-0.110685036
20	0xbdbf7bac	-0.093497604
21	0xbbe44be0	-0.006967053
22	0x3dc0cc1e	0.09413932
23	0xbbef6700	-0.0073059797
24	0xbdfa2ff8	-0.122161806
25	0xbcb05fc8	-0.021530047
26	0xbdbea534	-0.09308854
27	0xbda592da	-0.0808465
28	0x3dd0ee7e	0.10201739
29	0xbd8a4374	-0.06751147
30	0xbdfb5a8a	-0.12273128
31	0x3daebf1e	0.085325465
32	0x3dec1cd0	0.11528933
33	0xbdf5818e	-0.11987601
34	0x3d4d1d08	0.050076514
35	0xbda72fae	-0.08163391
36	0xbde494ae	-0.11161171
37	0xbd117490	-0.035511553
38	0x3d6cf4d0	0.05785066
39	0xbda0f1b6	-0.07858603
40	0x3ccc8508	0.024965778
41	0x3c7e4640	0.015519679
42	0x3ddf8c04	0.10915378
43	0xbd150c68	-0.036388785
44	0xbd2e3758	-0.04253325
45	0xbda49438	-0.08036083
46	0xbcdee2e8	-0.027207807
47	0xbdb7e1f4	-0.08978644
48	0xbdc02c86	-0.09383492
49	0xbdc6c1d0	-0.097049356
50	0xbda86394	-0.08222118
51	0x3dcc45b2	0.09974231
52	0x3c322010	0.010871902
53	0xbd7035fc	-0.058645234
54	0x3caeb4c0	0.021326423
55	0x3d3da178	0.046296567
56	0xbd4cdbd0	-0.050014317
57	0xbdc6a24e	-0.09698926
58	0x3d9f5558	0.0777995
59	0xbd97f884	-0.074204475
60	0xbd0df850	-0.034660637
61	0xbdd4a92e	-0.10383831
62	0xbd3df998	-0.04638061
63	0xbde4502c	-0.11148104
64	0x3ce3c2dc	0.027802877
65	0x3d6df863	0.05809821
66	0x3def43c5	0.11682848
67	0xbb62a3c0	-0.0034582466
68	0xbd1f1ac5	-0.03884389
69	0x3d4c32bf	0.049853083
70	0xbd8ec9d7	-0.06972092
71	0xbda62d8e	-0.081141576
72	0x3da8a1f2	0.082340136
73	0xbdc358a2	-0.0953839
74	0x3c7b4453	0.015336114
75	0x3d073f54	0.03301938
76	0xbdc55d12	-0.096368924
77	0x3cbd62b7	0.02311836
78	0x3d28298b	0.041055243
79	0x3d63d35f	0.0556215
80	0xbd8ad1a4	-0.06778267
81	0x3d396a82	0.04526759
82	0xbd56f9c5	-0.052484293
83	0x3bcc5eaf	0.006236873
84	0x3d69ebdd	0.057109702
85	0x3d4d5103	0.050126087
86	0x3ce3ff88	0.027831808
87	0x3d1c98d4	0.038231686
88	0xbc4417ca	-0.011968562
89	0x3d9a7f4f	0.075438134
90	0x3dba2ffa	0.09091182
91	0x3d596186	0.05307152
92	0x3dc55990	0.09636223
93	0x3d9eaec2	0.07748176
94	0xbdc3ba30	-0.09556997
95	0xbc989e15	-0.018630067
96	0xbde3867a	-0.11109634
97	0x3da2deaf	0.0795263
98	0x3d3f2d82	0.04667426
99	0x3d01d9db	0.031701904
100	0xbb606287	-0.0034238414
101	0xbdc717ec	-0.097213596
102	0xbc6ce61d	-0.01445916
103	0xbd330399	-0.043704603
104	0x3d295b2d	0.041346718
105	0xbd3cd639	-0.046102736
106	0xbb2e8cc5	-0.0026634198
107	0x3df5c7ac	0.12000975
108	0xbc9c6c49	-0.019094603
109	0x3de6d83f	0.112717144
110	0x3df3a978	0.11897558
111	0x3b08aa1f	0.0020853353
112	0xbd00248f	-0.031284865
113	0x3dc5add0	0.09652293
114	0x3d85b1b9	0.065280385
115	0xbd98b208	-0.07455832
116	0xbcbf5087	-0.023353828
117	0x3d2c9714	0.042136267
118	0x3d3ca27c	0.046053395
119	0xbd40c8a4	-0.047066346
120	0x3c57a6a9	0.0131622935
121	0x3dfe75bc	0.124248
122	0xbd3466ec	-0.044043466
123	0xbcbc1a12	-0.02296165
124	0xbb8b75d2	-0.0042559886
125	0x3d4ff623	0.050771844
126	0xbd4eb758	-0.05046782
127	0xbd6be577	-0.05759188
128	0xbdadfebc	-0.08495852
129	0xbdbe83e0	-0.09302497
130	0x3dbedaac	0.09319052
131	0x3dd460b4	0.10370007
132	0xbdd2978b	-0.10282811
133	0xbc848418	-0.016176268
134	0xbd50c2fd	-0.050967205
135	0xbcd3a37b	-0.02583479
136	0x3ca94ad7	0.02066557
137	0xbd98c5ad	-0.07459579
138	0x3d5a6445	0.05331828
139	0xbd95049c	-0.0727627
140	0xbd577f34	-0.052611545
141	0x3bfc712a	0.00770392
142	0x3cd0d2f8	0.025491223
143	0x3dcb3475	0.09922115
144	0xbd71d134	-0.059037402
145	0x3cf9811c	0.030457072
146	0xbc458d55	-0.012057622
147	0x3dee5c03	0.116386436
148	0x3dc1d50f	0.09464466
149	0xbdc102ca	-0.0942436
150	0x3df27010	0.118377805
151	0x3dbffefd	0.09374807
152	0x3da84644	0.08216527
153	0x3cce747f	0.025202034
154	0xbd857638	-0.06516689
155	0x3da2d12d	0.07950053
156	0x3d93e872	0.0722207
157	0x3caed998	0.021343991
158	0xbd1f72a7	-0.0389277
159	0x3b2b8583	0.0026172108
160	0xbdd4b5bc	-0.103862256
161	0x3d992674	0.074780375
162	0x3d9b3693	0.075787686
163	0xbd12b528	-0.035817295
164	0xbd8bff2b	-0.06835779
165	0xbdaef6f2	-0.08543195
166	0x3bb6b77c	0.0055760723
167	0xbd4a6cb8	-0.04942009
168	0xbc7b5312	-0.01533963
169	0x3c761bb1	0.015021251
170	0xbda1d3d5	-0.07901732
171	0x3d2c2aab	0.04203288
172	0xbd7099be	-0.05874037
173	0xbcd6f6dd	-0.02624076
174	0x3d478697	0.04871234
175	0xbdb69d0a	-0.089166716
176	0x3dd73867	0.10508805
177	0xbdb40333	-0.08789673
178	0x3e03679a	0.1283249
179	0x3d34de0f	0.044157084
180	0xbdcf4bb5	-0.10121862
181	0xbde00397	-0.10938185
182	0xbde1fefa	-0.11034961
183	0x3dc9aa62	0.09846951
184	0xbd528b16	-0.051402174
185	0x3d113757	0.035453167
186	0x3da3539a	0.0797493
187	0xbcddd29d	-0.027077967
188	0xbddc28e4	-0.10749987
189	0x3dd8f150	0.10592902
190	0xbcc07190	-0.02349165
191	0x3dd05b73	0.101736926
192	0x3dc1c03f	0.09460496
193	0x3d10d7af	0.035361942
194	0x3dc47c75	0.09594051
195	0xbc84a6b0	-0.016192764
196	0xbd1cc63b	-0.038274985
197	0x3d5885c7	0.052861955
198	0xbdcfc577	-0.10145085
199	0xbdf0cdb1	-0.117579825
200	0x3d374083	0.044739258
201	0x3df61003	0.12014773
202	0xbcd4242a	-0.02589615
203	0x3b9d9000	0.004808426
204	0xbdfa977e	-0.12235926
205	0x3ca7e4d6	0.02049486
206	0xbd131661	-0.035910014
207	0xbd695a29	-0.05697075
208	0xbdaee0f4	-0.08539
209	0xbc581418	-0.0131883845
210	0xbdd6cb35	-0.104879774
211	0xbcd9baf4	-0.026578404
212	0x3de64ec0	0.11245489
213	0xbd986338	-0.074407995
214	0xbdb62d7a	-0.08895393
215	0x3c8c8c11	0.017156633
216	0xbd3f2b70	-0.046672285
217	0x3d7b57c5	0.061363
218	0x3dbb7f36	0.09155123
219	0x3d026d6e	0.03184264
220	0x3dac34aa	0.084084824
221	0x3da813ae	0.082068786
222	0xbd5e4d24	-0.054272786
223	0xbdab67e4	-0.08369425
224	0x3dff2c2e	0.124595985
225	0xbce10011	-0.027465852
226	0xbd66c2ec	-0.056338236
227	0xbd591c4a	-0.053005494
228	0xbdd2b4cd	-0.10288391
229	0xbd881df2	-0.066463366
230	0xbca84dc9	-0.020544903
231	0xbd2e0f4c	-0.042495057
232	0x3d391d7e	0.04519414
233	0xbdfb7d66	-0.12279777
234	0x3d7549b8	0.059884757
235	0x3d529843	0.05141474
236	0xbdc5af4e	-0.09652577
237	0xbc05d1de	-0.008167712
238	0x3d197a0e	0.037469916
239	0x3db8f260	0.09030604
240	0x3dac1170	0.084017634
241	0xbd6eb9ac	-0.05828254
242	0xbde02cbd	-0.10946033
243	0xbdf13936	-0.1177849
244	0xbda28163	-0.07934835
245	0xbdf54324	-0.11975697
246	0xbd27ed8c	-0.040998027
247	0x3dfc4b44	0.12319043
248	0x3d8b0cab	0.067895256
249	0x3c558ee0	0.013034552
250	0xbd904768	-0.0704487
251	0xbde8569c	-0.113446444
252	0x3d0b71fc	0.03404425
253	0x3d2206ca	0.039557256
254	0x3c8e5bd8	0.017377779
255	0xbdb690ec	-0.089143604

fc4.bias f4 [128]
0	0x3d8fd1e4	0.07022455
1	0x3d0a192a	0.033715405
2	0x3ba48bfd	0.0050215707
3	0x3db49396	0.08817212
4	0xbd01faa0	-0.031733155
5	0x3d655114	0.055985525
6	0xbd279a50	-0.04091865
7	0xbdbcb6c3	-0.092145465
8	0x3daefc56	0.08544223
9	0x3d6cd5d0	0.057821095
10	0x3a5265c3	0.0008026028
11	0xbd2e2ea1	-0.042524938
12	0xbd7bc07f	-0.061462875
13	0xbd54be18	-0.0519391
14	0xbb9ed822	-0.0048475424
15	0x3d022010	0.03176886
16	0xbd5eea55	-0.054422695
17	0xbd287f5c	-0.041137084
18	0x3c881594	0.016611852
19	0x3cd121be	0.025528785
20	0xbd9f8c00	-0.07790375
21	0xbd2d6aa3	-0.042338025
22	0xbcc21a9d	-0.02369433
23	0xbd9a31ce	-0.07529031
24	0xbd8dcb12	-0.06923498
25	0xbd94adcc	-0.072597116
26	0x3dc5952f	0.09647595
27	0x3d91126a	0.0708359
28	0xbdac584a	-0.08415277
29	0xbd3c6b4d	-0.046000767
30	0xbd3e3d9d	-0.046445478
31	0xbd100ab6	-0.035166465
32	0xbddbaa40	-0.10725832
33	0xbdba1456	-0.0908591
34	0x3dfa09b6	0.122088835
35	0x3bc2b1fc	0.0059416275
36	0x3dc840cf	0.09777986
37	0xbca86658	-0.020556614
38	0x3d828439	0.06372876
39	0xbd93ae82	-0.07211019
40	0xbc4d156a	-0.012517313
41	0x3ca4170c	0.02003052
42	0x3d0dc187	0.03460839
43	0x3d6f33ea	0.05839912
44	0x3dd38d29	0.103296585
45	0xbd375838	-0.044761866
46	0x3c4f4540	0.012650788
47	0x3d4f63c9	0.050632272
48	0x3d09be21	0.033628587
49	0xbdb7f1d8	-0.08981675
50	0xbdb9a654	-0.09064928
51	0xbdad542a	-0.08463319
52	0xbce35b54	-0.02775351
53	0x3b9dfa3e	0.004821091
54	0xba9be671	-0.0011894238
55	0xbbdac920	-0.006676808
56	0xbd802c5b	-0.0625846
57	0x3d98c0aa	0.07458623
58	0xbc7bb240	-0.015362322
59	0x3dbda2ae	0.09259544
60	0xbcbedd32	-0.023298834
61	0x3ddc9d2a	0.10772164
62	0x3de39820	0.11113
63	0x3b99bf20	0.0046919733
64	0xbdabbb8c	-0.08385381
65	0x3d063e36	0.032774173
66	0xbd6d367f	-0.0579133
67	0x3c759523	0.01498917
68	0x3bbebe3e	0.0058210185
69	0x3cdc8c47	0.026922358
70	0x3de88c2b	0.1135486
71	0xbd341b00	-0.04397106
72	0x3deec517	0.11658686
73	0x3d51ed97	0.051251974
74	0x3bf947ea	0.00760745
75	0xbdc48fb8	-0.09597725
76	0x3d7116cf	0.058859643
77	0x3b9e2673	0.004826361
78	0xbd93497b	-0.0719175
79	0x3d61692d	0.055031944
80	0x3dd4f3f1	0.10398091
81	0x3db21c91	0.08696855
82	0x3df10ab8	0.117696226
83	0xbca15a8b	-0.019696495
84	0x3d383b08	0.04497817
85	0x3d900ec9	0.0703407
86	0xbcb3daa3	-0.02195484
87	0xbd079c68	-0.033108145
88	0x3dcb1847	0.0991674
89	0x3dc7d9e1	0.09758354
90	0xbb99e6b3	-0.004696691
91	0xbc483808	-0.01222039
92	0xbd24c9b0	-0.040231407
93	0x3d2a9bce	0.041652493
94	0x3d7dd3c3	0.06196953
95	0xbdde9d09	-0.10869796
96	0xbbdab8c2	-0.006674857
97	0x3da97158	0.08273572
98	0xbd20a17b	-0.0392165
99	0xbde5d7dd	-0.11222813
100	0x3d8f2d08	0.06991011
101	0xbd0746ac	-0.033026382
102	0x3de2c29e	0.110722765
103	0xbd2e0a42	-0.04249025
104	0x3d9ad180	0.0755949
105	0x3d891638	0.06693691
106	0xbd4c249a	-0.049839593
107	0x3d67c00c	0.056579635
108	0xbdbee7dd	-0.09321568
109	0xbd9c42aa	-0.07629903
110	0x3c68b5df	0.014203518
111	0x3d0892ff	0.03334331
112	0x3d2cd7de	0.042198054
113	0xbc121242	-0.008915486
114	0x3da70036	0.08154337
115	0xbdc58315	-0.096441425
116	0xbd0ddb23	-0.034632813
117	0xbd73e158	-0.059541076
118	0xbc726d7b	-0.01479661
119	0x3d596e44	0.053083673
120	0xbb9b4f54	-0.0047396813
121	0x3d9b4fc1	0.07583571
122	0xbde732b9	-0.112889715
123	0xbd12db2c	-0.03585355
124	0x3d5e4e0b	0.054273646
125	0xbd824766	-0.063612744
126	0xbd92084c	-0.07130489
127	0x3dcc61ec	0.099796146
