models_submitted/less_loss-CNN_2L_DFC_N400.pt (torch, 160903 bytes, 22 tensors)

conv1.weight f4 [32, 1, 1]
0.92424875 -0.03592976 0.88561696 -0.18709278 -0.6553262 0.90811014 -0.5014255 0.05137249
0.1290806 -0.25976804 -0.14589503 0.95203567 0.713736 -0.20947349 0.5233939 -0.011668033
0.77540505 -0.34718212 -0.90217316 0.42344728 0.3370071 -0.2540335 0.228611 -0.880811
0.20847176 0.91102356 0.07941691 -0.12640753 0.54114145 0.5654557 -0.026319226 0.784019
00000000: 919b 6c3f 162b 13bd cbb7 623f 4095 3fbe
00000010: 75c3 27bf e879 683f 6c5d 00bf f66b 523d
00000020: b42d 043e 5100 85be 8265 15be 9cb8 733f
00000030: 67b7 363f 3880 56be 25fd 053f 472b 3fbc
00000040: f280 463f dbc1 b1be d2f4 66bf 15ce d83e
00000050: 328c ac3e ae10 82be 0119 6a3e d47c 61bf
00000060: 9f79 553e d738 693f 55a5 a23d fa70 01be
00000070: 3f88 0a3f b4c1 103f 6b9b d7bc 78b5 483f

conv1.bias f4 [32]
0.18922317 0.62561 0.60921836 -0.19730137 0.27834165 0.34505033 0.12928145 0.014988065
-0.017388467 0.09039999 -0.98699915 0.76945686 -0.9351163 -0.23419046 0.28847408 -0.32650125
-0.83179384 0.32675457 0.7503985 0.515326 0.1882307 0.5373913 -0.18236122 0.15609257
0.9021369 0.7753073 -0.8630648 -0.86550367 -0.10083357 -0.19375904 0.89415383 -0.3010916
00000000: b8c3 413e fa27 203f bcf5 1b3f 5f09 4abe
00000010: cc82 8e3e 70aa b03e 5b62 043e 8090 753c
00000020: 4272 8ebc a123 b93d faab 7cbf 20fb 443f
00000030: c863 6fbf a0cf 6fbe e0b2 933e 2c2b a7be
00000040: 71f0 54bf 604c a73e 1e1a 403f 68ec 033f
00000050: 8cbf 403e 7a92 093f e6bc 3abe bbd6 1f3e
00000060: 72f2 663f 8a7a 463f d1f1 5cbf a691 5dbf
00000070: d581 cebd c568 46be 44e7 643f ae28 9abe

conv2.weight f4 [64, 32, 1]
-0.01814291 0.037268758 -0.16341086 -0.0656854 0.076182775 -0.008574776 -0.15412132 -0.103808574
0.08475529 0.07698157 0.0006914062 -0.07441928 -0.12089105 -0.15597741 -0.0676027 0.045927454
0.13764963 -0.113452815 0.14559923 -0.050321776 0.17334381 -0.11365282 0.14756577 0.10364311
-0.040464114 -0.0069521014 0.04998517 0.14331792 0.11053146 -0.035741203 0.040742572 -0.02135094
-0.1560353 -0.022024715 0.1729722 -0.14754532 -0.12547104 0.14940648 -0.022916045 -0.03898525
-0.15112032 0.064164065 -0.027176224 0.1352172 -0.020132216 -0.039513577 -0.061401498 -0.007338504
0.034136303 0.13527092 0.08760002 -0.12624495 -0.124565125 0.026461752 0.15237582 -0.070069894
0.13012716 0.13941264 0.13129856 0.07073352 -0.084165104 -0.15928228 -0.041181456 0.14108898
0.11980578 0.021480542 0.0003585643 0.16898185 -0.0957683 0.09689318 0.1546935 -0.16984865
-0.16013406 -0.0063152416 0.15259041 -0.1351268 -0.061212353 0.035793483 -0.1389496 -0.15982132
-0.10462957 -0.1346333 -0.0908572 -0.09275396 -0.015877623 0.03623811 0.12414019 -0.004091089
-0.04227354 0.058702487 -0.115701824 -0.12171194 -0.050458185 0.048538458 -0.02047397 0.15603466
0.008723302 0.06205462 0.001248516 0.12290689 0.041579206 -0.11598513 0.027038766 -0.133257
-0.17504881 0.14714196 0.03797217 -0.1213526 -0.05181186 -0.067439124 -0.116390884 -0.14018495
0.11710597 0.06806703 -0.10908084 -0.120767176 0.02729824 -0.03125699 0.063834354 0.09521213
-0.062795855 -0.048107065 -0.1578845 0.14797674 -0.16899265 0.1568945 -0.0138861835 0.00847335
0.09082429 -0.058752242 -0.0944038 -0.12016783 -0.1255419 0.049524616 -0.059124462 0.100015506
0.01345348 0.12682678 -0.05950237 -0.11132929 0.12463944 -0.104529366 0.02267089 0.1292127
0.030157072 -0.08361231 0.073974654 0.16069657 -0.0030106988 0.08645311 0.0032528557 0.024111368
-0.012576255 -0.024870105 0.09114489 0.05095008 0.1714229 -0.16634005 0.054350473 -0.11742987
-0.06541943 -0.035081673 0.021862246 -0.043674335 -0.07508749 -0.14385018 0.07559869 0.12950324
-0.04236951 -0.05109724 0.12378761 0.04623815 0.059042804 -0.044460896 -0.083309166 0.018046027
-0.027589094 -0.09229702 -0.0046668416 -0.05644235 0.12265474 -0.04566422 -0.06372913 0.12440782
0.0609252 0.062945634 0.15266187 0.06710138 -0.103326835 0.04449561 0.15038113 -0.038938902
0.00041141803 0.1696496 -0.121772714 -0.15887123 0.08728203 0.10366801 0.036761392 0.005879085
-0.11835872 -0.062472366 -0.008234724 -0.165589 -0.16478936 0.11912388 0.061668593 0.020013703
0.043092012 -0.1088184 0.16839622 0.07016923 -0.096007 -0.047295634 -0.13961907 0.1568972
-0.17501022 -0.10809588 -0.11203646 -0.017082829 0.063353136 -0.14257878 -0.019825084 -0.03374656
-0.0293742 -0.1610682 0.076670885 0.15609556 0.076281816 -0.051022064 0.15778913 -0.111043796
-0.017445385 0.16446754 -0.115226015 0.0765053 0.076228805 0.098916724 -0.022874271 0.09287272
-0.016414432 -0.020194897 0.018492611 0.12563379 0.1433313 -0.06880255 -0.063093334 0.020404043
0.12949154 -0.17618842 -0.13099352 0.1692509 -0.0048343027 0.039616823 -0.039166167 -0.0032419886
00000000: 71a0 94bc 20a7 183d 2d55 27be 1186 86bd
00000010: b705 9c3d 387d 0cbc fbd1 1dbe 9799 d4bd
00000020: 2e94 ad3d 83a8 9d3d 7c3f 353a 2369 98bd
00000030: ba95 f7bd 8bb8 1fbe 4973 8abd 6d1e 3c3d
00000040: 06f4 0c3e f359 e8bd f717 153e 351e 4ebd
00000050: 0a81 313e cfc2 e8bd 7b1b 173e d742 d43d
00000060: b3bd 25bd 74ce e3bb 40bd 4c3d efc1 123e
00000070: 515e e23d 5e65 12bd afe1 263d 2be8 aebc
00000080: b8c7 1fbe 2d6d b4bc a01f 313e 1f16 17be
00000090: 7b7b 00be 03fe 183e 6eba bbbc ffae 1fbd
000000a0: 49bf 1abe 7368 833d aca0 debc 6176 0a3e
000000b0: 51ec a4bc fdd8 21bd 2380 7bbd d577 f0bb
000000c0: 82d2 0b3d 7684 0a3e a467 b33d 5b46 01be
000000d0: 001c ffbd 51c6 d83c 6808 1c3e ce80 8fbd
000000e0: 0e40 053e 30c2 0e3e 2173 063e bcdc 903d
000000f0: c15e acbd e51a 23be e3ad 28bd a179 103e
00000100: bc5c f53d f6f7 af3c b0fd bb39 9409 2d3e
00000110: 2c22 c4bd ee6f c63d f967 1e3e ceec 2dbe
00000120: 2ffa 23be 16f0 cebb a940 1c3e ae5e 0abe
00000130: ceb9 7abd 309c 123d ce48 0ebe 33a8 23be
00000140: 0748 d6bd 50dd 09be 5713 babd caf5 bdbd
00000150: ca11 82bc 6a6e 143d 363d fe3d 8b0e 86bb
00000160: 0527 2dbd 0572 703d 14f5 ecbd 1c44 f9bd
00000170: 3ead 4ebd 43d0 463d 07b9 a7bc 8dc7 1f3e
00000180: 2eec 0e3c fc2c 7e3d 3fa5 a33a 9cb6 fb3d
00000190: f54e 2a3d 9d89 edbd 6780 dd3c 8674 08be
000001a0: ff3f 33be 62ac 163e b588 1b3d b687 f8bd
000001b0: ac38 54bd 861d 8abd 585e eebd a58c 0fbe
000001c0: 41d5 ef3d ba66 8b3d c765 dfbd c854 f7bd
000001d0: 8fa0 df3c 5407 00bd 96bb 823d 94fe c23d
000001e0: 1d9b 80bd ea0b 45bd 79ac 21be 3787 173e
000001f0: 690c 2dbe f4a8 203e e082 63bc ced3 0a3c
00000200: 1602 ba3d 31a6 70bd c856 c1bd 8d1a f6bd
00000210: 0e8e 00be 53da 4a3d 7e2c 72bd eed4 cc3d
00000220: fc6b 5c3c e1de 013e c2b8 73bd 9c00 e4bd
00000230: f642 ff3d 7e13 d6bd 4db8 b93c 5650 043e
00000240: f70b f73c ee3c abbd 0680 973d a48d 243e
00000250: 254f 45bb 540e b13d dd2d 553b 3485 c53c
00000260: a30c 4ebc 64bc cbbc 2caa ba3d 08b1 503d
00000270: 7c89 2f3e 0c55 2abe 9a9e 5e3d 127f f0bd
00000280: 9ffa 85bd cdb1 0fbd 7418 b33c dce3 32bd
00000290: 78c7 99bd 764d 13be 7cd3 9a3d 7f9c 043e
000002a0: a78b 2dbd 574b 51bd 5c84 fd3d 3764 3d3d
000002b0: ded6 713d a11c 36bd ff9d aabd 43d5 933c
000002c0: 8602 e2bc 3806 bdbd 4eec 98bb 1830 67bd
000002d0: 6932 fb3d 680a 3bbd 6b84 82bd 87c9 fe3d
000002e0: b48c 793d a4e9 803d 6553 1c3e 736c 893d
000002f0: 059d d3bd 0741 363d 83fd 193e 667e 1fbd
00000300: 98b3 d739 a0b8 2d3e f963 f9bd 24af 22be
00000310: ecc0 b23d e54f d43d 1d93 163d 57a5 c03b
00000320: 0e66 f2bd 06e3 7fbd f0ea 06bc 2a90 29be
00000330: 8bbe 28be 39f7 f33d 3598 7c3d c7f3 a33c
00000340: 4081 303d 2edc debd 0f70 2c3e e3b4 8f3d
00000350: 519f c4bd 11b9 41bd 4df8 0ebe a9a9 203e
00000360: e135 33be 5f61 ddbd 5f73 e5bd 4af1 8bbc
00000370: 4abf 813d 2c00 12be 3768 a2bc d539 0abd
00000380: 2aa2 f0bc 10ef 24be a005 9d3d 84d7 1f3e
00000390: a439 9c3d 83fc 50bd 7993 213e ee6a e3bd
000003a0: a0e9 8ebc 2e6a 283e 9efb ebbd d0ae 9c3d
000003b0: d91d 9c3d da94 ca3d d362 bbbc 0d34 be3d
000003c0: 8f77 86bc c56f a5bc d17d 973c 25a6 003e
000003d0: 71c5 123e 5ae8 8cbd 1437 81bd 6126 a73c
000003e0: 6e99 043e bd6a 34be 2a23 06be 1c50 2d3e
000003f0: 1269 9ebb 4045 223d b46c 20bd 8b77 54bb

conv2.bias f4 [64]
-0.123557284 0.11466829 -0.12847331 -0.045133464 -0.031125773 0.11526561 0.16740297 -0.0733374
-0.103025116 0.16179156 0.05232194 0.01924749 -0.109219074 0.007356416 -0.04554785 -0.009006588
-0.039333742 0.17131726 -0.11325398 0.075420894 -0.08130812 0.03446046 -0.032515876 0.025617296
-0.1716083 -0.005137805 0.06855269 -0.051528316 0.122549035 0.12779552 0.16232346 0.038883846
0.15633115 0.041557495 0.15668571 -0.15270126 -0.06961471 0.07801532 0.15948588 -0.058833
-0.031395502 0.13478944 -0.10071306 -0.14306282 -0.06568045 -0.037408035 -0.17310354 0.021800395
-0.05599808 -0.1743185 -0.15252972 -0.04704409 -0.032226298 -0.072582066 0.13392974 0.07470374
0.16980092 0.17123695 0.022210874 0.15763158 -0.06413041 -0.097760715 0.017672984 -0.11587639
00000000: 9a0b fdbd 35d7 ea3d 828e 03be dedd 38bd
00000010: 7afb febc 6010 ec3d af6b 2b3e eb31 96bd
00000020: d5fe d2bd b0ac 253e 884f 563d eaac 9d3c
00000030: 40ae dfbd 170e f13b 6290 3abd 5e90 13bc
00000040: 6b1c 21bd cb6d 2f3e b4f1 e7bd 4576 9a3d
00000050: df84 a6bd 6926 0d3d 5e2f 05bd 5ddb d13c
00000060: 16ba 2fbe 085b a8bb 5a65 8c3d 5b0f 53bd
00000070: fdfa fa3d d4dc 023e 1f38 263e ab44 1f3d
00000080: 4615 203e 3138 2a3d 3872 203e b85d 1cbe
00000090: 2892 8ebd 7fc6 9f3d 4450 233e dffa 70bd
000000a0: 9298 00bd 3e06 0a3e a642 cebd 0f7f 12be
000000b0: 7983 86bd 2b39 19bd 0e42 31be be96 b23c
000000c0: 3e5e 65bd 8d80 32be c030 1cbe 4eb1 40bd
000000d0: b9ff 03bd e8a5 94bd e124 093e 46fe 983d
000000e0: 4be0 2d3e bd58 2f3e 94f3 b53c 2c6a 213e
000000f0: ce56 83bd c536 c8bd efc6 903c 9a50 edbd

fc1.weight f4 [16, 896]
0.0050931135 -0.014303909 0.021626372 0.020363046 0.01632652 -0.00962632 -0.009576247 -0.028842296
-0.019906688 -0.026147591 0.030750638 -0.011268224 -0.021087395 -0.006505522 0.016927043 -0.013076541
-0.027136488 0.0011563562 -0.02870607 -0.022658624 -0.0010930886 0.024673715 0.02545461 0.003271397
-0.005501197 0.030668 0.0027119408 -0.009828934 0.03314439 0.0005854359 -0.0047511538 -0.0022908312
-0.009106128 -0.022664018 -0.019670095 0.0041987486 -0.0010442361 0.024753576 -0.01961269 -0.017307598
-0.02112131 -0.0328573 0.0032784548 0.009471083 -0.0096207615 -0.005075404 0.008772591 0.02740958
0.023174323 -0.026068935 -0.031584132 0.021615287 -0.02701442 -0.01606059 0.007303886 0.0155080175
-0.018142892 0.02877349 -0.0041051437 -0.009440329 -0.022560928 -0.026061703 -0.016973617 0.0032853605
0.01231934 -0.0014853574 0.004825942 0.017680822 0.030270396 -0.014462597 0.015627956 -0.0032300164
-0.001266084 0.022178775 -0.008962276 0.00020998674 0.0059844577 0.019975547 0.010052051 -0.0061732004
-0.008378246 -0.019344078 -0.014809996 -0.011573771 -0.002931355 4.7818943e-05 -0.008672599 -0.0017930847
-0.030235572 0.008769935 -0.00066498184 0.0014038302 -0.0057572094 0.023651928 -0.01662515 0.016005324
0.012018909 0.004323628 0.028574804 -0.018351194 0.013354464 0.01425169 0.01383803 -0.0038236782
-0.020097304 -0.0064897244 -0.02734074 0.011802433 -0.013399484 -0.027740596 0.0020626206 0.00923639
-0.00762312 0.016320959 -0.012387681 0.0034839548 -0.029119154 -0.029616518 0.01867444 -0.01821301
-0.029623372 0.00042195103 0.012221162 -0.011615806 0.0054988717 -0.0200964 0.011473694 -0.013289429
0.022289151 -0.030327534 -0.0062329825 0.004933157 0.0050338847 -0.0051409667 0.019250127 0.030057987
-0.018720683 -0.0030014133 -0.032798808 -0.0009222729 0.0121357 0.0028627357 0.019207133 -0.030973887
0.008931802 0.006895075 0.012042422 -0.015753137 -0.013861038 0.010594535 0.0046697417 -0.010435267
0.02356073 -0.018194454 -0.020732224 -0.029197745 0.029129889 0.030858489 0.005206859 -0.01364425
-0.009869007 0.028078148 0.025324287 0.020022728 -0.03211663 -0.02307794 0.006499439 -0.024872778
-0.003145065 0.003296404 -0.00239942 -0.0020115676 -0.021428425 0.009231144 -0.021886528 -0.01462617
-0.0092864 0.027900847 0.025150977 -0.020128584 0.015392861 -0.013841488 -0.014779111 0.022131281
-0.02748044 -0.023702972 0.012001635 0.02135281 0.0071081105 -0.0032976556 -0.0028329254 -0.03245219
-0.016302187 0.025255779 0.016220631 -0.020462828 -0.008583842 -0.026724355 0.020259323 0.008168479
-0.031286765 -0.012059769 0.005595812 -0.03174216 -0.017580174 0.0051686782 -0.01384437 0.0048356284
0.0214496 -0.010771882 -0.005922832 -0.00936957 -0.013096702 0.021698305 -0.012203305 -0.01299577
0.01650168 0.011395717 0.024877839 0.024170183 -0.019091668 0.012894472 -0.014522862 0.010828918
0.024512222 -0.011795092 -0.018049523 -0.0055309786 0.00033465467 -0.007883975 -0.012849419 0.021436183
-0.009036211 0.01946049 -0.023227546 -0.017797403 0.032428734 0.002249402 -0.028584767 0.016465642
0.019397348 0.0334784 0.0011545952 -0.0015639683 -0.012466596 0.013494816 0.009823991 -0.015172391
-0.021807572 0.009137545 0.023235863 -0.016046679 0.0197061 0.023610676 -0.011769994 -0.028379144
00000000: 22e4 a63b f15a 6abc ca29 b13c 67d0 a63c
00000010: 32bf 853c b6b7 1dbc b1e5 1cbc ae46 ecbc
00000020: 5a13 a3bc 7933 d6bc c3e8 fb3c 5b9e 38bc
00000030: 79bf acbc 462c d5bb 95aa 8a3c fd3e 56bc
00000040: 574d debc e090 973a fe28 ebbc 949e b9bc
00000050: f845 8fba 8820 ca3c 3086 d03c ef64 563b
00000060: 6343 b4bb 753b fb3c d1ba 313b 8a09 21bc
00000070: 69c2 073d f077 193a 91af 9bbb c521 16bb
00000080: de31 15bc e4a9 b9bc 2e23 a1bc a895 893b
00000090: c0de 88ba 03c8 ca3c cbaa a0bc aac8 8dbc
000000a0: 9906 adbc 6095 06bd 58db 563b 9a2c 1b3c
000000b0: 66a0 1dbc 934f a6bb eaba 0f3c 0e8a e03c
000000c0: 14d8 bd3c 858e d5bc 5d5e 01bd 8b12 b13c
000000d0: 584d ddbc 8091 83bc 7055 ef3b 5715 7e3c
000000e0: 67a0 94bc 62b6 eb3c 7184 86bb 9cab 1abc
000000f0: b2d1 b8bc 5a7f d5bc 410c 8bbc 344f 573b
00000100: 0fd7 493c 53b0 c2ba f022 9e3b 5fd7 903c
00000110: 9ff9 f73c 87f4 6cbc 3306 803c afae 53bb
00000120: bbf2 a5ba 43b0 b53c 83d6 12bc e32f 5c39
00000130: 4519 c43b c2a3 a33c 5cb1 243c 8f48 cabb
00000140: e944 09bc 7977 9ebc a0a5 72bc ea9f 3dbc
00000150: fa1b 40bb 3391 4838 8417 0ebc f005 ebba
00000160: 97b0 f7bc c6af 0f3c 2d52 2eba ba00 b83a
00000170: f9a6 bcbb b0c1 c13c 7731 88bc 991d 833c
00000180: f5ea 443c 38ad 8d3b b515 ea3c 3e55 96bc
00000190: afcc 5a3c ec7f 693c e8b8 623c ad96 7abb
000001a0: 1aa3 a4bc c1a7 d4bb b0f9 dfbc fe5e 413c
000001b0: 8289 5bbc 3f40 e3bc 082d 073b 3a54 173c
000001c0: 5ecb f9bb 88b3 853c b3f5 4abc 1053 643b
000001d0: 4b8b eebc 579e f2bc 24fb 983c 7333 95bc
000001e0: b7ac f2bc 4f39 dd39 453b 483c 3950 3ebc
000001f0: e12f b43b 35a1 a4bc 29fc 3b3c e8bb 59bc
00000200: bd97 b63c 7371 f8bc 0c3e ccbb 52a6 a13b
00000210: 49f3 a43b 8e75 a8bb 71b2 9d3c 2b3c f63c
00000220: 1e5c 99bc 5cb3 44bb 0b58 06bd b0c4 71ba
00000230: d1d4 463c bc9c 3b3b 4758 9d3c f3bc fdbc
00000240: b156 123c 15f0 e13b 944d 453c b90c 81bc
00000250: 6819 63bc b394 2d3c a204 993b aff8 2abc
00000260: 6f02 c13c 890c 95bc a0d6 a9bc 1c30 efbc
00000270: cea1 ee3c f1ca fc3c 4d9e aa3b 228c 5fbc
00000280: 9eb1 21bc 2504 e63c e174 cf3c b406 a43c
00000290: ba8c 03bd f30d bdbc 3ff9 d43b ffc1 cbbc
000002a0: 6f1d 4ebb 7b08 583b 963f 1dbb 81d4 03bb
000002b0: aa8a afbc 393e 173c 604b b3bc 9aa2 6fbc
000002c0: fc25 18bc 5190 e43c 6c09 ce3c b3e4 a4bc
000002d0: 5732 7c3c 69c7 62bc 1624 72bc a94c b53c
000002e0: a91e e1bc bc2c c2bc 81a2 443c 17ec ae3c
000002f0: 27eb e83b 7b1d 58bb 9aa8 39bb 96ec 04bd
00000300: 2a8c 85bc 35e5 ce3c 21e1 843c a9a1 a7bc
00000310: 3ea3 0cbc 09ed dabc e1f6 a53c 16d5 053c
00000320: 8d26 00bd 5696 45bc 135d b73b 1104 02bd
00000330: 4c04 90bc 045e a93b 7fd3 62bc 3174 9e3b
00000340: 12b7 af3c 8c7c 30bc 5114 c2bb d382 19bc
00000350: 8d93 56bc a5c0 b13c 5ff0 47bc 36ec 54bc
00000360: 882e 873c 1ab5 3a3c 9ccc cb3c 8c00 c63c
00000370: 2166 9cbc 5643 533c 4cf1 6dbc c66b 313c
00000380: dbcd c83c 3440 41bc 98dc 93bc 363d b5bb
00000390: 9774 af39 ca2b 01bc 5f86 52bc ef9a af3c
000003a0: 9e0c 14bc 9b6b 9f3c b247 bebc dccb 91bc
000003b0: fed3 043d b46a 133b 9a2a eabc f4e2 863c
000003c0: 30e7 9e3c a620 093d c955 973a 11fe ccba
000003d0: b240 4cbc 5c19 5d3c cef4 203c 9f95 78bc
000003e0: cba5 b2bc a4b5 153c 2359 be3c 5374 83bc
000003f0: b06e a13c 2d6b c13c efd6 40bc 617b e8bc

fc1.bias f4 [16]
-0.025679367 0.021915767 0.0023560987 -0.0072067766 0.0002476897 -0.016589718 0.03171302 -0.017654583
-0.018834222 0.01567993 0.010464611 -0.0021934945 -0.00017899756 0.010353287 -0.02510371 -0.026616683
00000000: 895d d2bc b288 b33c c768 1a3b d326 ecbb
00000010: 59dc 8139 29e7 87bc 83e5 013d 58a0 90bc
00000020: 3a4a 9abc 3273 803c c373 2b3c bbc0 0fbb
00000030: 4bb1 3bb9 d5a0 293c 4ca6 cdbc 3b0b dabc

fc2.weight f4 [32, 16]
0.13181663 0.17502157 0.08735776 0.02481556 0.056782354 -0.04052148 -0.049864914 0.036466062
-0.12482126 -0.00611791 -0.067524664 0.21286926 0.11494827 0.21033117 0.048328787 -0.027711004
0.19655377 0.07189382 0.09201414 0.054604918 -0.21738504 -0.10415629 0.11087472 -0.17920476
-0.059037555 0.21967456 0.088952005 0.23309197 0.19887578 -0.12753783 -0.07548869 0.13942185
-0.2153867 -0.1315381 0.17089447 0.17723039 -0.09449798 0.0086148605 -0.06376383 -0.22857442
0.17627145 0.079811245 -0.0763367 0.15005785 -0.09856078 -0.1578353 -0.007592976 0.0147475
0.10223115 -0.17513883 0.07430727 0.17848232 0.06475832 -0.07899411 0.11647947 -0.06364748
0.21401761 -0.07768628 -0.2100336 -0.12562884 0.2446082 0.16009472 -0.14995274 -0.14334053
0.0927778 0.23794647 -0.12819327 0.07411879 -0.093862005 -0.21005434 -0.020361222 0.16350397
0.19968638 -0.00349167 -0.24058007 0.08727915 -0.10193825 -0.17358369 0.21517804 -0.04510036
-0.14156738 -0.099380314 0.078751735 -0.0036572814 0.017122773 -0.117678106 -0.20717075 -0.22007948
0.13084607 -0.07002041 0.17736839 0.008889377 -0.16925907 -0.16239893 -0.22047532 0.22120431
0.14105457 0.08082626 -0.17449321 0.13888985 0.219592 -0.08214086 -0.2419784 0.18004265
0.009400145 0.12360388 0.18596205 0.11379203 -0.110610396 0.053245813 -0.060284704 -0.19816622
-0.110538006 0.077139504 0.04146645 -0.0040534735 0.19693655 0.2225884 -0.052314788 -0.040981114
-0.21595374 0.078270584 -0.24860205 0.24577469 -0.10815504 -0.008844078 -0.121477365 0.16651285
0.20966332 0.20627621 -0.1118886 -0.0038140416 -0.23662734 0.24007024 -0.0069833472 -0.09349701
-0.21544334 -0.16418663 -0.1258657 0.20476283 -0.21794322 0.16386959 0.021418482 0.173049
0.16672046 -0.06315384 0.18084508 0.21298552 0.123071514 -0.07728861 0.13025524 -0.024013221
-0.0582856 -0.073979974 0.17280436 -0.12665392 0.17817464 0.21311483 -0.21274906 -0.027046412
0.18637963 0.020686768 0.12776779 0.12920123 0.19125566 0.050641734 -0.049311426 0.054357886
0.24630257 0.16762176 -0.173674 -0.17182197 -0.050455987 0.085631445 -0.095465094 0.24323133
-0.008519345 -0.073703125 -0.24014801 0.072844684 -0.11246401 0.22190599 0.0069694286 0.17816511
-0.15116799 0.21858513 0.23331073 -0.025549809 -0.1574426 0.21249941 0.06271574 -0.19033378
0.20763779 -0.24416333 0.12882602 -0.17652673 -0.104468286 -0.23422194 0.045114342 0.08464065
-0.23978475 -0.07449654 -0.045525465 0.13271335 0.18809599 0.06247468 0.12172231 -0.173652
-0.23693565 0.11833006 -0.17324036 -0.16450006 0.12780175 0.20004952 -0.068932034 -0.037038624
-0.17176327 0.142515 0.08084679 -0.026949307 -0.11574626 -0.07241985 -0.0022162795 0.20340183
0.11269716 -0.11572018 -0.15264107 -0.12323597 0.05951649 0.23498462 -0.2406493 -0.15607849
-0.1913164 0.09942293 0.12320787 0.11302795 -0.17230597 -0.21061042 -0.15588701 -0.23524466
0.137995 0.14622962 -0.14338472 -0.23653483 0.010836661 -0.043340325 0.018125504 -0.03362581
-0.21309063 -0.08394164 0.030186266 -0.08019155 -0.11269605 0.14854932 0.14345935 -0.08719286
00000000: f0fa 063e db38 333e a0e8 b23d 004a cb3c
00000010: 9d94 683d daf9 25bd 273f 4cbd 705d 153d
00000020: 4aa2 ffbd c078 c8bb 5f4a 8abd 66fa 593e
00000030: 006a eb3d 0e61 573e 68f4 453d 3002 e3bc
00000040: 6445 493e 113d 933d e971 bc3d 68a9 5f3d
00000050: 2f9a 5ebe e54f d5bd 4912 e33d 7481 37be
00000060: 5dd1 71bd 5ef2 603e 782c b63d a9af 6e3e
00000070: 18a6 4b3e 4799 02be d099 9abd 9ac4 0e3e
00000080: 558e 5cbe ecb1 06be f6fe 2e3e e27b 353e
00000090: 2888 c1bd 5825 0d3c 9c96 82bd 6a0f 6abe
000000a0: 8180 343e 1474 a33d 6a56 9cbd c4a8 193e
000000b0: 3cda c9bd 949f 21be 80ce f8bb 809f 713c
000000c0: 915e d13d 9857 33be 692e 983d 12c4 363e
000000d0: 03a0 843d aac7 a1bd ca8c ee3d 9c59 82bd
000000e0: 6f27 5b3e fc19 9fbd 0c13 57be d9a4 00be
000000f0: 927a 7a3e dfef 233e 368d 19be dcc7 12be
00000100: 4a02 be3d 3da8 733e 1945 03be 98cb 973d
00000110: b93a c0bd 7c18 57be 94cc a6bc 966d 273e
00000120: 967a 4c3e 80d4 64bb 9f5a 76be 69bf b23d
00000130: 00c5 d0bd ecbf 31be a257 5c3e 28bb 38bd
00000140: 0af7 10be e887 cbbd 9748 a13d 00af 6fbb
00000150: 0f45 8c3c 3801 f1bd 9224 54be 845c 61be
00000160: 83fc 053e dc66 8fbd 0fa0 353e c0a4 113c
00000170: 4052 2dbe e84b 26be 48c4 61be 6283 623e
00000180: 9c70 103e 3d88 a53d 59ae 32be 2439 0e3e
00000190: badc 603e 7839 a8bd 30c9 77be 1a5d 383e
000001a0: 1103 1a3c 0824 fd3d d66c 3e3e cc0b e93d
000001b0: b487 e2bd 4818 5a3d 18ed 76bd 16ec 4abe
000001c0: c061 e2bd 51fb 9d3d b9d8 293d 00d3 84bb
000001d0: bca9 493e 37ee 633e 0848 56bd d0db 27bd
000001e0: fa22 5dbe 544c a03d 8991 7ebe 5cac 7b3e
000001f0: 6480 ddbd c0e6 10bc 20c9 f8bd 5882 2a3e
00000200: fbb1 563e 123a 533e da25 e5bd 00f5 79bb
00000210: 704e 72be f9d4 753e 90d4 e4bb 5c7b bfbd
00000220: 2e9d 5cbe 8a20 28be f0e2 00be 59ad 513e
00000230: 822c 5fbe 6ecd 273e d075 af3c c233 313e
00000240: c5b8 2a3e cd56 81bd 742f 393e e018 5a3e
00000250: eb0c fc3d 7e49 9ebd a161 053e 60b7 c4bc
00000260: e2bc 6ebd d082 97bd a0f3 303e 91b1 01be
00000270: 6a73 363e c63a 5a3e e4da 59be 7090 ddbc
00000280: 4dda 3e3e 4c77 a93c 8fd5 023e 544d 043e
00000290: 86d8 433e b56d 4f3d c7fa 49bd 60a6 5e3d
000002a0: be36 7c3e 0aa5 2b3e 99d7 31be 19f2 2fbe
000002b0: f0aa 4ebd 8a5f af3d 3483 c3bd a211 793e
000002c0: b994 0bbc aaf1 96bd 5ce9 75be 982f 953d
000002d0: 8853 e6bd 533b 633e ce5f e43b ea70 363e
000002e0: c8cb 1abe c8d4 5f3e 02e9 6e3e d54d d1bc
000002f0: a238 21be 7299 593e 1c71 803d dce6 42be
00000300: 009f 543e f405 7abe f8ea 033e 6cc3 34be
00000310: 78f3 d5bd e0d7 6fbe d1c9 383d 1458 ad3d
00000320: 228a 75be a491 98bd e978 3abd 02e6 073e
00000330: 3c9c 403e 73e5 7f3d 8c49 f93d d4d1 31be
00000340: 429f 72be 0857 f23d ec65 31be b472 28be
00000350: 76de 023e c8d9 4c3e 3d2c 8dbd d0b5 17bd
00000360: b6e2 2fbe 74ef 113e 0093 a53d cbc4 dcbc
00000370: 600c edbd dc50 94bd 003f 11bb 9248 503e
00000380: c5cd e63d b4fe ecbd f14d 1cbe 2463 fcbd
00000390: 90c7 733d cf9f 703e c56c 76be 0ad3 1fbe
000003a0: 72e8 43be 409e cb3d 6854 fc3d 337b e73d
000003b0: fa70 30be 42aa 57be d8a0 1fbe fae3 70be
000003c0: 904e 0d3e 38bd 153e 72d3 12be 3036 72be
000003d0: 408c 313c a085 31bd f07b 943c 38bb 09bd
000003e0: 6e34 5abe 98e9 abbd 3049 f73c 783b a4bd
000003f0: 30cd e6bd 501d 183e 02e7 123e 2c92 b2bd

fc2.bias f4 [32]
-0.021499563 0.20488577 -0.1449485 -0.14811061 -0.2404943 0.14547813 -0.14461926 0.075769655
-0.038635295 -0.08808107 0.10401049 -0.011113429 -0.10248335 0.13438919 -0.1265862 -0.034440577
0.21711962 -0.05217191 -0.207785 -0.2105469 -0.13857904 -0.021891216 0.037488956 -0.23347694
0.18019553 0.05483754 -0.11750853 0.23497549 0.2318918 0.106520794 0.15170603 -0.03804736
00000000: da1f b0bc 93cd 513e 616d 14be 4faa 17be
00000010: 2344 76be 38f8 143e 1217 14be 1f2d 9b3d
00000020: 0b40 1ebd d963 b4bd 7403 d53d 1a15 36bc
00000030: cae2 d1bd 529d 093e d09f 01be 9011 0dbd
00000040: 9b54 5e3e 36b2 55bd 97c5 54be 9b99 57be
00000050: aae7 0dbe 3555 b3bc 058e 193d 9414 6fbe
00000060: 2d85 383e 549d 603d 50a8 f0bd 6a9d 703e
00000070: 0b75 6d3e 9327 da3d d358 1b3e 8cd7 1bbd

fc3.weight f4 [64, 32]
-0.106809 -0.1689551 0.16102071 -0.06839995 -0.16092134 0.07739352 0.12650128 -0.10065413
-0.116317615 -0.13181806 0.14370869 -0.1514802 -0.16039015 0.06953089 -0.12538828 0.15610033
-0.17230912 0.17057903 0.1384112 -0.054430354 -0.13980645 -0.105359174 0.0006592231 0.03961553
-0.12013088 0.0029591648 -0.14855129 -0.07469022 0.0028143425 -0.0036201389 0.10843883 0.023793831
0.11998694 -0.0646666 0.049327638 0.17217793 0.15544298 -0.11255175 -0.16087961 -0.06720546
-0.09220785 -0.09855533 -0.058820445 0.040088113 0.1710178 0.14257418 0.16147715 -0.019674929
0.16978057 -0.116369136 0.031783514 0.12458667 0.007534833 0.103314 -0.09069338 0.061057672
-0.1718755 -0.020215929 -0.035417147 -0.050680667 0.007932924 0.061419178 -0.07025387 0.15244314
-0.14021052 0.016740905 -0.09765043 0.0619711 -0.14629376 0.03915516 0.17278442 -0.02511725
0.015337717 0.022350984 -0.044055194 -0.14555478 0.1688164 0.1458661 -0.019098388 -0.103216134
-0.03430946 -0.1340795 0.028966218 0.10095088 0.016119504 0.079034105 -0.076655224 0.12262052
0.07608276 0.15555261 -0.078954615 -0.03507371 0.07670183 0.02337914 0.0460375 0.17496721
-0.046982504 -0.15415199 -0.005768718 -0.14916469 -0.0014280854 -0.06629331 -0.17318857 -0.15361084
0.020631082 -0.11104834 -0.039369058 0.040132172 -0.063901916 -0.13423023 -0.011347338 -0.00020378001
-0.06295854 0.045479093 0.05308455 -0.04662413 0.13967921 0.041028515 -0.10146225 0.057389915
0.14275593 -0.0059086345 0.122468285 -0.13497174 0.17378287 0.011126795 0.1363134 0.1068656
0.11277671 0.03900467 0.15431517 0.09352869 0.14560741 -0.00802984 -0.17647193 0.17352332
0.173303 0.12761407 -0.16011532 -0.027586432 -0.02474586 0.0028635329 0.11669277 0.09938043
-0.07353651 0.17529137 0.02560972 -0.08810295 -0.068492025 0.15308572 -0.14459394 0.056434505
0.11514411 0.14959414 0.138109 -0.07495307 0.12620382 0.07295348 0.0009945177 0.11973012
-0.105363555 -0.05044137 -0.093129694 0.09002222 0.0051448797 0.17515945 -0.16152924 0.14828138
0.076524876 -0.09525118 0.108316116 0.12968153 -0.16323583 -0.020863047 0.106866956 -0.054041762
-0.11012336 0.08878323 0.12747163 -0.046536747 -0.09127011 -0.10877024 -0.04302197 -0.05173198
-0.114889346 -0.15388787 0.027188698 -0.021539317 0.09999919 0.0998293 0.024617225 -0.0050723045
0.008371396 0.01392985 0.096295394 0.11620652 -0.011304107 0.046061616 0.056768034 0.033258274
-0.023956574 0.05477557 0.03826149 0.1095444 0.15484723 0.00029986547 -0.14807846 0.13196386
-0.06835152 -0.093093455 0.1701975 0.09704104 0.103058726 -0.16266151 -0.103803895 0.1759805
0.13340966 0.16916753 -0.1626637 0.025069006 0.068639904 0.09648302 -0.06794869 0.15236607
0.022802629 -0.027653843 0.0913087 0.10108661 -0.08727926 0.013695002 -0.09986093 0.13019508
0.14522435 -0.122230366 0.17228387 -0.10795814 -0.111436956 -0.09383899 0.00065619114 0.15901765
-0.06636769 0.1556738 0.1493489 0.1466401 -0.15919764 0.11629215 0.15549032 -0.08676725
0.100795396 -0.10862805 -0.05112815 0.1157796 -0.096850365 0.06154356 0.11698398 -0.16369249
00000000: adbe dabd 9102 2dbe 9de2 243e 4615 8cbd
00000010: 90c8 24be 7e80 9e3d 8d89 013e c123 cebd
00000020: ee37 eebd 50fb 06be 5f28 133e a01d 1bbe
00000030: 513d 24be 3666 8e3d c965 00be c4d8 1f3e
00000040: cd71 30be 45ac 2e3e aabb 0d3e 5df2 5ebd
00000050: 6c29 0fbe 8dc6 d7bd b7cf 2c3a e543 223d
00000060: 2e07 f6bd 8cee 413b d41d 18be 30f7 98bd
00000070: d570 383b da3f 6dbb 2d15 de3d 48eb c23c
00000080: b6bb f53d ec6f 84bd c70b 4a3d 694f 303e
00000090: 722c 1f3e 8881 e6bd a0bd 24be 04a3 89bd
000000a0: 78d7 bcbd 60d7 c9bd b5ed 70bd 6f33 243d
000000b0: 4a1f 2f3e f7fe 113e 445a 253e 512d a1bc
000000c0: f5da 2d3e f152 eebd 6e2f 023d 4c27 ff3d
000000d0: c3e6 f63b 4a96 d33d 73bd b9bd 9c17 7a3d
000000e0: 2200 30be e09b a5bc 9211 11bd 8896 4fbd
000000f0: 18f9 013c ad92 7b3d 43e1 8fbd 0e1a 1c3e
00000100: 5993 0fbe 3924 893c f3fc c7bd 68d5 7d3d
00000110: 08ce 15be 2961 203d 66ee 303e b1c2 cdbc
00000120: 0c4b 7b3c 6919 b73c 3873 34bd 500c 15be
00000130: 35de 2c3e ec5d 153e 3974 9cbc fb62 d3bd
00000140: 1488 0cbd 234c 09be 904a ed3c 56bf ce3d
00000150: 0d0d 843c a2dc a13d 6afd 9cbd 7820 fb3d
00000160: 47d1 9b3d 2f49 1f3e f5b2 a1bd 73a9 0fbd
00000170: d915 9d3d 9c85 bf3c d191 3c3d 9b2a 333e
00000180: ba70 40bd 05da 1dbe 8407 bdbb a1be 18be
00000190: 982e bbba c9c4 87bd 5858 31be 294c 1dbe
000001a0: 8402 a93c 506d e3bd 7341 21bd a261 243d
000001b0: 02df 82bd a673 09be 2fea 39bc c8ad 55b9
000001c0: 68f0 80bd 4948 3a3d 2f6f 593d f2f8 3ebd
000001d0: 1108 0f3e 840d 283d 71cb cfbd b011 6b3d
000001e0: 9c2e 123e 389d c1bb a7d0 fa3d 0836 0abe
000001f0: 23f4 313e 294d 363c bd95 0b3e 5adc da3d
00000200: 7af7 e63d 5cc3 1f3d cc04 1e3e f88b bf3d
00000210: 1c1a 153e 978f 03bc 0fb5 34be 19b0 313e
00000220: 5776 313e 43ad 023e 45f5 23be f1fc e1bc
00000230: d4b7 cabc 1caa 3b3b 9efc ee3d f887 cb3d
00000240: 4f9a 96bd 957f 333e 7acb d13c 526f b4bd
00000250: 8c45 8cbd 81c2 1c3e 6f10 14be de27 673d
00000260: add0 eb3d 352f 193e 726c 0d3e ff80 99bd
00000270: 933b 013e a268 953d 7a5a 823a 1135 f53d
00000280: d9c8 d7bd 9c9b 4ebd c8ba bebd 925d b83d
00000290: 6196 a83b 005d 333e ec67 25be 13d7 173e
000002a0: 13b9 9c3d 0d13 c3bd d7d4 dd3d 3ccb 043e
000002b0: 4b27 27be fbe8 aabc 10dd da3d e55a 5dbd
000002c0: 5b88 e1bd fbd3 b53d ec87 023e 519d 3ebd
000002d0: d3eb babd eec2 debd ce37 30bd eae4 53bd
000002e0: 1b4b ebbd c894 1dbe d5ba de3c 3973 b0bc
000002f0: 60cc cc3d 4e73 cc3d 10aa c93c 9335 a6bb
00000300: 2e28 093c 073a 643c 8536 c53d affd ed3d
00000310: dc34 39bc 1bab 3c3d 9985 683d d439 083d
00000320: 9440 c4bc 595c 603d 15b8 1c3d d058 e03d
00000330: 4690 1e3e 4337 9d39 e1a1 17be 8921 073e
00000340: e2fb 8bbd c8a7 bebd 4148 2e3e 74bd c63d
00000350: 7410 d33d bd90 26be 2397 d4bd 3b34 343e
00000360: 8b9c 083e 413a 2d3e 5091 26be 845d cd3c
00000370: 1493 8c3d e498 c53d af28 8bbd da05 1c3e
00000380: 94cc ba3c 508a e2bc 0e00 bb3d 7f06 cf3d
00000390: 78bf b2bd 0061 603c e383 ccbd dc51 053e
000003a0: b1b5 143e ea53 fabd 2f6b 303e 2819 ddbd
000003b0: 0f39 e4bd a82e c0bd 3e04 2c3a 86d5 223e
000003c0: c9eb 87bd f468 1f3e ebee 183e d328 163e
000003d0: b504 23be 942a ee3d db38 1f3e 07b3 b1bd
000003e0: d16d ce3d 6278 debd c06b 51bd db1d ed3d
000003f0: 7c59 c6bd 1a15 7c3d 4c95 ef3d 019f 27be

fc3.bias f4 [64]
-0.08904567 0.09979295 0.14929703 0.14545517 0.025292452 0.032284204 0.119245574 0.055397555
0.12268618 -0.108149335 0.15143627 0.024459777 0.04382938 -0.08555464 0.12595695 -0.17057891
-0.006909493 0.16988143 -0.16020644 0.055057906 -0.13732602 0.07160753 0.110101074 -0.02524908
-0.07950064 0.13342544 -0.08428135 0.10450948 0.14245087 -0.16867134 0.0535952 0.069786936
-0.07594963 -0.02365738 0.06896542 0.11672844 -0.14619261 0.15206283 0.042472497 -0.16277534
0.15795079 -0.061528664 0.08564597 -0.13782105 0.107166246 -0.081487134 0.15212665 0.017340545
0.08935183 -0.14663205 -0.031436276 0.15806057 -0.036408868 0.15161274 0.16556661 0.010532343
-0.033719987 -0.052950114 0.006409675 0.14554119 0.11926465 0.14590085 0.07358051 0.041113164
00000000: 945d b6bd 3f60 cc3d 52e1 183e 33f2 143e
00000010: 1e32 cf3c 713c 043d 0637 f43d 8ce8 623d
00000020: e442 fb3d 667d ddbd 1c12 1b3e df5f c83c
00000030: 7086 333d 4537 afbd dcfa 003e 3dac 2ebe
00000040: 0769 e2bb 66f5 2d3e 280d 24be 6684 613d
00000050: 319f 0cbe f8a6 923d ac7c e13d 29d7 cebc
00000060: 3bd1 a2bd aea0 083e b39b acbd 1109 d63d
00000070: a4de 113e 2eb8 2cbe a486 5b3d 74ec 8e3d
00000080: 7b8b 9bbd 1fcd c1bc be3d 8d3d 520f ef3d
00000090: 84b3 15be 5cb6 1b3e a4f7 2d3d 94ae 26be
000000a0: dabd 213e 7b05 7cbd 2867 af3d f620 0dbe
000000b0: fa79 db3d bae2 a6bd 17c7 1b3e c20d 8e3c
000000c0: 18fe b63d b626 16be 53c3 00bd a1da 213e
000000d0: 7721 15bd 5f40 1b3e 4b8a 293e d98f 2c3c
000000e0: f81d 0abd 38e2 58bd 4008 d23b c008 153e
000000f0: 0641 f43d 0867 153e 61b1 963d 4766 283d

fc4.weight f4 [128, 64]
0.09060559 -0.045977056 -0.07242964 0.05960261 0.031252656 -0.004708012 -0.07501863 0.097297214
-0.10659475 -0.10581613 0.0049177357 0.005529979 0.010558798 0.0058836853 -0.10610754 -0.044285372
0.1021754 -0.059185997 0.10113178 0.0065186117 0.09606934 -0.005626049 0.032043785 0.07339533
0.08279449 -0.0727003 -0.046984125 -0.122662604 0.046068277 0.012527961 -0.009807073 -0.11835522
-0.09568641 0.12194588 0.00029740404 0.036355533 0.045449656 -0.046735782 0.09064002 0.09205277
-0.07703506 0.07242333 0.05609063 0.082471065 0.06381804 -0.041776434 0.012855878 -0.058900114
0.09568299 -0.054181337 0.012481143 -0.039585087 0.017081054 0.046735823 -0.0014044436 0.1084648
0.06692496 0.042128168 -0.114524916 0.07412504 0.028440777 -0.047047514 0.09736551 0.08024441
0.017522814 0.0795072 0.031187084 0.009350493 -0.08363247 -0.088608906 0.0046023307 -0.06356532
0.06644098 -0.006238396 0.047128383 0.10760719 0.12205268 0.06982051 -0.07393177 -0.033676457
-0.019656967 0.03458466 0.1102387 0.024673894 -0.036282342 0.05280293 -0.078721695 0.0077313143
-0.071938224 -0.117251255 0.015564752 -0.011596733 0.101160966 -0.01792014 -0.046919912 0.042153556
0.09476055 -0.024086148 0.054781023 0.0067541385 -0.08173393 -0.084573895 0.008671699 -0.03572425
0.08565176 -0.010053035 -0.062897444 0.07400071 0.048253 0.09084912 -0.07979089 0.10802139
-0.11034868 0.1106252 -0.018503055 0.10761339 -0.08646952 0.058658194 0.0714734 0.06675711
0.10943151 -0.106508546 0.08020115 -0.08229359 -0.06846903 0.03847303 -0.021331096 -0.025248993
-0.081997044 -0.12277786 0.021254951 0.038895562 0.11406882 -0.06413766 0.0030057444 -0.05679683
-0.08172538 0.031446766 0.019743662 -0.026498428 0.031910468 0.092972964 0.05765848 -0.016913328
-0.11008285 0.07537052 0.006702867 0.07379613 0.048469316 -0.085596845 -0.1147247 -0.07833223
-0.0668958 -0.10910233 -0.12242747 -0.018224563 -0.07047142 0.051110454 -0.07095402 0.05872826
-0.04935728 0.026632877 -0.06804702 -0.085926965 -0.008068144 -0.066834114 0.096051864 0.11203497
-0.1111816 0.057135146 0.106035 0.11261771 -0.10416898 -0.047205206 -0.07176078 -0.083456166
0.0680725 -0.007832628 0.12343787 0.017227856 0.07613836 0.09095295 0.0049249283 0.023534417
-0.09874025 0.022043845 -0.05671718 0.020027468 0.02302939 -0.07216784 -0.0649462 -0.03710663
-0.09756714 -0.020667437 -0.12037119 0.06180273 -0.028503112 -0.08545768 0.015780453 -0.07846827
-0.009627269 -0.034464255 0.0860078 0.0026960112 0.09989529 0.019168576 0.11656268 0.09412693
-0.0927106 -0.123229444 -0.088597 0.11057087 0.0504534 0.10121472 0.07107177 -0.025705842
0.04347811 0.09226527 0.108366266 0.047778986 -0.122443385 0.03233891 0.07015213 0.062887155
-0.10269871 -0.034673512 0.096460946 -0.048357822 0.07875099 0.07369415 0.006322532 0.049943574
-0.051987994 -0.06753081 -0.1089465 -0.036002234 0.083354674 -0.10697623 0.050978173 0.047738183
0.089335024 0.1048659 0.0155180665 0.07387168 0.07420607 -0.020672528 -0.012920491 0.0698161
-0.11055679 0.06446244 0.052319996 -0.041516006 -0.08070135 0.062131014 0.039304353 0.027263254
00000000: 6c8f b93d 7052 3cbd fe55 94bd de21 743d
00000010: c902 003d ab45 9abb 5ea3 99bd c343 c73d
00000020: 594e dabd 21b6 d8bd f524 a13b d334 b53b
00000030: cffe 2c3c eecb c03b e94e d9bd 9464 35bd
00000040: 5641 d13d 046d 72bd 2e1e cf3d 149a d53b
00000050: 01c0 c43d b85a b8bb 5840 033d 4a50 963d
00000060: 2890 a93d e5e3 94bd 6d72 40bd 8836 fbbd
00000070: 17b2 3c3d 1442 4d3c d8ad 20bc 3964 f2bd
00000080: 3df7 c3bd c3be f93d e5ec 9b39 8ae9 143d
00000090: 6b29 3a3d 056e 3fbd 7aa1 b93d 2a86 bc3d
000000a0: 8fc4 9dbd af52 943d 4abf 653d 97e6 a83d
000000b0: 08b3 823d c41d 2bbd 76a1 523c 3f41 71bd
000000c0: 72f5 c33d 40ed 5dbd b57d 4c3c f923 22bd
000000d0: 91ed 8b3c 106e 3f3d 4f15 b8ba cb22 de3d
000000e0: f40f 893d 968e 2c3d 0a8c eabd dece 973d
000000f0: a2fc e83c e5b4 40bd 9267 c73d 2e57 a43d
00000100: 018c 8f3c acd4 a23d 0e7c ff3c cf32 193c
00000110: 8047 abbd 9678 b5bd 26cf 963b 892e 82bd
00000120: 3512 883d 756b ccbb b109 413d 2961 dc3d
00000130: c1f6 f93d 0efe 8e3d 8a69 97bd 53f0 09bd
00000140: a607 a1bc a5a8 0d3d d4c4 e13d e820 ca3c
00000150: cb9c 14bd e347 583d d738 a1bd f756 fd3b
00000160: 5954 93bd 6d21 f0bd 4d03 7f3c 3900 3ebc
00000170: 7b2d cf3d 42cd 92bc 182f 40bd 35a9 2c3d
00000180: d211 c23d 5050 c5bc 1162 603d d251 dd3b
00000190: 1e64 a7bd 1435 adbd be13 0e3c 9753 12bd
000001a0: 316a af3d 7cb5 24bc 60d0 80bd af8d 973d
000001b0: f0a4 453d 1a0f ba3d 6869 a3bd 523a dd3d
000001c0: 7dfe e1bd 778f e23d b893 97bc 6964 dc3d
000001d0: ef16 b1bd 9343 703d a560 923d f4b7 883d
000001e0: a11d e03d 2721 dabd 8040 a43d 8b89 a8bd
000001f0: 7e39 8cbd e595 1d3d 8dbe aebc fad6 cebc
00000200: 11ee a7bd f572 fbbd dd1e ae3c f450 1f3d
00000210: ea9c e93d 9b5a 83bd 06fc 443b cba3 68bd
00000220: a35f a7bd 53ce 003d 76bd a13c 3b13 d9bc
00000230: 8db4 023d 9c68 be3d 4c2b 6c3d d28d 8abc
00000240: 1e73 e1bd dc5b 9a3d b9a3 db3b 6d22 973d
00000250: c387 463d 664d afbd c9f4 eabd a66c a0bd
00000260: aa00 89bd 0b71 dfbd 41bb fabd ae4b 95bc
00000270: 5253 90bd 3259 513d 5750 91bd 0b8d 703d
00000280: dc2a 4abd 312d da3c 3c5c 8bbd 7afa afbd
00000290: 4030 04bc 53e0 88bd d7b6 c43d 9772 e53d
000002a0: 2eb3 e3bd 8b06 6a3d e128 d93d 1da4 e63d
000002b0: 8c56 d5bd 3f5a 41bd 51f7 92bd 11eb aabd
000002c0: 9869 8b3d 6c54 00bc fecc fc3d 6f21 8d3c
000002d0: 6eee 9b3d 8a45 ba3d 4b61 a13b 40cb c03c
000002e0: 5438 cabd 4b95 b43c 4650 68bd a510 a43c
000002f0: 22a8 bc3c bccc 93bd 8302 85bd 1ffd 17bd
00000300: 48d1 c7bd c24e a9bc 2c85 f6bd dc24 7d3d
00000310: 5c7f e9bc 7004 afbd 0246 813c f9b3 a0bd
00000320: b1bb 1dbc 642a 0dbd dc24 b03d 90af 303b
00000330: e795 cc3d 6b07 9d3c 6ab8 ee3d 9fc5 c03d
00000340: 0edf bdbd b85f fcbd 5872 b5bd fb72 e23d
00000350: 39a8 4e3d aa49 cf3d 138e 913d 0f95 d2bc
00000360: 1a16 323d 93f5 bc3d 22ef dd3d e6b3 433d
00000370: 99c3 fabd ce75 043d ecab 8f3d fbca 803d
00000380: b453 d2bd d005 0ebd 518d c53d da12 46bd
00000390: 3348 a13d f5ec 963d 3e2d cf3b a291 4c3d
000003a0: 5df1 54bd 984d 8abd 581f dfbd 1477 13bd
000003b0: dbb5 aa3d 5b16 dbbd 7dce 503d 1d89 433d
000003c0: 48f5 b63d efc3 d63d 7d3f 7e3c 094a 973d
000003d0: 5af9 973d 6f59 a9bc 78b0 53bc befb 8e3d
000003e0: 996b e2bd e204 843d 7e4d 563d b00c 2abd
000003f0: c046 a5bd 177d 7e3d 9afd 203d 3057 df3c

fc4.bias f4 [128]
-0.0153866215 0.007982681 -0.0070198746 0.029683884 -0.035858043 -0.083371386 0.0902715 0.08857535
0.03878893 0.06661316 -0.1013251 -0.068299755 0.08400758 0.0395093 0.041003067 -0.08321129
-0.085198015 -0.06963673 0.06921195 -0.1155796 -0.12102044 0.07370377 -0.09512949 -0.04653617
0.039433237 0.0036624265 -0.048567016 0.02487018 0.00044452067 -0.025261225 0.011786126 -0.08750393
-0.035027757 -0.050802562 -0.03496803 0.08467019 0.0023751196 0.10506654 -0.07763726 0.03690218
0.085427515 -0.014321639 -0.1247726 -0.029887376 -0.03161442 -0.025444517 -0.081002936 0.0458429
0.102956995 -0.088626474 0.068260595 0.017518638 0.0987213 0.061579417 0.07917757 0.022428993
0.09554679 -0.07472925 0.097204916 -0.061206587 0.047520664 0.03481283 -0.11077036 0.0886631
-0.087382145 -0.12192343 0.04938237 -0.0009515495 -0.044486914 -0.11139997 0.0017634901 0.015775384
0.1055191 0.012171366 -0.08193019 -0.047494017 0.09900238 0.09668292 -0.08459001 0.031531096
-0.0563462 0.11188966 0.01072015 -0.09801475 0.04344994 0.010766527 0.0025531205 -0.047324516
-0.0017723568 -0.07504203 -0.08738231 -0.10041084 0.049319528 -0.06272053 0.007101882 0.023710558
0.12253083 0.037753556 0.01376613 -0.117879316 0.017751014 -0.05159005 -0.04386041 -0.029049233
0.07873471 0.035664875 0.066008955 -0.11485811 0.084664114 -0.0026579383 -0.09645324 -0.0021655092
0.055301294 0.011012772 0.012163158 0.124974206 -0.056307707 -0.048059978 0.056029737 0.004083691
-0.08713158 -0.078862354 -0.056828547 -0.08125646 0.029508786 -0.022257686 0.09138834 -0.08434533
00000000: 2b18 7cbc cac9 023c fa06 e6bb 9e2b f33c
00000010: e2df 12bd 9ebe aabd 44e0 b83d fe66 b53d
00000020: 24e1 1e3d 7b6c 883d 8983 cfbd bee0 8bbd
00000030: 2b0c ac3d 81d4 213d d5f2 273d ae6a aabd
00000040: 4c7c aebd b49d 8ebd ffbe 8d3d ffb4 ecbd
00000050: 90d9 f7bd 01f2 963d 40d3 c2bd b69c 3ebd
00000060: bf84 213d 5205 703b 35ee 46bd 8cbc cb3c
00000070: 8e0e e939 a1f0 cebc 981a 413c 4335 b3bd
00000080: 4479 0fbd 5916 50bd a33a 0fbd 9167 ad3d
00000090: e5a7 1b3b 202d d73d 4900 9fbd be26 173d
000000a0: 9ff4 ae3d 4fa5 6abc c788 ffbd 5fd6 f4bc
000000b0: 1f7e 01bd 0571 d0bc dee4 a5bd c4c5 3b3d
000000c0: 1edb d23d cc81 b5bd 36cc 8b3d 3f83 8f3c
000000d0: 652e ca3d b33a 7c3d da27 a23d 02bd b73c
000000e0: 09ae c33d a60b 99bd 5f13 c73d c2b3 7abd
000000f0: 07a5 423d e697 0e3d 92db e2bd 0095 b53d
00000100: 69f5 b2bd feb2 f9bd 2b45 4a3d 6871 79ba
00000110: e937 36bd ab25 e4bd e924 e73a 613b 813c
00000120: 661a d83d 696a 473c 04cb a7bd 1689 42bd
00000130: c3c1 ca3d b201 c63d 873d adbd c026 013d
00000140: 46cb 66bd 6826 e53d 91a3 2f3c f5bb c8bd
00000150: 90f8 313d 1666 303c 4152 273b 5ad7 41bd
00000160: 6d4e e8ba a3af 99bd 7ff5 b2bd 33a4 cdbd
00000170: 4603 4a3d 9f73 80bd e7b6 e83b a53c c23c
00000180: 72f1 fa3d 79a3 1a3d 568b 613c b66a f1bd
00000190: 936a 913c 1750 53bd f9a6 33bd a8f8 edbc
000001a0: aa3f a13d 5515 123d b42f 873d bb3a ebbd
000001b0: 6164 ad3d ce30 2ebb 4789 c5bd 37eb 0dbb
000001c0: 9c83 623d ea6e 343c fb47 473c 7af2 ff3d
000001d0: e9a2 66bd 8ada 44bd 707f 653d 7cd0 853b
000001e0: 0b72 b2bd 9682 a1bd 0dc5 68bd c969 a6bd
000001f0: 69bc f13c c055 b6bc cf29 bb3d 3fbd acbd

fc5.weight f4 [64, 128]
-0.03326656 0.08764708 -0.07865401 -0.018966207 0.008041775 -0.034371663 -0.04254779 -0.033673875
-0.06549448 0.011685983 -0.06166101 0.0060727415 0.08766348 0.018566042 -0.06767581 -0.03862781
0.027383655 -0.07711032 0.016635263 -0.068197794 0.05433295 0.04811323 -0.079175115 0.0010569523
-0.015886068 -0.031920616 -0.042938173 0.08000708 0.058480058 -0.03350977 -0.049292803 -0.066443294
0.055029754 -0.05517438 -0.022773681 0.03927366 -0.009687522 -0.019473894 -0.023500174 0.07538586
0.01985951 0.014142853 0.059926104 -0.024113538 0.088378355 0.011564469 0.019071395 0.0009999684
-0.028393134 -0.036826164 0.014601985 -0.08429635 0.083735496 -0.009310705 -0.053136386 -0.045600746
0.03796077 -0.075645976 -0.00910271 0.05740933 0.06758824 0.000950529 -0.08273733 0.08237271
-0.08047776 0.035875976 0.06070628 0.022383906 -0.034797385 0.06000245 0.07390802 0.009695885
-0.061586387 -0.02425205 0.062407643 0.056295954 0.02480965 -0.087032706 -0.069492854 -0.022234704
0.016283348 -0.063272305 -0.044547632 0.08965663 -0.053995773 0.04564745 -0.07473286 -0.05106915
-0.056518488 -0.06775089 0.013680942 -0.016609903 -0.038284935 -0.07596082 0.011952179 -0.019689
-0.0074928286 0.081480935 0.0583682 -0.027416771 0.039109193 0.04157786 -0.033225365 0.05444101
0.019948013 0.0281162 0.057052594 -0.02650043 0.07392545 -0.07640897 0.010109889 0.041656774
0.03828786 -0.054532133 -0.027173342 0.04645028 0.06120459 -0.05629838 0.04846324 -0.041865822
-0.025167739 0.057120416 0.006143468 -0.059714343 0.019299433 -0.08313463 -0.031141276 -0.0034688115
0.019824177 0.06986283 0.0052634454 -0.07721093 -0.023905713 -0.0825941 0.05245174 -0.05747741
-0.082691886 -0.0063634957 0.039144337 0.07328011 0.03113312 0.028648553 -0.061239723 -0.020677626
0.08823825 0.025768958 0.05444778 0.06962285 0.06336809 -0.057652142 0.024942892 0.0800773
0.016145818 0.03034203 0.07118429 -0.012210073 -0.052746538 -0.076019056 0.013046012 -0.018893622
-0.023647513 0.061712407 -0.04749405 -0.0012959467 0.07597325 -0.038908407 -0.054716676 0.07420092
-0.012571175 0.08156642 0.00234537 -0.061317734 0.031259563 0.03606418 0.08522155 0.08518845
0.07716132 0.086291894 -0.07381018 0.04053444 0.023382673 -0.014300466 0.026730282 -0.070382684
-0.0362251 -0.010247537 -0.050394963 0.08356108 0.02268325 0.03505637 0.06312561 0.086020865
-0.04163217 0.012200659 -0.017537506 -0.053071696 -0.037810262 -0.060789604 -0.063628905 0.038894635
-0.0059740297 0.0627229 0.07360032 -0.06674686 -0.04233972 0.0061606406 -0.08080037 -0.07760483
-0.029259836 -0.010044074 0.07576679 -0.086358234 0.06777017 -0.024629567 0.06167245 0.0446088
-0.018747378 0.07693402 0.070094034 0.04809083 0.024184387 -0.07034249 -0.07821789 0.07505034
0.033915464 0.06573483 -0.011783095 -0.08385732 0.062205084 -0.052835155 -0.002698071 -0.056611504
0.028666055 -0.0018800468 0.04299026 0.051753543 0.054475196 0.08156022 0.02377349 -0.03383267
0.064743675 -0.08387601 0.08542232 -0.026386451 0.07217319 0.023895696 0.036772396 0.014022768
-0.0756882 -0.0005160174 -0.060031485 -0.024370741 0.070451826 -0.080244035 -0.064647384 0.07560767
00000000: 8442 08bd 5080 b33d 5b15 a1bd 055f 9bbc
00000010: a6c1 033c 4dc9 0cbd 9746 2ebd 9eed 09bd
00000020: f821 86bd 9176 3f3c 4190 7cbd d9fd c63b
00000030: e988 b33d d017 983c 9d99 8abd 3238 1ebd
00000040: b053 e03c 04ec 9dbd ad46 883c 49ab 8bbd
00000050: 3a8c 5e3d 6112 453d 9026 a2bd 6f89 8a3a
00000060: 8023 82bc 31bf 02bd f0df 2fbd c1da a33d
00000070: c988 6f3d 8a41 09bd 40e7 49bd 6c13 88bd
00000080: e166 613d 88fe 61bd df8f babc 6bdd 203d
00000090: 6ab8 1ebc b787 9fbc 7083 c0bc e763 9a3d
000000a0: 69b0 a23c 6db7 673c 1375 753d c189 c5bc
000000b0: b6ff b43d e678 3d3c 9d3b 9c3c 5f11 833a
000000c0: b898 e8bc 08d7 16bd 2a3d 6f3c 91a3 acbd
000000d0: 847d ab3d ed8b 18bc 8aa5 59bd d9c7 3abd
000000e0: c17c 1b3d 47ec 9abd 8823 15bc 0c26 6b3d
000000f0: b46b 8a3d ec2c 793a 3072 a9bd 06b3 a83d
00000100: 86d1 a4bd b0f2 123d 26a7 783d 745e b73c
00000110: b487 0ebd 21c5 753d 175d 973d 7ddb 1e3c
00000120: 0242 7cbd 3cac c6bc 289f 7f3d 9696 663d
00000130: 9b3d cb3c 343e b2bd 4552 8ebd 8e25 b6bc
00000140: a864 853c e994 81bd 9477 36bd e59d b73d
00000150: ac2a 5dbd d2f8 3a3d 8b0d 99bd e32d 51bd
00000160: ee7f 67bd fbc0 8abd 0826 603c 7e11 88bc
00000170: aad0 1cbd 5991 9bbd 12d3 433c d34a a1bc
00000180: 6786 f5bb 7adf a63d 7e13 6f3d 2399 e0bc
00000190: f630 203d 8c4d 2a3d 5217 08bd 89fd 5e3d
000001a0: 046a a33c f253 e63c fbaf 693d 6e17 d9bc
000001b0: 3a66 973d 4e7c 9cbd f3a3 253c 4ba0 2a3d
000001c0: bbd3 1c3d 165d 5fbd a19a debc a642 3e3d
000001d0: aab1 7a3d 2199 66bd 6481 463d 7f7b 2bbd
000001e0: 932c cebc 19f7 693d 254f c93b 0797 74bd
000001f0: d819 9e3c 7d42 aabd fd1b ffbc 0055 63bb
00000200: 5066 a23c 3e14 8f3d fb78 ac3b c420 9ebd
00000210: ead5 c3bc 1827 a9bd a3d7 563d 6f6d 6bbd
00000220: 5d5a a9bd df84 d0bb d055 203d e213 963d
00000230: e30a ff3c 5fb0 ea3c 81d6 7abd 2064 a9bc
00000240: 41b6 b43d 6c19 d33c a304 5f3d 6d96 8e3d
00000250: 21c7 813d a724 6cbd 0955 cc3c 91ff a33d
00000260: 3c44 843c d98f f83c 12c9 913d c20c 48bc
00000270: c10c 58bd e1af 9bbd f1be 553c ccc6 9abc
00000280: 6eb8 c1bc 26c6 7c3d 1f89 42bd c1dc a9ba
00000290: dd97 9b3d 6c5e 1fbd 981e 60bd a7f6 973d
000002a0: 54f7 4dbc 4c0c a73d c7b4 193b 4e28 7bbd
000002b0: 070a 003d 09b8 133d a388 ae3d 4877 ae3d
000002c0: c106 9e3d ceb9 b03d cb29 97bd 7107 263d
000002d0: 058d bf3c 804c 6abc 77f9 da3c cc24 90bd
000002e0: c560 14bd 49e5 27bc f36a 4ebd 1222 ab3d
000002f0: 39d2 b93c 4597 0f3d 0048 813d b52b b03d
00000300: 7f86 2abd 46e5 473c d1aa 8fbc b561 59bd
00000310: efde 1abd 85fe 78bd df4f 82bd fb4f 1f3d
00000320: cbc1 c3bb dd74 803d c4bb 963d 94b2 88bd
00000330: 6a6c 2dbd 33df c93b aa7a a5bd 48ef 9ebd
00000340: 53b2 efbc e68f 24bc 9e2b 9b3d 96dc b0bd
00000350: 16cb 8a3d f2c3 c9bc 409c 7c3d b8b7 363d
00000360: 1a94 99bc 958f 9d3d 768d 8f3d e4fa 443d
00000370: 561e c63c b90f 90bd b330 a0bd feb3 993d
00000380: f1ea 0a3d fc9f 863d e20d 41bc 63bd abbd
00000390: c2ca 7e3d ad69 58bd 1fd2 30bb 77e1 67bd
000003a0: 13d5 ea3c e76b f6ba 8e16 303d 86fb 533d
000003b0: 6221 5f3d 0b09 a73d 9fc0 c23c 2094 0abd
000003c0: 5598 843d 2fc7 abbd e6f1 ae3d 6628 d8bc
000003d0: 8acf 933d e8c0 c33c a79e 163d c0bf 653c
000003e0: 6a02 9bbd 5745 07ba 93e3 75bd 26a5 c7bc
000003f0: 0c49 903d fc56 a4bd d965 84bd 32d8 9a3d

fc5.bias f4 [64]
0.072067454 -0.040441334 0.04534898 -0.052746147 0.0060533625 0.007984436 -0.05533299 0.014167866
-0.005582854 0.03533676 -0.03114113 -0.03166403 0.06432552 -0.08422371 -0.055162124 -0.056529857
0.07775279 -0.040116776 0.08686429 -0.029214555 -0.01252874 0.030906815 0.030758219 -0.08415421
0.011921892 0.056867763 0.038636252 0.039833285 0.039148133 0.028471699 0.045396168 0.062089875
0.020550333 0.03326089 0.05131379 -0.016725836 0.040784165 0.01087962 0.04935891 -0.037034974
-0.020804787 -0.025524652 0.035146818 -0.06854226 0.081898674 -0.036123756 -0.01209587 -0.08218013
0.048749536 0.043867603 0.0078077866 -0.012366821 0.02768211 -0.017218756 0.02188095 -0.0101987785
0.07617771 0.0029892179 0.06606692 0.0006037174 0.07042648 -0.06350982 0.035369862 -0.048336037
00000000: 1a98 933d d0a5 25bd dabf 393d 580c 58bd
00000010: 495b c63b 27d1 023c d8a4 62bd 5620 683c
00000020: 60f0 b6bb 47bd 103d af1b ffbc 24b2 01bd
00000030: 19bd 833d 7b7d acbd aef1 61bd da8b 67bd
00000040: db3c 9f3d 7d51 24bd e8e5 b13d 5d53 efbc
00000050: 5845 4dbc 4a30 fd3c a9f8 fb3c 0b59 acbd
00000060: 0a54 433c 2cee 683d 0c41 1e3d 3a28 233d
00000070: cb59 203d 7b3d e93c 55f1 393d f451 7e3d
00000080: 2c59 a83c 923c 083d 692e 523d 9f04 89bc
00000090: 4c0d 273d 6f40 323c 922c 4a3d fcb1 17bd
000000a0: cd6e aabc 1319 d1bc 1cf6 0f3d e25f 8cbd
000000b0: 7eba a73d 81f6 13bd c22d 46bc 0e4e a8bd
000000c0: 98ad 473d 84ae 333d 76d8 ff3b 359e 4abc
000000d0: 98c5 e23c 590e 8dbc ae3f b33c c718 27bc
000000e0: 0f03 9c3d c1e6 433b 184e 873d ca42 1e3a
000000f0: c23b 903d 7011 82bd fddf 103d 02fc 45bd
