models_submitted/less_loss-CNN_2L_FC_R400.pt (torch, 160817 bytes, 22 tensors)

conv1.weight f4 [32, 1, 1]
-0.6471226 0.49718863 0.9442831 -0.33202332 -0.8429132 0.025086349 -0.73975754 0.8382959
0.78445077 -0.5640021 0.91508687 0.23317495 0.38123295 0.81816745 0.67299104 -0.41044575
-0.7685211 -0.4232069 -0.16132423 -0.108663574 -0.8330641 -0.04230167 0.2573105 -0.84194607
-0.27143502 -0.8397324 -0.80257255 0.01257842 0.21055251 0.75115466 0.18382835 0.939992
00000000: d4a9 25bf 828f fe3e 8abc 713f f6fe a9be
00000010: 29c9 57bf e381 cd3c c060 3dbf 8f9a 563f
00000020: c4d1 483f 7162 10bf 2243 6a3f 6ac5 6e3e
00000030: f730 c33e 6c73 513f 2449 2c3f f225 d2be
00000040: ccbd 44bf 93ae d8be 2e32 25be 028b debd
00000050: b043 55bf 8444 2dbd 34be 833e c789 57bf
00000060: 88f9 8abe b4f8 56bf 6575 4dbf b815 4e3c
00000070: 149b 573e ac4b 403f 803d 3c3e 51a3 703f

conv1.bias f4 [32]
-0.6192634 -0.47417593 -0.9523963 0.9038175 -0.54203975 -0.7669941 0.9316021 0.9516225
-0.94293565 -0.191489 -0.6999969 -0.27560732 -0.6911986 -0.8252052 0.31346267 -0.33582976
0.67862153 -0.35593835 0.47162086 0.4675404 -0.39419794 -0.7429962 0.84404755 0.58229226
0.13497056 -0.33416766 -0.9544206 -0.4860614 0.82690847 0.27099574 0.40556177 -0.95004
00000000: 0c88 1ebf 30c7 f2be 3ed0 73bf 9560 673f
00000010: 1ec3 0abf ba59 44bf 7a7d 6e3f 889d 733f
00000020: 3b64 71bf b115 44be ff32 33bf 671c 8dbe
00000030: 64f2 30bf a640 53bf 2e7e a03e e1f1 abbe
00000040: 24ba 2d3f 8d3d b6be 4a78 f13e 7561 ef3e
00000050: 50d4 c9be 0035 3ebf 8013 583f 1b11 153f
00000060: b935 0a3e 0618 abbe e954 74bf 0add f8be
00000070: 46b0 533f f4bf 8a3e cba5 cf3e d235 73bf

conv2.weight f4 [64, 32, 1]
0.12665866 -0.026513008 -0.050811846 -0.072553724 0.039512273 0.06353027 -0.0441051 0.112704575
0.14784406 0.00075629546 0.022680303 0.116382904 0.023851795 -0.030609502 -0.1306338 -0.15107304
-0.01570827 0.11070391 0.06786134 0.09691596 -0.052586827 0.11170711 0.1680369 0.037552077
-0.06965561 -0.098324664 -0.13174982 0.07058055 -0.082971014 -0.16281243 -0.015240352 0.16874525
-0.0043356544 -0.03524978 0.011957182 -0.17193404 0.028477687 -0.105151206 0.12725347 0.070947506
-0.08623033 0.17019957 -0.01240341 0.11872422 0.1045501 -0.1449763 0.008652047 0.075223476
0.056328434 0.11323115 -0.027790308 -0.110338464 0.01922541 -0.06257868 -0.06571079 0.08012792
-0.12240924 0.12056293 0.09933143 0.01696494 0.13029373 0.007863438 -0.111720935 0.1562638
0.11103075 -0.07776009 -0.12141078 -0.061447944 -0.047510818 0.005022604 -0.12998444 0.16030413
-0.162066 -0.13234565 0.051748164 -0.13971402 0.10490142 -0.0760007 -0.058740426 -0.15449548
0.14601713 0.09533223 0.08716611 0.09129423 -0.0073421765 0.016199674 -0.16479686 0.1708671
-0.12168493 -0.013843935 0.115710735 -0.03820554 0.16209926 0.010357461 0.17252772 0.057991162
0.176205 0.083640285 -0.13540977 -0.16773045 -0.053138036 0.07975475 -0.03851357 0.07837041
0.059942223 0.12910967 -0.09527972 -0.049261965 0.14320198 -0.12774533 0.02883299 -0.08649412
-0.17427495 -0.029829 0.1559967 0.14703155 0.051056154 -0.10463267 0.051912576 -0.08618946
-0.08168782 -0.13091712 0.15338413 0.008078921 0.1166156 -0.13743247 -0.003452434 -0.15962844
0.14110026 0.13839471 0.11349741 -0.070524596 0.05722617 0.04370929 0.08016816 -0.15313749
0.123456135 0.09245061 -0.052468926 -0.08401778 0.086167306 -0.010495703 -0.057589795 -0.102529176
-0.13597631 -0.066522844 0.1526797 -0.01291688 0.1454756 -0.10431724 0.0052416576 0.058784395
-0.10676603 0.095602356 0.10584347 0.025802376 -0.054566327 -0.13517475 -0.04194939 -0.06604499
0.02168288 0.053933244 0.0059258463 0.12529577 -0.07190666 -0.1636243 0.12051345 -0.008837793
0.085402116 -0.069368415 -0.16412164 -0.13747658 -0.07008846 0.071936786 -0.09012191 -0.12637284
-0.07351483 -0.0909573 0.055283442 0.0657371 0.0028561507 0.0936364 -0.10283849 0.16375042
-0.10351379 -0.09289554 0.02595238 -0.15360191 0.119553685 0.058840215 0.16332306 -0.07098749
0.07194153 -0.0140751265 -0.120279506 -0.12096486 0.1219271 -0.091492936 -0.041948203 0.0011803437
0.02706931 0.035271987 -0.011246025 -0.17318326 0.0019114623 0.08447587 0.13539389 0.12928829
0.01362232 0.029068382 -0.12942787 0.09865355 -0.115337856 -1.6578362e-05 0.086482845 0.06018623
0.047776796 0.13749449 -0.029487265 -0.15328513 -0.13247803 -0.082419895 0.088252395 0.031302348
0.12184387 -0.07271578 0.017701594 -0.13325001 0.1156541 -0.055481035 -0.15489532 -0.025644943
0.1670801 -0.14418443 -0.020202061 -0.02596969 -0.017816752 -0.07883124 -0.053675454 -0.038264435
0.1074745 0.16526218 -0.04601444 0.005640988 0.16786368 -0.029289598 0.09110021 0.05092244
0.119624324 0.058959104 0.11064794 0.07208038 0.0009589731 -0.055787258 0.068664655 -0.10148028
00000000: cfb2 013e cf31 d9bc 1520 50bd 0c97 94bd
00000010: 9fd7 213d 281c 823d 8da7 34bd a8d1 e63d
00000020: 6f64 173e 2142 463a 0bcc b93c 295a ee3d
00000030: d764 c33c c7c0 fabc dec4 05be e4b2 1abe
00000040: a1ae 80bc bbb8 e23d e3fa 8a3d e07b c63d
00000050: 4965 57bd b3c6 e43d dd11 2c3e 35d0 193d
00000060: 9aa7 8ebd 715e c9bd 6de9 06be 898c 903d
00000070: b5ec a9bd 4db8 26be abb2 79bc 8ecb 2c3e
00000080: 1b12 8ebb 1362 10bd 0ee8 433c 7a0f 30be
00000090: 0a4a e93c 8459 d7bd bc4e 023e ed4c 913d
000000a0: 8799 b0bd cc48 2e3e ac37 4bbc af25 f33d
000000b0: 5d1e d63d ab74 14be 51c1 0d3c c40e 9a3d
000000c0: a5b8 663d bce5 e73d 80a8 e3bc 22f9 e1bd
000000d0: 9b7e 9d3c 4029 80bd 6193 86bd 1b1a a43d
000000e0: b2b1 fabd b3e9 f63d 476e cb3d 0ffa 8a3c
000000f0: b86b 053e a6d5 003c f2cd e4bd 9e03 203e
00000100: 1764 e33d af40 9fbd 37a6 f8bd d7b0 7bbd
00000110: b49a 42bd a894 a43b a41a 05be c426 243e
00000120: a1f4 25be 9e85 07be e2f5 533d 3111 0fbe
00000130: 8ed6 d63d 41a6 9bbd cd99 70bd 1034 1ebe
00000140: 8485 153e 8b3d c33d 2584 b23d 78f8 ba3d
00000150: a496 f0bb 2eb5 843c 82c0 28be c9f7 2e3e
00000160: f335 f9bd acd1 62bc c0f9 ec3d 6a7d 1cbd
00000170: 59fd 253e 57b2 293c 1bab 303e 2488 6d3d
00000180: 156f 343e 994b ab3d dca8 0abe 88c1 2bbe
00000190: 45a7 59bd 7556 a33d 68c0 1dbd aa80 a03d
000001a0: fa85 753d 5335 043e 0422 c3bd eac6 49bd
000001b0: 8aa3 123e accf 02be 2a33 ec3c d423 b1bd
000001c0: 2275 32be f25b f4bc 99bd 1f3e 708f 163e
000001d0: 4220 513d a749 d6bd 48a2 543d 1984 b0bd
000001e0: f24b a7bd 230f 06be bb10 1d3e 735d 043c
000001f0: 29d4 ee3d 19bb 0cbe 3b42 62bb a375 23be
00000200: 967c 103e 58b7 0d3e 5571 e83d 336f 90bd
00000210: fd65 6a3d 8308 333d 342f a43d 13d0 1cbe
00000220: 92d6 fc3d bf56 bd3d a8e9 56bd 8411 acbd
00000230: 7c78 b03d 2bf6 2bbc 47e3 6bbd d1fa d1bd
00000240: 603d 0bbe 213d 88bd 1158 1c3e 52a1 53bc
00000250: 8ef7 143e 47a4 d5bd 36c2 ab3b e8c7 703d
00000260: 26a8 dabd 2bcb c33d 76c4 d83d 815f d33c
00000270: f180 5fbd 406b 0abe 20d3 2bbd 9942 87bd
00000280: 4ca0 b13c 1be9 5c3d 9a2d c23b 894d 003e
00000290: cd43 93bd 218d 27be c1cf f63d 64cc 10bc
000002a0: 4ee7 ae3d 0711 8ebd 810f 28be a9c6 0cbe
000002b0: 8a8a 8fbd 9853 933d d691 b8bd e267 01be
000002c0: f18e 96bd d247 babd e470 623d 2ca1 863d
000002d0: 422e 3b3b 71c4 bf3d fc9c d2bd 31ae 273e
000002e0: 0aff d3bd 0440 bebd 169a d43c d249 1dbe
000002f0: 90d8 f43d 7002 713d 293e 273e e461 91bd
00000300: 1556 933d 5c9b 66bc 1a55 f6bd 6dbc f7bd
00000310: eab4 f93d a660 bbbd e1d1 2bbd c3b5 9a3a
00000320: 75c0 dd3c 5c79 103d 3f41 38bc f456 31be
00000330: 088a fa3a af01 ad3d b2a4 0a3e 2664 043e
00000340: 2730 5f3c d120 ee3c bd88 04be df0a ca3d
00000350: 4136 ecbd c311 8bb7 eb1d b13d d685 763d
00000360: 9ab1 433d 5bcb 0c3e 478f f1bc c7f6 1cbe
00000370: 52a8 07be c3cb a8bd acbd b43d e436 003d
00000380: 4789 f93d 03ec 94bd ef02 913c b172 08be
00000390: 0fdc ec3d 1540 63bd e19c 1ebe 5815 d2bc
000003a0: 0c17 2b3e 15a5 13be cb7e a5bc 63be d4bc
000003b0: 70f4 91bc 4672 a1bd cbda 5bbd 2bbb 1cbd
000003c0: 971b dc3d 7d3a 293e a379 3cbd 09d8 b83b
000003d0: 75e4 2b3e bdf0 efbc bf92 ba3d 0c94 503d
000003e0: 99fd f43d 1a7f 713d 639b e23d e19e 933d
000003f0: 9863 7b3a 2e81 64bd 0ea0 8c3d e5d4 cfbd

conv2.bias f4 [64]
-0.15739693 0.044145655 0.018569581 -0.09894893 -0.07436047 -0.06178878 -0.028847404 -0.12156084
0.15005389 -0.14226119 -0.006703525 -0.049545437 -0.11434312 -0.046179395 0.035855822 -0.101130486
-0.01915668 -0.0061135283 0.1597385 0.08426756 -0.1677445 -0.0056575295 0.06303734 0.07570018
-0.16675949 0.15475771 0.090416834 0.020323316 -0.16629992 -0.17324507 0.17137021 -0.07497023
0.050657347 -0.12907264 0.07927613 0.086234726 -0.1740887 -0.102936305 0.1482784 0.025546892
-0.17350248 -0.12388566 -0.07341542 0.16850868 -0.04349019 -0.0051320856 0.046436124 -0.0188284
0.023525031 0.07440538 -0.08222271 0.0810502 0.024343226 0.09700833 0.13865477 0.075104296
-0.07436519 -0.14307879 -0.06870031 -0.12853962 -0.077088915 -0.15360919 -0.00069948705 0.09221314
00000000: a92c 21be 13d2 343d 3c1f 983c bda5 cabd
00000010: 4d4a 98bd 3b16 7dbd 6451 ecbc e4f4 f8bd
00000020: baa7 193e ebac 11be 3ea9 dbbb 28f0 4abd
00000030: ba2c eabd 9b26 3dbd 8edd 123d 801d cfbd
00000040: 78ee 9cbc fe53 c8bb 7d92 233e 7894 ac3d
00000050: 37c5 2bbe cc62 b9bb b919 813d b208 9b3d
00000060: 00c3 2abe ce78 1e3e 762c b93d 157d a63c
00000070: 874a 2abe 2867 31be ac7b 2f3e fe89 99bd
00000080: 147e 4f3d 9e2b 04be 865b a23d d59b b03d
00000090: 4f44 32be 45d0 d2bd 4bd6 173e b747 d13c
000000a0: a2aa 31be c4b7 fdbd d35a 96bd 8a8d 2c3e
000000b0: c522 32bd 0e2b a8bb ce33 3e3d 043e 9abc
000000c0: 91b7 c03c d961 983d 6164 a8bd a6fd a53d
000000d0: 726b c73c 4eac c63d 84fb 0d3e 48d0 993d
000000e0: c74c 98bd 3f83 12be c0b2 8cbd e49f 03be
000000f0: cbe0 9dbd ba4b 1dbe c85d 37ba 3eda bc3d

fc1.weight f4 [16, 896]
-0.03161705 0.02600986 0.017263923 -0.0038430002 -0.0043831416 0.030203804 0.021958709 -0.019873763
0.012884849 0.002245889 -0.009890447 0.02662003 -0.007116228 -0.029296655 0.0016609675 -0.026395934
0.01811366 0.01602394 -0.01756446 0.012217542 0.007691664 0.015211247 0.031948783 0.011704818
-0.030500857 0.011984969 0.0039005738 -0.005593913 -0.0062789824 -0.02671372 -0.0014212745 -0.013645492
-0.015317433 0.03128638 -9.65914e-05 -0.027402058 -0.010504535 0.00775157 -0.015219515 -0.012774752
0.022365414 0.00955483 -0.01849516 0.024416234 -0.027567504 -0.023175597 0.021071263 0.017477104
0.03315533 -0.021046603 0.012058615 -0.010835021 0.016891759 -0.032424342 0.00272589 -0.025411893
0.021962455 0.006445663 0.0013401696 -0.027082058 0.017804489 0.020020297 0.010319178 -0.016243476
-0.0007115098 -0.022769986 -0.017146751 -0.031990934 -0.004707123 0.02823628 -0.011912884 0.0019873432
0.016118556 -0.02999279 -0.030839933 0.020112302 0.017202143 0.024456218 -0.012147614 -0.03313267
0.005130665 -0.01285284 -0.007636617 0.019599186 -0.038446296 -0.004066561 -0.028275933 0.010548698
-0.0053791245 -0.005425884 -0.0013213732 0.019486312 -0.011969349 -0.020661307 0.01759344 0.019504817
0.00019251676 0.023132084 -0.01829693 -0.0016540417 0.015656717 0.011332959 -0.027783796 -0.03150804
0.0052814446 0.01484222 -0.032465044 0.014826984 0.019375406 0.005570819 -0.021991577 -0.014870043
-0.043633167 -0.02890292 0.026371095 0.020223359 -0.026153605 -0.03191273 -0.018193763 0.018542165
0.023439296 0.00022293716 0.017398749 0.032460418 0.02442902 -0.020617818 -0.0054246467 0.017117867
-0.02806971 0.023106858 -0.01755957 0.007901514 0.0060512247 -0.027709298 0.00802023 0.03299493
-0.007415383 -0.008956663 -0.027283838 0.010980548 -0.040970042 -0.019321818 0.0073584495 0.015790366
-0.013003455 0.010668354 -0.016037436 0.0038161308 0.019495938 -0.0016415681 0.017956605 0.010415329
0.028237708 0.023773052 0.009857215 -0.015554947 -0.008918571 -0.0079900585 -0.009758452 0.003909913
0.025131118 -0.009509882 0.014396567 -0.0055499757 -0.0136330705 0.027544653 -0.017401762 -0.0033618575
-0.013150521 0.012607789 -0.020077389 -0.005766924 0.01327027 0.00057039526 -0.0047644083 0.023517588
-0.015855359 0.023458056 -0.015800105 -0.03194969 -0.025953023 -0.023238322 -0.019910112 -0.012088279
-0.010883604 -0.034714706 -0.0047409777 -0.0052521615 0.03133079 -0.010903536 -0.01989183 0.030253453
0.03220578 -0.007061513 0.007534342 -0.03423856 0.002382077 -0.029177235 0.018836277 -0.022040002
0.03315015 0.025589691 -0.0079211 -0.030379456 -0.024033558 -0.002453818 0.008327656 0.023290895
0.018841023 -0.020794416 -0.05344966 0.023829632 0.013470131 -0.007872464 -0.01118938 -0.030050365
-0.00047568866 -0.009366186 -0.026578113 0.019310482 -0.015521713 0.007316014 0.0052726977 0.026563162
-0.0024895438 0.027458165 0.006399563 -0.004492291 0.015161832 -0.014010626 0.032451604 0.0031672053
-0.027715662 -0.0030007958 -0.032971237 -0.022942603 0.028665027 -0.018561577 0.032425847 -0.008567195
0.0042546405 0.0026723498 -0.014524195 0.022881368 -0.008105883 0.025681823 0.025172474 0.02337782
-0.0016944415 0.024102574 -0.019490099 -0.027255546 -0.02944201 0.0072623855 -0.005358966 -0.0149126835
00000000: e180 01bd a112 d53c 126d 8d3c d8da 7bbb
00000010: 75a0 8fbb f86d f73c c0e2 b33c 4dce a2bc
00000020: f91a 533c c42f 133b 8b0b 22bc 4012 da3c
00000030: 3f2f e9bb 8aff efbc d2b4 d93a 493c d8bc
00000040: 1963 943c a344 833c 58e3 8fbc 162c 483c
00000050: 5b0a fc3b 9838 793c badc 023d 91c5 3f3c
00000060: efdc f9bc 9a5c 443c c5a0 7f3b 254d b7bb
00000070: ecbf cdbb bbd6 dabc 0f4a baba 5791 5fbc
00000080: f8f5 7abc 2626 003d 1d91 cab8 487a e0bc
00000090: 371b 2cbc e200 fe3b 465b 79bc 324d 51bc
000000a0: ac37 b73c dd8b 1c3c 2983 97bc 8e04 c83c
000000b0: 3fd5 e1bc c0da bdbc a49d ac3c 252c 8f3c
000000c0: e2cd 073d ed69 acbc 7f91 453c 5f85 31bc
000000d0: 9660 8a3c 63cf 04bd d8a4 323b 9a2c d0bc
000000e0: 9bea b33c 2436 d33b a1a8 af3a 31db ddbc
000000f0: b8da 913c 9b01 a43c c511 293c 0a11 85bc
00000100: 9d84 3aba 1f88 babc 5877 8cbc ed08 03bd
00000110: 363e 9abb c54f e73c 422e 43bc 163e 023b
00000120: 100b 843c 71b3 f5bc 07a4 fcbc 8ec2 a43c
00000130: 82eb 8c3c 6858 c83c c906 47bc 1fb6 07bd
00000140: 231f a83b b894 52bc 963c fabb 798e a03c
00000150: dd79 1dbd c940 85bb eea2 e7bc 72d4 2c3c
00000160: 5e43 b0bb 9dcb b1bb ed31 adba c2a1 9f3c
00000170: 171b 44bc e741 a9bc 1e20 903c 91c8 9f3c
00000180: 53de 4939 7f7f bd3c 71e3 95bc 6ecc d8ba
00000190: 8442 803c e0ad 393c d89a e3bc 930e 01bd
000001a0: f80f ad3b c82c 733c 11fa 04bd e1ec 723c
000001b0: 2cb9 9e3c 6b8b b63b ae27 b4bc 7ba1 73bc
000001c0: b1b8 32bd d1c5 ecbc 3208 d83c 75ab a53c
000001d0: 1640 d6bc ecb6 02bd 160b 95bc bde5 973c
000001e0: c403 c03c 3dc4 6939 d287 8e3c 37f5 043d
000001f0: 5e1f c83c b3e6 a8bc 3cc1 b1bb c53a 8c3c
00000200: 73f2 e5bc 984a bd3c 16d9 8fbc 5a75 013c
00000210: 5a49 c63b 9cfe e2bc 4867 033c b125 073d
00000220: befc f2bb f8be 12bc 5b82 dfbc c2e7 333c
00000230: 34d0 27bd ca48 9ebc 261f f13b cc5a 813c
00000240: 710c 55bc 52ca 2e3c f160 83bc 0d18 7a3b
00000250: f2b5 9f3c e329 d7ba bb19 933c 0ea5 2a3c
00000260: c452 e73c b4bf c23c 2880 213c 2dda 7ebc
00000270: 331f 12bc bce8 02bc eae1 1fbc ba1e 803b
00000280: c6df cd3c 56cf 1bbc 94df 6b3c 92dc b5bb
00000290: 3e5d 5fbc 53a5 e13c 248e 8ebc 9c52 5cbb
000002a0: 4875 57bc e690 4e3c 5679 a4bc 77f8 bcbb
000002b0: 8c6b 593c 9486 153a c11e 9cbb f5a7 c03c
000002c0: 19e3 81bc 1c2b c03c 396f 81bc aedd 02bd
000002d0: 6f9b d4bc 4b5e bebc 881a a3bc eb0d 46bc
000002e0: 2551 32bc 0231 0ebd 345a 9bbb 531a acbb
000002f0: b754 003d bfa4 32bc 31f4 a2bc 17d6 f73c
00000300: 35ea 033d 4464 e7bb a4e2 f63b bb3d 0cbd
00000310: 9f1c 1c3b 1905 efbc 894e 9a3c 3c8d b4bc
00000320: 74c8 073d 79a1 d13c 80c7 01bc 56de f8bc
00000330: 06e2 c4bc 3cd0 20bb b970 083c 8ccc be3c
00000340: 7d58 9a3c 0d59 aabc 08ee 5abd 5c36 c33c
00000350: d3b1 5c3c 82fb 00bc a953 37bc 2f2c f6bc
00000360: da65 f9b9 a274 19bc 58ba d9bc 0431 9e3c
00000370: c84e 7ebc 2cbb ef3b 98c6 ac3b fd9a d93c
00000380: 9d27 23bb f2ef e03c 6db3 d13b 1134 93bb
00000390: 5569 783c d38c 65bc f9eb 043d e390 4f3b
000003a0: f50b e3bc 00a9 44bb d90c 07bd 20f2 bbbc
000003b0: ebd2 ea3c 730e 98bc f7d0 043d 6c5d 0cbc
000003c0: 836a 8b3b 9722 2f3b e4f6 6dbc b571 bb3c
000003d0: 8ace 04bc b062 d23c 8136 ce3c d882 bf3c
000003e0: 0618 deba c372 c53c b3a9 9fbc 0647 dfbc
000003f0: 5f30 f1bc 4ef9 ed3b 449a afbb 5454 74bc

fc1.bias f4 [16]
-0.029829567 0.027412467 -0.011168049 -0.020596731 0.023115387 0.007077019 0.01926961 0.0050133457
0.028384203 0.018895814 0.023424754 0.0019889635 0.030747414 0.028170958 -0.024754414 0.016186388
00000000: 235d f4bc 1c90 e03c 31fa 36bc 7aba a8bc
00000010: 7b5c bd3c 57e6 e73b 4ddb 9d3c fe46 a43b
00000020: fd85 e83c 65cb 9a3c 45e5 bf3c 4559 023b
00000030: 00e2 fb3c c8c6 e63c c5c9 cabc 5199 843c

fc2.weight f4 [32, 16]
0.044718027 -0.18887696 -0.057329327 -0.1528033 -0.015707493 0.015512109 0.2444469 -0.030771285
0.09868544 -0.17775178 0.06780997 -0.12937461 -0.020472199 -0.08893621 0.031319648 -0.21869898
-0.17922227 0.21358241 0.12608126 -0.07417986 0.19995597 0.24182546 0.19387168 0.0068178773
-0.028888924 0.06100417 0.04260097 0.15180121 0.07459253 -0.09762166 -0.2045021 -0.017732743
0.061820056 0.15226905 0.15842143 -0.15792125 0.09546897 -0.08844906 -0.22648141 0.1006462
0.082089014 0.16886298 -0.15665025 -0.20526929 -0.21926169 -0.0046486906 -0.18401302 0.22097027
-0.18331155 -0.122420624 0.013074446 -0.024930404 -0.16135372 0.012999446 0.2472721 -0.11179367
-0.12215589 0.019439654 0.008211487 0.10879807 0.17881651 -0.013787334 0.1799741 -0.20137376
-0.026415348 0.13324045 0.069363624 -0.003755855 -0.22762114 -0.059881974 0.043002475 0.2075381
-0.022629626 -0.14762937 0.1878179 -0.13718674 -0.17102328 0.2638237 0.19988705 -0.24232656
0.23707373 0.23682372 -0.0247517 0.13641827 -0.15929268 0.14793833 -0.0057925005 -0.18826157
0.05496473 -0.174751 0.14751121 -0.07035954 -0.15696934 -0.1446953 0.08045449 -0.24477385
-0.07887672 0.09766203 0.18356389 0.14931089 -0.06762702 0.20690072 -0.06333689 0.10551345
0.11492954 -0.2348904 0.12263596 -0.23821178 -0.118657075 0.13089421 -0.1782777 -0.21285899
-0.22812706 0.22145951 -0.013172093 0.2523437 -0.16626948 -0.13671397 0.1342903 -0.13798326
0.118939206 -0.031289354 -0.12264737 0.20571746 -0.005109483 0.10729207 -0.0918971 0.15574126
0.10381445 -0.07673285 0.1309177 0.03710366 -0.0088884 0.053009704 -0.009837052 0.08119458
0.0074021877 0.12967363 0.14299838 0.15145977 -0.041224603 0.1407439 0.07476333 0.1435596
-0.051216535 0.15514053 0.17169623 -0.0040999507 -0.14545223 0.11912851 -0.103946134 0.022810698
0.09661305 -0.22196873 0.20994896 -0.001789932 -0.20688842 -0.15694529 0.04757863 0.046361104
-0.029350916 -0.08275664 0.12104257 -0.21513475 -0.10218803 0.054731756 -0.051249847 -0.24258295
-0.20357445 0.17724307 -0.13679984 -0.24923903 -0.22552687 0.2182961 0.09957959 -0.20973513
-0.14766783 0.23119691 0.20964831 0.0032284397 -0.19888212 0.22245286 -0.1779469 -0.21539116
0.026237657 0.0717349 0.030481344 0.20228678 -0.11609584 0.21609095 -0.057453085 0.12213357
-0.18190174 -0.14312333 -0.16458476 -0.23122087 -0.026524108 -0.09487438 -0.11844327 -0.24429327
0.0036944572 0.0042607775 0.10025734 0.039854098 -0.08180189 -0.16345204 -0.110296756 -0.023944406
0.06952466 -0.14482239 -0.12344934 0.22940631 0.21935605 -0.1735683 -0.21473204 0.20246881
0.10583806 -0.020281127 0.119217806 -0.08209961 -0.2308003 0.0059666634 -0.20603415 0.018838776
0.24239607 -0.028652787 0.026649265 -0.14849988 0.2191291 -0.08427492 -0.12247491 0.1868026
0.10179695 0.11518922 -0.2156751 0.15142034 0.016853219 -3.468582e-05 -0.073502764 -0.032396425
0.19928882 0.048832126 -0.2130265 0.012034707 0.18452932 -0.16029017 -0.10981012 0.116048336
0.24395864 -0.24225734 0.047309015 0.052785825 0.12440334 0.12991814 0.07756953 -0.2273197
00000000: 402a 373d f668 41be 28d2 6abd 7878 1cbe
00000010: 00ad 80bc 8026 7e3c 4a50 7a3e 1014 fcbc
00000020: 981b ca3d 9004 36be f4df 8a3d c77a 04be
00000030: 50b5 a7bc 3024 b6bd 0849 003d a0f2 5fbe
00000040: 0b86 37be 59b5 5a3e 721b 013e 9ceb 97bd
00000050: 42c1 4c3e 18a1 773e 4c86 463e 8068 df3b
00000060: 77a8 ecbc 82df 793d 5b7e 2e3d c771 1b3e
00000070: f8c3 983d dded c7bd 0069 51be 4244 91bc
00000080: 0737 7d3d 6bec 1b3e 3a39 223e 1cb6 21be
00000090: 3c85 c33d c824 b5bd beea 67be 981f ce3d
000000a0: 491e a83d 6bea 2c3e ec68 20be 1d32 52be
000000b0: 2386 60be 0b54 98bb e96d 3cbe 0846 623e
000000c0: 06b6 3bbe aab7 fabd 3336 563c d93a ccbc
000000d0: e939 25be a1fb 543c e634 7d3e 14f4 e4bd
000000e0: de2c fabd e93f 9f3c 7989 063c 86d1 de3d
000000f0: ad1b 373e 45e4 61bc 214b 383e ec34 4ebe
00000100: 0065 d8bc 2f70 083e 840e 8e3d ca24 76bb
00000110: 8415 69be cd46 75bd 5d23 303d de84 543e
00000120: c461 b9bc 272c 17be 5653 403e ae7a 0cbe
00000130: ba20 2fbe e613 873e 31af 4c3e 7424 78be
00000140: 75c3 723e eb81 723e 14c4 cabc 3bb1 0b3e
00000150: 9f1d 23be 257d 173e 04cf bdbb a4c7 40be
00000160: b222 613d edf1 32be 2e0d 173e aa18 90bd
00000170: 92bc 20be 012b 14be 53c5 a43d ffa5 7abe
00000180: 1e8a a1bd 0803 c83d 2cf8 3b3e f4e4 183e
00000190: 0980 8abd c8dd 533e c5b6 81bd 7017 d83d
000001a0: 2e60 eb3d 1c87 70be 9028 fb3d caed 73be
000001b0: 7b02 f3bd 2209 063e 6e8e 36be b5f7 59be
000001c0: 249a 69be 48c6 623e c3cf 57bc 3233 813e
000001d0: 8c42 2abe bffe 0bbe 6583 093e 7c4b 0dbe
000001e0: 6696 f33d 4429 00bd 8b2e fbbd 99a7 523e
000001f0: 736d a7bb f2bb db3d 8c34 bcbd a37a 1f3e
00000200: ac9c d43d 1d26 9dbd 4a0f 063e 02fa 173d
00000210: a7a0 11bc b420 593d 962b 21bc 5849 a63d
00000220: 0d8e f23b 2ac9 043e 2b6e 123e 4518 1b3e
00000230: 21db 28bd 2b1f 103e 841d 993d 4a01 133e
00000240: 6ec8 51bd 29dd 1e3e 23d1 2f3e e158 86bb
00000250: 6ef1 14be a6f9 f33d b6e1 d4bd 80dd ba3c
00000260: 10dd c53d c54b 63be dcfc 563e 279c eaba
00000270: 8fda 53be 44b6 20be cfe1 423d 24e5 3d3d
00000280: 5571 f0bc 507c a9bd 2be5 f73d 494c 5cbe
00000290: f547 d1bd 682e 603d 5ceb 51bd aa67 78be
000002a0: d275 50be 357f 353e 4215 0cbe 8438 7fbe
000002b0: 84f0 66be 0389 5f3e 62f0 cb3d cec4 56be
000002c0: 3c36 17be e2be 6c3e 0cae 563e 3b94 533b
000002d0: c1a7 4bbe afca 633e b637 36be 808f 5cbe
000002e0: 5bf0 d63c bfe9 923d 03b4 f93c 4424 4f3e
000002f0: a8c3 edbd f246 5d3e ed53 6bbd 2a21 fa3d
00000300: 7344 3abe ec8e 12be e888 28be 2ac5 6cbe
00000310: 1649 d9bc 804d c2bd 6392 f2bd 0428 7abe
00000320: b51e 723b fe9d 8b3b b853 cd3d 0d3e 233d
00000330: c087 a7bd f95f 27be 44e3 e1bd 0f27 c4bc
00000340: f262 8e3d 524c 14be 02d3 fcbd 7de9 6a3e
00000350: df9e 603e e3bb 31be b7e2 5bbe fc53 4f3e
00000360: a0c1 d83d 9b24 a6bc 7728 f43d d723 a8bd
00000370: ea56 6cbe 0084 c33b 9efa 52be c753 9a3c
00000380: ad36 783e 40b9 eabc 8f4f da3c 5a10 18be
00000390: 6163 603e 5498 acbd 20d4 fabd 2e49 3f3e
000003a0: eb7a d03d 53e8 eb3d efd9 5cbe ef0d 1b3e
000003b0: c30f 8a3c 9e7b 11b8 9e88 96bd 1db2 04bd
000003c0: 5e12 4c3e 3204 483d 9e23 5abe 382d 453c
000003d0: 41f5 3c3e 1b23 24be 21e4 e0bd c0aa ed3d
000003e0: 4bd0 793e 4f12 78be 19c7 413d f335 583d
000003f0: 2ec7 fe3d 4309 053e c6dc 9e3d 7fc6 68be

fc2.bias f4 [32]
0.13254918 0.17810017 0.05773661 0.24779119 -0.0067671104 0.15012392 0.041981064 -0.24771973
-0.16422379 -0.12908338 -0.06417053 0.08203399 -0.082522325 0.19164851 -0.06635359 -0.01728138
-0.05199301 0.07239196 -0.15534817 -0.15199806 0.17280874 -0.10908691 0.1504445 0.18388668
-0.03498424 0.07253489 0.02479268 0.04608188 -0.1232064 0.24947277 -0.14958052 0.019483807
00000000: f9ba 073e e45f 363e 397d 6c3d f9bc 7d3e
00000010: a3be ddbb 16ba 193e 56f4 2b3d 3eaa 7dbe
00000020: 482a 28be 6f2e 04be d76b 83bd 7001 a83d
00000030: 7701 a9bd 823f 443e 64e4 87bd ae91 8dbc
00000040: 9ff6 54bd 3c42 943d 9713 1fbe 61a5 1bbe
00000050: c6f4 303e f568 dfbd 1f0e 1a3e ca4c 3c3e
00000060: a24b 0fbd 2c8d 943d 051a cb3c 5ac0 3c3d
00000070: a353 fcbd ca75 7f3e a32b 19be 819c 9f3c

fc3.weight f4 [64, 32]
-0.07424836 -0.11044793 0.099980675 0.10374938 -0.12548727 -0.027783284 -0.026645198 0.1361198
0.14751399 0.044436064 -0.037245825 0.04068504 0.077831425 -0.16270456 -0.02346906 0.09471389
-0.16400677 0.10152207 0.106344484 0.14668937 -0.07527953 -0.11361505 0.15335552 0.016160397
-0.028066285 -0.09752515 0.026297864 0.14118049 0.09465768 0.0654473 0.06272515 0.112415
0.076428965 0.17416915 -0.16428412 -0.088350095 0.12027627 0.02858949 0.15489198 -0.099444106
0.10946518 0.056059968 0.075239226 -0.021076027 0.013322324 0.15708649 -0.035617035 -0.10083324
0.053182937 0.10884411 -0.059434466 -0.075635955 -0.10520722 -0.14418322 -0.11942603 -0.059518125
0.046518408 -0.036841128 -0.059235744 -0.1599674 -0.1271105 0.12541686 0.01614884 0.1456905
0.16461061 0.07515171 0.13270351 0.13239366 -0.022283014 -0.14415516 -0.16416007 0.09144061
0.026143009 -0.03949344 0.13970745 -0.14194807 -0.096448146 -0.07749189 -0.06676447 -0.08293574
0.039527524 0.01937002 0.061240636 0.059964113 -0.022058632 -0.16469835 0.11518663 0.09174232
0.1063342 0.08450293 -0.16054359 0.162911 -0.14858027 0.10263529 0.09491294 0.16607116
-0.07871559 0.10828721 0.036519386 -0.13789406 0.049774274 -0.001197208 -0.023465786 -0.06661514
-0.076896034 0.16195583 -0.0925465 0.1531157 0.06862217 -0.0039884085 -0.038583416 0.04633839
-0.07045427 0.14094275 -0.09799469 0.002617958 -0.13963228 0.13092317 -0.01528999 -0.06175947
-0.018362816 -0.16296764 -0.06773172 -0.049107943 0.046618734 0.07976435 -0.0114399325 -0.121981226
0.16508825 0.102046 -0.16600217 0.106772006 -0.09194104 0.047190055 0.05175335 -0.093040355
0.011270831 -0.087932736 -0.03194411 -0.14124045 -0.07462241 -0.018524814 -0.10511663 0.12281025
0.04412323 -0.13739438 -0.16711952 -0.01604693 0.15158479 -0.04815789 -0.013865518 -0.014500546
-0.0062909266 -0.0319983 0.0715178 -0.0005095607 0.11163887 0.051570922 0.17120022 0.020090114
0.013317037 0.097299665 -0.1585775 -0.002782108 0.0014210461 -0.122547165 -0.17199214 -0.14700955
-0.09769966 0.1307927 -0.07726875 -0.035569444 0.14994843 0.012407221 0.13143314 -0.06590221
-0.12529664 -0.16636491 0.04978682 0.13250054 -0.019060226 -0.16285196 0.020316832 0.16374107
-0.06968675 -0.09028278 -0.16626804 0.0838488 0.15743725 -0.11802336 0.08328763 -0.14108075
0.15658624 0.029134741 0.048856717 0.15788986 -0.10682506 -0.021844825 -0.03481562 0.054852635
0.10555618 -0.11020384 0.1255619 -0.1352311 -0.051766794 -0.08663304 -0.1442289 -0.08673893
0.07591228 -0.057880875 0.08456865 0.098630734 0.15523753 0.13207081 -0.08359026 0.1397372
0.13543527 0.10850567 -0.055853784 -0.040600605 -0.04282379 -0.10294298 0.14262258 -0.08129017
-0.021999152 0.033806156 -0.09294281 0.16830747 0.007337585 -0.06316387 0.10690455 0.16667362
0.14656456 0.15803303 -0.048514348 -0.0775717 0.12264026 0.00980594 -0.024568953 0.0980946
0.06443214 0.07779791 -0.0913079 -0.14492099 0.11028779 -0.019445105 -0.17415266 -0.031200806
0.09752766 0.053904235 -0.09441047 -0.14620927 -0.0047954875 -0.17329621 -0.013226537 -0.06378504
00000000: 860f 98bd 8632 e2bd abc2 cc3d 8e7a d43d
00000010: bc7f 00be c599 e3bc 0847 dabc fd62 0b3e
00000020: e80d 173e 9702 363d 148f 18bd 5ba5 263d
00000030: 1566 9f3d 069c 26be 3042 c0bc 5bf9 c13d
00000040: 64f1 27be ceea cf3d 23cb d93d bd35 163e
00000050: 272c 9abd 02af e8bd 3b09 1d3e cf62 843c
00000060: 44eb e5bc 44bb c7bd 9e6e d73c 9e91 103e
00000070: e3db c13d 3c09 863d 0b76 803d d639 e63d
00000080: ca86 9c3d 6659 323e 193a 28be e5f0 b4bd
00000090: 6853 f63d 8234 ea3c 019c 1e3e 5aa9 cbbd
000000a0: 482f e03d 239f 653d 0617 9a3d a2a7 acbc
000000b0: e045 5a3c 48db 203e 2be3 11bd a881 cebd
000000c0: 5ad6 593d a9e9 de3d 8e71 73bd 06e7 9abd
000000d0: e276 d7bd c4a4 13be a295 f4bd 47c9 73bd
000000e0: 168a 3e3d b9e6 16bd 2ea1 72bd 7ece 23be
000000f0: 4129 02be 476d 003e 924a 843c e42f 153e
00000100: af8f 283e 24e9 993d 6ee3 073e 3492 073e
00000110: de8a b6bc 699d 13be 9419 28be 3745 bb3d
00000120: dd29 d63c e0c3 21bd 780f 0f3e d65a 11be
00000130: 9b86 c5bd 11b4 9ebd cfbb 88bd 37da a9bd
00000140: 9de7 213d e0ad 9e3c 76d7 7a3d ee9c 753d
00000150: 4eb4 b4bc afa6 28be f8e6 eb3d 66e3 bb3d
00000160: bfc5 d93d df0f ad3d 8a65 24be 24d2 263e
00000170: 6d25 18be 7332 d23d b761 c23d 8f0e 2a3e
00000180: a435 a1bd afc5 dd3d 5a95 153d 1a34 0dbe
00000190: 1ce0 4b3d a2eb 9cba 523b c0bc 856d 88bd
000001a0: ab7b 9dbd c0d7 253e 0589 bdbd 5dca 1c3e
000001b0: c889 8c3d 32b1 82bb a509 1ebd 53cd 3d3d
000001c0: 544a 90bd 4c53 103e 71b1 c8bd 0c92 2b3b
000001d0: c4fb 0ebe b910 063e de82 7abc 7ff7 7cbd
000001e0: 9e6d 96bc fde0 26be eeb6 8abd 6925 49bd
000001f0: 49f3 3e3d 7e5b a33d 8e6e 3bbc 4bd1 f9bd
00000200: e50c 293e 7efd d03d 79fc 29be 48ab da3d
00000210: 954b bcbd 5c4a 413d 52fb 533d f18b bebd
00000220: 4ba9 383c 1416 b4bd d4d7 02bd 56a1 10be
00000230: a2d3 98bd 5ac1 97bc 6347 d7bd f183 fb3d
00000240: 8fba 343d 1db1 0cbe 6121 2bbe da74 83bc
00000250: 0b39 1b3e 3541 45bd 332c 63bc b393 6dbc
00000260: 1e24 cebb a610 03bd ed77 923d 0a94 05ba
00000270: eba2 e43d 083c 533d 1c4f 2f3e 0694 a43c
00000280: b42f 5a3c 0c45 c73d 2462 22be 0754 36bb
00000290: 6542 ba3a 02fa fabd b51e 30be ac89 16be
000002a0: c216 c8bd 86ee 053e 143f 9ebd 44b1 11bd
000002b0: 158c 193e a847 4b3c 6996 063e bdf7 86bd
000002c0: c34d 00be 905b 2abe 44ed 4b3d 39ae 073e
000002d0: 3124 9cbc aac2 26be 7c6f a63c bdab 273e
000002e0: edb7 8ebd 2ee6 b8bd 2b42 2abe ebb8 ab3d
000002f0: 3b37 213e 3bb6 f1bd b492 aa3d 7977 10be
00000300: 2558 203e fbab ee3c fb1d 483d e1ad 213e
00000310: 19c7 dabd ebf3 b2bc d39a 0ebd 28ad 603d
00000320: d72d d83d 8db2 e1bd 4c93 003e 057a 0abe
00000330: 6b09 54bd aa6c b1bd beb0 13be 2ea4 b1bd
00000340: e677 9b3d 7f14 6dbd 5432 ad3d e9fe c93d
00000350: 96f6 1e3e 923d 073e 5f31 abbd 4517 0f3e
00000360: 8baf 0a3e 3938 de3d f0c6 64bd d24c 26bd
00000370: 0068 2fbd c5d3 d2bd a70b 123e 767b a6bd
00000380: 9137 b4bc 5378 0a3d cd58 bebd cb58 2c3e
00000390: 2070 f03b 0f5c 81bd c6f0 da3d 7dac 2a3e
000003a0: 0515 163e 69d3 213e fbb6 46bd e9dd 9ebd
000003b0: d12a fb3d 18a9 203c d444 c9bc d2e5 c83d
000003c0: fff4 833d 8354 9f3d a3ff babd 2b66 14be
000003d0: 91de e13d 574b 9fbc 1355 32be d598 ffbc
000003e0: 95bc c73d b0ca 5c3d 475a c1bd e2b7 15be
000003f0: 7723 9dbb 9074 31be 1eb4 58bc bba1 82bd

fc3.bias f4 [64]
0.011405045 -0.043422475 -0.090963624 0.09293021 -0.096988864 -0.01319854 -0.124750584 0.08469903
0.009599379 0.09834224 0.12711997 -0.045678604 0.028917588 0.028718142 -0.01640018 -0.0013585262
-0.0127315875 -0.04410885 -0.0060960776 -0.08730888 0.08574894 0.09383355 -0.06209698 -0.028818052
-0.086062424 0.048708204 -0.12273667 0.06548075 -0.15605846 -0.16203184 -0.07681836 0.14375633
0.14052695 0.110558175 -0.12929487 -0.0610432 -0.1633509 0.08874806 -0.012262249 -0.045998283
-0.14313598 -0.15603393 0.0038877656 -0.03513651 0.0987808 -0.0889451 -0.121269025 -0.007151871
-0.12726535 -0.16141123 -0.1633557 -0.01587127 0.111754596 -0.11954225 0.030026568 0.14562315
0.15017028 0.14566262 0.13739176 -0.08513072 0.021421526 0.17272553 -0.114201516 0.061863367
00000000: 3adc 3a3c c4db 31bd 234b babd 3252 be3d
00000010: 19a2 c6bd b03e 58bc 3c7d ffbd af76 ad3d
00000020: b746 1d3c a867 c93d bd2b 023e 7d19 3bbd
00000030: 94e4 ec3c 4f42 eb3c ac59 86bc 9310 b2ba
00000040: 2698 50bc 7bab 34bd 9bc1 c7bb 00cf b2bd
00000050: 249d af3d ce2b c03d 6759 7ebd d613 ecbc
00000060: 7f41 b0bd 4182 473d 5d5d fbbd c51a 863d
00000070: cacd 1fbe adeb 25be f252 9dbd dc34 133e
00000080: 4ce6 0f3e 536c e23d e065 04be 6f08 7abd
00000090: 7545 27be 8bc1 b53d 9ae7 48bc b268 3cbd
000000a0: 3d92 12be 5cc7 1fbe e2c9 7e3b 4deb 0fbd
000000b0: 974d ca3d d928 b6bd e55b f8bd 3e5a eabb
000000c0: d951 02be fc48 25be b746 27be 7704 82bc
000000d0: 98df e43d 91d2 f4bd 47fa f53c 3c1e 153e
000000e0: 3dc6 193e 9528 153e 6db0 0c3e 0459 aebd
000000f0: 327c af3c f6de 303e 7ce2 e9bd 7164 7d3d

fc4.weight f4 [128, 64]
-0.08086556 0.06409742 0.061777025 -0.08902851 -0.111469895 -0.09389308 0.06396729 -0.083322495
0.021113858 0.036699012 -0.059376135 -0.04782845 -0.10902889 -0.088524014 0.103974 -0.0080664605
0.08702262 0.10942325 0.09880534 -0.09904432 0.087647706 0.09474474 0.117950246 -0.11581026
-0.10604489 -0.06530909 -0.0024776012 -0.02441816 0.024952665 -0.004479021 -0.10624848 0.048094556
0.04802914 -0.10168551 0.08138083 -0.023153648 0.0756167 -0.08826026 0.1167202 0.07200198
-0.06442368 0.09726076 0.11137453 0.06329572 0.07938543 -0.0861232 0.00893788 0.005782068
0.035190225 -0.0017962158 -0.12164031 -0.09883961 -0.059813797 0.03991705 -0.094314516 0.010926455
-0.108760536 -0.04323946 -0.08095473 0.11932859 0.047979936 -0.022203162 -0.097414285 -0.07587932
-0.06495106 0.01913979 0.022457529 -0.06699533 0.07214719 -0.11335683 -0.06713638 -0.037550304
0.06338307 -0.07535205 -0.106476024 0.06189909 0.10741028 -0.1195911 0.019113373 -0.07807458
0.08529686 -0.0017995383 0.028593147 -0.003221669 -0.025976136 -0.017745506 0.05334718 -0.08074557
-0.014000564 -0.10179035 -0.1159307 -0.08123739 0.011322346 0.115031786 0.116643675 0.12259835
0.12413512 0.022494031 -0.11651999 -0.031643182 0.11764978 -0.06233502 0.0974743 0.05556236
0.09611651 -0.033991355 0.12155449 -0.046563815 0.061050825 0.086487465 0.11636911 0.049009528
0.11962299 0.0884003 -0.024870714 0.10905659 0.084273696 0.08041222 0.11132001 0.11285397
0.09796314 0.0083048735 -0.08755037 -0.09386363 -0.05075618 -0.0119401375 0.09574984 -0.043131787
-0.09827231 -0.07981318 -0.015090823 0.122236356 0.0099255 -0.042454883 -0.03357041 0.04786542
0.0189711 -0.12432532 -0.047464967 0.053693116 0.113593146 0.08134322 -0.103483245 -0.03529392
-0.04749748 -0.03828387 -0.011809558 0.002911538 -0.10582277 -0.0061265826 0.048648223 0.08084932
0.034871697 -0.043567866 -0.067971945 -0.0887351 -0.11406769 -0.06573537 0.0020317733 0.10787727
0.056554615 -0.12266873 -0.08817996 0.052834183 -0.08360566 0.02828291 0.09844029 -0.09753227
0.09403725 0.06452219 -0.060554087 -0.115943804 0.059214056 -0.0498693 -0.011771619 -0.014110431
0.06824885 0.0276542 0.017158538 -0.080615684 -0.026758388 0.08143878 -0.079110295 -0.11830318
0.04799083 -0.08041978 -0.11580603 -0.124705 -0.032447875 0.072687685 0.09628877 0.11691028
-0.098454185 -0.07334213 -0.051212236 -0.09076372 0.01851382 0.018486291 -0.04940837 0.0417206
-0.08549522 -0.11692959 -0.005661795 0.11032846 -0.028600454 -0.014286729 -0.097380444 0.042121615
-0.103956625 -0.028047964 -0.11936767 -0.07745677 -0.026798353 -0.049928118 -0.041241504 -0.06642623
-0.08044678 0.051816244 0.06740071 0.009741171 -0.06093499 0.021010458 0.10735173 0.007957303
0.12210404 -0.11133797 -0.09979897 -0.09715329 -0.016459227 -0.11135073 0.078295454 -0.107061714
0.0572011 0.095225714 -0.04118769 0.0073006013 -0.028659122 -0.107926354 0.113702476 -0.083822526
-0.009102671 -0.09089368 0.059686024 0.046824537 0.0068841497 -0.021251392 -0.07140037 -0.01977183
0.10574214 -0.08580687 -0.0655065 -0.10583314 0.09364287 0.039226532 -0.056372706 -0.1205928
00000000: d89c a5bd 8245 833d e809 7d3d 9454 b6bd
00000010: 544a e4bd 044b c0bd 4801 833d fca4 aabd
00000020: f8f6 ac3c b451 163d 6434 73bd c4e7 43bd
00000030: 8a4a dfbd 144c b5bd 52f0 d43d 3029 04bc
00000040: ea38 b23d 4c19 e03d 745a ca3d c0d7 cabd
00000050: a480 b33d 8809 c23d e68f f13d ee2d edbd
00000060: 102e d9bd c6c0 85bd 405f 22bb 9808 c8bc
00000070: 8869 cc3c c0c4 92bb ce98 d9bd ccfe 443d
00000080: 34ba 443d 7e40 d0bd feaa a63d b8ac bdbc
00000090: eedc 9a3d ccc1 b4bd 000b ef3d c675 933d
000000a0: 90f0 83bd a630 c73d 5418 e43d 30a1 813d
000000b0: d494 a23d 5c61 b0bd 3070 123c 8077 bd3b
000000c0: a023 103d 006f ebba 8e1e f9bd 6c6c cabd
000000d0: 50ff 74bd 1080 233d f827 c1bd e004 333c
000000e0: d8bd debd dc1b 31bd 98cb a5bd 8c62 f43d
000000f0: 9c86 443d 68e3 b5bc 2481 c7bd 9e66 9bbd
00000100: 1005 85bd 0dcb 9c3c daf8 b73c d934 89bd
00000110: e8c1 933d a027 e8bd cc7e 89bd 59ce 19bd
00000120: fcce 813d 2d52 9abd 1a10 dabd e689 7d3d
00000130: ecf9 db3d 2eec f4bd a693 9c3c 91e5 9fbd
00000140: 1fb0 ae3d 7cde ebba 2d3c ea3c a322 53bb
00000150: e8cb d4bc 065f 91bc 9382 5a3d ef5d a5bd
00000160: 9f62 65bc 7677 d0bd 136d edbd ca5f a6bd
00000170: 5c81 393c c995 eb3d e1e2 ee3d d814 fb3d
00000180: 8e3a fe3d 6745 b83c 08a2 eebd 489c 01bd
00000190: 5ef2 f03d 0253 7fbd 9ba0 c73d 5b95 633d
000001a0: bcd8 c43d 853a 0bbd 8ff1 f83d b3b9 3ebd
000001b0: 6e10 7a3d 5720 b13d ee52 ee3d 37be 483d
000001c0: e6fc f43d 370b b53d abbd cbbc 1059 df3d
000001d0: b097 ac3d 29af a43d bffb e33d fb1f e73d
000001e0: e6a0 c83d 2a11 083c 9c4d b3bd 933b c0bd
000001f0: b6e5 4fbd 91a0 43bc 7e18 c43d f5aa 30bd
00000200: fe42 c9bd 1875 a3bd 803f 77bc 0e57 fa3d
00000210: 909e 223c 2ce5 2dbd 2081 09bd 880e 443d
00000220: 4869 9b3c 469e febd a06a 42bd 50ed 5b3d
00000230: 86a3 e83d 4697 a63d 06ef d3bd 5c90 10bd
00000240: b88c 42bd 8ccf 1cbd e07c 41bc 80cf 3e3b
00000250: 9cb9 d8bd 80c1 c8bb 5c43 473d 5494 a53d
00000260: a0d5 0e3d 3874 32bd e034 8bbd c0ba b5bd
00000270: 529c e9bd 44a0 86bd 8027 053b c2ee dc3d
00000280: d0a5 673d be39 fbbd b297 b4bd a868 583d
00000290: 7239 abbd 90b1 e73c 109b c93d 00bf c7bd
000002a0: 9a96 c03d 3624 843d 9007 78bd f273 edbd
000002b0: 708a 723d c043 4cbd c0dd 40bc 702f 67bc
000002c0: 0ec6 8b3d 108b e23c 1090 8c3c d619 a5bd
000002d0: 6834 dbbc 60c9 a63d 9404 a2bd f048 f2bd
000002e0: 0892 443d 20b3 a4bd b62b edbd 5665 ffbd
000002f0: 10e8 04bd 48dd 943d 0c33 c53d a86e ef3d
00000300: 59a2 c9bd 6634 96bd ecc3 51bd 54e2 b9bd
00000310: 4baa 973c 9070 973c 6e60 4abd 38e3 2a3d
00000320: 1e18 afbd c878 efbd 9486 b9bb e3f3 e13d
00000330: 804b eabc e212 6abc 666f c7bd b787 2c3d
00000340: 36e7 d4bd d8c4 e5bc 0977 f4bd a8a1 9ebd
00000350: 3888 dbbc 6d81 4cbd daec 28bd 7a0a 88bd
00000360: 48c1 a4bd 453d 543d 6209 8a3d 6f99 1f3c
00000370: f896 79bd 201e ac3c 39db db3d 595f 023c
00000380: af11 fa3d 2905 e4bd 6763 ccbd 4ef8 c6bd
00000390: 80d5 86bc da0b e4bd 5e59 a03d 2c43 dbbd
000003a0: b34b 6a3d b305 c33d 6cb4 28bd e239 ef3b
000003b0: 89c6 eabc 7e08 ddbd d8dc e83d 25ab abbd
000003c0: 5f23 15bc 7726 babd 5579 743d 16cb 3f3d
000003d0: 6f94 e13b 6617 aebc 5b3a 92bd 88f8 a1bc
000003e0: 568f d83d 83bb afbd 4628 86bd 0cbf d8bd
000003f0: d5c7 bf3d 00ac 203d 11e7 66bd 5cf9 f6bd

fc4.bias f4 [128]
-0.117705986 -0.04076825 -0.046264634 -0.08007589 0.05754809 -0.050802216 -0.09552329 0.052054107
-0.098180994 0.117394276 0.004355268 -0.05826281 -0.012199261 -0.055428594 -0.013690016 -0.09331072
0.06500979 -0.09539471 -0.04798171 0.031141127 -0.12488718 -0.0945819 -0.08133697 -0.12333044
0.03460692 -0.10423721 0.072267376 -0.009220086 0.043013774 -0.093976 -0.09397023 -0.050579928
0.06664053 -0.07561053 0.12319838 0.0015770994 0.026774487 0.0160591 -0.024991682 0.10522489
0.116729446 -0.07297869 -0.010016737 -0.041905213 0.016064687 0.0023194714 0.046496276 -0.095766924
0.033504043 -0.08516065 -0.0042712986 0.06386976 0.07430853 -0.051197954 -0.065406054 -0.0032218532
-0.014124575 0.04600592 -0.033342265 -0.0024724074 -0.08520122 0.10737493 -0.11944252 -0.09092942
-0.0590491 -0.09713555 0.018731983 -0.09220931 0.009613219 -0.052044228 -0.05833713 -0.07671263
0.11537903 0.010233266 -0.0023650436 0.0813984 -0.006581293 -0.104681715 0.117602885 0.09881771
-0.028276565 -0.07995909 -0.02526966 -0.0691109 0.058944352 -0.08251469 -0.012355453 0.0044034356
-0.018392125 -0.10874663 -0.112516575 -0.031112134 -0.114211805 0.059461385 -0.09979167 -0.025499396
-0.101440616 -0.1182638 -0.050021354 -0.0055540767 -0.027223015 0.012316614 -0.106461845 -0.08965394
0.044058654 0.10713378 0.0931759 0.06635175 -0.10337521 -0.053205393 0.04017249 -0.06698129
-0.046104584 -0.10594158 -0.0024760484 -0.07266937 0.062473748 0.027043344 -0.05749279 0.040052075
-0.11611411 0.06708443 0.011512319 -0.05075853 -0.03817666 -0.064844765 -0.041885186 0.05809413
00000000: d60f f1bd 9cfc 26bd fc7f 3dbd d4fe a3bd
00000010: 8cb7 6b3d fc15 50bd b7a1 c3bd b036 553d
00000020: 1e13 c9bd 696c f03d a3b6 8e3b fca4 6ebd
00000030: 69df 47bc 1809 63bd 174c 60bc b119 bfbd
00000040: da23 853d 4d5e c3bd 7888 44bd ad1b ff3c
00000050: dac4 ffbd 28b4 c1bd ff93 a6bd ab94 fcbd
00000060: fcbf 0d3d 517a d5bd eb00 943d d80f 17bc
00000070: 362f 303d 7d76 c0bd 7773 c0bd e62c 4fbd
00000080: d57a 883d b2d9 9abd 6f4f fc3d adb6 ce3a
00000090: 2b56 db3c 608e 833c 5bbb ccbc 2680 d73d
000000a0: d90f ef3d da75 95bd 3d1d 24bc cda4 2bbd
000000b0: 179a 833c 4602 183b e172 3e3d 7321 c4bd
000000c0: 893b 093d b568 aebd 40f6 8bbb 26ce 823d
000000d0: 122f 983d f2b4 51bd 9cf3 85bd ba25 53bb
000000e0: c36a 67bc b470 3c3d e691 08bd 1d08 22bb
000000f0: fa7d aebd 63e7 db3d 489e f4bd 3439 babd
00000100: 78dd 71bd 01ef c6bd d173 993c 3cd8 bcbd
00000110: c380 1d3c 542c 55bd eaf2 6ebd 831b 9dbd
00000120: d74b ec3d 6ea9 273c d9fe 1abb 34b4 a63d
00000130: e3a7 d7bb 5e63 d6bd c8d9 f03d f160 ca3d
00000140: 41a4 e7bc 97c1 a3bd 5102 cfbc 048a 8dbd
00000150: a26f 713d 76fd a8bd 876e 4abc b24a 903b
00000160: 15ab 96bc 8eb6 debd 176f e6bd e0de febc
00000170: e1e7 e9bd c88d 733d 935f ccbd 1ce4 d0bc
00000180: 19c0 cfbd 4b34 f2bd 31e3 4cbd f9fe b5bb
00000190: cd02 dfbc a0cb 493c ab08 dabd 7c9c b7bd
000001a0: d976 343d f568 db3d 02d3 be3d 6de3 873d
000001b0: 62b6 d3bd e6ed 59bd e98b 243d 7d2d 89bd
000001c0: 29d8 3cbd e6f7 d8bd 3345 22bb aed3 94bd
000001d0: 79e4 7f3d 018a dd3c 8f7d 6bbd a50d 243d
000001e0: 3ccd edbd 9063 893d 2a9e 3c3c 2de8 4fbd
000001f0: 215f 1cbd 55cd 84bd cd8f 2bbd 1cf4 6d3d

fc5.weight f4 [64, 128]
-0.034209836 0.07153689 0.07932959 0.032626707 0.0134481555 -0.03606648 -0.06769035 -0.0023747946
0.00080578105 -0.065978095 0.013430861 0.032127608 0.047577746 -0.053926844 0.069700584 0.062095687
-0.0223003 -0.06845799 -0.03601835 0.08441455 -0.040946938 -0.05634367 -0.059012678 -0.036331393
-0.024375405 -0.018805197 0.002132051 -0.014463576 0.08474363 0.07201862 0.00679563 -0.05728812
-0.048372343 -0.05670178 -0.07981325 0.04646292 -0.08554817 0.039552495 -0.07524021 -0.046280187
-0.037136037 -0.041473772 0.061016314 0.04960028 0.039731674 -0.078135476 -0.049179006 0.009524527
-0.058759984 0.057651773 0.049765363 -0.045491077 0.08044954 0.07207303 0.0066032195 0.078053676
0.07403457 0.03979088 0.055612784 -0.0802838 -0.004780406 -0.018655708 -0.0053909407 -0.08148314
-0.06673847 -0.04783357 0.07030981 0.051201303 -0.033082325 0.008690443 -0.079750665 -0.05392171
-0.004248262 -0.056289166 -0.04663887 -0.07233279 -0.037388887 0.051325 0.08285947 0.06357255
0.025224896 0.012017927 -0.014024331 -0.08162423 -0.025204828 -0.04546513 -0.019691197 -0.029988758
-0.035028778 -0.042728268 0.017676938 0.07605534 0.036305495 0.079095066 0.008107878 0.059321612
0.008167324 -0.047560334 0.071825266 -0.013825731 -0.056561604 0.046601012 0.045744903 -0.07274827
-0.03942623 0.08388485 -0.036310766 0.07091672 0.002107378 -0.012086848 0.025375552 -0.0006228073
0.0651994 -0.045409866 -0.0075110137 0.07448537 0.068806335 -0.0031121005 -0.008179261 0.022354744
0.043469217 -0.009290593 -0.06812061 -0.06533614 -0.038042713 0.08780292 -0.078851454 -0.034431424
-0.08064903 0.08429798 0.071477674 0.04132856 0.037628055 0.084365174 0.07566469 0.053478975
-0.0703106 -0.032045547 0.021564227 -0.08198952 -0.008805597 -0.051801424 -0.0050099306 0.055342704
-0.044958614 0.010473282 0.08399485 -0.086801924 0.0844551 -0.07796066 0.03672362 -0.0072008763
0.07341888 -0.036963068 -0.023620948 -0.02414476 -0.023757383 -0.032560445 0.010913501 -0.008034613
0.0034755804 -0.07864264 0.07634501 0.06502305 -0.02633669 0.0495625 -0.05010843 0.07655992
-0.077058986 -0.01436883 0.015908612 0.00091814046 0.067524806 0.077494696 0.083682835 -0.024214212
0.07780203 0.042565465 -0.07454199 -0.06535225 -0.056651887 -0.08358444 -0.050423797 0.08340906
-0.05430271 0.057554368 -0.05040214 -0.016669694 0.027446223 0.059365235 0.009159424 -0.067419454
0.015804457 0.024119994 0.04187438 -0.08213843 -0.050157733 0.072003834 -0.078373924 0.06689564
0.08115706 0.07617592 -0.08554331 0.07478171 -0.029247645 -0.07735237 -0.0007172908 0.055474475
-0.050963633 -0.08133138 -0.046022274 -0.051718436 0.0020672528 -0.019072672 0.04721885 -0.03626291
0.025864089 -0.062331118 -0.061424658 -0.027789624 0.0112976795 -0.033397947 -0.037694924 -0.060847983
0.085302256 -0.066509 0.04531468 -0.059482638 0.048626736 -0.022855002 0.06207713 0.003891544
0.0483491 -0.08353785 -0.06749928 -0.05770071 0.05918811 0.019497842 0.07997257 0.016421774
0.0043328567 -0.009372068 0.025972633 -0.055542096 0.07961875 0.05834942 -0.0782608 0.042575065
0.02220395 0.057945408 0.06189813 -0.010768951 0.022873845 0.061935276 -0.062643364 0.06394253
00000000: 9d1f 0cbd ef81 923d 8d77 a23d 95a3 053d
00000010: a755 5c3c 72ba 13bd 3da1 8abd 71a2 1bbb
00000020: 0d3b 533a 861f 87bd 1d0d 5c3c 3d98 033d
00000030: e2e0 423d 65e2 5cbd 2ebf 8e3d 0c58 7e3d
00000040: 1eaf b6bc b433 8cbd fa87 13bd 89e1 ac3d
00000050: fab7 27bd 9fc8 66bd 47b7 71bd 3ad0 14bd
00000060: eeae c7bc 5b0d 9abc e1b9 0b3b a2f8 6cbc
00000070: 118e ad3d 807e 933d e0ad de3b f3a6 6abd
00000080: 1422 46bd 2040 68bd 2175 a3bd e74f 3e3d
00000090: e133 afbd cc01 223d 8a17 9abd 4b90 3dbd
000000a0: f51b 18bd 67e0 29bd 3eec 793d aa29 4b3d
000000b0: aebd 223d 7e05 a0bd ed6f 49bd c30c 1c3c
000000c0: 4fae 70bd 4424 6c3d c4d6 4b3d da54 3abd
000000d0: bac2 a43d 069b 933d d25f d83b 9bda 9f3d
000000e0: 709f 973d c3fb 223d 3bca 633d d56b a4bd
000000f0: f4a4 9cbb dbd3 98bc 7da6 b0bb a2e0 a6bd
00000100: 2eae 88bd 22ed 43bd 97fe 8f3d 75b8 513d
00000110: 5581 07bd 5c62 0e3c 5154 a3bd 03dd 5cbd
00000120: 0135 8bbb 788f 66bd 6608 3fbd 3723 94bd
00000130: 1725 19bd 2a3a 523d 3ab2 a93d 5332 823d
00000140: 71a4 ce3c d7e6 443c 4fc6 65bc 9b2a a7bd
00000150: 5b7a cebc a539 3abd 6f4f a1bc fcaa f5bc
00000160: 567a 0fbd d603 2fbd 3acf 903c e7c2 9b3d
00000170: 12b5 143d 98fc a13d e8d6 043c 38fb 723d
00000180: 3dd0 053c a0ce 42bd 2019 933d 5285 62bc
00000190: 24ad 67bd b4e0 3e3d 025f 3b3d 0cfd 94bd
000001a0: 667d 21bd d2cb ab3d 99ba 14bd c93c 913d
000001b0: f01b 0a3b ea07 46bc 64e0 cf3c e443 23ba
000001c0: 4387 853d b2ff 39bd f31e f6bb c98b 983d
000001d0: 56ea 8c3d 62f4 4bbb 4f02 06bc 4c21 b73c
000001e0: c70c 323d 9237 18bc d282 8bbd f4ce 85bd
000001f0: add2 1bbd 04d2 b33d df7c a1bd f707 0dbd
00000200: 522b a5bd 6ba4 ac3d e362 923d 2348 293d
00000210: e01f 1a3d a6c7 ac3d 17f6 9a3d c50c 5b3d
00000220: 01ff 8fbd 3142 03bd 76a7 b03c 1fea a7bd
00000230: 5a45 10bc bb2d 54bd 582a a4bb 08af 623d
00000240: 8626 38bd 2198 2b3c 7e05 ac3d 35c5 b1bd
00000250: ccf6 ac3d d7a9 9fbd 826b 163d 54f5 ebbb
00000260: a35c 963d 9666 17bd b880 c1bc 3bcb c5bc
00000270: d89e c2bc 1a5e 05bd 8ace 323c 9ca3 03bc
00000280: 90c6 633b 640f a1bd c65a 9c3d ce2a 853d
00000290: 0bc0 d7bc 0c02 4b3d 7f3e 4dbd 73cb 9c3d
000002a0: 1ad1 9dbd 3e6b 6bbc c752 823c 5daf 703a
000002b0: 724a 8a3d 8ab5 9e3d e861 ab3d e25c c6bc
000002c0: ac56 9f3d 2059 2e3d 79a9 98bd 67d7 85bd
000002d0: cf0b 68bd 522e abbd 2f89 4ebd 5fd2 aa3d
000002e0: 856c 5ebd 21be 6b3d 7972 4ebd e28e 88bc
000002f0: e7d6 e03c f628 733d 6911 163c 3613 8abd
00000300: 5978 813c 4b97 c53c 7884 2b3d 3138 a8bd
00000310: 3272 4dbd bf76 933d 8282 a0bd 9500 893d
00000320: ac35 a63d 1f02 9c3d 5531 afbd 2727 993d
00000330: c298 efbc eb6a 9ebd 9208 3cba 3439 633d
00000340: 3ebf 50bd 1191 a6bd da81 3cbd b6d6 53bd
00000350: bf7a 073b 4b3e 9cbc 8e68 413d 6b88 14bd
00000360: ede0 d33c ea4e 7fbd 6c98 7bbd 11a7 e3bc
00000370: e719 393c 49cc 08bd fe65 1abd bc3b 79bd
00000380: f3b2 ae3d df35 88bd e39b 393d 11a4 73bd
00000390: d42c 473d 6a3a bbbc 9744 7e3d 4609 7f3b
000003a0: b509 463d e415 abbd 103d 8abd 9457 6cbd
000003b0: 3b6f 723d f0b9 9f3c a9c8 a33d f586 863c
000003c0: a3fa 8d3b 4d8d 19bc 8fc4 d43c 1c80 63bd
000003d0: 280f a33d cdff 6e3d 3347 a0bd 3163 2e3d
000003e0: 0fe5 b53c 2a58 6d3d e588 7d3d 4170 30bc
000003f0: ee61 bb3c d8af 7d3d 2a4b 80bd 4df4 823d

fc5.bias f4 [64]
-0.016868945 0.033838306 0.044431753 0.062623486 0.08583335 -0.068442136 0.041234355 -0.046969797
-0.030495545 -0.017414555 0.061083287 -0.078939356 0.0036737958 -0.04385172 0.05477993 -0.017585643
-0.006030615 0.05253829 -0.022128906 -0.017964251 0.0032726785 0.059179816 -0.043186553 -0.08472144
-0.063077025 0.043188136 0.06637184 -0.020946944 0.04451924 -0.073280655 -0.032061122 -0.0026687616
-0.014233731 0.027373869 0.015398908 -0.08253308 -0.084025726 -0.058417544 -0.017771197 0.05704724
-0.0003015004 0.046047505 0.010736891 0.020707194 0.026405977 0.087843575 0.06654191 0.041816536
0.047838025 -0.019426487 -0.030785704 0.007135375 -0.045716085 0.06711054 0.01823452 0.012949124
-0.06190159 0.018130822 0.01944956 -0.013376183 0.018958746 -0.034789797 0.0019567595 -0.08566107
00000000: be30 8abc 099a 0a3d 12fe 353d be40 803d
00000010: 65c9 af3d 642b 8cbd 5be5 283d 6763 40bd
00000020: cbd1 f9bc f8a8 8ebc 7832 7a3d f5aa a1bd
00000030: 11c4 703b dc9d 33bd eb60 603d c40f 90bc
00000040: 779c c5bb 6432 573d ae47 b5bc c429 93bc
00000050: 6f7a 563b 8966 723d 62e4 30bd 6f82 adbd
00000060: 872e 81bd 0be6 303d f6ed 873d ed98 abbc
00000070: ce59 363d 2b14 96bd 8652 03bd 64e6 2ebb
00000080: 9834 69bc 2a3f e03c b44b 7c3c 1a07 a9bd
00000090: ae15 acbd 3c47 6fbd e794 91bc 5eaa 693d
000000a0: b312 9eb9 4f9c 3c3d c9e9 2f3c 22a2 a93c
000000b0: 5951 d83c 55e7 b33d 2047 883d d147 2b3d
000000c0: cef1 433d 4c24 9fbc 4d32 fcbc ddcf e93b
000000d0: ca40 3bbd 4071 893d 8f60 953c 9028 543c
000000e0: 868c 7dbd 1787 943c af54 9f3c c727 5bbc
000000f0: 5f4f 9b3c bf7f 0ebd fa3c 003b 126f afbd
