models_submitted/less_loss-CNN_2L_DFC_R400.pt (torch, 160902 bytes, 22 tensors)

conv1.weight f4 [32, 1, 1]
0	0x3dab5b30	0.08367002
1	0xbf63192e	-0.88710296
2	0x3ed98636	0.42485207
3	0x3f1b24d0	0.60603046
4	0x3f0b6235	0.5444673
5	0x3ea05923	0.31318006
6	0x3eb8ead5	0.36116663
7	0xbf0e61c5	-0.55617934
8	0x3f45a9c9	0.77212197
9	0x3ebfcb30	0.37459707
10	0x3ed5d38a	0.41762954
11	0x3f63fbbd	0.89056
12	0x3f492555	0.7857259
13	0x3d2ad287	0.04170468
14	0x3f734e38	0.9504123
15	0xbd5ebe98	-0.054380983
16	0xbf730a39	-0.94937474
17	0x3f110d57	0.5666098
18	0x3d85af94	0.065276295
19	0x3f21a2e8	0.631392
20	0xbdd2cf5c	-0.10293457
21	0xbec2421d	-0.37941065
22	0x3ea29d66	0.3176071
23	0xbf391653	-0.7229969
24	0xbf21db1a	-0.6322495
25	0x3e09cbc3	0.13456635
26	0x3f46320b	0.7742011
27	0xbf1f35eb	-0.6219165
28	0xbdfcb674	-0.12339488
29	0xbf3187ed	-0.6934803
30	0xbe90f7c8	-0.28314042
31	0x3dda26b7	0.106519155

conv1.bias f4 [32]
0	0xbf55c4fa	-0.8350369
1	0x3e684be9	0.22685207
2	0x3c71659b	0.014733697
3	0xbe15c28a	-0.14624992
4	0x3f638eb6	0.88889635
5	0xbf765919	-0.962297
6	0xbe8075b1	-0.2508979
7	0x3dbc20df	0.09185957
8	0xbc30d688	-0.010793336
9	0xbeb3ba7c	-0.35103214
10	0xbf168ff4	-0.58813405
11	0xbf422563	-0.758383
12	0xbe3c7b1a	-0.18406335
13	0x3f14d679	0.5813976
14	0x3f1543f1	0.58306795
15	0xbcb6b773	-0.022304272
16	0x3f75c452	0.96002686
17	0x3e733aeb	0.23752944
18	0xbe909bac	-0.28243768
19	0x3f2dadba	0.6784321
20	0xbf057c7b	-0.5214307
21	0xbf2a48da	-0.6651741
22	0x3ee94674	0.45561564
23	0x3edc1c25	0.42990223
24	0xbf68e624	-0.90976167
25	0xbedbe0d1	-0.4294496
26	0xbf7649f8	-0.9620662
27	0x3f53ab79	0.8268352
28	0x3f766fdc	0.96264434
29	0x3f102dc9	0.5631986
30	0xbd362626	-0.044469975
31	0xbf38b8bd	-0.7215689

conv2.weight f4 [64, 32, 1]
0	0xbc67f285	-0.014156942
1	0x3da3d2fc	0.079992265
2	0xbdd34a7a	-0.1031694
3	0x3da5b7c7	0.08091693
4	0xbb8c0ea7	-0.0042742076
5	0x3e00d568	0.12581408
6	0x3d63f65f	0.05565488
7	0xbc248532	-0.010041522
8	0xbdd7ce34	-0.10537377
9	0x3d48e35d	0.049044956
10	0xbcc6350c	-0.024195217
11	0x3dad28e2	0.084550634
12	0x3e344e2e	0.17607948
13	0x3c8153bf	0.015787004
14	0x3c20e3f8	0.009819977
15	0xbd977a01	-0.07396317
16	0x3e20814f	0.15674327
17	0x3da7965f	0.08182978
18	0xbe02e422	-0.12782338
19	0xbde1b8b8	-0.110215604
20	0xba8f06ee	-0.0010912099
21	0xbd879dc7	-0.066218905
22	0xbd0668a7	-0.032814648
23	0xbdfe25e3	-0.1240957
24	0xbd3c8d4c	-0.04603319
25	0x3d3a1d08	0.045437843
26	0x3d13ce7b	0.036085587
27	0x3da85c25	0.082207
28	0xbe1b88f1	-0.15188958
29	0xbe279663	-0.16365962
30	0x3d8a5909	0.06755263
31	0xbe12a422	-0.14320424
32	0x3d4313a0	0.047626138
33	0xbe2dce38	-0.16973197
34	0x3d6e1801	0.05812836
35	0xbd4bfe71	-0.0498032
36	0xbdcc7be0	-0.09984565
37	0x3e20e6fb	0.15713112
38	0xbe320649	-0.1738521
39	0xbdfd6306	-0.12372403
40	0x3df334f6	0.11875336
41	0xbb562cc3	-0.0032680489
42	0xbdb57528	-0.088602364
43	0x3d804eb6	0.06265013
44	0x3d5be972	0.053689428
45	0x3e2e0bd6	0.16996703
46	0xbe0810ae	-0.13287613
47	0xbcdbd0f9	-0.026833044
48	0xbde6b97b	-0.11265846
49	0x3d6ea967	0.058267023
50	0xbe3505d7	-0.17678009
51	0xbd0a8f57	-0.033828106
52	0xbd33fef7	-0.043944325
53	0xbdd32552	-0.10309853
54	0x3dec4d15	0.1153814
55	0x3d69f54b	0.057118695
56	0x3def08e0	0.11671615
57	0xbd466586	-0.048436664
58	0x3ca590d5	0.020210663
59	0x3e10c373	0.14137058
60	0xbddf3b1d	-0.10899947
61	0xbe234d27	-0.159474
62	0x3e1a91a5	0.15094621
63	0xbe1c7a7d	-0.152811
64	0xbe190ff3	-0.1494749
65	0x3d4dede7	0.05027571
66	0x3bd8efa4	0.0066203643
67	0xbde3989c	-0.11113092
68	0xbdede72a	-0.11616357
69	0xbd831314	-0.06400123
70	0x3be15208	0.006876234
71	0x3e22ef1c	0.15911525
72	0x3da5a238	0.080875814
73	0x3dcbec27	0.09957152
74	0x3e224cbd	0.15849586
75	0x3d8701ee	0.06592165
76	0xbbdab90c	-0.0066748913
77	0x3c83bf0e	0.016082313
78	0x3dcc75f6	0.09983437
79	0xbd4eedc2	-0.050519712
80	0x3e083286	0.13300523
81	0x3e191217	0.14948307
82	0x3e2a4fb9	0.16631974
83	0xbdc7d4ef	-0.09757411
84	0x3e15cfce	0.14630052
85	0x3d958cd3	0.07302251
86	0xbc05c3ae	-0.008164329
87	0x3e0e93d8	0.13923585
88	0xbdb30ced	-0.087427
89	0xbdb1e452	-0.08686127
90	0xbd946e92	-0.07247652
91	0xbcae88a1	-0.021305384
92	0xbe113591	-0.1418059
93	0xbe24afcf	-0.1608269
94	0x3a015242	0.0004933217
95	0x3e32f79c	0.17477268
96	0x3d07e64b	0.03317861
97	0x3d06c580	0.032903194
98	0xbe2d18a5	-0.16903932
99	0x3e1cf67f	0.15328406
100	0xbcf68777	-0.030093892
101	0x3ddbe262	0.107365385
102	0x3d469c9f	0.04848921
103	0xbdc8c127	-0.09802466
104	0xbe01c4eb	-0.12672774
105	0x3d950951	0.072771676
106	0xbd6541c6	-0.05597093
107	0xbd916b62	-0.0710056
108	0xbe27500a	-0.16339126
109	0x3e320256	0.17383704
110	0x3ccf1709	0.025279539
111	0xbd8313c3	-0.064002536
112	0x3d805779	0.06266684
113	0x3e20e470	0.15712142
114	0x3c8f78d9	0.01751368
115	0xbb9a8275	-0.0047152587
116	0xbdd29fd7	-0.10284393
117	0x3d6bf0bb	0.057602625
118	0x3da98b7d	0.082785584
119	0xbb8a324f	-0.004217423
120	0xbdb13f8d	-0.086546995
121	0x3e22b3d6	0.15888914
122	0xbe3362f5	-0.17518218
123	0xbe025a7b	-0.12729828
124	0xbda98650	-0.08277571
125	0x3db9e8ae	0.09077583
126	0xbe1d49dd	-0.15360208
127	0x3dd02e32	0.10165061
128	0x3e0768d9	0.1322359
129	0xbe0685f5	-0.13137038
130	0x3da1621c	0.07880041
131	0xbd1f16e6	-0.038840197
132	0xbe310fb1	-0.17291142
133	0x3b93d61f	0.004511609
134	0x3e20255f	0.15639256
135	0xbd9229bd	-0.07136867
136	0x3e20fcc2	0.1572142
137	0xbdc725c5	-0.09724001
138	0xbd9b2794	-0.07575908
139	0xbdefa1a5	-0.11700753
140	0x3d37f0d9	0.044907425
141	0xbdb9b571	-0.0906781
142	0xbd9bffb6	-0.07617132
143	0xbd5089a5	-0.050912518
144	0xbd2d75c9	-0.042348657
145	0xbd8170ba	-0.06320329
146	0xbd3a562d	-0.04549234
147	0x3cf3fd3c	0.029783837
148	0x3c7cc840	0.015428603
149	0xbde28788	-0.11061007
150	0xbd227a37	-0.039667334
151	0x3e30cbd5	0.17265256
152	0x3d3f79fd	0.046747196
153	0xbd952665	-0.07282714
154	0xbe019dc4	-0.12657839
155	0x3dd62539	0.104563184
156	0xbcba49f4	-0.022740342
157	0x3e286fcb	0.16448896
158	0xbd452efb	-0.048140507
159	0xbe30c7ca	-0.17263713
160	0x3de403df	0.11133551
161	0x3ce0901b	0.027412465
162	0x3dadc9b4	0.084857374
163	0xbe086704	-0.13320547
164	0x3e1ee71a	0.15517846
165	0xbc912403	-0.017717367
166	0x3e02ab05	0.12760551
167	0xbd5026a7	-0.05081811
168	0xbd20ce3d	-0.039259184
169	0x3db5d28e	0.08878051
170	0xbe0518b6	-0.12997708
171	0x3cc4c2da	0.024018694
172	0x3e2c25bd	0.16811271
173	0xba87be27	-0.0010356352
174	0x3dabe514	0.083933026
175	0xbe2127c1	-0.15737821
176	0x3d24f747	0.040274885
177	0x3e09b54f	0.1344807
178	0x3dbcf202	0.09225847
179	0xbc2ccaf2	-0.010546433
180	0x3cac7d0d	0.021055723
181	0xbd00c836	-0.031440936
182	0xbdca7fcf	-0.09887659
183	0xbdfc7e8b	-0.12328824
184	0x3d8500ba	0.06494279
185	0x3c637185	0.013882046
186	0xbc5c044d	-0.01342876
187	0x3d0a0cb0	0.033703506
188	0xbcd7c6c4	-0.026339896
189	0xbdec8a02	-0.115497604
190	0xbd3d856d	-0.046269823
191	0xbb919173	-0.0044423877
192	0x3e132113	0.14368086
193	0xbe16d4b6	-0.1472958
194	0x3de8fddb	0.11376544
195	0xbe1426b9	-0.14467897
196	0x3cd62a65	0.026143262
197	0x3dba3aa1	0.09093214
198	0x3e0ff8c5	0.14059742
199	0xbe15199c	-0.1456055
200	0xbc605b39	-0.013693624
201	0xbdd009f9	-0.10158152
202	0x3e04e061	0.12976219
203	0xbe0625f8	-0.13100421
204	0x3e32a0d4	0.17444164
205	0x3e1c4620	0.15261126
206	0xbccf4a38	-0.025303945
207	0xbde8eb89	-0.1137305
208	0xbe1fe420	-0.15614367
209	0xbd8376d2	-0.064191476
210	0x3d44c68d	0.048040915
211	0xbda14b71	-0.078757174
212	0x3e2b2cc3	0.16716294
213	0x3d46ffaf	0.048583683
214	0x3e20e630	0.1571281
215	0x3e14bd0a	0.14525238
216	0xbddb5c55	-0.1071097
217	0x3de325ab	0.11091169
218	0xbdcf8828	-0.101333916
219	0xbcbfd2da	-0.023415972
220	0xba78572f	-0.00094734406
221	0x3e20e534	0.15712434
222	0x3db5db3f	0.088797085
223	0x3d91b66d	0.07114873
224	0xbe1e0c6c	-0.15434426
225	0x3e1beada	0.15226308
226	0xbd6b0b91	-0.057384077
227	0x3d940774	0.07227984
228	0x3dad63de	0.08466314
229	0xbca30ef5	-0.019904593
230	0xbd26c1cc	-0.040712163
231	0x3d05e228	0.032686383
232	0x3d102a8c	0.035196826
233	0xbde9c173	-0.11413851
234	0x3d6c332a	0.05766598
235	0xbd72b6e9	-0.059256468
236	0x3e269bc0	0.16270351
237	0xbd8b5bb2	-0.06804599
238	0x3dab8fa2	0.08377005
239	0xbe1d95d3	-0.15389185
240	0xbe051876	-0.12997612
241	0x3e0d6b6c	0.1381051
242	0x3c33320c	0.010937225
243	0xbe16d775	-0.14730628
244	0xbd2474d0	-0.040150464
245	0xbd3c68fa	-0.04599855
246	0xbacc1164	-0.0015569148
247	0x3e0315a8	0.1280123
248	0xbd81df24	-0.06341389
249	0xbdd8db6d	-0.10588727
250	0xbd52a99b	-0.05143128
251	0xbc1a4270	-0.009415254
252	0xbd80b876	-0.06285183
253	0xbb2ad146	-0.0026064678
254	0x3de981bb	0.11401697
255	0xbdd8a947	-0.10579162

conv2.bias f4 [64]
0	0x3c9a105b	0.018806627
1	0xbe00e723	-0.12588172
2	0x3d07a87b	0.03311966
3	0xbd4c0355	-0.049807865
4	0x3df69a44	0.120411426
5	0xbdb60854	-0.08888307
6	0x3e2cb3e9	0.16865505
7	0x3d2b3cd2	0.04180605
8	0x3d4e8c4b	0.050426763
9	0xbe3443fb	-0.17604057
10	0x3de58627	0.11207228
11	0x3a8cbab1	0.0010736791
12	0xbc65ac14	-0.014018077
13	0xbd009714	-0.03139408
14	0x3e0084a9	0.12550606
15	0x3c351fbb	0.011054928
16	0xbc90c4aa	-0.017671902
17	0xbd451406	-0.0481148
18	0x3d22016b	0.039552134
19	0xbde92816	-0.11384599
20	0xbc466638	-0.012109332
21	0xbe1bf670	-0.15230727
22	0x3de3946d	0.11112294
23	0x3dc6941e	0.0969622
24	0xbda9bbdf	-0.08287787
25	0xbc238536	-0.00998049
26	0x3e34fd56	0.17674765
27	0xbda5b713	-0.08091559
28	0x3df9e496	0.122018024
29	0xbd42a904	-0.047524467
30	0xbdaad260	-0.08340907
31	0x3d8ddac9	0.069264956
32	0xbd7f5eb2	-0.062346168
33	0x3dff0c5d	0.1245353
34	0xbd242464	-0.040073767
35	0xbd842c32	-0.06453742
36	0xbe15d051	-0.14630248
37	0x3bf61053	0.00750927
38	0x3e1a5b37	0.15073858
39	0xbdbd1761	-0.09232975
40	0xbd330275	-0.043703515
41	0x3beff8e8	0.007323373
42	0x3e14c483	0.14528088
43	0x3da4834f	0.080328576
44	0xbd077405	-0.03306963
45	0x3d6450a1	0.055740956
46	0x3db4b5ef	0.088237636
47	0x3c0b14a3	0.008488807
48	0xbabe2859	-0.0014507874
49	0x3ddb25d9	0.10700578
50	0xbdefdc82	-0.117119804
51	0x3e1ed454	0.15510684
52	0xbe029365	-0.12751539
53	0x3e2d9fd4	0.16955501
54	0xbdcd26cc	-0.100171655
55	0x3dc59182	0.09646894
56	0xbc83e9cf	-0.0161027
57	0xbd9a4e17	-0.07534426
58	0x3d3a5c8e	0.045498423
59	0xbdd5d40a	-0.10440834
60	0x3dacc45b	0.08435889
61	0x3d6f2b10	0.058390677
62	0x3e19f549	0.15034975
63	0x3d862bee	0.06551348

fc1.weight f4 [16, 896]
0	0x3cb2503a	0.02176677
1	0x3be8a63a	0.007099894
2	0x3c8847df	0.016635833
3	0xbb7ba833	-0.0038399815
4	0xbc836078	-0.01603721
5	0x3cf2fcdd	0.02966159
6	0x3d071fb5	0.032989223
7	0x3ce04cae	0.027380314
8	0x3a867f4f	0.001026133
9	0x3cf7ef5d	0.030265504
10	0xbcf63a95	-0.030057231
11	0x3c11af1d	0.008891848
12	0xbcc6dcb4	-0.024275161
13	0x3c0b291d	0.008493689
14	0xbc934cbd	-0.017980928
15	0xbcdd7202	-0.027031902
16	0x3cab4cc0	0.02091062
17	0xbc581b0b	-0.013190041
18	0xbcb5977b	-0.022166958
19	0xbc8cdc1f	-0.017194806
20	0xbcb11fdc	-0.021621637
21	0xbcbcb6a5	-0.02303631
22	0xbc447a33	-0.011992025
23	0xbca0bce8	-0.019621328
24	0x3b920009	0.0044555706
25	0xbbe35e63	-0.006938742
26	0xbc008a94	-0.00784554
27	0xbd038f66	-0.032119177
28	0xbd06b467	-0.03288689
29	0xbbc5b0b9	-0.00603303
30	0xbcd857f2	-0.026409123
31	0x3c95ddd3	0.01829425
32	0x3c24d951	0.010061578
33	0xbc4b7956	-0.012419065
34	0x3c465831	0.012105987
35	0x3c440010	0.0119629055
36	0x3ceff71e	0.02929264
37	0x3bfea54f	0.007771171
38	0xbb92b1f6	-0.004476781
39	0xbbe06f71	-0.0068492224
40	0xbbec0265	-0.007202434
41	0x3c52a0df	0.0128557375
42	0x3a2ae956	0.0006519755
43	0x3cae6a00	0.02129078
44	0xbc32f1cd	-0.010921908
45	0xbb851c27	-0.004062194
46	0x3c9c0333	0.019044494
47	0xbca293ad	-0.019845808
48	0x3cb3a503	0.02192927
49	0xbaf91dab	-0.0019006034
50	0x3ba85146	0.0051366417
51	0xbc56f710	-0.013120428
52	0x3adbddfe	0.0016774533
53	0xbc01e3a9	-0.007927814
54	0xbc4d9826	-0.012548482
55	0xbce9f918	-0.02856116
56	0xbc0a5a9d	-0.008444455
57	0xbc33f4b0	-0.010983631
58	0xbc92435e	-0.017854389
59	0xbb6101a3	-0.003433325
60	0x3c9ab9b9	0.018887388
61	0xbd048fba	-0.03236363
62	0x3cfa5b53	0.030561125
63	0xbbe703c2	-0.0070500085
64	0xbcefb9d5	-0.029263416
65	0x3b22553e	0.0024770047
66	0xbc1bcd95	-0.009509464
67	0xbcbf86ac	-0.023379646
68	0x3a9d224b	0.001198837
69	0x3c60a1fd	0.013710496
70	0x3c5e574f	0.013570621
71	0xbcb0f95e	-0.021603283
72	0xbc1029f8	-0.008799069
73	0x3cf961e5	0.030442188
74	0xbc9ae1a8	-0.01890643
75	0x3a7ab6be	0.0009563974
76	0xbccc0174	-0.024903037
77	0xbc16cdc8	-0.0092043355
78	0xbcadbd6f	-0.021208493
79	0xbb553e90	-0.003253851
80	0x3c81fdc2	0.015868071
81	0xbd04be5b	-0.0324081
82	0x3cdc72a6	0.026910137
83	0xbd18aed9	-0.037276123
84	0x3cd30cca	0.025762934
85	0xbc78e74a	-0.015191862
86	0x3c13a893	0.009012359
87	0x3cb59b64	0.022168823
88	0x3cc0c3c2	0.023530845
89	0xb98bb04c	-0.00026643497
90	0xbcf3d180	-0.029762983
91	0xbba1a2ad	-0.0049327225
92	0xbaa4f3c4	-0.0012584855
93	0x3cbb51fa	0.022866238
94	0xbb798768	-0.0038075093
95	0x3bd2cc14	0.0064330194
96	0x3b017931	0.0019756074
97	0xbcc4e637	-0.024035556
98	0x3a1f0ea2	0.0006067549
99	0xbd07c4a1	-0.033146504
100	0xbc593765	-0.013257836
101	0xbc97868f	-0.01849678
102	0xbcb356eb	-0.021892032
103	0xbbfc9555	-0.0077082315
104	0x3d01392e	0.03154867
105	0x3cb2cb5d	0.021825487
106	0xbcc0590f	-0.023479966
107	0xbcdc46c4	-0.026889212
108	0xbcd4d48e	-0.02598026
109	0x3a820dca	0.0009922322
110	0x3c9981ab	0.018738588
111	0x3c1afa54	0.009459097
112	0xbd1654c2	-0.036701925
113	0xbc7d8ebb	-0.015475924
114	0x3cf03a01	0.029324533
115	0xbbbb65d5	-0.0057189264
116	0x3cbbfc4e	0.022947457
117	0xbcfefcbe	-0.031126376
118	0xbcd74f16	-0.026282828
119	0x3ce83dc4	0.028349765
120	0xbc393902	-0.011305096
121	0xbbdbd4ba	-0.0067087086
122	0x3c2c7a45	0.010527198
123	0xbcc7fd6b	-0.024412831
124	0x3c2f59eb	0.01070259
125	0x3cd43a2d	0.025906647
126	0x3ca90491	0.02063206
127	0xbcd3876a	-0.025821406
128	0xbc9c7636	-0.019099336
129	0x3c85eb9a	0.016347695
130	0x3d01ba94	0.031672075
131	0x3ce54b3f	0.027989982
132	0xbd01b958	-0.0316709
133	0xbcc97ed4	-0.02459661
134	0xbceaebfd	-0.028676981
135	0x3b9fd966	0.004878211
136	0x3c659e7f	0.014014839
137	0xbd0845b9	-0.033269618
138	0x3cadfefe	0.021239754
139	0xbcf90c24	-0.030401297
140	0xbcb70e23	-0.022345608
141	0x3b3bb21b	0.0028640095
142	0x3acd5372	0.0015665127
143	0xbc90cf21	-0.017676892
144	0xba73c5b0	-0.0009299172
145	0x3ce0427b	0.02737545
146	0x3ca42154	0.020035423
147	0x3c118aec	0.008883219
148	0x3d05c4d1	0.032658402
149	0x3c9c9580	0.019114256
150	0x3c13d124	0.009022031
151	0x3a0b8a3d	0.00053230283
152	0x3c1b1408	0.009465225
153	0x3cb2ddcb	0.021834275
154	0xbcef09e5	-0.029179523
155	0xbb842a09	-0.0040333313
156	0xbc7f14d2	-0.015568929
157	0x3cd11c1e	0.025526103
158	0x3c352435	0.011055996
159	0x3ccdf035	0.025138954
160	0xbcaa8be7	-0.020818664
161	0xbcc53f22	-0.024077956
162	0xbc877a91	-0.016537936
163	0xbc1ad51e	-0.009450225
164	0xba0a6dbb	-0.00052806333
165	0xbc53583a	-0.012899453
166	0xbbf332a8	-0.00742181
167	0x3cc467e5	0.023975322
168	0xbd202ec3	-0.039107095
169	0x3ce497f1	0.027904483
170	0x3bb76b27	0.0055974904
171	0xbc78dad1	-0.015188889
172	0x3ca66846	0.020313393
173	0x3ceac9e7	0.028660728
174	0x3c8f1a9e	0.017468747
175	0xbb4644ec	-0.0030253483
176	0xbb9c3169	-0.0047666323
177	0x3cb92dcd	0.022604847
178	0xbcce6fa3	-0.025199717
179	0x3c44cb37	0.012011341
180	0xbcd35578	-0.02579759
181	0xbc888882	-0.016666654
182	0xbce82ea0	-0.028342545
183	0xbb1c87de	-0.0023884694
184	0x3c11986b	0.008886437
185	0x3c7911a2	0.015201958
186	0x3b69d221	0.0035678225
187	0xbca8ff2c	-0.020629488
188	0xbccac877	-0.024753792
189	0xbcce054c	-0.02514901
190	0xbc45cbe6	-0.012072539
191	0x3cb9d9f9	0.022686945
192	0xbbe14827	-0.0068750563
193	0x3cfef3bd	0.031122083
194	0x3c74921f	0.014927416
195	0x3c94d977	0.018170102
196	0x3ca9ef73	0.020744061
197	0xbc9c0532	-0.019045446
198	0x3cf33e79	0.029692875
199	0x3ccffdca	0.02538957
200	0xbd0446a7	-0.03229394
201	0x3cb46a44	0.022023328
202	0x3a85714f	0.0010180863
203	0x3ced9ca1	0.02900535
204	0x3c82a76b	0.015948972
205	0xbac5b98a	-0.0015085202
206	0x3bb14186	0.0054094223
207	0x3b4b0c71	0.0030982757
208	0xbcf63d7d	-0.030058617
209	0xbcbfed8f	-0.023428706
210	0xbb8a3f44	-0.0042189676
211	0xbd07aee6	-0.03312578
212	0xbca8a699	-0.020587252
213	0xbc0a8926	-0.00845555
214	0xbca16adb	-0.019704273
215	0xbc502f66	-0.012706613
216	0xbcf09072	-0.029365752
217	0x3c829424	0.01593978
218	0x3cdd2b2b	0.026998123
219	0x3cc3694a	0.023853917
220	0xbcc0d915	-0.023541013
221	0x3cd05645	0.025431762
222	0x3cffd176	0.031227808
223	0xbcb00db5	-0.021490911
224	0xbac082b4	-0.001468739
225	0xbca34799	-0.019931601
226	0xbcb52061	-0.022110166
227	0xbc9f2670	-0.019427508
228	0x3cdd3ca8	0.027006462
229	0x3ca9c7ee	0.020725217
230	0x3cf80780	0.030277014
231	0xbc8963b2	-0.016771171
232	0x3c9f9589	0.019480484
233	0x3d008b71	0.03138298
234	0x3cf4051d	0.029787594
235	0x3c8a3b29	0.016873913
236	0xbcae0e13	-0.021246945
237	0x3bf52817	0.0074815857
238	0x3cdd1a9b	0.026990226
239	0x3c80a9a4	0.015705891
240	0xbc44fab7	-0.012022666
241	0xbcf91712	-0.030406509
242	0xbb4e469c	-0.0031475192
243	0xbb87214b	-0.004123842
244	0x3c2340d3	0.009964186
245	0x3c277002	0.010219576
246	0xbbe64e6e	-0.0070283925
247	0x3cb57400	0.02215004
248	0xba98a735	-0.0011646511
249	0x3b0c94bb	0.0021450955
250	0x3c2bff86	0.010497933
251	0x3cb2fe71	0.021849843
252	0x3c8716ab	0.016490301
253	0x3bb635e8	0.0055606253
254	0xbce2a375	-0.027665833
255	0xbd00afdb	-0.03141771

fc1.bias f4 [16]
0	0xbbd3d2c6	-0.006464335
1	0x38487893	4.779601e-05
2	0xbcd3d90d	-0.025860334
3	0x3cbda4e2	0.023149911
4	0x3c5a7a8b	0.013334881
5	0x3cbd8982	0.023136858
6	0x3cdd43e5	0.027009914
7	0xbcc09ae9	-0.023511367
8	0xbcb9643f	-0.022630809
9	0xbcc6c952	-0.024265919
10	0x3c1be14b	0.009514163
11	0xbaa21aa9	-0.0012367564
12	0xbb469b3f	-0.0030304936
13	0xbc04b0c8	-0.008098789
14	0xbcfabcef	-0.030607669
15	0x3c5828c4	0.013193313

fc2.weight f4 [32, 16]
0	0xbe0d4190	-0.13794541
1	0xbe725e01	-0.23668672
2	0xbdb3b600	-0.08774948
3	0x3d0817c0	0.033225775
4	0x3dfcca52	0.12343277
5	0x3e225598	0.15852964
6	0x3e2033a2	0.15644696
7	0xbd611c90	-0.05495888
8	0xbe71d20a	-0.2361528
9	0xbd9e25db	-0.07722064
10	0xbe4e2dae	-0.20134613
11	0xbdc5b514	-0.096536785
12	0xbe40dd49	-0.18834414
13	0xbbf9a640	-0.0076186955
14	0xbe7da3d4	-0.24769527
15	0xbd07c0bb	-0.033142786
16	0xbc090018	-0.008361839
17	0xbd6f2c69	-0.058391962
18	0x3c97a513	0.01851133
19	0xbd48f79e	-0.04906427
20	0xbdf112b0	-0.117711425
21	0x3e1c4982	0.15262416
22	0x3e0a07e0	0.13479567
23	0xbdb6f51b	-0.08933469
24	0xbde3ee21	-0.11129404
25	0x3e5e226b	0.21692817
26	0xbccc26aa	-0.02492078
27	0xbbe417ad	-0.00696083
28	0x3d80e5a0	0.062937975
29	0xbe05b0b5	-0.1305569
30	0xbb3df29c	-0.0028983718
31	0x3df8ff4f	0.12158071
32	0xbbe17e49	-0.0068815094
33	0xbc3a52df	-0.011372297
34	0xbe71d458	-0.23616159
35	0xbe568979	-0.20950879
36	0x3d4ebb68	0.050471693
37	0xbe6b86a8	-0.23000586
38	0x3e635a3e	0.22202393
39	0x3e1b1599	0.15144958
40	0xbe249f46	-0.16076383
41	0xbd74cae8	-0.05976382
42	0x3dfadbe9	0.12248976
43	0xbe163c31	-0.14671399
44	0x3e6463d9	0.22303714
45	0x3e36c6a9	0.1784922
46	0x3e78aa4e	0.24283716
47	0x3e423399	0.18964995
48	0xbe6e0d42	-0.23247245
49	0xbd1c0659	-0.03809199
50	0xbe6993a1	-0.22810222
51	0x3d0db87f	0.034599777
52	0x3e15c82c	0.14627141
53	0xbe78b594	-0.24288017
54	0x3e03be95	0.1286567
55	0xbb560eaf	-0.003266256
56	0x3e5e764d	0.21724816
57	0xbe6f18d4	-0.23349315
58	0x3dd16787	0.102248244
59	0xbda83c6a	-0.08214648
60	0x3e4c93f9	0.19978322
61	0xbe5106ff	-0.20412825
62	0x3e313bed	0.17308016
63	0x3d9f627c	0.07782456
64	0x3d9a1bb1	0.07524813
65	0x3e574507	0.21022426
66	0xbe267194	-0.16254264
67	0xbe363385	-0.1779309
68	0xbe0326b5	-0.12807734
69	0xbd1a0b80	-0.037608624
70	0x3de859c0	0.113452435
71	0xbe48b3b6	-0.19599804
72	0xbde55841	-0.11198474
73	0x3d298f29	0.041396294
74	0x3dbb080e	0.09132396
75	0x3e2af559	0.16695155
76	0xbd097918	-0.03356275
77	0x3d533c38	0.0515711
78	0xbd901b36	-0.0703644
79	0xbe0616b8	-0.13094604
80	0x3c75391d	0.01496723
81	0x3e76a8cb	0.24087827
82	0xbe53742e	-0.20649788
83	0x3df430f5	0.119234
84	0x3e1d6a87	0.15372668
85	0x3dce80a8	0.10083133
86	0xbe0db8ae	-0.13839981
87	0x3e43e85c	0.19131607
88	0xbdf5fb4d	-0.120108224
89	0x3e78844f	0.24269222
90	0x3e3ad6a8	0.18245947
91	0x3d133cce	0.03594666
92	0xbe77e384	-0.24207884
93	0x3e5d3207	0.21601115
94	0xbe199267	-0.14997254
95	0x3e694903	0.22781758
96	0xbe3cef54	-0.18450671
97	0xbe326807	-0.17422496
98	0x3c15a192	0.00913276
99	0xbe15bf8e	-0.14623854
100	0x3da0d977	0.07853978
101	0xbe1401b8	-0.1445378
102	0xbe42fea0	-0.19042444
103	0xbe71d7fa	-0.23617545
104	0x3e318e11	0.1733935
105	0x3cb2d6bd	0.02183091
106	0xbdec7b67	-0.11546975
107	0xbcda95bb	-0.026682725
108	0x3e2070af	0.15667985
109	0xbe0cc1df	-0.13745831
110	0x3e7e767c	0.24849886
111	0x3e8056b7	0.25066158
112	0xbdf40b11	-0.11916173
113	0x3d7a33ec	0.061084673
114	0xbe5a1f5a	-0.21301022
115	0x3d9c78a9	0.076402016
116	0xbe2a49ab	-0.16629665
117	0xbdfcfd28	-0.12352973
118	0x3e2559da	0.16147557
119	0x3e1f6be4	0.15568501
120	0xbe065769	-0.13119282
121	0xbe236f10	-0.15960336
122	0x3e436b1e	0.1908383
123	0xbe693c7c	-0.22776979
124	0xbe41c5c8	-0.18923104
125	0x3d6b6138	0.057465762
126	0xbe323691	-0.17403628
127	0x3e4befcc	0.19915694
128	0xbbeac5b8	-0.007164683
129	0x3e33fae9	0.17576183
130	0x3d51ffce	0.051269345
131	0x3e45964e	0.19295618
132	0xbe70cf7f	-0.23516653
133	0x3d494734	0.04914017
134	0x3e0c5fc2	0.13708404
135	0x3e766b42	0.24064353
136	0x3e17a50a	0.14809051
137	0xbcee87dc	-0.029117517
138	0xbe1bbd5f	-0.15208958
139	0x3e5b99a8	0.21445334
140	0x3e2627a8	0.16226065
141	0x3e13a4ed	0.14418383
142	0xbd98b9de	-0.07457326
143	0x3e654235	0.22388537
144	0x3e0f15f6	0.13973221
145	0xbd235540	-0.039876223
146	0xbe261985	-0.16220672
147	0x3dc249bd	0.09486721
148	0x3e503120	0.2033124
149	0xbe2dc210	-0.1696856
150	0xbe18274c	-0.1485874
151	0xbe77719d	-0.24164434
152	0x3de48f05	0.11160091
153	0x3df794be	0.12088917
154	0x3e0b52cb	0.13605802
155	0x3e73ae55	0.23796971
156	0x3c1d45d7	0.009599171
157	0xbe520753	-0.20510606
158	0x3dc129ad	0.09431777
159	0x3e613963	0.21994548
160	0x3e5db868	0.21652377
161	0xbe2de5fa	-0.1698226
162	0x3d4d5933	0.050133895
163	0x3d999ee4	0.07501009
164	0xbe31771e	-0.17330596
165	0x3d17b0e6	0.037033938
166	0xbd4e0050	-0.050293267
167	0x3da520db	0.08062907
168	0x3dd764bb	0.1051726
169	0xbe642c64	-0.22282559
170	0x3e251950	0.16122937
171	0xbe30cde5	-0.17266043
172	0x3dbcb043	0.09213307
173	0xbe2ee041	-0.17077734
174	0xbe35f5b2	-0.17769507
175	0x3b247824	0.0025096023
176	0x3d861ef9	0.06548876
177	0xbdb5aba5	-0.08870629
178	0x3e407e39	0.1879815
179	0xbcb215a9	-0.021738844
180	0x3e7b7fe9	0.24560513
181	0xbce4a518	-0.027910754
182	0x3e227474	0.15864736
183	0x3dd2c88b	0.10292157
184	0x3dddf804	0.10838321
185	0x3e48c827	0.19607602
186	0xbe714da3	-0.23564772
187	0xbe4aad60	-0.197927
188	0x3e2f4e85	0.17119797
189	0x3e56754a	0.2094318
190	0xbe28e5f6	-0.16493973
191	0x3e7ac032	0.24487379
192	0xbd92ed76	-0.07174198
193	0xbe2c5945	-0.16830929
194	0x3cd2a51d	0.025713498
195	0x3e3b0e00	0.1826706
196	0x3e2b01d7	0.1669992
197	0x3e1ffffe	0.15624997
198	0xbe7f80c2	-0.24951461
199	0xbdbc8ec5	-0.092069186
200	0xbc0c12ee	-0.008549435
201	0x3e4c4658	0.19948709
202	0xbde144f0	-0.10999477
203	0xbe76ba27	-0.24094449
204	0x3e59d595	0.21272881
205	0x3e3ebddc	0.18627113
206	0x3e24ce5b	0.16094343
207	0xbe72e6a4	-0.23720795
208	0xbe724a86	-0.23661241
209	0xbe31d7f0	-0.1736753
210	0x3da97acc	0.08275375
211	0xbe6c5c3b	-0.23082058
212	0xbcb8f6d8	-0.022578642
213	0xbe5763c6	-0.21034154
214	0x3e283bce	0.16429064
215	0x3db1967c	0.08671281
216	0x3e2bfd83	0.16795926
217	0x3d11c701	0.035590176
218	0xbda004ea	-0.07813437
219	0xbc5446be	-0.012956319
220	0x3e1b8f7f	0.15191458
221	0xbe64916a	-0.22321096
222	0x3e0b14e6	0.13582191
223	0xbe2e03ac	-0.16993588
224	0xbe5a7ff5	-0.21337874
225	0xbe28abb9	-0.16471757
226	0x3dcab4e7	0.09897786
227	0x3d7b7813	0.06139381
228	0x396a49ce	0.00022343473
229	0x3d536352	0.05160839
230	0xbe190544	-0.14943415
231	0x3e6e6cdb	0.23283713
232	0x3dd7dc25	0.10540036
233	0x3c838d65	0.016058633
234	0xbe5ebdcc	-0.2175209
235	0x3e07e416	0.13270602
236	0x3e044a19	0.12918891
237	0x3e2137c2	0.15743926
238	0x3cc6bdb1	0.024260374
239	0x3e1c9f1d	0.15295072
240	0x3c5eb918	0.0135939345
241	0x3cc9df89	0.024642723
242	0xbd3ce7f9	-0.046119664
243	0xbe2d848e	-0.16945097
244	0x3d641c81	0.055691246
245	0x3d1434d9	0.036183212
246	0x3e139183	0.14410977
247	0x3e62e2e3	0.22156863
248	0xbd182d6e	-0.0371527
249	0xbe4e8381	-0.20167352
250	0xbdcb4d0a	-0.099268034
251	0xbe2f739c	-0.17133945
252	0xbe22ad08	-0.15886319
253	0xbe511627	-0.20418607
254	0x3e6b53a3	0.22981124
255	0x3e13c600	0.14431

fc2.bias f4 [32]
0	0x3e0ece52	0.13945892
1	0x3dd5aed2	0.10433735
2	0x3e0410ec	0.1289708
3	0x3cce82c3	0.025208836
4	0xbe5a7514	-0.21333724
5	0x3ddeb6db	0.10874721
6	0x3b62bfd5	0.0034599204
7	0x3e10c5f4	0.14138013
8	0x3df104a5	0.11768464
9	0xbe2330e6	-0.15936622
10	0x3e524851	0.20535399
11	0xbe20c265	-0.15699156
12	0xbe5b8430	-0.21437144
13	0xbd9704d9	-0.073739715
14	0xbe19fe87	-0.150385
15	0x3ca9eb89	0.020742195
16	0xbe54d452	-0.20784119
17	0x3d65f1f9	0.056138966
18	0xbe6ce1f5	-0.23133071
19	0xbda65f49	-0.08123643
20	0xbe548a37	-0.2075585
21	0xbe08d7e4	-0.13363606
22	0xbdf9bf6e	-0.121947154
23	0x3a8b47f2	0.00106263
24	0xbe4d6aca	-0.20060268
25	0xbd5919f2	-0.05300326
26	0xbe34f9a2	-0.17673352
27	0x3e038205	0.12842567
28	0x3e0f3ac0	0.13987255
29	0x3e505ee7	0.20348702
30	0xbca59cd0	-0.020216376
31	0xbe58871c	-0.2114529

fc3.weight f4 [64, 32]
0	0xbda45dbd	-0.08025692
1	0xbe14a90a	-0.14517608
2	0xbe2c697f	-0.16837119
3	0x3d5e3d4f	0.054257687
4	0x3d963f9f	0.073363535
5	0xbb680617	-0.003540402
6	0xbde6c2ac	-0.112675995
7	0xbde87fec	-0.11352524
8	0x3de11826	0.10990934
9	0x3e0bcdbc	0.136527
10	0x3dd902cf	0.10596239
11	0x3d1f4f5f	0.038894054
12	0x3d84efbe	0.0649104
13	0x3d6622db	0.056185585
14	0x3c4eef3d	0.012630281
15	0xbd76c592	-0.06024701
16	0xbe185471	-0.14875962
17	0x3e2edf9a	0.17077485
18	0x3d24ae50	0.0402053
19	0x3e267f76	0.1625956
20	0x3e00d3a1	0.1258073
21	0x3d2666e9	0.040625487
22	0xba84154d	-0.0010077149
23	0xbd2e4534	-0.042546466
24	0x3e2e1c26	0.17002925
25	0xbd7a0147	-0.061036374
26	0x3df5fd16	0.12011163
27	0xbe244ab8	-0.16044128
28	0xbdecc4c9	-0.11560971
29	0xbcaf7b02	-0.02142096
30	0xbdf16371	-0.11786545
31	0x3cc638ab	0.024196943
32	0x3dbf0386	0.09326844
33	0xbd41a4f2	-0.047276445
34	0x3d990953	0.074724816
35	0x3d292ed1	0.041304413
36	0x3d7c2116	0.06155499
37	0xbd27c0de	-0.040955417
38	0x3c8b79f3	0.017025923
39	0x3cae57d9	0.021282123
40	0xbb27637f	-0.0025541482
41	0xbddbad6c	-0.10726437
42	0xbdd53a09	-0.1041146
43	0xbdb2c59f	-0.087290995
44	0x3c1f8304	0.009735826
45	0x3e0286e6	0.12746772
46	0xbdcfe8c9	-0.10151822
47	0x3da4425f	0.08020472
48	0xbe2f316a	-0.17108694
49	0x3d40c730	0.04706496
50	0xbe1a1c53	-0.15049867
51	0xbd8fd5e5	-0.07023219
52	0xbd3ce50f	-0.046116885
53	0xbd8d526a	-0.06900485
54	0x3dfeaa6f	0.124348514
55	0x3e0d64de	0.13808009
56	0xbdb5e0ba	-0.08880754
57	0x3d95bc2f	0.07311284
58	0xbd8a69b1	-0.0675844
59	0x3e2805ab	0.16408412
60	0x3e0f8416	0.1401523
61	0x3e1869be	0.14884087
62	0x3e273ed8	0.16332567
63	0x3db3975f	0.08769106
64	0x3de771a3	0.11300971
65	0x3d995fc4	0.07488969
66	0xbd905556	-0.070475265
67	0xbd4054b6	-0.046955787
68	0xbe346773	-0.17617588
69	0x3d35060b	0.044195216
70	0x3c524d86	0.012835866
71	0x3de49c83	0.11162665
72	0xbc3d8c63	-0.011569115
73	0x3b0d75b1	0.0021585042
74	0xbe157df7	-0.14598833
75	0xbe01efae	-0.12689087
76	0x3e1a1e48	0.15050614
77	0x3de4f52f	0.111795776
78	0x3b74a6ce	0.0037330869
79	0xbdec6a48	-0.11543709
80	0x3e24edc8	0.16106331
81	0xbe25179c	-0.16122288
82	0x3d582b33	0.052775573
83	0x3e2f7925	0.17136057
84	0x3e26e4f7	0.1629828
85	0x3c7acfc9	0.015308329
86	0x3dfcebc0	0.12349653
87	0x3d777ae3	0.06041993
88	0x3e273a2a	0.16330782
89	0xbdc7adb8	-0.09749931
90	0x3dbbffd3	0.09179654
91	0x3dccfb69	0.1000889
92	0xbe302a74	-0.17203695
93	0x3e2216e9	0.15829052
94	0xbd8c034a	-0.06836565
95	0x3e2cd6bf	0.16878794
96	0xbc821a5f	-0.015881715
97	0x3da63fbd	0.08117626
98	0xbdfe94fc	-0.1243076
99	0x3e2267b5	0.15859874
100	0xbe1055dd	-0.14095254
101	0xbe00220f	-0.12512992
102	0xbddf3fea	-0.109008625
103	0xbc82c0c7	-0.015961064
104	0xbe2c93a8	-0.16853201
105	0xbd88e57f	-0.06684398
106	0x3c1f9ea1	0.00974241
107	0x3e20967e	0.15682408
108	0x3cbc311a	0.022972632
109	0xbd2aab53	-0.041667294
110	0xbe0ece15	-0.13945802
111	0xbdd46db3	-0.10372486
112	0xbb89c64a	-0.004204546
113	0x3d524bc2	0.05134178
114	0x3e0ae677	0.13564478
115	0xbdd54e05	-0.10415272
116	0x3e32e131	0.17468716
117	0x3d48a870	0.04898876
118	0xbd8304bb	-0.06397387
119	0x3dfa8d66	0.12234001
120	0xbde2c895	-0.11073414
121	0xbcc8f95d	-0.024532968
122	0x3cc13a3c	0.023587339
123	0xbcbe03b1	-0.02319512
124	0xbde57f41	-0.112059124
125	0x3e2e7724	0.17037636
126	0x3d7d2158	0.061799377
127	0x3e348832	0.1763008
128	0x3d7c80d4	0.061646298
129	0xbd04d52e	-0.032429866
130	0x3e0419dd	0.12900491
131	0xbbe7a896	-0.0070696576
132	0xbd2ec18c	-0.04266505
133	0x3df180b3	0.117921256
134	0x3e1977eb	0.14987151
135	0xbd950142	-0.072756305
136	0x3d0fb748	0.0350869
137	0x3d62db15	0.055384714
138	0xbd84e783	-0.0648947
139	0x3d0b2ef2	0.033980317
140	0x3ce1ef48	0.027579919
141	0x3e0c694f	0.13712047
142	0x3e2d3ff1	0.16918923
143	0x3cb9350e	0.022608306
144	0xbde137d0	-0.109969735
145	0x3d88d244	0.0668073
146	0xbdcebe25	-0.10094861
147	0x3e1122a8	0.14173377
148	0xbd04b982	-0.032403477
149	0xbd62696d	-0.055276323
150	0x3d68da92	0.05684907
151	0x3e3418b4	0.17587548
152	0xbd503e18	-0.050840467
153	0x3da8fcfd	0.08251379
154	0xbbf00e9d	-0.007325961
155	0x3d3a409d	0.045471776
156	0xbe309618	-0.17244756
157	0xbdf5309a	-0.11972161
158	0xbde4b835	-0.11167947
159	0xbdc3c6ff	-0.0955944
160	0x3e318113	0.17334394
161	0xbdfc5932	-0.123217
162	0xbd5286fd	-0.051398266
163	0xbc8ba59b	-0.01704674
164	0x3e038c0d	0.12846394
165	0xbd8b4474	-0.06800166
166	0x3dbf25d7	0.09333389
167	0xbd8fab23	-0.070150636
168	0xbde75e7c	-0.11297318
169	0x3c6522cc	0.013985347
170	0xbe2aeecd	-0.16692658
171	0xbe0ec5ef	-0.13942693
172	0xbe0053cc	-0.12531966
173	0x3cb6076b	0.022220334
174	0xbd064fb0	-0.03279084
175	0xbde6725d	-0.11252282
176	0x3c3be5af	0.011468335
177	0x3cd93f63	0.026519483
178	0xbd97e840	-0.07417345
179	0xbe18d3fa	-0.14924613
180	0xbde56360	-0.11200595
181	0xbe24aa0e	-0.16080496
182	0x3cadeac7	0.021230115
183	0x3e093540	0.1339922
184	0xbde74dd0	-0.112941384
185	0x3d3c3616	0.045950018
186	0x3e259ede	0.16173884
187	0xbc387f59	-0.011260831
188	0xbbf8cb7e	-0.0075926175
189	0xbd276712	-0.04086978
190	0x3cd0a16b	0.025467595
191	0x3d8c82e8	0.06860906
192	0x3e258b2c	0.16166371
193	0xbd8dd8a5	-0.06926087
194	0xbda8e993	-0.08247676
195	0xbe24e9bc	-0.16104788
196	0x3e2f3084	0.17108351
197	0x3c4c7fd2	0.012481647
198	0xbcff9b84	-0.031202085
199	0xbdcdeb63	-0.10054662
200	0x38e02e5f	0.000106897896
201	0x3d9a25f0	0.07526767
202	0x3e26482c	0.16238469
203	0xbd7da6a0	-0.061926484
204	0xbd660cbe	-0.056164496
205	0x3da313c7	0.079627566
206	0x3de761bd	0.11297939
207	0xbd3dacb4	-0.04630728
208	0x3e01d8e7	0.12680398
209	0xbd16bd27	-0.036801483
210	0xbd4d5f77	-0.05013987
211	0x3cb7bdeb	0.022429427
212	0x3e2e7e55	0.1704038
213	0x3ce38d8d	0.027777458
214	0x3e2d4373	0.16920261
215	0x3ccc3387	0.024926914
216	0x3df7790b	0.12083634
217	0x3e0ce648	0.1375972
218	0xbdb1e498	-0.08686179
219	0x3dbcede0	0.092250586
220	0xbdccfb36	-0.10008852
221	0xbddb320a	-0.107029036
222	0xbcaf501a	-0.0214005
223	0x3e2e9d05	0.17052086
224	0x3e1152b1	0.141917
225	0x3d5c0411	0.053714816
226	0x3d56f3b9	0.052478526
227	0xbdbab36e	-0.09116255
228	0x3cb85749	0.022502558
229	0xbd58857c	-0.052861676
230	0xbd214644	-0.03937365
231	0xbd9f879b	-0.077895366
232	0xbe14839d	-0.14503331
233	0x3c7754e1	0.01509592
234	0xbd3c3cbe	-0.045956366
235	0xbd52ff5c	-0.05151306
236	0x3db9db92	0.09075083
237	0xbdbc368a	-0.0919009
238	0xbe0462a5	-0.12928255
239	0x3d7bccae	0.061474495
240	0x3dbf247e	0.09333132
241	0xbe0e019f	-0.13867806
242	0x3e22a43b	0.15882961
243	0xbc7eef87	-0.015560037
244	0x3c2958b3	0.010336089
245	0x3df5ba3b	0.11998411
246	0x3e0541c6	0.13013372
247	0xbde66aff	-0.11250877
248	0xbe0cd074	-0.13751394
249	0xbdfe611b	-0.12420865
250	0x3e1acbd6	0.1511682
251	0x3d873049	0.066010065
252	0x3d4cc217	0.049989786
253	0x3dad798f	0.08470451
254	0x3e159452	0.14607361
255	0xbe31ca1a	-0.17362252

fc3.bias f4 [64]
0	0xbdfcbddb	-0.123408996
1	0x3c0449d0	0.008074239
2	0xbd865029	-0.06558258
3	0x3e0eddbe	0.13951775
4	0x3e258b16	0.16166338
5	0x3df989de	0.12184499
6	0xbdf9322b	-0.12167772
7	0xbe2bd550	-0.16780591
8	0xbe05427b	-0.13013642
9	0x3d00a7f4	0.031410173
10	0x3cd7fa28	0.026364401
11	0xbcb36dc8	-0.021902934
12	0xbe157deb	-0.14598815
13	0x3dadc5e7	0.084850125
14	0x3ddb8669	0.10718996
15	0xbe0be6da	-0.13662282
16	0x3e296ae4	0.16544682
17	0xbd484c47	-0.04890087
18	0xbd60f5f2	-0.05492205
19	0x3d87803c	0.06616256
20	0xbd03ad92	-0.03214795
21	0x3e0459d8	0.12924898
22	0xbd653a44	-0.05596377
23	0x3c333f1c	0.010940339
24	0x3cf6d285	0.03012968
25	0x3bf1a854	0.0073748026
26	0x3dca0a65	0.09865264
27	0xbc578b7d	-0.013155815
28	0x3e1ef902	0.15524676
29	0x3e1766f6	0.1478537
30	0x3df130e5	0.11776904
31	0xbd39f61a	-0.045400716
32	0xbd2c82e6	-0.042117022
33	0x3dd78086	0.10522561
34	0x3c829697	0.015940947
35	0xbc1b2be9	-0.009470918
36	0xbe20dad9	-0.15708484
37	0x3d972784	0.07380584
38	0x3dfc8420	0.12329888
39	0xbe24c94e	-0.16092417
40	0x3d9404a8	0.072274506
41	0xbdaed276	-0.08536236
42	0x3e30b034	0.17254716
43	0xbd6e2e41	-0.05814958
44	0xbcf65701	-0.030070784
45	0xbe1d8a6d	-0.15384836
46	0x3e2ce141	0.16882803
47	0xbd88e8cb	-0.06685027
48	0x3db22c55	0.08699862
49	0x3d4b580a	0.049644507
50	0xbd2b1deb	-0.04177658
51	0xbd2db83a	-0.04241202
52	0x3e2584c0	0.16163921
53	0xbdf4c725	-0.11952046
54	0x3db38ec1	0.087674625
55	0x3e0f8c6e	0.14018413
56	0x3d9feeec	0.078092426
57	0xbe30c96a	-0.17264333
58	0x3cdfaf4e	0.027305271
59	0xbd69c8e7	-0.05707636
60	0x3dc33bd4	0.09532896
61	0x3e22a21f	0.15882157
62	0xbccf26dc	-0.025287084
63	0x3c0f0af6	0.008730641

fc4.weight f4 [128, 64]
0	0xbdaca68e	-0.08430205
1	0x3deeaf36	0.116545126
2	0xbc4c1ca9	-0.012458005
3	0x3c57a6ab	0.013162295
4	0xbdb3056b	-0.08741268
5	0xbc11e844	-0.008905474
6	0x3d7f4171	0.06231827
7	0x3d53c63a	0.051702715
8	0xbdaec9a9	-0.08534557
9	0xbd820bdc	-0.06349918
10	0xbdd60a6c	-0.104512066
11	0xbc528726	-0.012849605
12	0x3d520567	0.051274683
13	0xbdf5e3bd	-0.12006328
14	0x3c35318f	0.011059179
15	0x3c30c298	0.010788582
16	0xbdce6772	-0.100783244
17	0xbdaea35b	-0.08527251
18	0xbdaa3cd9	-0.08312387
19	0x3ddcc522	0.107797876
20	0x3d99cb24	0.07509449
21	0xbd4f01ee	-0.05053895
22	0x3df09cce	0.11748658
23	0xbd626de8	-0.055280596
24	0xbd17a7e7	-0.03702536
25	0xbb531f82	-0.0032214825
26	0x3d5d5499	0.054035757
27	0x3c7befd2	0.015377002
28	0x3d6221f9	0.05520818
29	0x3da99920	0.082811594
30	0xbc722352	-0.014778929
31	0x3d220a0f	0.039560374
32	0xbd4dd13d	-0.050248373
33	0xbc81fda0	-0.015868008
34	0x3d4764cc	0.04868011
35	0xbd83e03a	-0.06439252
36	0x3d5f0360	0.054446578
37	0x3de662e1	0.112493284
38	0x3c3281f2	0.010895239
39	0x3c94e250	0.01817432
40	0x3da63872	0.08116235
41	0xbdad9fb9	-0.0847773
42	0x3d7caeba	0.06169007
43	0x3bb61ee3	0.005557881
44	0x3dc74043	0.09729054
45	0x3d14d2ef	0.036333974
46	0x3cc324ac	0.023821197
47	0x3dd2c72d	0.10291896
48	0x3d30d847	0.04317501
49	0x3c50aa8d	0.012735975
50	0x3b9ce5d0	0.004788138
51	0xbdb9c1bd	-0.09070156
52	0xbcc24960	-0.023716629
53	0xbd53132b	-0.051531952
54	0xbdd28a2e	-0.10280262
55	0x3dbb4679	0.09144301
56	0xbc694bba	-0.014239246
57	0x3db1100a	0.08645637
58	0x3de78ada	0.11305781
59	0x3da4e11c	0.08050749
60	0x3de50fe5	0.11184672
61	0xbd3813f1	-0.044940893
62	0x3d5629bc	0.052285895
63	0xbc881f36	-0.016616445
64	0xbd50c264	-0.050966635
65	0xbcf18a20	-0.029484808
66	0xbd9cee9c	-0.076626986
67	0x3dd52127	0.10406714
68	0x3de5a32c	0.11212763
69	0x3d5b574f	0.05355006
70	0x3d40d709	0.047080074
71	0xbd6fbc42	-0.058529146
72	0xbd83a5bd	-0.064280964
73	0xbd342064	-0.043976203
74	0xbcb6ea65	-0.022328565
75	0x3dfb4d68	0.122706234
76	0xbca655fd	-0.020304674
77	0xbdab1567	-0.083536915
78	0xbd714690	-0.058905184
79	0xbd1d65ff	-0.03842735
80	0xbdb25f7d	-0.08709619
81	0xbdb3507c	-0.087555856
82	0x3d19fd23	0.037594926
83	0x3df3eb5d	0.11910126
84	0x3c54e385	0.012993698
85	0xbd6de337	-0.058078017
86	0xbdd9c3cd	-0.10633049
87	0xbdf01132	-0.1172203
88	0xbc3c0273	-0.011475193
89	0xbdec7dac	-0.115474075
90	0x3d016af0	0.031596124
91	0xbd173f81	-0.036925796
92	0x3db5f780	0.088850975
93	0xbdd90975	-0.10597507
94	0xbde2ad22	-0.11068179
95	0x3b5b96b3	0.0033506572
96	0x3dbbc966	0.09169273
97	0xbdc03533	-0.09385147
98	0xbd4f8023	-0.05065931
99	0xbd8c281a	-0.06843586
100	0xbcc80283	-0.02441526
101	0xbcb2f4ed	-0.021845305
102	0xbc86a2a0	-0.016434968
103	0xbd48c839	-0.049019072
104	0x3c14e45f	0.009087651
105	0xbce6ed7f	-0.028189419
106	0x3db373c1	0.08762313
107	0xbdca9bc9	-0.09892995
108	0xbb40a97b	-0.0029397893
109	0xbc2f23b3	-0.010689664
110	0x3deeef74	0.11666766
111	0x3c272fe4	0.010204289
112	0xbc58eaa1	-0.013239534
113	0xbd6a7cc7	-0.057247903
114	0x3d9417a7	0.07231074
115	0xbdb33b1b	-0.08751508
116	0x3c4f4b78	0.0126522705
117	0x3dc00a8f	0.09377014
118	0xbdbba6ba	-0.0916266
119	0x3ce131f3	0.027489638
120	0x3dc9c8be	0.09852742
121	0xbcf8af4d	-0.030357027
122	0x3d832fe9	0.064056225
123	0x3d62c34d	0.055362035
124	0x3cd9301f	0.026512204
125	0xbd806f57	-0.062712364
126	0xbd947f80	-0.07250881
127	0x3d7fa175	0.062409837
128	0x3d4e2f27	0.050337937
129	0xbcd22b89	-0.025655525
130	0x3b70528b	0.0036670293
131	0x3c89f920	0.016842425
132	0x3dcd63b6	0.10028784
133	0xbdc86005	-0.09783939
134	0xbd6c00b3	-0.057617854
135	0xbd5fecb5	-0.0546691
136	0x3cea05ac	0.028567158
137	0x3cca6f8b	0.024711391
138	0x3da9b619	0.082866855
139	0xbdbd661c	-0.092479914
140	0xbdda968c	-0.10673246
141	0xbd4f6532	-0.050633617
142	0xbd097431	-0.033558074
143	0x3dcd60ea	0.100282505
144	0x3d0fc9f4	0.035104707
145	0x3db484ad	0.088143684
146	0xbda0380a	-0.078231886
147	0xbd0d5767	-0.03450718
148	0xbd33d125	-0.043900628
149	0x3d688ed7	0.056776848
150	0xbcfb8c3f	-0.030706523
151	0xbdeeeb82	-0.11666013
152	0x3dc9da8f	0.0985614
153	0xbd735a62	-0.059412368
154	0xb86c02eb	-5.6269502e-05
155	0x3cdf2901	0.027241232
156	0x3de16f55	0.11007563
157	0xbd39d58f	-0.04536968
158	0xbca0217d	-0.019547218
159	0xbd54cefe	-0.051955216
160	0x3db630c2	0.088960186
161	0xbd9c5fe9	-0.07635481
162	0x3deb5762	0.11491276
163	0x3dcca1d1	0.099918015
164	0xbdbdd2c9	-0.0926872
165	0x3ddfd34a	0.10928972
166	0x3dd3d52e	0.10343395
167	0x39e54e26	0.0004373651
168	0xbb9609d2	-0.0045788074
169	0x3de3e64b	0.11127909
170	0x3db5b9fc	0.08873364
171	0xbd56c8a9	-0.05243746
172	0xbdbb3bf5	-0.09142295
173	0xbcc8e125	-0.02452142
174	0xbda5e0f2	-0.080995455
175	0x3c86e7fa	0.016468037
176	0x3de0aabb	0.10970064
177	0x3dfbcf89	0.122954436
178	0x3cd5a08b	0.02607753
179	0xbdb85157	-0.08999889
180	0x3d0670fd	0.032822598
181	0x3da02356	0.0781924
182	0xbd569af9	-0.052393887
183	0x3d48ec24	0.049053326
184	0x3c2f5781	0.010702015
185	0xbbc08399	-0.0058750627
186	0x3c311ecf	0.010810568
187	0x3d9fdde8	0.07805997
188	0xbda1a3a3	-0.07892539
189	0x3d2175db	0.039419036
190	0xbd978d10	-0.073999524
191	0xbd820ee9	-0.063505
192	0xbdb02024	-0.0859988
193	0xbd3116d6	-0.04323467
194	0x3d8d47aa	0.068984345
195	0x3be6972a	0.007037063
196	0xbd822240	-0.06354189
197	0x3cc2d277	0.023781998
198	0x3c96c445	0.018404135
199	0x3ded0e58	0.115750015
200	0xbde17ee7	-0.11010533
201	0x3d77df6f	0.060515817
202	0xbd5abc45	-0.053402204
203	0xbd78d559	-0.06075034
204	0x3dc20e22	0.09475352
205	0xbddc6939	-0.10762257
206	0x3d520d2e	0.0512821
207	0xbd92a680	-0.071606636
208	0x3dc56589	0.09638507
209	0xbc9fb5b9	-0.019495832
210	0xbb42d7ac	-0.0029730601
211	0x3dd0fcf8	0.102045
212	0x3ce2801c	0.027648978
213	0x3ddeb71f	0.10874771
214	0xbda51209	-0.080600806
215	0x3dd094b6	0.10184614
216	0xbc4fab9c	-0.012675192
217	0x3dd97c87	0.10619455
218	0x3dd59711	0.10429204
219	0x3bf9eadd	0.007626875
220	0x3daf5ca5	0.085625924
221	0x3db25db4	0.08709279
222	0x3d7511a4	0.059831277
223	0x3dd6a589	0.10480792
224	0x3dc6c17f	0.09704875
225	0x3d9c4a91	0.0763141
226	0x3d568f16	0.05238255
227	0x3db265eb	0.087108456
228	0x3de60d98	0.112330616
229	0x3da77866	0.08177261
230	0x3d6c26ea	0.0576543
231	0xbdd0a87d	-0.101883866
232	0x3de5d8ba	0.11222978
233	0xbd163245	-0.036669035
234	0xbd0124b6	-0.03152915
235	0x3d16823e	0.036745302
236	0xbc1e473c	-0.009660538
237	0x3de1fe97	0.11034887
238	0xbd8f92d4	-0.07010427
239	0x3de2712e	0.110567436
240	0xbd04138e	-0.03224521
241	0x3dce28c5	0.1006637
242	0x3dca7b8b	0.09886845
243	0xbdbe21f5	-0.092838205
244	0xbd877bf7	-0.06615441
245	0xbde50669	-0.11182863
246	0xbdf7b45f	-0.1209495
247	0x3d9b3c7d	0.075798966
248	0x3d46f1f9	0.048570607
249	0x3d7afa1f	0.06127369
250	0x3b80cdfc	0.0039308053
251	0x3de0454c	0.10950717
252	0xbdd8fcb3	-0.105950736
253	0xbda66c18	-0.08126086
254	0x3c680388	0.014160998
255	0x3cfbd854	0.030742802

fc4.bias f4 [128]
0	0x3c8ca92f	0.017170517
1	0xbd4ab08e	-0.049484782
2	0xbcb8b9c9	-0.022549527
3	0x3db04bf7	0.08608239
4	0x3d7cc786	0.061713718
5	0x3de43225	0.11142377
6	0x3b729ff7	0.0037021616
7	0xb9b24775	-0.00034004045
8	0x3c152104	0.00910211
9	0x3df37617	0.11887758
10	0xbd883521	-0.066507585
11	0x3cbb26be	0.022845622
12	0xbd939a7c	-0.072072
13	0xbd932c08	-0.07186133
14	0xbd35becd	-0.044371415
15	0xbc584ac0	-0.013201416
16	0x3d887460	0.06662822
17	0xbc9b5135	-0.018959621
18	0xbdfc7fa3	-0.12329032
19	0x3d269b94	0.040675715
20	0xbd7597cd	-0.05995922
21	0xbdb39fcc	-0.08770713
22	0x3db81c11	0.08989728
23	0xbd60c6c4	-0.054877058
24	0xbd9d547a	-0.07682128
25	0xbd745bdc	-0.059657916
26	0x3d1fa555	0.038976032
27	0x3c99cd31	0.0187746
28	0xbcf50cb8	-0.029913291
29	0xbdcba759	-0.099440284
30	0x3d2aa868	0.04166451
31	0x3b64de9d	0.0034922727
32	0x3cd0e12e	0.025497999
33	0xbd77ebce	-0.060527615
34	0xbc8cb85c	-0.017177753
35	0xbda4b089	-0.08041484
36	0x3df57dc5	0.11986879
37	0x3d038ad8	0.032114834
38	0xbbd9b3e7	-0.0066437605
39	0x3dbc062a	0.09180863
40	0x3df688c5	0.120378055
41	0xbc057e9c	-0.008147862
42	0x3ca70b06	0.020390999
43	0x3def4c2a	0.11684449
44	0x3de1f127	0.11032324
45	0x3c989264	0.018624492
46	0xbd497355	-0.049182255
47	0x3d934c84	0.071923286
48	0xbc3a3002	-0.011363985
49	0xbb85b2af	-0.0040801386
50	0x3dca38ca	0.09874113
51	0x3da1f32c	0.079077095
52	0x3d2eb49a	0.042652704
53	0x3cb3fba6	0.021970581
54	0xbdb813e1	-0.089881666
55	0xbcda78e6	-0.026668977
56	0x3d08601d	0.033294786
57	0xbc985250	-0.018593937
58	0x3d889fd2	0.06671108
59	0xbda68e96	-0.08132665
60	0xbd100333	-0.0351593
61	0x3db2f048	0.08737236
62	0xbddfa854	-0.10920778
63	0x3b6bbe4f	0.0035971587
64	0x3d884bbd	0.06655071
65	0x3df9eb4f	0.12203085
66	0xbd595a8e	-0.053064875
67	0x3d985360	0.074377775
68	0xbc404349	-0.011734792
69	0x3dffb23f	0.124851696
70	0xbdcaff3d	-0.09911964
71	0x3dd00cb9	0.10158677
72	0xbd1a6492	-0.037693568
73	0xbded11e0	-0.11575675
74	0x3b60135f	0.0034191234
75	0xbb0dfee2	-0.0021666815
76	0x3d1c3021	0.038131837
77	0xbd912185	-0.070864715
78	0xbd7af7c4	-0.061271444
79	0xbb2a41f1	-0.0025979246
80	0xbcf3f860	-0.02978152
81	0x3d83a893	0.06428637
82	0xbdc7da6c	-0.097584575
83	0xbd2c7716	-0.042105757
84	0xbdecea4d	-0.11568127
85	0x3dc20778	0.09474081
86	0xbdd5f252	-0.104466096
87	0xbdc340e7	-0.095338635
88	0xbacb79a6	-0.0015523925
89	0x3d2b113b	0.04176448
90	0xbdd9c52d	-0.106333114
91	0xba96f446	-0.0011516891
92	0xbd20481a	-0.03913126
93	0x3c82a3d4	0.01594726
94	0x3db31cc5	0.08745722
95	0x3d625db1	0.055265132
96	0xbb06314d	-0.0020476163
97	0xbdf289df	-0.11842703
98	0xbdf28ad2	-0.11842884
99	0xbd0112b9	-0.031511996
100	0x3d431cf6	0.04763504
101	0x3d98a659	0.07453603
102	0xbd9795be	-0.07401608
103	0xbdc1fb5e	-0.094717726
104	0x3d32bb98	0.043635935
105	0x3bc842b3	0.006111467
106	0x3bf8c1d5	0.007591466
107	0xbdfd1db0	-0.12359178
108	0xbde6a334	-0.11261597
109	0x3bb4e129	0.0055200052
110	0x3dd9d8bf	0.10637044
111	0x3cd3be14	0.025847472
112	0x3d5da565	0.05411281
113	0xbd3b0824	-0.04566206
114	0xbd9f0e24	-0.07766369
115	0x3d37babe	0.044855826
116	0x3da95e19	0.08269901
117	0xbae1fa5c	-0.0017240751
118	0x3dc00311	0.09375585
119	0xbdd15ae0	-0.10222411
120	0xbd65e4ec	-0.05612652
121	0x3d528fe9	0.051406775
122	0xbd9ce503	-0.07660868
123	0x3dfe908b	0.12429913
124	0x3da45636	0.08024256
125	0xbd7787cd	-0.060432244
126	0xbd1cd2b6	-0.038286887
127	0xbd4e9464	-0.050434485
