models_submitted/test_acc-CNN_2L_FC_N400.pt (torch, 160817 bytes, 22 tensors)

conv1.weight f4 [32, 1, 1]
0.94627005 0.68365085 0.67279875 0.63423324 -0.7258304 -0.39384127 0.29528505 -0.12925702
0.44823825 -0.8171243 -0.5783914 0.271883 -0.12442313 -0.9425427 0.0389839 -0.33585876
0.6766071 0.6786066 0.50363594 -0.9773821 0.9807449 0.88791275 0.70011485 0.46007073
-0.8523757 0.72420716 0.07053777 0.34707293 0.2483979 0.63996625 0.47279385 0.72108155
00000000: c13e 723f be03 2f3f 8a3c 2c3f 1c5d 223f
00000010: 05d0 39bf 90a5 c9be 9a2f 973e f45b 04be
00000020: 7c7f e53e 0f2f 51bf 7511 14bf 4034 8b3e
00000030: 8ed1 febd 7a4a 71bf 95ad 1f3d aef5 abbe
00000040: 1f36 2d3f 2ab9 2d3f 49ee 003f b735 7abf
00000050: 1912 7b3f 404e 633f ba3a 333f 648e eb3e
00000060: 4b35 5abf a465 393f 1b76 903d 8bb3 b13e
00000070: 055c 7e3e d4d4 233f 0912 f23e cd98 383f

conv1.bias f4 [32]
-0.50421506 0.5209407 -0.90452623 0.27398786 -0.23700885 0.6591298 -0.2636992 0.41919786
-0.78822315 -0.7780672 -0.786629 0.3515848 0.63340694 -0.25867108 -0.8285883 -0.75484747
0.9423907 -0.9133325 -0.40503204 0.6825273 0.5706505 -0.7472998 -0.6604797 -0.13142489
-0.03669456 -0.9673005 -0.5536728 -0.6791718 0.19199042 -0.93721175 0.45858708 -0.85164046
00000000: 3d14 01bf 5f5c 053f 088f 67bf 2348 8c3e
00000010: 73b2 72be bbbc 283f 9503 87be 1aa1 d63e
00000020: fec8 49bf 692f 47bf 8560 49bf ec02 b43e
00000030: f526 223f 8970 84be 5d1e 54bf af3d 41bf
00000040: 8440 713f 29d0 69bf 5c60 cfbe 1cba 2e3f
00000050: 2716 123f 0a4f 3fbf 3315 29bf 3f94 06be
00000060: 094d 16bd 01a1 77bf 80bd 0dbf 34de 2dbf
00000070: 2399 443e 1ced 6fbf edcb ea3e 1c05 5abf

conv2.weight f4 [64, 32, 1]
-0.072951175 0.1504277 -0.09056608 -0.16430393 -0.099511944 -0.0043324996 -0.14594035 -0.034366563
0.087613225 -0.10165386 0.05979483 -0.00948623 0.051134244 0.09568966 -0.06983081 0.070238255
-0.13376182 -0.083828814 -0.14592186 0.08986532 0.024571255 0.09671047 0.029597687 -0.025199242
0.06883351 -0.07619042 -0.026684012 0.015630096 -0.102670185 -0.04340609 0.14800239 -0.036960993
0.16465287 0.11732532 0.17122239 0.1461921 -0.115077 -0.009758251 -0.08709718 0.055223025
0.01704964 -0.16127706 -0.14447238 0.09005934 -0.017868962 0.12642589 0.11439662 -0.02695645
0.015453915 0.17067243 0.16224508 -0.16219585 -0.06413653 -0.08576496 -0.048969783 -0.010061539
0.045378022 0.15641107 -0.0976998 -0.09204921 0.04257531 -0.040214922 -0.128142 0.14639078
0.13529085 0.10367722 0.1667628 -0.033694897 -0.14785053 0.10994258 0.116693206 -0.10044859
0.00441466 -0.0052220686 0.023363557 0.13206977 0.13334732 0.021506904 0.08392071 0.1309718
-0.13816223 0.109420136 -0.07776895 0.085629046 -0.1415041 0.039839078 -0.07475452 -0.04941664
0.13239026 -0.08136053 0.13450727 0.1284153 0.063076966 0.06286347 0.036005374 0.020630114
-0.07258724 -0.1449151 0.011224043 0.13081492 0.12571357 -0.15576407 0.07271526 -0.018163946
-0.12885448 -0.050084393 0.041802958 -0.13250282 0.14487857 0.08844946 0.031973884 -0.10660579
-0.068549015 -0.025494501 -0.09643325 0.13455965 -0.1681064 0.062094614 -0.10355224 -0.16226882
-0.13189249 0.049353115 -0.026011348 0.023692535 -0.1292016 -0.13690719 -0.060547635 0.0926644
-0.13955756 -0.070072085 -0.022503614 0.14016128 0.17840369 0.15434499 -0.11969463 -0.08326312
-0.012673431 -0.052978434 -0.12176155 0.16169621 -0.07661642 -0.16390482 -0.14344446 -0.059987277
0.062483277 0.15746024 0.09520547 0.10743875 -0.13753337 -0.1208234 -0.06693786 0.020773591
0.13815238 -0.12322944 -0.046699867 -0.07661279 -0.109140776 0.104916 -0.13449003 0.045948155
0.05759078 0.027743816 -0.104302004 -0.0011622204 0.11360164 -0.15910974 -0.015877075 -0.16681854
0.11453838 -0.03573341 0.110710524 0.113832444 0.0024006956 0.12864506 0.082180746 0.1772584
0.12182378 -0.12059336 -0.1626628 -0.020211218 -0.12300212 -0.08640061 -0.093127124 0.032836314
-0.016776174 0.037177186 -0.06496572 0.024925034 -0.06487795 0.055960856 -0.09387881 0.097790994
0.04825432 -0.15943378 -0.13765554 0.07034232 0.13415815 0.09293791 0.0395875 0.11750373
-0.0430305 0.10125551 0.13725056 -0.110045105 -0.04683634 0.05866893 -0.12916256 -0.048122775
-0.085238196 0.14601593 0.054024816 -0.09600784 0.16358402 -0.120079994 0.12130455 0.09797471
0.010637135 0.15791582 0.008538356 -0.06568762 -0.13993058 -0.03175955 -5.2698328e-05 -0.15382712
-0.021009358 0.09827599 0.14939061 0.05348177 -0.01950807 -0.14003843 0.04990383 0.17248166
-0.021023644 -0.029246056 0.04015054 0.09393124 -0.06686892 -0.07061633 0.17585096 -0.067934416
-0.1452872 0.14247558 -0.17304371 -0.06454039 0.16473936 -0.13551737 -0.041160624 0.13369088
0.061842933 -0.16611317 -0.08926685 -0.0016731279 0.15709727 -0.022855185 0.10741203 0.13939777
00000000: 6d67 95bd b809 1a3e b57a b9bd 4a3f 28be
00000010: ebcc cbbd a4f7 8dbb 6371 15be f4c3 0cbd
00000020: 906e b33d e62f d0bd 6ceb 743d 226c 1bbc
00000030: 2472 513d f1f8 c33d 7503 8fbd 13d9 8f3d
00000040: dcf8 08be 71ae abbd 8a6c 15be 4f0b b83d
00000050: a849 c93c 2410 c63d d976 f23c a46e cebc
00000060: 95f8 8c3d b909 9cbd 6e98 dabc b00a 803c
00000070: bf44 d2bd 96ca 31bd f08d 173e 6964 17bd
00000080: c39a 283e 4248 f03d ec54 2f3e 62b3 153e
00000090: 7dad ebbd 12e1 1fbc 0260 b2bd 8a31 623d
000000a0: b0ab 8b3c d025 25be 91f0 13be 0871 b83d
000000b0: ee61 92bc ca75 013e c648 ea3d c6d3 dcbc
000000c0: 6b32 7d3c c1c4 2e3e 9323 263e ab16 26be
000000d0: 035a 83bd 8aa5 afbd 8a94 48bd 27d9 24bc
000000e0: 4ede 393d 392a 203e d516 c8bd 4c84 bcbd
000000f0: 7363 2e3d 67b8 24bd a837 03be 77e7 153e
00000100: af89 0a3e b954 d43d dec3 2a3e a903 0abd
00000110: 2166 17be 9329 e13d d9fc ee3d feb7 cdbd
00000120: daa8 903b e31d abbb ee64 bf3c 4c3d 073e
00000130: 338c 083e 3f2f b03c 9fde ab3d 791d 063e
00000140: 667a 0dbe aa17 e03d 5445 9fbd 485e af3d
00000150: 73e6 10be 4d2e 233d e618 99bd 1a69 4abd
00000160: 5091 073e 59a0 a6bd 46bc 093e 4d7f 033e
00000170: 7f2e 813d 90be 803d 5f7a 133d 7c00 a93c
00000180: 9ea8 94bd a064 14be 0ce5 373c 59f4 053e
00000190: 0fbb 003e 9e80 1fbe bdeb 943d 8ecc 94bc
000001a0: 6ef2 03be 4b25 4dbd 9439 2b3d d2ae 07be
000001b0: 0c5b 143e fe24 b53d 0cf7 023d 2354 dabd
000001c0: 6d63 8cbd d8d9 d0bc cc7e c5bd 01ca 093e
000001d0: 1624 2cbe ec56 7e3d 3213 d4bd cc29 26be
000001e0: d30e 07be 7e26 4a3d c015 d5bc d916 c23c
000001f0: 6d4d 04be 6631 0cbe cc00 78bd d5c6 bd3d
00000200: 2de8 0ebe f481 8fbd 8059 b8bc 7086 0f3e
00000210: 75af 363e 9d0c 1e3e 7522 f5bd db85 aabd
00000220: 39a4 4fbc eaff 58bd 1f5e f9bd b193 253e
00000230: 12e9 9cbd aad6 27be 1be3 12be 38b5 75bd
00000240: 77ee 7f3d 423d 213e 16fb c23d d908 dc3d
00000250: 8cd5 0cbe 4272 f7bd b716 89bd 612d aa3c
00000260: d177 0d3e b75f fcbd 5c48 3fbd 2be7 9cbd
00000270: 3385 dfbd 33de d63d c1b7 09be 2234 3c3d
00000280: 4fe4 6b3d 0047 e33c 4a9c d5bd a555 98ba
00000290: faa7 e83d aaed 22be a410 82bc 7bd2 2abe
000002a0: 1993 ea3d 325d 12bd 33bc e23d fc20 e93d
000002b0: fd54 1d3b 88bb 033e 614e a83d 3a83 353e
000002c0: bf7e f93d a7f9 f6bd 1491 26be ff91 a5bc
000002d0: 89e8 fbbd cef2 b0bd 6fb9 bebd 5f7f 063d
000002e0: 306e 89bc 1b47 183d bf0c 85bd 962f cc3c
000002f0: bbde 84bd 3637 653d 8943 c0bd a546 c83d
00000300: 52a6 453d 9c42 23be 93f5 0cbe a20f 903d
00000310: c160 093e 3b56 be3d 8126 223d cca5 f03d
00000320: c040 30bd 0c5f cf3d 698b 0c3e 545f e1bd
00000330: 76d7 3fbd d54e 703d 3143 04be 631c 45bd
00000340: 5d91 aebd 3385 153e 2049 5d3d c29f c4bd
00000350: 9282 273e 80ec f5bd 856e f83d f7a6 c83d
00000360: 6147 2e3c afb4 213e 76e4 0b3c 3b87 86bd
00000370: f649 0fbe 4d16 02bd 6608 5db8 db84 1dbe
00000380: d11b acbc ec44 c93d daf9 183e b30f 5b3d
00000390: 63cf 9fbc 3c66 0fbe f567 4c3d 089f 303e
000003a0: c739 acbc 6d95 efbc e574 243d 065f c03d
000003b0: 93f2 88bd 4b9f 90bd 4612 343e 3321 8bbd
000003c0: 2bc6 14be 1ee5 113e 5f32 31be c12d 84bd
000003d0: 6fb1 283e 11c5 0abe 0b98 28bd 43e6 083e
000003e0: 044f 7d3d 9219 2abe 8ad1 b6bd db4c dbba
000003f0: 1bde 203e cc3a bbbc d7fa db3d 4abe 0e3e

conv2.bias f4 [64]
-0.16388004 0.16838448 -0.08314359 -0.015999109 -0.16129869 0.051016778 0.10211559 0.10610873
-0.049361855 -0.15864742 -0.1689418 0.06537036 -0.020494241 -0.0198546 -0.16852899 -0.14907563
0.0001214108 0.013049044 0.005115146 -0.1320121 0.050955724 0.06607112 0.02764534 -0.13074063
0.086134724 -0.015859313 0.073259614 0.14593937 0.07939968 -0.07530904 0.012066474 -0.14088751
-0.0995606 -0.119551405 0.02266606 -0.10355457 -0.022051053 0.033717778 -0.12971155 -0.11932889
0.13370597 0.010075215 -0.028892027 0.050497916 -0.0055975 0.09178763 0.011119495 0.06769634
0.010955251 0.13351855 0.011496265 -0.017185738 0.15077373 0.13014722 0.023468714 -0.066569194
-0.0111408755 0.13509902 0.14113033 -0.07780412 -0.0718343 0.09101918 0.14186706 -0.12764287
00000000: 2bd0 27be fb6c 2c3e 3047 aabd 9010 83bc
00000010: 7c2b 25be f8f6 503d fa21 d13d 894f d93d
00000020: a82f 4abd 7874 22be 14ff 2cbe e5e0 853d
00000030: 8ae3 a7bc 1da6 a2bc dd92 2cbe 48a7 18be
00000040: ed9d fe38 a8cb 553c f49c a73b 2e2e 07be
00000050: f3b6 503d 4c50 873d 7b78 e23c dfe0 05be
00000060: 6767 b03d 64eb 81bc 2309 963d 2171 153e
00000070: 4d9c a23d a03b 9abd 76b2 453c d144 10be
00000080: 6ee6 cbbd 5ed7 f4bd 2cae b93c 6b14 d4bd
00000090: 69a4 b4bc a71b 0a3d 1bd3 04be b562 f4bd
000000a0: 38ea 083e 8412 253c f9ae ecbc e7d6 4e3d
000000b0: 3c6b b7bb 27fb bb3d 8b2e 363c 61a4 8a3d
000000c0: a77d 333c 16b9 083e d55a 3c3c 1bc9 8cbc
000000d0: 6e64 1a3e 5045 053e 7641 c03c 6e55 88bd
000000e0: 3888 36bc 6657 0a3e 7884 103e c457 9fbd
000000f0: dd1d 93bd 4468 ba3d 9945 113e d0b4 02be

fc1.weight f4 [16, 896]
0.02578043 -0.0044941436 -0.01946074 -0.027941028 -0.017584907 -0.019380575 0.026035123 -0.0076086037
-0.01187313 0.016565677 -0.001981597 0.030001285 0.012176194 -0.006710553 0.023350295 -0.014298776
0.021125605 -0.0142901875 -0.0031330623 0.029771112 0.012923511 -0.03045658 0.023146238 -0.008564436
0.021750212 -0.012862722 0.0024278099 0.008584711 -0.019949649 0.016196527 0.019951416 0.01122373
-0.02444253 -0.029593645 0.010557183 -0.027628519 -0.023802208 -0.028865114 -0.0029264858 -0.0041485815
-0.028308744 0.0063882503 -0.015953979 -0.004323868 0.021510115 -0.03335398 0.01140667 0.013690328
-6.811884e-05 0.014315729 0.023469733 -0.0012887963 -0.014075524 0.016419278 -0.017928105 -0.015726864
0.022953445 -0.032377485 0.03135789 0.0152574675 -0.006647059 0.031191671 0.024458233 0.013724951
-0.025181327 0.0007792145 0.023411617 0.018258456 0.013671506 -0.027886476 -0.014743036 0.013215282
0.010224363 -0.012666627 -0.0012546505 0.0023978674 -0.026306862 -0.01205368 -0.009080407 -0.022098018
-0.020449225 -0.020737613 -0.006859966 -0.013610486 0.03067642 -0.012352733 -0.023671452 -0.025702188
0.03316218 0.025992934 0.000103383376 -0.003058714 0.003386789 0.014893609 0.022327505 -0.029100964
-0.0035231968 0.026182737 -0.0277016 -0.031590074 -0.031574104 -0.024961825 0.015928445 -0.019765105
0.018834706 0.01906497 0.019666534 0.01358725 0.023251368 0.019724814 -0.026295578 -0.018835902
-0.01549204 -0.028067758 -0.004099032 -0.019435665 -0.016407508 -0.0144238295 -0.014660905 0.028604176
-0.013399252 0.0215434 0.02959512 -0.01415663 -0.009103725 0.026709372 -0.029770052 -0.0027837635
0.026648246 0.007591467 0.009266839 0.01711476 -0.024414731 0.029360386 0.03304539 0.009699582
0.00619618 -0.023964997 -0.025910031 0.017528145 -0.028843356 -0.013589943 0.030615635 0.029615285
-0.011712611 0.0017342501 0.02667487 -0.024709193 0.009978487 0.0329877 0.031197147 -0.010314469
-0.03293368 0.013814745 0.004569675 0.004081595 -0.010483456 0.0033336056 0.031866465 -0.031139964
-0.0019247492 -0.0078044273 0.0033276195 -0.029967763 -0.010294362 -0.020781681 -0.011731744 -0.02143745
0.0028392498 -0.011906604 -0.0025717649 0.025988478 -0.031328157 0.013698073 0.0035024956 0.031755306
0.02302752 -0.007981226 0.017209286 0.0075703915 -0.010241444 0.0049621826 0.029487422 -0.020170584
0.0006759701 -0.01598704 -0.0011481317 0.0099853575 0.024548052 0.023150396 0.012014988 0.006917679
0.0032996987 -0.027019836 0.014834162 -0.0047429814 -0.023296705 -0.014269602 0.028280245 -0.007007231
-0.015149037 -0.0013870513 0.03141361 -0.023251211 -0.021251699 0.01791582 0.009915333 -0.03061516
0.028025124 0.0028989017 0.01461676 0.010831946 -0.02012056 0.030460276 0.009520416 -0.00622955
0.010871675 -0.009927849 -0.013505245 0.013566515 0.02855351 -0.0034128416 -0.031421583 -0.00629834
0.030945987 -0.010111517 -0.021893594 0.018652063 -0.032605026 0.016224539 -0.0030528984 -0.023350937
0.013252084 0.02626838 0.021295145 -0.020965666 -0.015841931 0.009936305 0.020495899 -0.018492086
0.029736906 0.030510643 0.003173286 -0.015008715 0.032931373 0.008235318 0.017359084 -0.020181783
-0.01981648 -0.0239899 0.014051492 0.02136136 -0.0017342715 -0.021903677 0.0026046466 -0.024486892
00000000: 7b31 d33c 9c43 93bb 216c 9fbc 95e4 e4bc
00000010: 390e 90bc 03c4 9ebc 9c47 d53c 9851 f9bb
00000020: 8487 42bc beb4 873c aedd 01bb 41c5 f53c
00000030: a97e 473c 33e4 dbbb 1e49 bf3c 6a45 6abc
00000040: 9b0f ad3c 6421 6abc 1054 4dbb 8ce2 f33c
00000050: 22bd 533c 1480 f9bc 2e9d bd3c d951 0cbc
00000060: 802d b23c 2bbe 52bc e41b 1f3b e3a6 0c3c
00000070: 726d a3bc 94ae 843c 2771 a33c bce3 373c
00000080: b33b c8bc 5f6e f2bc 09f8 2c3c 3455 e2bc
00000090: d9fc c2bc 8876 ecbc 49ca 3fbb d3f0 87bb
000000a0: bde7 e7bc 8754 d13b ebb1 82bc 3caf 8dbb
000000b0: fb35 b03c 2f9e 08bd 0be3 3a3c 664d 603c
000000c0: 06db 8eb8 858c 6a3c 9943 c03c d4ec a8ba
000000d0: 079d 66bc b981 863c f6dd 92bc a0d5 80bc
000000e0: dd08 bc3c 419e 04bd 2271 003d 75fa 793c
000000f0: 93cf d9bb ad85 ff3c a25c c83c 9ede 603c
00000100: 1249 cebc 3344 4c3a b8c9 bf3c c292 953c
00000110: 74fe 5f3c 2e72 e4bc c68c 71bc e984 583c
00000120: 1684 273c af87 4fbc 1673 a4ba 8a25 1d3b
00000130: 7d81 d7bc cc7c 45bc fdc5 14bc e706 b5bc
00000140: 2285 a7bc ede1 a9bc 91c9 e0bb 84fe 5ebc
00000150: 1e4d fb3c 1e63 4abc a2ea c1bc 658d d2bc
00000160: 11d5 073d 22ef d43c 87cf d838 b574 48bb
00000170: e4f4 5d3b 5304 743c 2ce8 b63c 2565 eebc
00000180: 6fe5 66bb 2e7d d63c 77ee e2bc 9864 01bd
00000190: d953 01bd be7c ccbc 5f7c 823c 6eea a1bc
000001a0: 3e4b 9a3c 242e 9c3c b61b a13c 0f9d 5e3c
000001b0: a779 be3c ef95 a13c d369 d7bc c04d 9abc
000001c0: 53d2 7dbc 5bee e5bc 2c51 86bb 8b37 9fbc
000001d0: 0a69 86bc ed51 6cbc 4b34 70bc 4e53 ea3c
000001e0: 8988 5bbc c97b b03c 7771 f23c 36f1 67bc
000001f0: ca27 15bc 9dcd da3c 53e0 f3bc cd6f 36bb
00000200: 6c4d da3c d7c1 f83b f1d3 173c 4134 8c3c
00000210: 6701 c8bc 3185 f03c 9a5a 073d ffea 1e3c
00000220: 5309 cb3b 3e52 c4bc 4641 d4bc 2f97 8f3c
00000230: e748 ecbc 5aa8 5ebc a4cd fa3c c19b f23c
00000240: 40e6 3fbc c74f e33a 4285 da3c ef6a cabc
00000250: cf7c 233c 1c1e 073d 2991 ff3c 05fe 28bc
00000260: 77e5 06bd 3d57 623c 36bd 953b e7be 853b
00000270: cdc2 2bbc 9f78 5a3b 6986 023d 3d19 ffbc
00000280: de47 fcba 48bc ffbb 3114 5a3b f47e f5bc
00000290: afa9 28bc 583e aabc 8036 40bc 979d afbc
000002a0: b512 3a3b eb13 43bc 0e8b 28bb cae5 d43c
000002b0: f451 00bd e26d 603c 208a 653b da11 023d
000002c0: 36a4 bc3c b0c3 02bc 7dfa 8c3c 0c11 f83b
000002d0: bbcb 27bc ce99 a23b 9b8f f13c c83c a5bc
000002e0: 9633 313a 41f7 82bc e87c 96ba a099 233c
000002f0: ff18 c93c e6a5 bd3c 83da 443c b3ad e23b
00000300: c23f 583b b458 ddbc fc0a 733c 036b 9bbb
00000310: bbd8 bebc 0ccb 69bc f9ab e73c ea9c e5bb
00000320: ab33 78bc b8cd b5ba 8fab 003d 5379 bebc
00000330: 0b18 aebc 33c4 923c ec73 223c a5cc fabc
00000340: f294 e53c 80fb 3d3b 237b 6f3c 7978 313c
00000350: dfd3 a4bc d487 f93c 85fb 1b3c 4121 ccbb
00000360: 1c1f 323c 6ba8 22bc 1a45 5dbc 1746 5e3c
00000370: 0de9 e93c fba9 5fbb ebb3 00bd 4e62 cebb
00000380: 7082 fd3c c7aa 25bc 325a b3bc 36cc 983c
00000390: d98c 05bd 53e9 843c 2313 48bb 774a bfbc
000003a0: 451f 593c c930 d73c 2873 ae3c 30c0 abbc
000003b0: f0c6 81bc e2cb 223c 04e7 a73c b77c 97bc
000003c0: d09a f33c 75f1 f93c e8f6 4f3b 1de7 75bc
000003d0: 0ce3 063d 6ded 063c a334 8e3c 4454 a5bc
000003e0: 2c56 a2bc 7786 c4bc 3b38 663c 05fe ae3c
000003f0: 7f50 e3ba 576f b3bc b8b2 2a3b bc98 c8bc

fc1.bias f4 [16]
-0.030484064 -0.029765584 0.013517986 0.024284968 0.009993059 0.012296619 -0.030482711 -0.03042254
0.029085146 -0.019888092 -0.028146565 -0.014743689 0.0049436344 -0.024929492 0.00853752 0.00873787
00000000: b7b9 f9bc f4d6 f3bc 8b7a 5d3c 45f1 c63c
00000010: edb9 233c c277 493c e1b6 f9bc b138 f9bc
00000020: f943 ee3c 5aec a2bc a093 e6bc 848f 71bc
00000030: 36fe a13b ef38 ccbc f4e0 0b3c 4829 0f3c

fc2.weight f4 [32, 16]
-0.14025515 0.005294621 -0.094407976 -0.21504605 0.22989553 0.033464372 0.15465611 -0.20010155
0.17530921 0.017531842 -0.14248595 0.22947875 -0.24190456 -0.16017738 -0.043748647 -0.07456121
-0.028819382 -0.067056775 -0.13029516 0.17692944 -0.19080716 -0.11327696 0.14705989 -0.029072136
0.12313375 0.24560693 -0.24688837 -0.21911833 0.01674518 0.07808375 -0.1447975 -0.19159496
0.24856263 0.1095005 0.12842341 0.23477186 0.24279815 -0.065407336 0.10212593 0.10179199
-0.122437894 0.016781602 -0.11603224 -0.011264268 0.13083889 -0.02543749 -0.19888029 -0.123196006
-0.2452147 -0.045316696 -0.20905444 0.21505865 0.015844196 -0.04947862 -0.024730533 0.24391487
0.19816545 0.15380916 0.23581907 -0.14480174 0.025147796 -0.0045382977 -0.12010133 0.22076449
0.064938545 0.19694507 0.064015515 -0.14937446 -0.052674413 -0.08661555 -0.19645944 -0.10012268
-0.09777125 0.026529087 0.064638205 0.13284329 0.00021080601 -0.2209981 -0.09031781 -0.13891768
0.11999902 0.21384276 0.08052135 -0.1604063 0.22514217 0.10573469 0.14843306 -0.22008747
-0.06707665 -0.025629353 0.074742034 0.21425706 -0.06343348 0.17458266 -0.0090197 0.16607727
0.10381004 0.19231674 -0.14397904 0.07817 -0.10807812 -0.008050472 -0.22698763 0.093129784
-0.09196913 -0.21092317 -0.008104682 0.23302421 -0.14433327 -0.14216137 -0.10250044 0.17996106
-0.06762478 -0.11226681 0.09300338 -0.22831613 0.22554256 0.019005144 0.06421858 0.23286042
0.09947768 -0.07427735 0.109635055 -0.21870202 -0.020076461 -0.23400739 -0.18778756 -0.005772854
-0.0719555 0.15945294 -0.22532104 -0.15631059 -0.039595395 -0.24697685 0.061737806 0.12041265
0.22181478 -0.09403076 0.03376963 -0.06639466 -0.20093533 0.2071363 0.18142323 -0.22829276
-0.16108719 0.16222824 -0.24659403 0.23197892 0.104120106 0.093402155 0.078503884 -0.21845159
0.09955019 0.15399946 -0.18146107 0.16998638 0.12552242 -0.12853031 0.024075303 -0.1117506
0.18947208 -0.17236772 -0.24777603 -0.056102514 -0.016489476 -0.21953407 0.04552397 0.24521369
0.085550815 -0.08601153 0.06344694 0.13702554 -0.1824517 0.082832456 0.19887513 -0.047729164
-0.24680668 0.056626957 0.17158544 0.024200706 -0.15738918 -0.036369316 0.20040594 0.18691829
-0.10350139 -0.0737065 0.23922329 0.24277994 0.08200098 0.12025422 0.2553723 -0.24034937
0.1689196 -0.23155786 -0.1669284 -0.037445385 -0.030786283 0.22188231 0.13816597 0.19665611
-0.04200729 0.10567336 0.24937662 -0.19269967 -0.08431958 -0.11303196 0.22014897 0.19100696
0.17094345 -0.06889756 -0.058632948 -0.1165263 -0.07158196 0.08283549 -0.124362804 0.10721569
0.20041415 0.14297737 0.19635002 -0.027563248 0.17984311 -0.09169875 0.060309783 0.09774498
-0.14395161 0.034568973 -0.08904406 -0.010337202 -0.008514506 0.22844246 0.13135403 0.0037272363
-0.12739208 -0.20687206 -0.21532752 -0.24181345 0.046768207 0.2292667 0.19801955 0.07671908
-0.045785576 0.10467985 -0.07472125 -0.06589255 0.21943766 0.17787567 0.1826244 -0.111422926
0.19243672 0.1817658 0.010219425 0.22706008 -0.22741586 -0.2492289 -0.21764421 0.23286167
00000000: 0c9f 0fbe 807e ad3b f858 c1bd 0835 5cbe
00000010: bc69 6b3e f011 093d 2c5e 1e3e 6ce7 4cbe
00000020: 4284 333e f09e 8f3c d6e7 11be 7afc 6a3e
00000030: d4b5 77be 8a05 24be c831 33bd 8cb3 98bd
00000040: a016 ecbc 1055 89bd 186c 05be fe2c 353e
00000050: f462 43be c0fd e7bd de96 163e b028 eebc
00000060: 8c2d fc3d 6280 7b3e 4ed0 7cbe 8e60 60be
00000070: 302d 893c 60ea 9f3d cc45 14be 7831 44be
00000080: 3487 7e3e cc41 e03d 6d81 033e 0968 703e
00000090: 14a0 783e 48f4 85bd 6627 d13d 5278 d03d
000000a0: b8c0 fabd 9279 893c 50a2 edbd c48d 38bc
000000b0: a1fa 053e 4862 d0bc 46a7 4bbe 304e fcbd
000000c0: 9019 7bbe 009e 39bd 5e12 56be 5638 5c3e
000000d0: b0cb 813c 18aa 4abd b097 cabc d2c4 793e
000000e0: e2eb 4a3e 2680 1d3e 8e7a 713e e846 14be
000000f0: c002 ce3c 00b6 94bb b0f7 f5bd 1610 623e
00000100: 80fe 843d f8ab 493e 911a 833d 9ef5 18be
00000110: 20c1 57bd 7e63 b1bd aa2c 49be 1f0d cdbd
00000120: 4b3c c8bd 8753 d93c 0961 843d 1208 083e
00000130: cf0b 5d39 534d 62be 8bf8 b8bd 7040 0ebe
00000140: 0cc2 f53d 99f9 5a3e 61e8 a43d 8d41 24be
00000150: ab8b 663e 6e8b d83d d6fe 173e 9c5e 61be
00000160: 7c5f 89bd a6f4 d1bc 5a12 993d 3466 5b3e
00000170: 6ae9 81bd ccc5 323e 5dc7 13bc 2910 2a3e
00000180: 5c9a d43d aeee 443e 3e6f 13be 9817 a03d
00000190: 1058 ddbd 20e6 03bc 726f 68be d4ba be3d
000001a0: 505a bcbd 3efc 57be 80c9 04bc e69d 6e3e
000001b0: 1acc 13be c092 11be c0eb d1bd b647 383e
000001c0: dc7e 8abd 24ec e5bd 8e78 be3d b4cb 69be
000001d0: a1f4 663e adb0 9b3c 0885 833d f672 6e3e
000001e0: f4ba cb3d b91e 98bd 5888 e03d 6cf3 5fbe
000001f0: 6477 a4bc a29f 6fbe 624b 40be 362a bdbb
00000200: 685d 93bd a247 233e 8fba 66be e20f 20be
00000210: c82e 22bd 80e7 7cbe c8e0 7c3d e89a f63d
00000220: 6a23 633e 3393 c0bd 0652 0a3d ecf9 87bd
00000230: fec1 4dbe 8a1b 543e 03c7 393e 94c5 69be
00000240: 0af4 24be 291f 263e 2583 7cbe e28b 6d3e
00000250: ec3c d53d a149 bf3d a5c6 a03d c6b1 5fbe
00000260: f8e0 cb3d 09b2 1d3e eed0 39be e910 2e3e
00000270: f388 003e 739d 03be 9239 c53c 80dd e4bd
00000280: f804 423e 2a81 30be 00b9 7dbe c0cb 65bd
00000290: f014 87bc 8acd 60be 5877 3a3d 4c19 7b3e
000002a0: 4435 af3d d026 b0bd 78f0 813d 6c50 0c3e
000002b0: 9ed4 3abe 10a4 a93d eca5 4b3e a87f 43bd
000002c0: e4ba 7cbe abf1 673d 18b4 2f3e 8f40 c63c
000002d0: a12a 21be fef7 14bd 3737 4d3e 8267 3f3e
000002e0: 89f8 d3bd 6ff3 96bd f3f6 743e 4e9b 783e
000002f0: 21f0 a73d d847 f63d 28c0 823e 251e 76be
00000300: 42f9 2c3e 811d 6dbe 47ef 2abe 5560 19bd
00000310: 8433 fcbc 1e35 633e 617b 0d3e 3860 493e
00000320: d60f 2cbd 466b d83d 965c 7f3e 1053 45be
00000330: beaf acbd 4d7d e7bd bb6e 613e 5497 433e
00000340: cd0b 2f3e 2a1a 8dbd 1a29 70bd 57a5 eebd
00000350: 9099 92bd a7a5 a93d edb1 febd e693 db3d
00000360: 5e39 4d3e a968 123e fb0f 493e 52cc e1bc
00000370: cb28 383e 8ecc bbbd 6407 773d 852e c83d
00000380: 0d68 13be 3298 0d3d bb5c b6bd 5e5d 29bc
00000390: 6d80 0bbc d2ec 693e ac81 063e a644 743b
000003a0: 1273 02be 45d6 53be d17e 5cbe f29d 77be
000003b0: 0590 3f3d e4c4 6a3e a3c5 4a3e e51e 9d3d
000003c0: a889 3bbd 6462 d63d 7407 99bd acf2 86bd
000003d0: 44b4 603e 0a25 363e e401 3b3e b431 e4bd
000003e0: 220e 453e d020 3a3e 606f 273c 7082 683e
000003f0: b4df 68be dc35 7fbe 20de 5ebe 4a73 6e3e

fc2.bias f4 [32]
-0.042116553 -0.03444743 -0.17261983 0.22777647 -0.15908636 -0.24312057 -0.16723663 -0.13802189
-0.19684952 0.027286163 -0.09383616 0.038254 -0.17134048 0.2294941 0.10676273 0.17179078
-0.15979649 0.12451077 0.095385045 -0.19072337 0.080152996 0.16064177 0.100985825 -0.090454854
0.15358953 0.23546273 -0.012332326 0.11733408 0.14637023 0.01875077 0.24691659 0.21492106
00000000: 6882 2cbd c018 0dbd 41c3 30be 3c3e 693e
00000010: 89e7 22be 99f4 78be 1440 2bbe 9c55 0dbe
00000020: ec92 49be 3b87 df3c 2c2d c0bd 3ab0 1c3d
00000030: e173 2fbe 8000 6b3e 6ba6 da3d ece9 2f3e
00000040: b1a1 23be 81ff fe3d 3c59 c33d fd4c 43be
00000050: 4127 a43d 477f 243e a8d1 ce3d 6540 b9bd
00000060: 9346 1d3e 241d 713e 860d 4abc da4c f03d
00000070: 14e2 153e 379b 993c b4d7 7c3e 4414 5c3e

fc3.weight f4 [64, 32]
0.022068238 -0.09432837 0.1525194 -0.030621517 -0.005246748 -0.05650247 -0.0095559545 -0.02699592
0.09732748 -0.016622527 0.13378398 -0.124529116 -0.0071612163 0.17404959 0.093382634 -0.094190136
-0.17526102 -0.0029931813 -0.020836938 -0.07311393 0.028357621 0.0628349 -0.17360617 0.15925984
0.02997026 0.042852115 -0.075024836 0.10662867 0.00076545216 -0.022959359 -0.10211412 0.027819017
-0.018852474 -0.054755416 0.0005911729 0.10815912 0.12660307 -0.1231618 0.14462195 0.008472865
-0.16819197 -0.02920604 0.11376751 -0.10844525 -0.07000188 0.07529934 0.14564057 0.012489144
0.12752517 0.17749654 0.11279583 0.0076449015 0.14905813 0.1203261 -0.087250784 0.1585059
0.16137356 -0.11419217 -0.07007549 -0.12801774 -0.052730825 0.073606074 -0.091271214 0.15829557
-0.13543144 -0.007964216 0.17095289 0.07277013 -0.10878537 0.026292576 0.16461566 -0.09323159
0.14680183 -0.05742876 -0.15454563 0.13543065 -0.061381046 0.15723538 0.08250352 -0.10910123
-0.09009207 0.0029807487 -0.120648175 -0.094656415 -0.11670077 -0.033182144 0.11930249 -0.12627526
0.014803857 -0.009909434 -0.11434356 0.061866578 -0.04465042 0.1164756 0.15335643 0.15481855
-0.079792626 0.046622083 -0.026681252 -0.071040384 -0.00856601 -0.14898449 -0.15881914 0.053578865
-0.00891193 -0.12702927 -0.03528591 0.003908467 0.0040607015 -0.09231483 -0.1431921 -0.117196456
0.15777965 -0.100525565 -0.09429767 -0.13063192 0.036898006 -0.15158133 -0.16962302 0.06320154
0.03446687 -0.04850786 0.14959124 0.03149223 -0.11899123 0.06304494 -0.037099995 -0.012756923
0.109038934 0.099694595 -0.026155813 -0.08397212 0.117720336 -0.054648053 0.06236197 0.070516184
-0.056085683 0.028859654 -0.057246063 0.03666129 0.044179454 0.1274519 0.035827618 0.032104686
-0.08596211 0.079601415 0.08529154 0.021093184 -0.056682117 -0.16447337 0.060007103 0.021412665
-0.09666348 0.07923065 0.063403375 0.056858476 -0.1339875 -0.030390525 0.02196521 -0.008842639
-0.088018045 0.09050983 -0.01708669 -0.15556192 0.163188 -0.07507035 -0.10592862 -0.030018331
-0.025011014 0.099944845 -0.046059508 -0.02090811 0.027776478 -0.036739282 0.073427275 0.06463128
-0.07520711 0.014997325 0.13422175 -0.034008123 0.09069088 0.003304204 0.12027132 0.026413096
0.046080846 0.1750652 -0.17154582 0.021299649 -0.0070062457 0.1633356 -0.16421139 0.011254756
-0.026496839 0.06630582 0.0050689345 -0.04769 0.025580818 -0.146177 0.11298451 -0.013609281
-0.09392044 0.11036863 0.16589415 -0.038700428 0.096458435 0.114094384 -0.00540132 0.07999145
-0.09753996 -0.111595646 0.15106344 0.06552697 -0.13386703 0.08899451 0.12221922 0.17118183
-0.009235258 0.025775889 0.009516489 0.0069977 0.09616634 0.052677415 0.0726925 0.16263208
-0.028816475 0.07359198 -0.17360954 0.030107073 0.077083126 0.0881819 -0.06592825 0.12754998
-0.12023324 -0.023162775 -0.09640641 0.066053726 0.047534104 -0.14190872 -0.15337071 0.0015607821
0.04642082 -0.028432403 -0.13398588 0.016571924 -0.05782616 -0.056502648 -0.09613894 0.041314952
-0.11007522 -0.122478515 -0.02108282 -0.111448966 -0.12070375 0.10130939 -0.15379097 -0.16310708
00000000: 73c8 b43c 3c2f c1bd 0c2e 1c3e fad9 fabc
00000010: eaec abbb 226f 67bd 9490 1cbc 8c26 ddbc
00000020: a153 c73d f72b 88bc abfe 083e 1f09 ffbd
00000030: a3a8 eabb 0e3a 323e 653f bf3d c2e6 c0bd
00000040: a077 33be 4029 44bb 3ab2 aabc c2bc 95bd
00000050: 3e4e e83c 96af 803d d1c5 31be 0315 233e
00000060: 3184 f53c b385 2f3d 9fa6 99bd 2260 da3d
00000070: a0a8 483a 4415 bcbc 3521 d1bd b5e4 e33c
00000080: 8170 9abc 3747 60bd f1f8 1a3a 8782 dd3d
00000090: 3ca4 013e 413c fcbd c717 143e c6d1 0a3c
000000a0: 843a 2cbe 8141 efbc f1fe e83d 8b18 debd
000000b0: 255d 8fbd 8a36 9a3d cd22 153e 449f 4c3c
000000c0: f595 023e a7c1 353e 8001 e73d 1582 fa3b
000000d0: b2a2 183e 886d f63d 8ab0 b2bd 5f4f 223e
000000e0: 1c3f 253e 96dd e9bd bd83 8fbd 1517 03be
000000f0: 47fc 57bd c8be 963d 67ec babd 3c18 223e
00000100: 8aae 0abe 587c 02bc 460e 2f3e 8208 953d
00000110: ddca debd 8763 d73c 0291 283e 34f0 bebd
00000120: 3853 163e 6b3a 6bbd 3641 1ebe 55ae 0a3e
00000130: b16a 7bbd 5002 213e 9bf7 a83d 7770 dfbd
00000140: 3182 b8bd aa58 433b 6416 f7bd 39db c1bd
00000150: d000 efbd 00ea 07bd dd54 f43d 4d4e 01be
00000160: e08b 723c 2e5b 22bc f52c eabd cf67 7d3d
00000170: 5ce3 36bd c28a ee3d 7809 1d3e c188 1e3e
00000180: 516a a3bd ccf6 3e3d a492 dabc 9f7d 91bd
00000190: 7358 0cbc 648f 18be 7ca1 22be 8375 5b3d
000001a0: 5803 12bc f613 02be f587 10bd 9912 803b
000001b0: a20f 853b 8f0f bdbd f3a0 12be b204 f0bd
000001c0: fd90 213e 59e0 cdbd 231f c1bd 60c4 05be
000001d0: 5d22 173d 2338 1bbe a8b1 2dbe cf6f 813d
000001e0: 222d 0d3d 2eb0 46bd 722e 193e fffd 003d
000001f0: adb1 f3bd b51d 813d 2af6 17bd 6a02 51bc
00000200: ce4f df3d ae2c cc3d b744 d6bc 93f9 abbd
00000210: 5c17 f13d a3d6 5fbd 446f 7f3d ca6a 903d
00000220: 1aba 65bd 156b ec3c d97a 6abd 262a 163d
00000230: 84f5 343d c082 023e fbbf 123d 3480 033d
00000240: e70c b0bd 1106 a33d 55ad ae3d 9dcb ac3c
00000250: 822b 68bd b56b 28be 02ca 753d 9d69 af3c
00000260: 81f7 c5bd ae43 a23d a1d9 813d 6fe4 683d
00000270: 0534 09be 8df5 f8bc 62f0 b33c b7e0 10bc
00000280: ce42 b4bd 385d b93d 63f9 8bbc a04b 1fbe
00000290: c11a 273e 7cbe 99bd 1bf1 d8bd 01e9 f5bc
000002a0: e6e3 ccbc e2af cc3d e5a8 3cbd 7c47 abbc
000002b0: 7f8b e33c ee7b 16bd 0a61 963d 685d 843d
000002c0: 2f06 9abd 57b7 753c 6d71 093e 1a4c 0bbd
000002d0: 24bc b93d 588b 583b cf50 f63d 4760 d83c
000002e0: 45bf 3c3d 4b44 333e b5a9 2fbe 9a7c ae3c
000002f0: a694 e5bb 7341 273e 0827 28be de65 383c
00000300: e60f d9bc 59cb 873d 4e19 a63b 9756 43bd
00000310: dd8e d13c 6caf 15be 6c64 e73d 76f9 5ebc
00000320: 5c59 c0bd f308 e23d 28e0 293e 5784 1ebd
00000330: 008c c53d 51aa e93d 8efd b0bb 8fd2 a33d
00000340: 08c3 c7bd 428c e4bd 60b0 1a3e 0133 863d
00000350: 7014 09be c142 b63d 124e fa3d 4a4a 2f3e
00000360: 7b4f 17bc f527 d33c 0ceb 1b3c f64c e53b
00000370: dcf2 c43d 46c4 573d cedf 943d 0689 263e
00000380: 8710 ecbc 64b7 963d b3c6 31be 1ca3 f63c
00000390: c2dd 9d3d b698 b43d 6405 87bd 769c 023e
000003a0: d83c f6bd dcbf bdbc b970 c5bd 2d47 873d
000003b0: 1fb3 423d 8550 11be 360d 1dbe 2893 cc3a
000003c0: c223 3e3d 12eb e8bc 9833 09be d8c1 873c
000003d0: 20db 6cbd 526f 67bd 7ee4 c4bd de39 293d
000003e0: 1e6f e1bd 04d6 fabd e1b5 acbc 5b3f e4bd
000003f0: 8733 f7bd 4c7b cf3d 617b 1dbe 8b05 27be

fc3.bias f4 [64]
0.07181827 -0.17590445 -0.09001353 0.004420235 -0.077037655 -0.08987973 0.09229813 0.06285311
-0.033988062 -0.065281115 -0.029403474 -0.041737832 0.12414869 0.08052607 -0.1495161 0.16091818
-0.013827116 -0.15691307 0.10102645 -0.02028785 -0.020401783 0.16768004 0.043343373 0.14180252
0.10077802 -0.15351471 0.07596227 -0.14667799 -0.08596819 -0.0091650635 0.14831091 -0.023691285
0.008550127 -0.04158365 0.08426563 -0.0046256874 0.07089416 -0.055808775 0.16557309 0.1262328
-0.001878359 -0.09395878 0.16363032 -0.15882373 -0.062590376 -0.14440128 0.0028327003 0.14781019
-0.0861308 -0.069997095 0.13552557 0.13780938 0.10288671 -0.15720423 -0.17017497 -0.05037684
-0.057552993 -0.050684955 -0.0047459905 -0.09889128 0.021016294 0.101830974 0.073026076 0.04883673
00000000: 7515 933d 4c20 34be 0359 b8bd 9ed7 903b
00000010: ebc5 9dbd dd12 b8bd cd06 bd3d 22b9 803d
00000020: 1137 0bbd 1bb2 85bd 8edf f0bc 4af5 2abd
00000030: ab41 fe3d daea a43d c01a 19be bcc7 243e
00000040: 218b 62bc d2ad 20be f5e6 ce3d b532 a6bc
00000050: a421 a7bc 51b4 2b3e d288 313d ae34 113e
00000060: b564 ce3d f632 1dbe 1b92 9b3d c132 16be
00000070: 1710 b0bd 1029 16bc d1de 173e 3a14 c2bc
00000080: d515 0c3c 9e53 2abd 7593 ac3d 1493 97bb
00000090: f530 913d be97 64bd fe8b 293e 2c43 013e
000000a0: 4533 f6ba 766d c0bd b58e 273e b0a2 22be
000000b0: 622f 80bd eedd 13be d3a4 393b 8e5b 173e
000000c0: 5865 b0bd a35a 8fbd 37c7 0a3e e71d 0d3e
000000d0: 44b6 d23d 25fa 20be 5942 2ebe f257 4ebd
000000e0: b0bc 6bbd 079b 4fbd 4184 9bbb 8387 cabd
000000f0: 5d2a ac3c c28c d03d b28e 953d 0609 483d

fc4.weight f4 [128, 64]
-0.10095115 0.0420285 -0.098013 -0.02929394 -0.02664052 0.11529821 0.072458476 -0.00903222
-0.11422801 -0.02995184 0.115742475 0.07868989 0.046482757 -0.0020272434 0.089340866 0.0123927295
0.11519462 -0.010521054 0.054229498 -0.110685036 -0.093497604 -0.006967053 0.09413932 -0.0073059797
-0.122161806 -0.021530047 -0.09308854 -0.0808465 0.10201739 -0.06751147 -0.12273128 0.085325465
0.11528933 -0.11987601 0.050076514 -0.08163391 -0.11161171 -0.035511553 0.05785066 -0.07858603
0.024965778 0.015519679 0.10915378 -0.036388785 -0.04253325 -0.08036083 -0.027207807 -0.08978644
-0.09383492 -0.097049356 -0.08222118 0.09974231 0.010871902 -0.058645234 0.021326423 0.046296567
-0.050014317 -0.09698926 0.0777995 -0.074204475 -0.034660637 -0.10383831 -0.04638061 -0.11148104
0.027412621 0.057543032 0.11656701 -0.0034582466 -0.038816035 0.04960327 -0.070171855 -0.08097594
0.08204675 -0.09557398 0.014788237 0.03301938 -0.096324466 0.022849847 0.041282807 0.05573319
-0.06778267 0.045440175 -0.052533656 0.0055398787 0.0571138 0.050148625 0.027831808 0.038104046
-0.012808931 0.07565499 0.090533 0.053372286 0.09636223 0.07748176 -0.09531011 -0.018630067
-0.111096166 0.07945216 0.046677828 0.031803463 -0.0035310031 -0.09689664 -0.014459151 -0.044137638
0.041296106 -0.045828376 -0.0027482111 0.11993362 -0.019358682 0.11284432 0.11906103 0.0019633542
-0.03126139 0.0965327 0.065814935 -0.07469425 -0.023844099 0.042099025 0.046053395 -0.047066346
0.013027911 0.12424873 -0.043985732 -0.023047045 -0.0042559886 0.05077073 -0.05046782 -0.05763104
-0.084541805 -0.09199122 0.0938914 0.10370007 -0.1028449 -0.015463256 -0.05058755 -0.026949227
0.020128863 -0.07465344 0.05469545 -0.0727627 -0.052783728 0.0062725493 0.023649674 0.09834614
-0.059037402 0.029618967 -0.012291297 0.117562324 0.094679 -0.09425821 0.118377805 0.09388258
0.084404364 0.023000477 -0.064665094 0.07761695 0.07222065 0.021343991 -0.04053186 0.0026172108
-0.10386537 0.07318199 0.07580908 -0.036413226 -0.06824664 -0.08754221 0.005576152 -0.048537776
-0.016524643 0.013074218 -0.07988106 0.04193901 -0.05850751 -0.028026525 0.048442 -0.08885639
0.10461461 -0.087880276 0.12604892 0.0443872 -0.0994911 -0.109348245 -0.11034961 0.09846951
-0.05198602 0.035459563 0.07910958 -0.02710381 -0.10749987 0.10598553 -0.02349165 0.101793684
0.09434763 0.03461174 0.09568113 -0.016192764 -0.038275175 0.052665327 -0.10197943 -0.117560074
0.04406283 0.12000923 -0.026302317 0.004808426 -0.12240982 0.019649968 -0.036293373 -0.056977693
-0.08539 -0.013144214 -0.10493313 -0.0273497 0.11245489 -0.074407995 -0.08895393 0.016983908
-0.047429215 0.06095591 0.09114442 0.03167517 0.084084824 0.082068786 -0.0545249 -0.08369425
0.124595664 -0.028137287 -0.056338236 -0.053004794 -0.10293261 -0.06663197 -0.020544903 -0.0430302
0.04472388 -0.12271928 0.05946448 0.05110389 -0.09668693 -0.008603879 0.03743116 0.09011436
0.084025525 -0.05828254 -0.109297946 -0.1179478 -0.07975215 -0.11977388 -0.040998027 0.12319043
0.06727722 0.013034552 -0.070435345 -0.11350537 0.03404425 0.0394277 0.017377779 -0.08916329
00000000: 7abf cebd 1426 2c3d 0abb c8bd d8f9 efbc
00000010: 383d dabc 7821 ec3d 1c65 943d e0fb 13bc
00000020: 60f0 e9bd 905d f5bc 640a ed3d 2a28 a13d
00000030: b464 3e3d 80db 04bb 58f8 b63d e00a 4b3c
00000040: 28eb eb3d 8060 2cbc c01f 5e3d d6ae e2bd
00000050: ac7b bfbd e04b e4bb 1ecc c03d 0067 efbb
00000060: f82f fabd c85f b0bc 34a5 bebd da92 a5bd
00000070: 7eee d03d 7443 8abd 8a5a fbbd 1ebf ae3d
00000080: d01c ec3d 8e81 f5bd 081d 4d3d ae2f a7bd
00000090: ae94 e4bd 9074 11bd d0f4 6c3d b6f1 a0bd
000000a0: 0885 cc3c 4046 7e3c 048c df3d 680c 15bd
000000b0: 5837 2ebd 3894 a4bd e8e2 debc f4e1 b7bd
000000c0: 862c c0bd d0c1 c6bd 9463 a8bd b245 cc3d
000000d0: 1020 323c fc35 70bd c0b4 ae3c 78a1 3d3d
000000e0: d0db 4cbd 4ea2 c6bd 5855 9f3d 84f8 97bd
000000f0: 50f8 0dbd 2ea9 d4bd 98f9 3dbd 2c50 e4bd
00000100: 6f90 e03c 3eb2 6b3d afba ee3d c0a3 62bb
00000110: 90fd 1ebd cc2c 4b3d 43b6 8fbd b7d6 a5bd
00000120: 2008 a83d 4abc c3bd 5d4a 723c 543f 073d
00000130: c345 c5bd 9a2f bb3c 2918 293d 7c48 643d
00000140: a4d1 8abd 7a1f 3a3d 882d 57bd df87 b53b
00000150: 29f0 693d a568 4d3d 88ff e33c fd12 1c3d
00000160: 8ddc 51bc 01f1 9a3d 5e69 b93d e69c 5a3d
00000170: 9059 c53d c2ae 9e3d f231 c3bd 159e 98bc
00000180: 6386 e3bd d0b7 a23d 4031 3f3d 5944 023d
00000190: 6768 67bb bf71 c6bd 13e6 6cbc abc9 34bd
000001a0: 1b26 293d 89b6 3bbd 551b 34bb c29f f53d
000001b0: 1996 9ebc ec1a e73d 45d6 f33d 9eab 003b
000001c0: f10b 00bd f0b2 c53d fbc9 863d 4df9 98bd
000001d0: b354 c3bc 0770 2c3d 7ca2 3c3d a4c8 40bd
000001e0: 0573 553c 1e76 fe3d 622a 34bd 28cd bcbc
000001f0: d275 8bbb f8f4 4f3d 58b7 4ebd 870e 6cbd
00000200: 4124 adbd e565 bcbd 224a c03d b460 d43d
00000210: 59a0 d2bd 9959 7dbc e434 4fbd a0c4 dcbc
00000220: 49e5 a43c e7e3 98bd 5608 603d 9c04 95bd
00000230: c033 58bd f589 cd3b f6bc c13c b369 c93d
00000240: 34d1 71bd 7aa3 f23c 7061 49bc 84c4 f03d
00000250: 10e7 c13d 730a c1bd 1070 f23d 8345 c03d
00000260: 32dc ac3d 7f6b bc3c 226f 84bd a3f5 9e3d
00000270: 6ce8 933d 98d9 ae3c bc04 26bd 8385 2b3b
00000280: 5eb7 d4bd 70e0 953d ca41 9b3d 0926 15bd
00000290: e5c4 8bbd 5549 b3bd 27b8 b63b 8ccf 46bd
000002a0: b05e 87bc 3f35 563c ae98 a3bd 3dc8 2b3d
000002b0: 92a5 6fbd e297 e5bc 1e6b 463d 57fa b5bd
000002c0: 2f40 d63d 93fa b3bd f812 013e 5acf 353d
000002d0: fdc1 cbbd f9f1 dfbd fafe e1bd 62aa c93d
000002e0: 4bef 54bd 0c3e 113d 3404 a23d cf08 debc
000002f0: e428 dcbd f10e d93d 9071 c0bc 3579 d03d
00000300: 5539 c13d 0ac5 0d3d 78f4 c33d b0a6 84bc
00000310: 6ec6 1cbd 99b7 573d 97da d0bd 56c3 f0bd
00000320: 3a7b 343d 66c7 f53d f577 d7bc 0090 9d3b
00000330: 00b2 fabd f8f8 a03c 5ca8 14bd 7161 69bd
00000340: f4e0 aebd d45a 57bc 2ee7 d6bd 7a0c e0bc
00000350: c04e e63d 3863 98bd 7a2d b6bd d621 8b3c
00000360: 2345 42bd e7ac 793d eda9 ba3d d3bd 013d
00000370: aa34 ac3d ae13 a83d 8055 5fbd e467 abbd
00000380: 032c ff3d 2b80 e6bc ecc2 66bd 8e1b 59bd
00000390: 55ce d2bd 5876 88bd c94d a8bc 6f40 30bd
000003a0: 6330 373d 3f54 fbbd 0791 733d 5052 513d
000003b0: cc03 c6bd 49f7 0cbc 6b51 193d e18d b83d
000003c0: 9315 ac3d acb9 6ebd 9ad7 dfbd 9e8e f1bd
000003d0: 1855 a3bd 024c f5bd 8ced 27bd 444b fc3d
000003e0: a4c8 893d e08e 553c 6840 90bd 8175 e8bd
000003f0: fc71 0b3d f17e 213d d85b 8e3c 3e9b b6bd

fc4.bias f4 [128]
0.07022455 0.03368318 0.0051096776 0.08812991 -0.031733155 0.055985525 -0.04091865 -0.09215188
0.08544521 0.057685528 0.00080262887 -0.04260586 -0.06146207 -0.0519391 -0.0048475424 0.031826373
-0.054412346 -0.041213125 0.016568426 0.025548326 -0.078080595 -0.042338222 -0.023586387 -0.07535991
-0.069301605 -0.072597116 0.09641552 0.070934854 -0.08414784 -0.046000767 -0.046625957 -0.03512139
-0.10725832 -0.09102814 0.12208906 0.0059472537 0.09775829 -0.020556614 0.063748986 -0.07227197
-0.012572583 0.02002226 0.03465493 0.058359075 0.10332367 -0.044761866 0.012650788 0.05073826
0.033491343 -0.08975116 -0.09054644 -0.08462404 -0.027752727 0.00472812 -0.0011879355 -0.006676808
-0.06265713 0.07458555 -0.015426863 0.0925547 -0.023332583 0.10770871 0.11111352 0.0046919733
-0.08385381 0.032774173 -0.05791169 0.015007142 0.0058244467 0.026921988 0.113564804 -0.0440688
0.1166059 0.05117555 0.0076938267 -0.09602606 0.05873368 0.004888776 -0.07161505 0.05503182
0.10399255 0.087184854 0.11753397 -0.019596491 0.04497817 0.070336744 -0.021954909 -0.0331157
0.09885027 0.09758385 -0.004922841 -0.012242116 -0.040245906 0.041653227 0.06196955 -0.10859331
-0.0064859763 0.08283383 -0.03920265 -0.11226558 0.06997725 -0.033026382 0.110722765 -0.04248614
0.07559519 0.06689559 -0.049733955 0.056579635 -0.093369 -0.0763296 0.014203015 0.03334331
0.042058878 -0.009069508 0.08154337 -0.096441925 -0.034581054 -0.05945524 -0.01479661 0.053083673
-0.004555901 0.075850174 -0.11286034 -0.03585355 0.054428477 -0.06386632 -0.07115828 0.099796146
00000000: e4d1 8f3d 60f7 093d 156f a73b 747d b43d
00000010: a0fa 01bd 1451 653d 509a 27bd 20ba bcbd
00000020: e6fd ae3d a947 6c3d 8367 523a 7b83 2ebd
00000030: a7bf 7bbd 18be 54bd 22d8 9ebb 5f5c 023d
00000040: 7bdf 5ebd 18cf 28bd 82ba 873c b94a d13c
00000050: b8e8 9fbd d86a 2dbd 3d38 c1bc 4c56 9abd
00000060: 00ee 8dbd ccad 94bd 8075 c53d 4b46 913d
00000070: b455 acbd 4d6b 3cbd dcfa 3ebd 72db 0fbd
00000080: 40aa dbbd f66c babd d409 fa3d 2ee1 c23b
00000090: 8035 c83d 5866 a8bc d48e 823d 5403 94bd
000000a0: 3cfd 4dbc b905 a43c 54f2 0d3d ed09 6f3d
000000b0: 5c9b d33d 3858 37bd 4045 4f3c ecd2 4f3d
000000c0: 382e 093d 75cf b7bd 6970 b9bd 5e4f adbd
000000d0: b059 e3bc 58ee 9a3b 80b4 9bba 20c9 dabb
000000e0: 6252 80bd 4fc0 983d f4c0 7cbc 528d bd3d
000000f0: f923 bfbc 6296 dc3d 7c8f e33d 20bf 993b
00000100: 8cbb abbd 363e 063d cf34 6dbd 84e0 753c
00000110: 00db be3b 808b dc3c aa94 e83d 7c81 34bd
00000120: 13cf ee3d 749d 513d 7f1c fc3b 50a9 c4bd
00000130: ba92 703d 0732 a03b e9aa 92bd 0c69 613d
00000140: 0cfa d43d f98d b23d a6b5 f03d d288 a0bc
00000150: 083b 383d b60c 903d c8da b3bc 54a4 07bd
00000160: 0372 ca3d 0bda c73d c94f a1bb 2893 48bc
00000170: e4d8 24bd 939c 2a3d c8d3 7d3d 2b66 debd
00000180: 5088 d4bb c8a4 a93d f592 20bd 7feb e5bd
00000190: 3c50 8f3d ac46 07bd 9ec2 e23d f205 2ebd
000001a0: a7d1 9a3d 8e00 893d d5b5 4bbd 0cc0 673d
000001b0: 3f38 bfbd b152 9cbd c3b3 683c ff92 083d
000001c0: ee45 2c3d 4698 14bc 3600 a73d 5883 c5bd
000001d0: dda4 0dbd 5687 73bd 7b6d 72bc 446e 593d
000001e0: ab49 95bb 5657 9b3d 5223 e7bd 2cdb 12bd
000001f0: 65f0 5e3d 58cc 82bd 6fbb 91bd ec61 cc3d

fc5.weight f4 [64, 128]
0.06600445 -0.01139648 -0.0858526 0.008415745 -0.009467204 -0.0025704203 0.07888336 0.053381607
0.016327668 0.019181285 0.035625726 0.050647147 0.03064182 -0.023989202 -0.060442492 0.057572585
0.065371566 -0.081294104 -0.019777834 0.0842559 0.07195291 0.020279946 0.04984616 -0.08669303
0.005275344 0.01902301 -0.049608365 -0.00051921804 0.024509002 0.060942467 0.005936699 -0.0060138027
-0.046498403 -0.0066301893 0.022549596 0.06455914 -0.04826652 -0.044146538 0.03900059 -0.0838751
0.049408134 0.023185465 0.034903526 -0.0069681583 0.03816206 -0.0043734624 -0.024046104 0.082987316
-0.0585664 -0.06470296 -0.088478036 0.009834017 -0.0006375975 0.05500273 -0.08715912 0.008232291
0.0061203972 -0.015416861 -0.034907263 -0.0424059 0.003735364 -0.057113018 0.07070855 0.046108305
0.07548822 0.018085042 0.026322909 0.048368547 -0.03063021 -0.030769253 -0.050258946 -0.060740247
-0.02830317 -0.03887585 -0.021756446 -0.07929178 0.06299635 -0.0009952729 -0.07307655 -0.03321159
-0.021453189 -0.060790423 -0.088779025 0.05281218 0.0653077 -0.023984874 0.042461146 -0.06806865
-0.08953635 0.057049938 -0.0045144637 -0.043514665 -0.022153426 0.014831152 0.023660945 -0.05820387
-0.015597718 0.036748163 -0.038110364 -0.0015905483 0.02409789 -0.05898009 0.04104808 0.0479769
0.027940534 0.062034898 0.015214239 0.0569788 -0.056735657 -0.0067524426 0.033933807 0.086926825
-0.06852507 0.036042348 0.053906262 -0.05631315 0.04572439 -0.017536927 0.040884215 -0.015716687
-0.011011189 0.0049284627 -0.049099542 -0.067437656 0.058714893 0.05434242 0.002137539 -0.04826442
-0.012342978 -0.076709926 -0.0052578193 0.038395505 0.028279703 0.039868232 -0.06930505 -0.08329614
0.0019918706 0.016845547 0.030395685 -0.0061613526 0.083923765 0.036418248 0.07574629 0.01829015
0.05214957 -0.009886766 -0.017047714 0.021392297 -0.06790124 0.07613932 0.045391753 -0.085930236
-0.049891993 -0.03583634 0.055129804 -0.002116815 0.07119234 -0.051122863 0.024539474 -0.08728287
0.04130386 -0.03270154 -0.012414133 0.043230582 -0.0066387714 -0.015158461 0.01488731 0.063169755
0.05015358 -0.08305038 0.0052599898 0.05025509 -0.016110001 -0.008979565 -0.023711722 0.009804168
0.015329788 -0.087123826 -0.06761584 -0.080818094 0.019402355 -0.044594463 -0.031335864 -0.02119584
-0.028734129 -0.017026346 -0.040458847 0.0035868865 0.0030704928 -0.06349247 -0.075112596 -0.07262116
0.017847199 0.059498053 -0.021560462 0.03930341 -0.06727601 0.026464006 0.073517956 0.08477296
0.014275443 -0.028018814 -0.006759164 -0.04130247 0.045129273 0.009535124 -0.08391812 0.04805568
-0.061002832 -0.030098466 -0.025869789 0.039928637 -0.06607103 -0.0753075 -0.04017018 0.03986133
0.047559608 -0.08611382 -0.029122196 0.061014537 0.05743389 0.0020975326 0.08561099 0.057335276
-0.03146123 0.03581772 -0.0018318074 0.011839513 -0.052962657 -0.07341703 -0.071749896 -0.060335394
0.060852252 0.0785766 0.020773781 -0.03615231 -0.01554126 -0.008276461 0.056204867 -0.03487456
0.021225479 -0.017698167 -0.06928641 -0.054463148 -0.04180827 -0.08276098 0.07090507 0.083333656
0.06952352 0.078126095 -0.014090766 0.016534325 0.003763176 0.0006708303 0.047389105 -0.06095861
00000000: 572d 873d 4db8 3abc 7dd3 afbd 31e2 093c
00000010: 551c 1bbc 7f74 28bb 998d a13d aca6 5a3d
00000020: 9ac1 853c 1222 9d3c 48ec 113d 6273 4f3d
00000030: 8e04 fb3c 0185 c4bc 8c92 77bd 3bd1 6b3d
00000040: 87e1 853d 867d a6bd 2005 a2bc 5b8e ac3d
00000050: 0c5c 933d 2122 a63c 7d2b 4c3d 1e8c b1bd
00000060: cbdc ac3b 25d6 9b3c 2432 4bbd 221c 08ba
00000070: 1ac7 c83c cf9e 793d a488 c23b 6f0f c5bb
00000080: 1c75 3ebd 0f42 d9bb eeb9 b83c 9537 843d
00000090: 1db3 45bd 00d3 34bd 15bf 1f3d b5c6 abbd
000000a0: 2f60 4a3d 72ef bd3c 00f7 0e3d 2655 e4bb
000000b0: d24f 1c3d 434f 8fbb 56fc c4bc 41f5 a93d
000000c0: 52e3 6fbd fc82 84bd f933 b5bd db1e 213c
000000d0: 7224 27ba 8b4a 613d 7b80 b2bd bbe0 063c
000000e0: 9d8d c83b 0097 7cbc ebfa 0ebd cfb1 2dbd
000000f0: 02cd 743b 57ef 69bd a5cf 903d 10dc 3c3d
00000100: 9199 9a3d 1527 943c 24a3 d73c 191e 463d
00000110: 35ec fabc cd0f fcbc 53dc 4dbd c4ca 78bd
00000120: 0ddc e7bc 493c 1fbd 933a b2bc bb63 a2bd
00000130: 3b04 813d d173 82ba 29a9 95bd e008 08bd
00000140: 99be afbc 61ff 78bd c7d1 b5bd 9651 583d
00000150: 0bc0 853d ed7b c4bc bdeb 2d3d 9467 8bbd
00000160: d55e b7bd 32ad 693d 11ee 93bb 6f3c 32bd
00000170: 1a7b b5bc 5cfe 723c 99d4 c13c 2e67 6ebd
00000180: 928d 7fbc 3e85 163d 9d19 1cbd f279 d0ba
00000190: f068 c53c 1b95 71bd 0822 283d 6d83 443d
000001a0: 8ce3 e43c 4e18 7e3d 2545 793c 9a62 693d
000001b0: a663 68bd 9843 ddbb 2dfe 0a3d b106 b23d
000001c0: df56 8cbd 24a1 133d d0cc 5c3d 9ea8 66bd
000001d0: 7f49 3b3d 9aa9 8fbc 3576 273d 48c0 80bc
000001e0: 4668 34bc f17e a13b 9a1c 49bd c11c 8abd
000001f0: 077f 703d 2896 5e3d f415 0c3b eab0 45bd
00000200: 343a 4abc 181a 9dbd c949 acbb 9b44 1d3d
00000210: d6aa e73c df4c 233d ceef 8dbd 2b97 aabd
00000220: 0b8a 023b acff 893c 5f00 f93c 2ce5 c9bb
00000230: 39e0 ab3d 4d2b 153d df20 9b3d 3ad5 953c
00000240: ca9a 553d 1afc 21bc a6a7 8bbc e63e af3c
00000250: ce0f 8bbd efee 9b3d b4ec 393d 31fc afbd
00000260: 8c5b 4cbd 20c9 12bd cacf 613d 43ba 0abb
00000270: 4acd 913d 3566 51bd 0207 c93c 5dc1 b2bd
00000280: 3c2e 293d 0df2 05bd a664 4bbc 8d12 313d
00000290: 0d8a d9bb 325b 78bc e7e9 733c 255f 813d
000002a0: d76d 4d3d 5116 aabd fe5b ac3b 48d8 4d3d
000002b0: 1ff9 83bc 071f 13bc 163f c2bc a9a1 203c
000002c0: cb29 7b3c fa6d b2bd 2c7a 8abd f583 a5bd
000002d0: b0f1 9e3c afa8 36bd 095a 00bd e6a2 adbc
000002e0: d663 ebbc d67a 8bbc 2db8 25bd f811 6b3b
000002f0: 523a 493b 5708 82bd a2d4 99bd 67ba 94bd
00000300: 4a34 923c 3bb4 733d 919f b0bc 9dfc 203d
00000310: 01c8 89bd 0bcb d83c 9590 963d 729d ad3d
00000320: 8ce3 693c b687 e5bc fa7b ddbb c72c 29bd
00000330: 79d9 383d 3539 1c3c 43dd abbd 08d6 443d
00000340: 1bde 79bd 0f91 f6bc e1ec d3bc 368c 233d
00000350: 4050 87bd d23a 9abd 7d89 24bd a245 233d
00000360: ddcd 423d 715c b0bd ac91 eebc 61ea 793d
00000370: cc3f 6b3d c276 093b d154 af3d 65d8 6a3d
00000380: 7edd 00bd 9ab5 123d 4219 f0ba 84fa 413c
00000390: 5fef 58bd ab5b 96bd 9cf1 92bd 3f22 77bd
000003a0: 3640 793d c5ec a03d c72d aa3c 7214 14bd
000003b0: c5a0 7ebc fe99 07bc 1337 663d a0d8 0ebd
000003c0: 0ee1 ad3c bffb 90bc 09e6 8dbd c014 5fbd
000003d0: 263f 2bbd 977e a9bd ad36 913d d6aa aa3d
000003e0: 5962 8e3d 9300 a03d f5dc 66bc fe72 873c
000003f0: 9e9f 763b a9da 2f3a 141b 423d bcaf 79bd

fc5.bias f4 [64]
0.06907082 -0.057493065 -0.06768182 -0.03633799 -0.06755651 0.07739474 -0.002327475 0.055433083
0.03661628 0.046296168 -0.010104254 -0.05804951 0.03420408 -0.024380442 -0.0092306 0.072192654
-0.06036029 -0.06503923 -0.012076155 -0.007181444 -0.031417537 0.08226951 -0.07209981 -0.026999403
-0.07666574 -0.04153431 -0.041248668 -0.062499657 -0.07139648 -0.04368787 0.000489836 -0.058856152
0.03466404 0.0053711045 0.06949602 0.054758385 0.06623562 -0.07399231 0.03706956 -0.013404576
-0.028884333 0.028575206 -0.022535603 0.0023610797 -0.058878757 -0.08493004 0.026170982 0.066415295
0.020226851 0.055135544 -0.0014547196 -0.030245023 0.039352123 0.00864689 -0.040077373 -0.0140876435
0.06972989 0.054441147 0.077942915 -0.005894083 -0.021685101 -0.00381425 -0.008987892 -0.059062924
00000000: 0175 8d3d d97d 6bbd c49c 8abd 25d7 14bd
00000010: 115b 8abd 2281 9e3d 8d88 18bb cd0d 633d
00000020: f4fa 153d 0da1 3d3d 508c 25bc 53c5 6dbd
00000030: 9419 0c3d 7eb9 c7bc f13b 17bc bed9 933d
00000040: 5a3c 77bd 4a33 85bd 11db 45bc 5252 ebbb
00000050: adaf 00bd eb7c a83d 11a9 93bd da2d ddbc
00000060: ed02 9dbd e11f 2abd 5df4 28bd a4ff 7fbd
00000070: 5138 92bd 0df2 32bd 5668 003a 2613 71bd
00000080: e1fb 0d3d 1700 b03b ee53 8e3d 544a 603d
00000090: 8aa6 873d 4889 97bd 40d6 173d de9e 5bbc
000000a0: d69e ecbc 8d16 ea3c 969c b8bc 58bc 1a3b
000000b0: da2a 71bd cdef adbd 8764 d63c be04 883d
000000c0: c8b2 a53c cfd5 613d 4aac beba 69c4 f7bc
000000d0: b12f 213d afab 0d3c 2c28 24bd dccf 66bc
000000e0: 8bce 8e3d aefd 5e3d 89a0 9f3d 2723 c1bb
000000f0: f4a4 b1bc 7ff8 79bb f441 13bc f7eb 71bd
