models_submitted/test_acc-CNN_2L_Drop_N400.pt (torch, 160903 bytes, 22 tensors)

conv1.weight f4 [32, 1, 1]
00000000: c408 043f 5f5b 0bbf a28a 6c3f 3a29 203e
00000010: 60af acbe 3842 003f f8b4 383f 0fa5 543f
00000020: 9339 f53e d0ba 20bf 0cf4 72bf 75ab 6c3e
00000030: 68f3 873e 563e 5d3e 445b 63bf a68f 43bf
00000040: 7259 0e3f 94e2 ab3e 6a9a 373f 38b0 5e3f
00000050: aeda 733f 767f fa3d 6404 be3e 9c5a 7a3f
00000060: d9f4 62be 417e 233e 2f9b 53bf e47c 31bf
00000070: 601f 5abf 4a20 09bf f2da 7dbf c7aa b9bd
0.51575875 -0.54436296 0.92399037 0.15640727 -0.3372755 0.5010104 0.72151136 0.8306436
0.47895488 -0.62785053 -0.94903636 0.2311228 0.26552892 0.2160581 -0.88811135 -0.76391065
0.5560523 0.33571303 0.7171999 0.8698764 0.95255554 0.122313425 0.37112725 0.9779451
-0.22163714 0.15966131 -0.82658666 -0.6933119 -0.85204124 -0.53564894 -0.9916221 -0.09065776

conv1.bias f4 [32]
00000000: 620e e43e dfda eebe e35f 18be 8460 043f
00000010: f422 283f 7e2d 1a3f 2a7f aebe a2ae 0abd
00000020: 1c21 423f a638 bdbd 374c 4bbf 46f0 84be
00000030: 5d5a df3e fc85 23bf 7dee 4abf c812 f8be
00000040: 8a7f 9cbe 8e0e d13e 4a5d ffbe dd5a 033e
00000050: 2939 6dbe a061 9dbd c287 19bf 23c0 523f
00000060: e854 813e f6c6 553d 6ffa 943d 18ec 41bf
00000070: 63e6 d33e 680b bf3e 5d13 39bf dfe6 603f
0.44542223 -0.4665136 -0.14880328 0.5170977 0.65678334 0.60225666 -0.34081393 -0.03385795
0.7583177 -0.092393205 -0.7941317 -0.25964564 0.4362363 -0.6387632 -0.79270154 -0.4845183
-0.30566055 0.40831417 -0.4987586 0.1282763 -0.23166336 -0.07684636 -0.59972775 0.8232443
0.2526009 0.052191697 0.07274329 -0.75750875 0.4138671 0.3731339 -0.7229517 0.8785228

conv2.weight f4 [64, 32, 1]
00000000: 19ab 1ebd 52f3 94bc 917e 2ebc 1508 e23d
00000010: 6cee 9a3c aeb4 243e 28f1 63bd efba 093e
00000020: 01be 1aba a398 edbd 5a35 be3d 33da eb3d
00000030: d0b0 a93d d12e ea3d 3c9d cebd 9877 143e
00000040: 93ac 24be 88a6 58bb b8bb 343e 06e0 8b3d
00000050: 0aee ef3d f6a5 44bb 4f23 27bc dd0f e1bd
00000060: f09a c7bd f74f 013e affb 9e3d 1462 27be
00000070: 65de e93d 43cc 5e3d 4245 883d 40c6 7f3d
00000080: b3e2 24bd 89ba 5bbd 42ef db3c 5438 bebd
00000090: fb09 17be 865a 34be d25c c2bd 9e8d a83c
000000a0: 5321 433c 029a 09be 546b 27be 9bc1 d33c
000000b0: e6f3 aa3d 673a d1bd 9950 c8bd d89e 2cbe
000000c0: 2ac8 953d e3ba 17bd 6e27 c53d 1246 1c3c
000000d0: a761 1d3e 8fe3 c8bd 8a5e c3bd 728b 253d
000000e0: 8c7f ec3d a4c5 09be 3b0c 1dbe 10bb 86bd
000000f0: 7524 ebbd 72fa 04bc 3375 283e 8d05 e53c
00000100: d671 f93d 55f4 2a3a f42b f1bd 1d8a cabb
00000110: edc2 403d 6e88 d83c 4345 7f3b 86bf 633d
00000120: 89ea 22be a475 0fbe 9736 993d c795 eebc
00000130: 9f2c a03d b6f6 21be faf7 d7bd f861 6fbd
00000140: f89f 2cbe 68f3 d13c 2d5f 22be b0fa e83d
00000150: 9e45 633d 805b 2fbe 626d 653d 998d 06be
00000160: fb48 203e 2379 0a3e 87be c53d 67f8 2f3e
00000170: c35e 123d f165 763d af55 abbd 16c3 cdbd
00000180: 2bb7 90bd 0b3f f63d 99aa 583c 4249 24be
00000190: 953f 303a 032c c1bd d19c d6bc 049d b43c
000001a0: f36d e73c 98e9 1e3d bda9 8fbd 0d48 ecbc
000001b0: 5e7a 0f3e 65ae cd3d 5d34 d23c dd5c 62bb
000001c0: 9ad8 1bbe 7bcc 9cbc 59ab dfba 3176 cc3d
000001d0: 1e48 a03d 702c 21bd ef8e 683d 05d4 a13d
000001e0: a279 adbd c92d 073e 1b11 333e 343a 123d
000001f0: 1589 273e 9bd9 26be 6f69 323e d0dd 16be
00000200: 167f 373e b254 d23c c603 1abe 582b a2bc
00000210: 54c0 893c 3ba9 443d 8ed2 073e 72d1 06be
00000220: b98b 26bd 9da6 833d e118 14bd d226 003e
00000230: 7ba0 003e 2e63 46bd d59c cebd 9d52 113d
00000240: 1c18 db3c e92c f73c fb6b ab3c 5193 963d
00000250: d24a da3d 18c6 f5bc 74cd a43d 56e6 0e3e
00000260: 1a0b 20be c4d2 88bb 321a 2a3e 2584 d83a
00000270: 0076 cdbd 0c22 313e 32d0 243e eb15 f43d
00000280: ce83 e33d 02f4 0bbe 4dc2 123e c019 85bd
00000290: 4da0 1abe 74cc f53c d907 383d dc51 fbbc
000002a0: de0a 08be 2015 1f3e 7e65 a9bd 9a2a 8f3c
000002b0: 61a4 31bd e423 16be 7bd9 cebd ebaa 3ebc
000002c0: de3f 003c 3b38 023c 34fb 773d 9338 0ebc
000002d0: 09bc e8bd ff6b dd3c f2d5 563d 1da2 1dbe
000002e0: 97ea 97bd 3d1a fbbd eef6 c03c e4ea 113e
000002f0: 726d 343e 2d70 06be ca98 6dbb 2596 22be
00000300: 6cda b2bc 3375 96bd 0a2d 08bd 3ef0 c7bd
00000310: 113e 33be 9071 dabc 0546 a1bd 9899 023e
00000320: 73cb 5f3d 7cfb 2fbe 6312 2a3e 5210 94bc
00000330: d61c cebd 95d3 193d 7901 15be f24b 06be
00000340: 9867 b0bd 59ce a5bc d56f db3d afa4 1fbd
00000350: 9f72 74bb b1d5 bfbd d444 8c3d 9163 26be
00000360: 806a 04be be61 a5bd 7702 edbd a6e4 ef3b
00000370: 4a78 543d a063 21be 16f2 e1bd a3b7 d0bd
00000380: dd83 a1bd 85d4 d6bd 10ab e63d 83eb 2dbe
00000390: 8c6f aabd eb01 29be bb7e b1bd 14a2 16be
000003a0: 6883 153e aeec a53d 565e d23c 6ff6 e13d
000003b0: 37dc 54bc 716e ecbc 80ae c63d 14e9 33be
000003c0: 6f2f cb3d dbad 5a3d f4fb 4dbd f6ed 283e
000003d0: 05a0 13be f8c1 15be 80c5 b53d 8408 153e
000003e0: d78e e9bd 5847 28bd 7e07 2c3e 4b02 023e
000003f0: f0fb 363b 92a6 053c 25a6 ecbc e83b 62bd
-0.03873739 -0.01818243 -0.010650293 0.11036698 0.018912517 0.16084549 -0.055649906 0.13450216
-0.00059029466 -0.11601379 0.0928752 0.115162276 0.082856774 0.11434711 -0.10088584 0.14498746
-0.16081457 -0.0033058245 0.17649734 0.068298385 0.11715324 -0.0030006147 -0.010201289 -0.10989354
-0.09746349 0.1262816 0.077628486 -0.16346008 0.114193715 0.054394018 0.06653835 0.062444925
-0.04025526 -0.05364469 0.026847485 -0.092880875 -0.14749901 -0.17612657 -0.0949036 0.02057534
0.011909801 -0.13437656 -0.16349536 0.025849154 0.08347301 -0.102162175 -0.09780998 -0.16857469
0.07313569 -0.037043463 0.09626661 0.00953819 0.15369283 -0.09809028 -0.09539516 0.04041619
0.11547765 -0.134543 -0.15336697 -0.06578648 -0.11481563 -0.008116351 0.16450958 0.027956748
0.121799156 0.00065213937 -0.117759615 -0.006181015 0.047060896 0.026432242 0.0038951195 0.055602573
-0.1590978 -0.1400972 0.07481115 -0.029124154 0.07821011 -0.15816769 -0.10545345 -0.05844304
-0.16857898 0.02562876 -0.15856619 0.1137594 0.055486314 -0.17124748 0.05601252 -0.13139953
0.1565284 0.13522772 0.09655481 0.17184602 0.035734903 0.060155813 -0.08365952 -0.10046975
-0.070661865 0.12023743 0.013224267 -0.1604357 0.00067233416 -0.09432223 -0.026197823 0.022047527
0.02825067 0.03879699 -0.07014797 -0.02884295 0.14011523 0.10043029 0.025659734 -0.0034540214
-0.15219346 -0.019140473 -0.0017064615 0.09983481 0.07826255 -0.03934902 0.056776937 0.07901768
-0.08470465 0.1320106 0.17486994 0.035700038 0.16360886 -0.16293947 0.17423032 -0.14733052
0.17919573 0.025675151 -0.15040502 -0.019796059 0.016815342 0.048012953 0.13263914 -0.13165835
-0.040660594 0.06428263 -0.03615654 0.12514809 0.12561218 -0.04843443 -0.10088507 0.035479177
0.026744895 0.030172782 0.020925513 0.07352317 0.10658802 -0.030001685 0.080469996 0.13955054
-0.15629235 -0.004175516 0.16611555 0.0016518874 -0.10032272 0.17298144 0.16095045 0.11918243
0.11109124 -0.136673 0.14331932 -0.06499052 -0.15100212 0.030004717 0.04492936 -0.030678682
-0.13285396 0.15535402 -0.08271311 0.017476369 -0.043369655 -0.14662129 -0.10100075 -0.01163743
0.007827727 0.007947977 0.0605423 -0.0086804805 -0.1136399 0.027029036 0.052450128 -0.15393873
-0.07417791 -0.12260864 0.023555245 0.1424976 0.17619875 -0.13128729 -0.00362544 -0.15877588
-0.021832667 -0.07346573 -0.033246078 -0.097626194 -0.17504145 -0.026665479 -0.07874683 0.12753904
0.054637384 -0.17185777 0.16608576 -0.018074188 -0.10064094 0.037555296 -0.14551343 -0.13114908
-0.08613509 -0.020239996 0.1071469 -0.038975414 -0.0037299765 -0.0936693 0.068490654 -0.16248919
-0.12931252 -0.080752835 -0.11572736 0.007320958 0.05187253 -0.1576066 -0.11032502 -0.10191276
-0.07886479 -0.10489754 0.11263096 -0.16984372 -0.08322057 -0.16504638 -0.0866675 -0.14710265
0.14600909 0.08101784 0.025679749 0.110333316 -0.012991956 -0.028861256 0.09701252 -0.17569381
0.099211566 0.053388458 -0.05028911 0.16497025 -0.14416511 -0.14624774 0.08875561 0.1455403
-0.11404198 -0.041083664 0.16799733 0.12696187 0.0027921163 0.008157389 -0.028887818 -0.055232912

conv2.bias f4 [64]
00000000: 2daa 4d3d eb49 45bc 05a6 243e 2f33 fdbc
00000010: 726b 95bd 4547 91bd 49a6 b43d 79d5 bd3d
00000020: de8b 593d b7e1 70bd ca64 30be ace4 803b
00000030: 02ca 5e3d 1547 b4bd 0832 9cbb 9f5c d83d
00000040: e892 e8bb a166 77bd 40b0 093e 349f a7bb
00000050: bd70 153c f2fd 14be b55f 7f3d 7f65 c23d
00000060: 0b3d 0dbe b2ae c1bd d55c 26be 841f 04be
00000070: f42f 2c3e 11ea 883d 4372 fc3d b940 c0bd
00000080: df7c e8bd a1fd 103e 510d 303e f94b 96bd
00000090: 71d4 2fbd 59bd df3c 87f2 4e3d ce71 26bc
000000a0: 2d31 213e 8ebc 27be f1b2 2bbe a76c bcbc
000000b0: ad1f 48bd f1e5 01be 84c0 0dbe de50 aa3d
000000c0: 95ca febc 5f91 123e 0308 4c3d 7e76 d4bd
000000d0: 3bc3 803d 21e4 173e ec65 b43d 0f99 023e
000000e0: c4ea dbbc 30ee 3cbd 81a0 4abd ab6f 97bc
000000f0: e787 26bd 64c0 48bd 9768 10be 3bc1 1f3e
0.05021112 -0.012041549 0.16078956 -0.030908195 -0.07295884 -0.07093672 0.08820779 0.09269232
0.053111903 -0.05880901 -0.17225948 0.00393351 0.05439187 -0.0880262 -0.0047667064 0.10564541
-0.0070975907 -0.06040061 0.1344614 -0.005115414 0.009121117 -0.14549997 0.062347133 0.09492015
-0.13792817 -0.094571486 -0.1624635 -0.12902647 0.16815168 0.066852696 0.12326481 -0.09387345
-0.11351942 0.14159252 0.1719258 -0.073387094 -0.04292721 0.027311968 0.05052426 -0.010158969
0.15741415 -0.16380522 -0.1676748 -0.023001028 -0.048858333 -0.12685372 -0.1384297 0.083162054
-0.031102458 0.14313267 0.049812328 -0.10374163 0.06287237 0.14833118 0.088085026 0.127537
-0.026845343 -0.04612559 -0.049469475 -0.018485865 -0.04065695 -0.049011603 -0.14102398 0.15601055

fc1.weight f4 [16, 896]
00000000: 4a45 6a3b b3d7 15bd b7fa c9bc c45d a83c
00000010: 9228 f83c 4aa4 083d 42c4 0e3a cc70 973c
00000020: ec2a e0bc 5e3f 9fbc 0b86 83bc 9439 ef3c
00000030: b304 3b3c 7ad5 823c 8967 1dbb 178d 543c
00000040: 898a 3e3c 59cd 13bc 3448 423c e066 993c
00000050: 565c 073c 47e0 18bc 20a4 a3bb dbc8 e43b
00000060: 3b54 c9bb 4d95 103c 7242 a73c b8b8 95bc
00000070: 902b c3ba e28e edbc 9c84 a43c ecb8 253c
00000080: 80e8 073d dd19 02bc 1a39 f83c 45ac 9fbc
00000090: 9504 8a3c a297 143b a1b7 efbc 3760 98bc
000000a0: c7c3 9fbc 253c d9bc c10f cf3c 0ce1 90bb
000000b0: 75a8 c03b bc35 a8bb ce85 08bd a11e 21bc
000000c0: d698 e5bc a7e9 e13a 6a37 49bc f9a0 d4ba
000000d0: f802 dd3c fa84 24bc 4df4 953c ae67 d7bc
000000e0: 61c4 8f3b 3de8 813c fd53 123b 68c8 8c3c
000000f0: d27d e9bc b32b 2dbc d3c3 9ebc 8b12 f1bc
00000100: 096b 7abc 0456 c03b f3e5 f9bb 365e 963c
00000110: 1535 c33c cf99 cebc 9f44 3fbb f10b a13b
00000120: f3a2 e0bc 2fd6 073d 3b73 d5bc be06 823c
00000130: 7161 893c 3f30 85bc c807 313c bff5 113c
00000140: 10bd 35bb 1081 f5bc 70bf 83bc 8392 abbb
00000150: 0936 c2bc ba3a ddbb e590 bd3c 0d32 513c
00000160: 1fc8 bd3c 773d 6eba e240 08bd 1fab 4dbb
00000170: 37fd 58bc 5ab3 59bb e5ca 5dbc 2c33 58bc
00000180: 69ef 04bd 5559 e43c 7e81 2dbc 78d1 f53c
00000190: 79f4 ebbb c237 d73b 8eaa bfbb bf7b 0fbc
000001a0: 886e c4bb 2074 e93a 2d94 4b3c a6f7 56bb
000001b0: 9fcd f23c 709f 0c3a a395 9cbc c13b 5abc
000001c0: 2b43 a43c 5b6c 453c b486 98bc b889 d23c
000001d0: d8f2 b4bc 3581 64bc 570e b8bc 9b17 c4bb
000001e0: c11c a1bc 5b9e e53c 6c0d eebc 7858 93bc
000001f0: 2c27 cebc 80f6 b6bb ddaa a3bc caaf f1bc
00000200: 0436 debc 02bb b7bc 0ad8 b0bb 3bb5 ddbc
00000210: 0f25 d5ba 269c ff3c 5b0d cdbb 3d51 c63c
00000220: 60a5 ed3c 11f5 eabb 986f bd3c f618 ce3a
00000230: 906d 02bd 9746 d7ba 2e90 67bc d3cb bf3c
00000240: 85b0 a6bc 0b77 1ebc 74ba 073d 1455 51bc
00000250: 351e 9b3c f3cd c73c 70ed e23b c6b5 92bc
00000260: bafa e0bc 83e2 de3c 27dd cabc 93a1 0bbd
00000270: 40a0 cebc a5ba aa3b b390 75bb 46a5 b43c
00000280: 05bd e33c 4880 b3bc 8fb7 763b 927a f3bc
00000290: 6752 b43c 5ad7 d2bc f7c3 d53a afd6 15bd
000002a0: e9ad 4b3b 33cb 47bc 25d1 f43c f81e 133b
000002b0: 6edd c43c 4900 cfbc d31f e0bb 0efd 8abc
000002c0: 7b2b 8c3b b291 e73c ffe1 c3bb f8ef b73c
000002d0: a44a 5e3c 8023 82bc 3269 68bc cf27 5fbc
000002e0: 42e8 ea39 3322 843b 4b94 fb3c f1ad 743b
000002f0: 49e6 003d 6953 bc3c 378b 953c 63fb bfbc
00000300: eae0 143c f0b6 2bb9 724e f5bc e9a2 f8bc
00000310: 2340 9abc 700a ecbb 4872 f6bc 7419 033d
00000320: 40dc 17bc f322 d1ba aa07 bc3c df5b e93c
00000330: 43b1 dfbc 8b17 083d dfa8 07bd 4bc9 a1bc
00000340: 3bbe 333c d767 063d 10c1 5e3c 7375 0ebd
00000350: 6e8b 6e3c c19d 9e3c f3fc 5c3c 349c 72bc
00000360: a503 a8bc 44e1 85bc 3e66 4bbc 9dcb f83a
00000370: 0490 7ebb 3499 79bc eb99 fc3c 5c9d 833c
00000380: c39d 12bc 2f49 97bc c188 e4bc 73f3 b63b
00000390: fcca f53c 4529 973b cc11 ce3c 5d26 3a3b
000003a0: b63b 6a3c d9d7 00bd 4521 d33c 3c11 a03c
000003b0: e0d7 f03c 5f9f f93c a9c2 5c3b 9474 953b
000003c0: 511e 8ebc b5e6 aabc 3df3 b13c 743c 8abc
000003d0: e186 2bbc 2f3b 033d 63e6 7f3c 8d6c cbbc
000003e0: 925f 8e3c 07b1 913c 7baa c83c a872 c13b
000003f0: 1523 f6bc 743c b7b8 a857 2d3c 4e4c f33c
0.0035746866 -0.03658266 -0.024655683 0.020552523 0.030292783 0.033359803 0.0005446115 0.018486403
-0.027364217 -0.019439396 -0.016055128 0.02920226 0.011414695 0.015970934 -0.002401801 0.012973092
0.011629709 -0.009021127 0.011858035 0.018725812 0.008261761 -0.009330816 -0.0049939305 0.0069819517
-0.0061440743 0.008824659 0.020417426 -0.018276557 -0.0014890302 -0.028998796 0.020082764 0.01011489
0.033180714 -0.007940737 0.030300666 -0.019491324 0.016847888 0.0022673388 -0.029262366 -0.018600566
-0.019502534 -0.026517937 0.025276067 -0.004421359 0.0058794566 -0.0051333588 -0.03333073 -0.009833963
-0.02802698 0.0017235772 -0.012281278 -0.001622229 0.026978955 -0.01004147 0.018304968 -0.026294556
0.004387424 0.01585781 0.0022327893 0.017185405 -0.028502379 -0.010569501 -0.019380486 -0.029427787
-0.015284308 0.005869629 -0.007626289 0.01835547 0.023829022 -0.025219826 -0.0029185188 0.0049147536
-0.02742145 0.033163246 -0.026055923 0.015872356 0.016770096 -0.016258357 0.010805078 0.008908688
-0.0027731098 -0.029968768 -0.016082495 -0.0052359714 -0.023707407 -0.0067513855 0.02314038 0.012768281
0.023166714 -0.00090881385 -0.033265002 -0.0031382514 -0.013243965 -0.0033218474 -0.013537143 -0.013195794
-0.03245488 0.027874628 -0.010589955 0.030007109 -0.0072007743 0.006567926 -0.005849189 -0.008757531
-0.0059946217 0.0017811097 0.012425465 -0.0032801419 0.029639063 0.0005364334 -0.019114321 -0.0133199105
0.02005156 0.01204976 -0.018618919 0.025700435 -0.022088453 -0.013946821 -0.022467775 -0.0059842593
-0.019667031 0.028029611 -0.029059134 -0.017986521 -0.025165163 -0.0055835843 -0.019978935 -0.029502768
-0.027125366 -0.02242804 -0.0053968476 -0.027063956 -0.0016261655 0.031202387 -0.0062576956 0.02420866
0.029009521 -0.0071703275 0.023124501 0.0015723992 -0.03184277 -0.0016424236 -0.014133496 0.02341262
-0.020347843 -0.009671937 0.0331368 -0.012776632 0.018935302 0.024390196 0.0069252774 -0.017908942
-0.027463306 0.027207619 -0.024763657 -0.034089636 -0.025222898 0.005210238 -0.003747028 0.022051465
0.027800092 -0.021911755 0.003764603 -0.029721532 0.022011949 -0.025737453 0.0016309012 -0.03658169
0.0031079 -0.012194443 0.029884884 0.0022448879 0.024031367 -0.02526869 -0.0068397312 -0.016966369
0.004277644 0.028267715 -0.0059778686 0.022453293 0.0135676 -0.015886068 -0.014185237 -0.013620331
0.00044805004 0.004032397 0.03071036 0.0037335122 0.031469617 0.022988992 0.01825486 -0.0234353
0.009086827 -0.0001637598 -0.029944632 -0.03035112 -0.01882941 -0.0072033927 -0.03008379 0.032006696
-0.00926882 -0.001595585 0.022952873 0.02848619 -0.027306205 0.033225577 -0.033120032 -0.019749304
0.010970647 0.032813873 0.013595834 -0.034779977 0.01455961 0.019362332 0.013488042 -0.01480775
-0.02050955 -0.016342767 -0.012414513 0.001898158 -0.0038843164 -0.01523428 0.030835113 0.016066246
-0.008948746 -0.018467514 -0.02789724 0.0055832206 0.030004017 0.004613074 0.02515497 0.0028404214
0.014296463 -0.03145585 0.0257727 0.019539468 0.029399812 0.030471502 0.0033685362 0.0045610163
-0.01734844 -0.020861963 0.02172243 -0.01687453 -0.010469169 0.032038864 0.015618893 -0.024832034
0.017379556 0.017784609 0.024495354 0.0059035607 -0.030046025 -8.73738e-05 0.010579981 0.02969947

fc1.bias f4 [16]
00000000: e66b 203a dd33 783b 75e8 ec3b 218f c53c
00000010: 5a5c f9bc 3c53 9bbc c72a 65bb 1cb9 82bc
00000020: 4a6f 0f3c baa9 28bb 4466 ce3c 18f2 a4bc
00000030: b392 693c 8926 ae3c fd0e 053d fdf5 d8bc
0.0006119594 0.003787271 0.0072298595 0.0241161 -0.030439544 -0.018960588 -0.0034968124 -0.015957408
0.008754561 -0.002573593 0.025195248 -0.02013497 0.014256167 0.02125861 0.032484997 -0.026484484

fc2.weight f4 [32, 16]
00000000: a99a c73c e6a5 273e 8e23 73be 7a7c 06be
00000010: 6b69 873b f467 70be 41c5 1bbe 8bc0 b4bd
00000020: 0d89 38bd 02db df3d 8118 f7b9 f4aa 7d3e
00000030: 592b 563d 455c ba3d 40fb 233e d834 73bd
00000040: 060b 6c3e 7d14 e2bd fbf7 a23c bc92 483e
00000050: c728 d13d 18dd a53d 3bac 63be bc39 eabd
00000060: 2f23 363e 1520 533d ea99 c03d 6525 70be
00000070: 0d4e 7cbe feda c8bd e05a 43be 1878 773e
00000080: 1333 863a 214e 8bbc 6a32 21be 2050 323e
00000090: 4230 eebd 70f3 95bc b54d bfbd be53 273e
000000a0: 02d9 a33d 1a82 61be 2926 793e a284 0fbe
000000b0: b323 603c d91c 57bd 9ff0 453e 51f4 a8bd
000000c0: 8356 4bbe b6ef 76be 8625 ca3d c043 00bd
000000d0: 9013 d53c f6b9 1fbe 5739 e3bb 5b8b 1c3e
000000e0: b62f 47be 70ed b93c 622f 283c d671 d03d
000000f0: 1b28 aebc 6704 71be 231b 763e b9ed 14bd
00000100: b4e7 e43d c3a8 1ebe 2aeb 40be 40cd 863c
00000110: 662e 153d 0850 a93d 4457 ce3d 4f82 6a3c
00000120: 92c2 4dbe 313a 32be b6c7 3d3e 7406 77be
00000130: 58ba 06be 23e8 353e 62e5 8f3d c933 70be
00000140: 9eae 9dbd b71c d13d 47f8 c43d 1c68 1fbe
00000150: b037 0f3d 3029 e83d b8d9 36be f0a7 a0bd
00000160: e328 b0bd 3b65 7e3e 2071 babc 80ea ad3c
00000170: 222f 533c f276 493e 812c 53be 944a 49be
00000180: a218 573d f594 afbd 06d1 24be e00c 83bd
00000190: 60db cf3d 88a0 d43d a720 6bbe 6fd7 bd3d
000001a0: 7302 473e 0051 383e aed1 02be cac3 a8bd
000001b0: 68e9 65be ad4d 3fbe c9a7 2b3e 3432 193e
000001c0: 372c e53d b257 e23d f2d5 003d 9473 e2bd
000001d0: ffc3 4cbe e8f8 fc3d 0c0c ffbd 4869 fdbc
000001e0: 43b0 33bd 068b fdbd 40ce 0d3e bdae 2b3d
000001f0: 07e6 143e 8996 e4bd 1d7e 03be ea03 423b
00000200: cf92 ebbd 31cd 753e fb7c afbd 8825 783d
00000210: 1755 2ebe 32d0 773e eea6 06bc 4660 63be
00000220: d7c4 20bd 67d7 7e3e 4267 753d 0123 a1bd
00000230: 0bc5 323e 4a72 5dbe db5a 653c 5846 4ebd
00000240: 5fd1 6bbe 9bdb 98bd de10 613d 40c5 ddbd
00000250: 6874 45be 1669 553e 181f 08be 8b84 2ebe
00000260: 0778 f9bd 55b4 aabb c537 f43d 610f 413e
00000270: 1926 873d 710c 053c a10d c3bd 4486 7d3e
00000280: e393 1fbe 1f61 3bbe 8892 c5bd 7401 5e3e
00000290: 2a6c 82bd 30f3 13bd 095c dc3d 2dfb 093e
000002a0: f056 1abe 869c 64be 85ea cd3d 5052 49be
000002b0: 129f c2bd 1df2 423d afbf 23bd 107b 353e
000002c0: f987 b5bd 8785 d1bd b2a4 c0bd 8cbf 83bd
000002d0: 9617 073e 08e5 d33d aad9 093e bdc0 f93c
000002e0: 2a46 75be d93e 5bbe 635b eabd 690d e6bc
000002f0: 6500 243e faf3 4a3e 5ef3 1fbe 6aea 28be
00000300: badc 263d 47fa 86bd 6b57 b43c c057 6bbd
00000310: 194e 2cbe 20b8 ddbd 0d64 493e 849b 29be
00000320: 54e0 093e 95f3 57be 1b72 593e 1c6e 21be
00000330: 1dd0 4bbe 7738 c83d 2b3e f4bd badc 0abe
00000340: 577c 5fbe e5f5 2dbe 20b1 fb3d a463 4cbe
00000350: c5c5 ffbd 002c 463d 2415 2c3e 91ba da3d
00000360: ffc7 083e a41e 78be 1dd8 44be da4f a2bd
00000370: 5f0c f4bd 78bc 28be b817 7e3e b6b0 953d
00000380: 460a efbd 9337 023a aa29 54be 90fe 98bc
00000390: d11c e3bc b836 44be c574 283d c7ae a33d
000003a0: 9d40 0b3e 6f7a a83c b121 613e 7c94 6abe
000003b0: d95f 36be cdab bfbd 53fa 503e ca55 453d
000003c0: 182e 6dbe c4f6 c33c d656 6d3e b45c 72be
000003d0: 1bc4 1bbe 38e8 b33d bb84 7e3e acaf 0d3e
000003e0: bf98 643d e012 2c3d 95d3 5dbd 6bff c73c
000003f0: 218f 24be 2d42 acbd ce41 483e 9bc0 b8bd
0.02436574 0.16371879 -0.23744032 -0.13133422 0.00413244 -0.23477155 -0.15211965 -0.08825787
-0.045052577 0.10930444 -0.00047129768 0.24772245 0.052287433 0.0909963 0.16013813 -0.059376568
0.2305108 -0.11039064 0.019893637 0.19587225 0.10212856 0.08098811 -0.2223367 -0.11436793
0.17786859 0.051544268 0.09404357 -0.23451765 -0.24639149 -0.098073944 -0.19077635 0.24166906
0.001023861 -0.017005028 -0.15741888 0.17413378 -0.11630298 -0.018304557 -0.09340993 0.16340539
0.08000375 -0.22022286 0.24330963 -0.14015439 0.013680386 -0.052517746 0.19330071 -0.08249725
-0.1985722 -0.2411488 0.09870438 -0.03131461 0.026010305 -0.15598282 -0.0069343257 0.15287535
-0.19451794 0.022696227 0.010265203 0.101779625 -0.021259358 -0.23536836 0.2403379 -0.036359522
0.11177006 -0.15494065 -0.18839708 0.016455293 0.036421202 0.08267218 0.10075238 0.014313295
-0.20093754 -0.17405011 0.18533215 -0.24123555 -0.13157022 0.17764334 0.07026173 -0.23457254
-0.07699321 0.10210555 0.09617668 -0.15567058 0.034965217 0.11335981 -0.1785649 -0.078445315
-0.086015485 0.24843304 -0.02275902 0.021229982 0.012889655 0.1967428 -0.20622446 -0.19657356
0.052513726 -0.08573333 -0.16095361 -0.0639894 0.10149264 0.103821814 -0.22961675 0.09269606
0.19434528 0.17999649 -0.12775299 -0.08240469 -0.22452319 -0.18681975 0.16763224 0.14960557
0.11190074 0.11051883 0.031454034 -0.11057201 -0.19996642 0.123521626 -0.1245347 -0.030933991
-0.04386927 -0.12380032 0.1384821 0.04191469 0.14540873 -0.11161525 -0.12841077 0.0029604384
-0.11502611 0.24004056 -0.0856876 0.060582668 -0.17024647 0.24200514 -0.00821851 -0.22204694
-0.03925022 0.24886857 0.059912927 -0.078680046 0.17457978 -0.21625629 0.013998712 -0.050360054
-0.23029087 -0.074637614 0.054947726 -0.10828638 -0.19282687 0.20840868 -0.13293111 -0.17042749
-0.121810965 -0.0052094855 0.119247 0.18853523 0.065990634 0.008120642 -0.09524084 0.2475825
-0.15583758 -0.18298768 -0.09647089 0.21680242 -0.06368287 -0.036120594 0.10759742 0.13474722
-0.15072227 -0.22325334 0.10054497 -0.19660306 -0.095029965 0.04759418 -0.039977726 0.17722726
-0.08863825 -0.102305464 -0.09406413 -0.06433019 0.13192591 0.103464186 0.13461939 0.030487413
-0.23952547 -0.21410693 -0.11443212 -0.028082566 0.16015776 0.19819632 -0.15620181 -0.16495672
0.040737845 -0.06590705 0.02201434 -0.05745673 -0.16826667 -0.10826135 0.19667073 -0.16563231
0.1346448 -0.21089013 0.21234934 -0.1576466 -0.19903608 0.09776395 -0.1192592 -0.13560763
-0.21824776 -0.16988333 0.12289643 -0.19959885 -0.124888934 0.048381805 0.1680494 0.10680116
0.13357542 -0.24230438 -0.19223066 -0.07925387 -0.11916422 -0.16478145 0.24813735 0.073090956
-0.116718814 0.00049673876 -0.20719019 -0.018676072 -0.027723702 -0.19161499 0.041126985 0.079923205
0.13598867 0.020566193 0.21985509 -0.22908205 -0.1781 -0.0935894 0.20407991 0.048177518
-0.23162115 0.023921378 0.23177657 -0.23668176 -0.15211527 0.087845266 0.2485532 0.13836545
0.055809733 0.042010188 -0.05415686 0.024413785 -0.16070224 -0.084110595 0.19556352 -0.090211116

fc2.bias f4 [32]
00000000: 9edd 413e 7ded 313e 1e28 4b3e b05a ffbd
00000010: 69cc b33d 2904 39bd 2f15 06be 8cbc ccbd
00000020: 9252 183e 1413 c63d 2786 3d3e ba76 01be
00000030: 317d 43be 24db 733e 7eb3 ef3d ea98 d6bd
00000040: ef41 083e ab3b 67bd 721c 72bd 46bb d2bd
00000050: 03c7 30be 80d2 943c 3cc2 863d 018b 5c3e
00000060: 04ea 92bd 5440 d43c 948e c83b da07 bb3d
00000070: 4df4 babd 207e ad3d 4566 70be 2096 843d
0.18932196 0.17375751 0.19839522 -0.12468469 0.087792225 -0.045169983 -0.13094018 -0.099969
0.14875248 0.096716076 0.18508206 -0.12642947 -0.19090725 0.23814064 0.11704157 -0.10478385
0.13306402 -0.05645339 -0.05910916 -0.10289626 -0.17263417 0.01816678 0.06580016 0.21537401
-0.07173541 0.02590958 0.0061205123 0.09132357 -0.09128628 0.08471322 -0.23476513 0.064739466

fc3.weight f4 [64, 32]
00000000: e092 a9bd 81f3 a3bd 5c1a 183e 4de9 ad3d
00000010: 5c56 60bd 7762 83bc c437 2d3b 3d4c 0b3d
00000020: 6330 ecbd 90d8 56bc 8860 7dbd a95f 11be
00000030: 9786 873d dd84 4abd 22ea 5fbd 56a9 fbbc
00000040: 8f8e 0a3e 8191 043e 060e a9bc 4145 913d
00000050: 90fe bbbd 2e9c c8bd bf6d 1abd 64ad abbd
00000060: 0fb1 bb3d 0b6c 06be 13c9 52bd f955 283e
00000070: 8b70 e1bc 76a5 d9bd 1940 c8bd b00f 15be
00000080: 1f23 16be 3402 433d 73e6 b5bd 14c1 5bbd
00000090: c67e 4e3d 79db 3dbd 1095 5e3d 51dd b6bd
000000a0: 2a32 1cbe d498 26be c184 ae3d 4f4d 443d
000000b0: 5d1b 123e c3e2 dc3c 2552 ad3d 6989 45bd
000000c0: 31e7 80bc 14da a9bc facd 5138 fc68 0d3e
000000d0: 0957 193e baca 0dbd 31ef a7bd 205e 7d3d
000000e0: 0d0e 593d 19d4 c0bb 2e8f d93c 5226 ad3c
000000f0: 2a10 2b3e 304d 63bd 3dbc 8fbd 81fb 20be
00000100: efbb dfbd 6ba6 823c 3e44 253e cba7 d8bd
00000110: cc10 103e 5dd8 f7bd db3c 8c3d 0ee5 bc3d
00000120: d841 a33d 2cf6 0ebe d9dc 05be 1c6f 033e
00000130: e538 0d3e 2174 eb3d 7c77 c13d 9ac8 98bd
00000140: 882f 673d 0c03 c9bd 132e 243e 6e01 8f3d
00000150: d043 f9bc 0315 09be 83ec 9ebd 46a1 e43b
00000160: 69a9 103e b7b8 dcbd 3feb 4f3c d524 463d
00000170: eec2 0abc 98ea dd3d 2c97 023e 6525 383e
00000180: e851 253e 514e 20be 3e46 fdbc 4eaa dcbd
00000190: 8b23 94bd 2887 0ebe 1707 c93d 584a 2e3d
000001a0: ff93 1abe ccd8 78bd 0ce9 85bd dc5c fb3d
000001b0: 0732 f4bd 6ed1 bdbd b453 fcbc 7796 023e
000001c0: b39b 7dbd a83d 3dbd 8d1a 193b e8f8 7cbc
000001d0: e892 a33b 5d0c 063e 1f59 9ebd 65f4 26bd
000001e0: dab9 6ebd a178 ffbc 8158 053e 1afc b53d
000001f0: 34aa 13bd 5db4 763d f413 d4bd 7b25 ca3d
00000200: 21c5 22be 07d6 e3bb f65a 043e 529f 75bd
00000210: cc22 e2bd 28da c7bd c345 babd f6a2 45bd
00000220: 2910 e0bd 96ac fd3d 4808 c53d 8179 ab3d
00000230: 28ab c13d b249 a8bd dd00 f4bc 2a07 10be
00000240: 9f3e 703d 51d3 0b3e 754e 44bd fcbc b2bd
00000250: b80c 193e bc6d 6a3d 79de fe3d 4793 2d3e
00000260: 2085 d43d d222 1d3d 571f 213e c291 0cbd
00000270: dfb9 f6bd e15d 8dbd b088 2cbe c6e5 c23c
00000280: 4f85 9abd aec9 0a3e f7e4 91bd f4fd 06be
00000290: ca45 febd 2ea5 17bd c51a f5bd b7e0 c2bd
000002a0: 14f4 09be fe43 2d3e a274 873d f3cb f4bd
000002b0: 32ff d43b 7b6a 3f3d ca9e 76bd fb65 093e
000002c0: 52e7 d43d fbd0 aa3d 36a0 e2bd df75 b0bd
000002d0: a7e2 1ebe 30b5 85bd ed3f 013d 2556 0abe
000002e0: 0843 a93d bb2b 433d 55bc 133c 0eff 0d3e
000002f0: 1a42 083e 1cf9 f13d 781e c5bd 8059 1fbe
00000300: 201b 20be bed5 08be f0e2 08be e568 54bd
00000310: 0200 083d f82f a4bd 3d42 29be a151 f13c
00000320: 983b bf3c aa8a 263d a914 f73d 90c4 0b3b
00000330: 5b13 c1bd c52a 163d fd97 f53c 468b 2d3e
00000340: 60e6 02be d38e 1ebe 99d5 e4bb a6a7 af3d
00000350: 3959 5fbd e665 f1bd d4bd 35bd 2614 5cbb
00000360: 4e83 743d 4e27 883d b0e5 e3bd c7f0 1cbe
00000370: 9325 24be 7405 09be b7ab d23d 605f 353e
00000380: 7e3e b13d 5db5 28bd ca0f 233e a247 213e
00000390: bf83 193d f0b5 0e3e 45b2 023e 4a1a 30be
000003a0: d6cb bbbd ebe8 34be 3433 323d d9c8 ba3d
000003b0: 78fe f13d 8fac 1dbd f857 2a3e 4bae 81bd
000003c0: 67ae fe3d 8d8f 2bbe 06e7 e03c 477b 753d
000003d0: e058 263e 881c 98bd 29cd a2bd 8d88 8cbd
000003e0: 2f98 2a3e 6a8c 8cbb ccd2 083e 6a1e cc3d
000003f0: cbb9 08be f791 303d d4a4 2b3e 72a2 07be
-0.08279967 -0.08005429 0.14853805 0.08491764 -0.05476986 -0.016038163 0.0026430944 0.034008253
-0.115326665 -0.013113156 -0.061859637 -0.14196648 0.06617468 -0.049443115 -0.054666646 -0.030720394
0.13530944 0.1294613 -0.02063657 0.07093287 -0.09179413 -0.09795414 -0.03770232 -0.08382681
0.091646306 -0.13127153 -0.05146129 0.16439046 -0.027519485 -0.10627262 -0.09777851 -0.14556766
-0.14661835 0.047609523 -0.08881845 -0.05365093 0.05041387 -0.046351884 0.054341376 -0.089289315
-0.15253511 -0.16269237 0.085214145 0.04792529 0.14268251 0.026963597 0.084629335 -0.048226748
-0.01573524 -0.02073387 5.0021314e-05 0.1380958 0.14974608 -0.034617163 -0.08199919 0.061857343
0.052991915 -0.005884659 0.026557531 0.021136437 0.16705385 -0.055493534 -0.070183255 -0.15720941
-0.10924517 0.015948495 0.16139314 -0.10578879 0.14068907 -0.12101815 0.06847545 0.09223376
0.07971543 -0.13961095 -0.13072528 0.12835354 0.13791235 0.11496759 0.09446618 -0.07460137
0.056441814 -0.09815034 0.16033201 0.069826946 -0.030427843 -0.13386922 -0.07759955 0.006977233
0.14127125 -0.10777419 0.012690364 0.04837497 -0.008469326 0.10835761 0.1275298 0.17983015
0.16144526 -0.15654875 -0.030917283 -0.107746705 -0.07233342 -0.13918746 0.098158054 0.04255137
-0.15095519 -0.06075363 -0.06538591 0.12273571 -0.119236045 -0.09268461 -0.030801632 0.1275271
-0.061916064 -0.046201378 0.0023361773 -0.015440203 0.004991878 0.13090654 -0.07731842 -0.040760417
-0.05828271 -0.03118545 0.13022043 0.08885975 -0.03605099 0.0602306 -0.10355368 0.0987043
-0.15895511 -0.0069530043 0.12925324 -0.059966393 -0.11041793 -0.09758407 -0.09095337 -0.048251115
-0.10940582 0.12386434 0.0962072 0.083727844 0.094564736 -0.08217181 -0.029785568 -0.14065233
0.05865347 0.1365483 -0.047926385 -0.08727452 0.14946258 0.057233557 0.12444777 0.16950713
0.10376954 0.038363285 0.15734611 -0.034318693 -0.12047171 -0.069026716 -0.16849017 0.023791205
-0.07544958 0.13553497 -0.0712375 -0.13182813 -0.12415655 -0.037022762 -0.119679965 -0.09515517
-0.13472015 0.16920468 0.06614043 -0.11952963 0.006500148 0.046732407 -0.060210027 0.13417809
0.10395683 0.08340641 -0.11065714 -0.08616232 -0.15516149 -0.065286994 0.031555105 -0.13509424
0.08264738 0.047649126 0.00901707 0.13866827 0.13306466 0.11815092 -0.09624952 -0.15561485
-0.15635347 -0.13362786 -0.1336782 -0.051857848 0.033203132 -0.08016962 -0.16529174 0.029457869
0.023343846 0.040659584 0.120644875 0.0021326877 -0.0942752 0.036661882 0.0299797 0.1694766
-0.12783194 -0.1548417 -0.0069834706 0.08576898 -0.05452845 -0.11787014 -0.044370487 -0.0033581345
0.059695534 0.06648122 -0.11127794 -0.15326224 -0.16029958 -0.13380986 0.10286658 0.17712164
0.086544976 -0.041188587 0.15923992 0.15749982 0.03747916 0.13936591 0.12763317 -0.17197528
-0.09169738 -0.17666976 0.043505862 0.0912034 0.11816114 -0.038494643 0.1663512 -0.06332072
0.12435608 -0.16753979 0.02745391 0.05993202 0.1624484 -0.07427317 -0.079492874 -0.068619825
0.16659616 -0.0042891996 0.13361663 0.099667385 -0.13352124 0.043107953 0.16762096 -0.13245562

fc3.bias f4 [64]
00000000: 1af1 24be 6f68 8abd 9610 223e fcc4 17be
00000010: 608e 953d 53c8 433c 9d93 083b 194c d5bd
00000020: 49fd 273e ca2a 33be 4f8d fabd a017 6cbd
00000030: d0d5 30bc 0d7e e6bd 975d 643d 717e e9bd
00000040: 2362 10bd c5c1 7bbd 589c d2bd 208b 223e
00000050: 0f46 2a3e 301c 14be 3a82 3fbd d640 92bd
00000060: 87ee ad3d 5725 263e e5e1 023d aae6 1abe
00000070: 1376 423d da9c abbd 0553 b73c 0e3d 25be
00000080: f6d4 023d 0186 d53d 80c5 32be e2bd 8ebd
00000090: 40b6 ecbd 8d8b c6bd 8102 0ebe 436c df3d
000000a0: d815 be3d fbd5 81bc 13df cf3d ab80 59bd
000000b0: 136c e8bd 7cc5 1cbe ab2c d23c cb50 0b3e
000000c0: 1e3b a73c 1395 d6bd 3151 263e 978a b2bc
000000d0: 9105 c83d e9ad d9bd 935b 49bd efda 023e
000000e0: 2008 b3bb 7ff9 11be f3b3 123e 99e8 833c
000000f0: 06f9 2c3e 35c7 2ebd db42 2dbe a974 b1bd
-0.16107598 -0.067582004 0.1582664 -0.14821237 0.073025465 0.0119496165 0.0020839937 -0.10414905
0.16405214 -0.17496791 -0.12233984 -0.057639718 -0.010793164 -0.11254511 0.055753317 -0.1140107
-0.03524984 -0.06146409 -0.102837265 0.15873384 0.16628288 -0.14463878 -0.046755053 -0.07141273
0.08492761 0.16225182 0.03195371 -0.15127054 0.047475886 -0.083795264 0.022378454 -0.16136572
0.031941377 0.1042595 -0.17458153 -0.06969811 -0.11558199 -0.09694586 -0.13868143 0.10909321
0.0928151 -0.015849104 0.1014997 -0.053101223 -0.113487385 -0.1530971 0.025656065 0.13605039
0.020413931 -0.104776524 0.1624191 -0.0217946 0.09766687 -0.10628874 -0.049159598 0.12778829
-0.005463615 -0.14255331 0.14326458 0.016102122 0.1689187 -0.042670447 -0.16920035 -0.08664829

fc4.weight f4 [128, 64]
00000000: 3f67 9b3d 6469 adbd 5ad1 f03c c02f b93d
00000010: 3729 48bc 4994 0e3d 15a1 a2bd 81dd 82bd
00000020: 27c7 edbd cfa5 72bd 6108 18bd 356c 97bd
00000030: 32f8 ebbc 5b9c dcb9 a273 353d caf0 b03d
00000040: ee4b 7f3c 399e 80bd f87d e8bd 0a10 cbbd
00000050: 0141 7bbd 47b8 233d ecfd 6d3d 786e fcbd
00000060: 9438 73bd dff5 c0bd 2ab7 a33d cd8c d03d
00000070: 281a 963d 973e 213d a9cd 9a3d 7ded ffbb
00000080: 36ce 473d d1c2 d4bd 5e77 00bd 42a7 903d
00000090: 9240 b8bd 0121 463d 2ba3 b0bd 6132 3c3d
000000a0: 2765 f23b 2585 22bd 47ec 5dbd a5ea d23d
000000b0: 3849 92bd 6279 b4bd af00 3c3d 73e9 e7bd
000000c0: 0f04 6fbd 8f2f 483d ccb5 e0bd 6f77 4f3d
000000d0: fbca cbbc a9b5 dcbd 67d6 e1bd 28d2 bf3d
000000e0: 7b9f ef3d 85f3 8ebb 33f2 e73d 14ac 8dbd
000000f0: 80a7 9a3c b48e 7dbd 63ec d73d fb43 9fbd
00000100: 9442 42bd d85a 7abc cb3c ddbc f28f 9fbd
00000110: c3eb 72bd 31d0 a1bc 08f3 c9bc 779d 933c
00000120: bbb8 703d 4609 3dbd e69f f33d 050a e1bd
00000130: cda4 ca3b ebd2 01bd 57a4 93bc 5e3e e63c
00000140: 6da0 183d 677a bd3d 387a f7ba 9460 a33d
00000150: 1b62 84bc 00e2 bf3c be2e 363c 9f22 07bd
00000160: 164a cbbd 3f30 b0bd 057f 59bc ba27 ebbd
00000170: 8211 a2bb 10ee efbd 0375 dfbd 716b 2d3c
00000180: 1fb4 abbd c4ff 463d 71bb d03c cade 2b3d
00000190: 9e9f 50bd 6f7e ccbc bcbf e3bd f1b4 c73d
000001a0: 2a6d b93d 3b2e da3d 5ec8 a3bd b47f 1ebd
000001b0: f75a d73d cd7e 733d 207d b83c b71f ef3a
000001c0: dcaf a33d 1b1a 4d3b fa5f 3fbd 76d4 163d
000001d0: d599 f7bd 8b71 083d 17ee 01bd 0175 f2bd
000001e0: d81d f8bc f822 a4bd d393 553d a817 d5bd
000001f0: 0534 183b 79e0 a9bd 7a6c c23d 2d99 813b
00000200: 0a82 a0bd 04d3 c73c 1d7d 8dbd 2429 eabd
00000210: 46f8 40ba 9ff1 e2bd ed25 003e 431e fd3d
00000220: 18e1 aabd d31c d6bd e758 9abd 55f2 a93d
00000230: 4c5c f9bd 1536 a2bd a239 07bd c01d 203d
00000240: 04e1 f2bd 6408 773d b4af fa3d 9b27 4bbd
00000250: f1f9 de3d 6a07 003e 4087 b6bc 46bf 5f3d
00000260: c2a9 bfbd 72e4 723c 1ec0 8d3d 2cae 063d
00000270: 74d4 58bd e799 f6bd af5a d53d 05e2 89bd
00000280: e783 4abd 6d59 77bd c43a 84bd 52be df3d
00000290: 3e29 0ebc 706e 773d 8c1f 1c3d 907f 813d
000002a0: 4b6a 90bd fc9d d9bd fb8e 2fbd f037 e33b
000002b0: d35d 13bd ef02 df3d ad46 04bd d6a0 c1bd
000002c0: da29 543d 914e 823d eb99 90bd fea2 353d
000002d0: e0cb cdbd f790 713d 6f2f cf3d a27a 8c3d
000002e0: 430d 16bd 10e3 f0bc 46fe d4bd 0b5b f8bd
000002f0: 7285 8ebd 2ca8 a8bb 166f 2f3d c76a edbc
00000300: fffb 51bd 762f 273d 5ba2 81bd cd34 273c
00000310: eaea 41bd 2699 23bd a7e2 ff3b 7c32 7dbd
00000320: a7fd 19bd af10 dd3d c774 be3d 840d d8bd
00000330: 2868 d93d a73c 50bd 038f eabc 62fa 90bd
00000340: e1cb adbd 07c7 33bd 3fe4 823b 2315 4c3d
00000350: 4337 113c 285a 473d d23d 393d af6c a8bd
00000360: e9dc a13d 11e6 213d d857 913d 3fe9 6dbd
00000370: 7dfe 3fbd c9d0 e1bd 192a 88bd e335 6f3c
00000380: 4b32 b1bd d177 f6bd 41a2 c93d bd1f 60bd
00000390: 9a37 71bd 25c4 9a3d 259d 06bd 472f 3e3d
000003a0: 885e d23d c524 bfbd 88f7 703d c8f8 f33c
000003b0: 0d7b abbd 6305 d23d e4a5 da3b 0848 9b3d
000003c0: 35a1 94bd 8652 e43d c432 903d 2187 d1bd
000003d0: 0b48 8abd 4796 b2bc 535e f03d 8463 aa3d
000003e0: bea0 37bd d9ba 2a3c 8230 543b 971e ea3c
000003f0: d652 a43d 3f6f f1bd 46d5 c53c 48c5 b03d
0.07588052 -0.08467367 0.029396702 0.09042311 -0.012216858 0.034809384 -0.0794088 -0.06389905
-0.11610251 -0.05924016 -0.037117366 -0.07393686 -0.028804872 -0.00042078164 0.04429973 0.08639677
0.015582068 -0.062801786 -0.11352152 -0.099151686 -0.06134129 0.039970662 0.058103487 -0.12325758
-0.05938013 -0.09421896 0.0799392 0.101831056 0.07329208 0.03936633 0.07558758 -0.007810293
0.048780642 -0.10388721 -0.031363837 0.07063152 -0.08996691 0.04837132 -0.08624872 0.045946483
0.007397312 -0.039677758 -0.05418041 0.10298661 -0.071428716 -0.088122144 0.04589909 -0.11323824
-0.05835348 0.04887348 -0.10972175 0.05065101 -0.024877062 -0.107768364 -0.11027222 0.09366256
0.1170034 -0.004362526 0.11325493 -0.06917587 0.018878698 -0.06190367 0.10543134 -0.07776638
-0.047426775 -0.015280448 -0.027006527 -0.07791127 -0.05930687 -0.019752594 -0.02465202 0.018019421
0.058769923 -0.046151422 0.118957326 -0.10988239 0.0061841966 -0.031695288 -0.0180227 0.02810591
0.03726237 0.09251862 -0.0018881029 0.07977405 -0.016160062 0.023423195 0.011119543 -0.032992
-0.0992624 -0.08602952 -0.013274913 -0.114821866 -0.0049459348 -0.11715329 -0.1091099 0.010584698
-0.08383965 0.04858376 0.025480004 0.041960515 -0.050933473 -0.024962632 -0.11120555 0.09751309
0.090540245 0.10653349 -0.079972014 -0.038696006 0.10515397 0.0594471 0.022520602 0.0018243705
0.07992527 0.0031296078 -0.04672239 0.036823712 -0.12089888 0.033311408 -0.0317212 -0.11838723
-0.030287668 -0.08014482 0.05214293 -0.10404903 0.0023224365 -0.08294768 0.094933465 0.0039550276
-0.07837303 0.024392612 -0.06908629 -0.11433628 -0.00073612144 -0.11081242 0.12514468 0.123592876
-0.083437145 -0.104547165 -0.07536488 0.08298174 -0.12175807 -0.079204716 -0.033013947 0.03909087
-0.118593246 0.060310736 0.12240544 -0.049598318 0.10887516 0.12502828 -0.02228129 0.054625772
-0.093585506 0.014824973 0.06921409 0.032880947 -0.052936986 -0.12041073 0.10417687 -0.06732563
-0.049442198 -0.060388017 -0.06456521 0.109249726 -0.008676825 0.060408056 0.038116023 0.06323159
-0.07051524 -0.10625836 -0.042860966 0.0069341585 -0.03597815 0.108892314 -0.032293964 -0.09454505
0.051797725 0.063626416 -0.070606075 0.044344895 -0.10048652 0.05897614 0.10116469 0.06859328
-0.03663374 -0.029405147 -0.10400061 -0.1212674 -0.069590464 -0.005147001 0.04283055 -0.02898158
-0.051265713 0.040816747 -0.06329795 0.01020546 -0.047343172 -0.039940976 0.0078090015 -0.061815724
-0.037595417 0.10794198 0.09299617 -0.10549453 0.10615569 -0.050839093 -0.028632646 -0.07079007
-0.084861524 -0.04389098 0.003994494 0.049824845 0.008863273 0.048669964 0.045224972 -0.08223855
0.079034634 0.03952605 0.07096833 -0.05808377 -0.04687356 -0.11026151 -0.066486545 0.01460025
-0.08652171 -0.12034572 0.098454006 -0.054717768 -0.058890916 0.07556943 -0.03286471 0.046431806
0.10271937 -0.09333185 0.058829814 0.029781714 -0.083730794 0.10254934 0.0066726077 0.07582098
-0.0725731 0.111485526 0.07040933 -0.10230852 -0.06752022 -0.021800173 0.11736741 0.08319762
-0.04483103 0.0104205245 0.0032377546 0.02857904 0.08023612 -0.11788797 0.024149548 0.086313784

fc4.bias f4 [128]
00000000: fef6 a2bc cddd ee3c dbd1 a1bd f569 2ebd
00000010: 062f 2fbb 859a a43d ba65 d8bc 50c1 9b3c
00000020: 0859 453d 8011 de3d 333a 3e3d dbe9 cdbd
00000030: 9fdb 113d fe09 f7bd 31a2 b23d ba10 d03d
00000040: b314 833c 138a b23d 8a14 b43d babd bd3d
00000050: 7bb3 923d 4eee dc3b 38fd c83c 9fab 203d
00000060: 7946 cabd c6b5 913d 6944 08bc 8257 b9bd
00000070: 3153 a43c 1625 eebd d0d3 343c b977 093c
00000080: 0480 1f3d c8b8 b63b 51d6 fc3d 33a1 38bd
00000090: e4c0 c53d cfab 533c 138f 41bd 03b3 eabd
000000a0: 3a44 d1bd 7693 cc3c 5e70 f2bd acfd 50bd
000000b0: 3081 cd3d 8bb4 c63d 288f dbbb 1972 9ebd
000000c0: 552f 823d e081 0fbd 6c9e bebd 64f4 f83d
000000d0: 40ea e33a de36 f33c 7e5b a3bd 1fab 80bd
000000e0: efe4 943d 62a3 1abd e718 bd3d a0fd babc
000000f0: 988d 77bd 1a7c c7bd 6c6d 75bc bc51 89ba
00000100: d957 4cbc fcc9 8c3b f7ba 25bd 8cf9 023d
00000110: 81d0 4bbd a0b3 89bb 09e4 f7bc 477c 873d
00000120: 2fc3 9fbd fac8 0ebd 5798 66bd da54 bc3d
00000130: 8a62 d73d 0694 173d 260f 893c 5cc9 983c
00000140: 17cf e03d 43b1 d0bb 8393 52bd 17fe 58bd
00000150: cf4b 86bd 635d d13d b81b 133d a6cd 9a3d
00000160: de1e f13d d83c 8dbc a508 a0bc 1eb2 16ba
00000170: 4169 63bd b810 13bd 26ba 603c f8d3 753d
00000180: 2463 a0bd 2f63 3f3d 36c9 433d 4406 2f3d
00000190: 79f2 8d3d 5380 c6bd a513 debd cf36 863c
000001a0: 666d 44bd 445b cc3c 496a 773c ce8f f43d
000001b0: ea7e 81bd df77 343d 4201 a23d 46c7 953d
000001c0: 3b76 3d3d 1e37 5c3d c59c a7bb e582 e5bd
000001d0: 2f44 9ebd 54ea 293d 3441 da3c 690d ba3d
000001e0: 2de8 8ebd e710 a1bd 505a 4dbd d24c a6bc
000001f0: 6664 c83d 709e 153d b13d b3bd 9443 ecbc
-0.019893166 0.029158497 -0.07901355 -0.042581517 -0.002673091 0.08037285 -0.026415695 0.019013077
0.04818061 0.108431816 0.04644222 -0.1005437 0.035609838 -0.12062453 0.08722342 0.1015944
0.016001081 0.08717742 0.0879298 0.09264703 0.071631394 0.0067422753 0.024534807 0.03922617
-0.09876723 0.07114749 -0.0083170915 -0.09049894 0.0200592 -0.11628167 0.011036828 0.0083903605
0.038940445 0.005576227 0.12345565 -0.045075607 0.096559316 0.01291938 -0.047255587 -0.11459925
-0.10218091 0.024972659 -0.118378386 -0.05102317 0.10034406 0.097024046 -0.006700415 -0.07736606
0.06356684 -0.035035968 -0.0930756 0.12155989 0.0017388538 0.029689249 -0.07976435 -0.06282639
0.07270228 -0.03775347 0.09233265 -0.022826016 -0.06043777 -0.09740467 -0.0149797015 -0.0010476629
-0.012472116 0.0042965394 -0.040461507 0.031976268 -0.04975939 -0.004202321 -0.030260103 0.06615501
-0.078009 -0.034859635 -0.056297626 0.09195872 0.10516842 0.0370064 0.016730856 0.018650703
0.10976999 -0.0063687875 -0.05141021 -0.052976694 -0.06557428 0.1022289 0.035915107 0.075587556
0.117734656 -0.017240927 -0.019535372 -0.00057485874 -0.0555203 -0.035904616 0.013716256 0.060016602
-0.078314096 0.04672545 0.04779931 0.042730585 0.069310136 -0.09692445 -0.10843591 0.016383557
-0.047955893 0.024945863 0.015101024 0.11941491 -0.06323035 0.04405963 0.07910396 0.07313399
0.04625533 0.0537635 -0.005115124 -0.11206607 -0.07727849 0.04148324 0.02664242 0.09084589
-0.06977878 -0.07864552 -0.050134957 -0.020300303 0.097847745 0.03652805 -0.08752001 -0.028840818

fc5.weight f4 [64, 128]
00000000: 0e61 e2bc d957 7b3d 7c55 973d 8b6f a8bd
00000010: d224 3abb b5db 173d d791 a83c 8635 553c
00000020: 9899 903d 1d93 193d 7855 463d a314 983c
00000030: 2bff 563d a473 86bd beb1 9e3d e79f fb3c
00000040: 8413 86bd e3af 1fbb ab39 04bb 5116 a8bd
00000050: 76ea e1ba 945a a33c 3570 22bd 4797 f73c
00000060: 7007 b6bc 39a0 98bd b769 a13c 1421 f83c
00000070: f3a8 7fbd b835 65bd e507 76bc f2ad 9d3d
00000080: 5ab8 8abc c583 e3bc 3c2f 91bc e0fc 633c
00000090: 47b5 213d ba82 c5b9 59e5 91bb 6465 1abc
000000a0: 5198 77bd d0ea 743d 8ddd 943d 9a8e 4e3b
000000b0: ff4c 8f3a 4e2f 773d 146d e63c 91a0 263d
000000c0: fe1f eabc cf8f 9b3d b5e1 453d 9e05 d6ba
000000d0: 1879 88ba ec78 97bd 1f64 46bc 5c33 8d3c
000000e0: c1dc 993d c086 793d de94 673c 6c13 7cbd
000000f0: 85cf 2bbd 667a 64bd b306 d23c 2902 893d
00000100: b80e 91bd f20a 873d f3ee 863c b348 21bc
00000110: da66 8cbd 70bc df3a bbb2 81bd a12c d53c
00000120: 6c74 223d 667b 803d ba79 6abd 0ee9 f33c
00000130: 9540 513d 4fc2 c6bc 3cc4 633c 01ec 82bd
00000140: ed57 ccbb a9b0 18bd c5bb 273d ef91 c1bc
00000150: 5776 cbbc 6fcb adbd 09bf b1bd 6f8a b43c
00000160: c5c4 083d 4ba1 d8bc 10ec 873d b933 233d
00000170: b336 c9bc e453 76bd 75c0 303d 13c4 803c
00000180: b9e4 b1bd ad26 96bc 8463 d53b 487e 923d
00000190: 2999 423d 0873 33bd c030 20bd 3c2d 763c
000001a0: caeb 66bc 5415 ab3c 428f 61bd fd20 3dbd
000001b0: 1518 3d3d 9313 9c3d 1e5e 473b d780 adbc
000001c0: a70d 11bb 0487 b03d ef42 a43d fde8 6bba
000001d0: de74 29bd f9af 39bd 9565 b2bc 0415 8fbb
000001e0: cdd6 b4bc 0ec3 86bd 254a 193c 12d0 66bd
000001f0: b5c2 e8bc 53cc 51bd 37b2 64bd b4f3 763d
00000200: 2125 873d 7a88 213d ccb3 b3bc eff7 80bd
00000210: 8613 61bc ca0b a1bd f4a3 9abd a813 06bd
00000220: 6670 b23d 1922 363d ec99 033d 460a a13d
00000230: 0c03 363d e5e8 57bc 0832 373a 0a53 033d
00000240: 15c7 99bc 05df 993c 0e52 623d f645 acbd
00000250: a99d bd3c 611a 863d b452 26bd dbf7 143c
00000260: a240 983d ae21 2ebd 90e7 863c aa85 2ebc
00000270: c656 24bd c362 9dbd 9db7 a3bd 1e8c 9b3d
00000280: d491 4b3b 62da 5b3b 15ab 743d 8425 03bd
00000290: 40a7 873d ef5f ffbc dd40 893d 652a c83a
000002a0: c18a 573d 37b1 79bd 4bcb 15bd f854 72bd
000002b0: d1f8 3abc 842e 993c 45a7 243d cb28 a63d
000002c0: 79a9 293d 3255 5b3c 5d04 ab3c d4e4 8c3d
000002d0: 839f b23d f8ee 2a3d 4f29 29bd 0018 9cbd
000002e0: 9bfe 4fbd c6b2 313d 76f6 583d f59a ef3c
000002f0: 8f3e 963d 18ef 043d e496 99bc d7b7 a1bb
00000300: 752a b83c e12e 963d 9f03 51bd 983f 443c
00000310: 7fb1 053d 326f a7bc a972 70bd 0950 26bd
00000320: 07c7 52bd 038a 163c c399 1e3d 0019 67bd
00000330: b9e0 c8bc 8d2f 773d 0118 5b3d 96ad 90bd
00000340: 434b 7fbd 6ee5 28bd d1f4 b2bd da71 cbbc
00000350: ab1f 09bd c7df 733d 9d27 7ebc 7d65 ad3d
00000360: f3ba a0bd a76d 14bd 0885 723d 3c80 8dbd
00000370: 7639 6c3d d4b8 653d 4797 50bd 7331 a7bd
00000380: 1dff a6bd e824 833d e501 723c fc60 dc3c
00000390: 2349 9fbd 2915 893d 55b8 cdbc 0d75 45bd
000003a0: dbf8 333d 1ad9 2abc de98 343d 46bd 80bd
000003b0: a047 86bd 03e2 473d 4628 f5bc 4440 603d
000003c0: 621f 223c 2a33 9a3d f9ea 84bd cb8a ca3c
000003d0: 4704 0abd 339c 8fbd 4206 91bd 1bba 833d
000003e0: 1b33 9c3d 98c9 b33d bef9 61bd 418e d8bc
000003f0: 1169 9b3d 42bf 8abd 2fb7 03bd 3f54 aabc
-0.02763417 0.061363075 0.07389352 -0.082244 -0.0028403294 0.037074763 0.020577354 0.013013249
0.07060546 0.037493814 0.048421353 0.018564528 0.05248944 -0.065650254 0.077487454 0.030715896
-0.06546691 -0.0024366311 -0.0020175974 -0.082073815 -0.0017236012 0.019940652 -0.03965779 0.030223502
-0.022220343 -0.07452435 0.01970373 0.03028921 -0.062416982 -0.055959433 -0.015016531 0.07699193
-0.016933609 -0.027772794 -0.017722718 0.013915271 0.03947952 -0.00037672167 -0.004452389 -0.0094235875
-0.060447995 0.059794247 0.0726882 0.0031518103 0.0010932981 0.060347848 0.028128184 0.04068047
-0.028579708 0.07595789 0.048310954 -0.0016328578 -0.0010412065 -0.07396111 -0.012108832 0.017236404
0.075128086 0.060919523 0.014134614 -0.06154196 -0.041945953 -0.05578079 0.02563796 0.06689865
-0.070828855 0.065938845 0.016471362 -0.009843993 -0.06855555 0.0017069709 -0.06332918 0.026022257
0.03966181 0.062735364 -0.057244994 0.029774215 0.05108698 -0.024262575 0.013901766 -0.063926704
-0.0062360675 -0.03727785 0.040950555 -0.023629157 -0.024836702 -0.084860675 -0.08679015 0.022038667
0.03339078 -0.026444098 0.06636822 0.03984425 -0.024562215 -0.060138598 0.04315229 0.015718495
-0.086862035 -0.018328989 0.0065121073 0.071529925 0.047509346 -0.043810874 -0.03910899 0.015025433
-0.014094302 0.020884193 -0.055068262 -0.04617404 0.046165545 0.07620921 0.0030421088 -0.0211796
-0.0022133382 0.08619502 0.08020579 -0.00089992565 -0.04137122 -0.045333836 -0.021776954 -0.004366519
-0.022075081 -0.065801725 0.009356056 -0.056350775 -0.028413156 -0.05122025 -0.05583402 0.060291007
0.06598879 0.039436795 -0.02193632 -0.062972896 -0.013737565 -0.07863577 -0.07550803 -0.03273359
0.087128446 0.04446611 0.032129213 0.07863288 0.0444365 -0.013178085 0.0006988351 0.032061614
-0.018771688 0.018783102 0.055254035 -0.084117815 0.023146467 0.06548 -0.040606216 0.0090922965
0.07434203 -0.04251259 0.01646784 -0.010651985 -0.040121816 -0.07684853 -0.07994006 0.075950846
0.0031062262 0.0033546914 0.05973347 -0.0320182 0.06623697 -0.031173674 0.06701825 0.0015271424
0.05262256 -0.06096002 -0.03657083 -0.059163064 -0.0114118615 0.018698938 0.040198583 0.081132494
0.041421387 0.013387011 0.020876104 0.06879583 0.08721831 0.041731805 -0.04129916 -0.07621765
-0.05077992 0.043383382 0.05296942 0.029248694 0.07336151 0.03245458 -0.018748708 -0.0049352455
0.022481183 0.0733316 -0.051028844 0.011978053 0.032639977 -0.020438764 -0.0587031 -0.04060367
-0.05145934 0.009188178 0.038720857 -0.056420326 -0.024521219 0.060348082 0.05348969 -0.07064359
-0.062327635 -0.041234426 -0.08738101 -0.024834562 -0.033477467 0.059539583 -0.015512374 0.08466623
-0.07848158 -0.036237385 0.0592089 -0.069092244 0.057671987 0.05608447 -0.05092552 -0.081637286
-0.08154128 0.06403524 0.0147709595 0.026901715 -0.077776216 0.06693489 -0.02511231 -0.04820733
0.0439385 -0.010427738 0.044091098 -0.06286101 -0.0655663 0.048799526 -0.02992643 0.05474879
0.009895178 0.0752929 -0.0649013 0.024724385 -0.033695485 -0.070122145 -0.07081272 0.06431981
0.07626935 0.08778685 -0.055169813 -0.02643502 0.07588399 -0.06774761 -0.03215712 -0.020792125

fc5.bias f4 [64]
00000000: 28e3 263d 3d59 1ebd 3d5b 3abd 74cf 9d3b
00000010: 64e2 8cbc 88df 913d e521 a2bb 848c b63d
00000020: ecfb ae3b b215 363d d275 87bd 4db1 22bd
00000030: c597 8e3d a5c6 a63d d9cc 3ebd 043b 2f3d
00000040: 560a 8cbc 1f21 f4bc 731e 17bc 56be d83c
00000050: 06dd 92bd 3723 833d 3de6 7dbd 7e15 c63c
00000060: ba65 8f3d 4142 fb3c 69e4 1a3d 7b57 2abd
00000070: 0c26 6fbd 725c 143d d5b2 a43d 0157 6f3c
00000080: 326c 7dbb 8688 b2bd 59fb 25bd 8de0 2cbd
00000090: c688 a63d f899 883d 8069 153b c8ca 8cbc
000000a0: 263c 8b3d ff8a 8ebd fb1f 9a3d b40e d4bb
000000b0: 8b7d 26bd bf18 30bd 2bf3 48bd eaed a83d
000000c0: 5200 423d e3a0 2abc 2739 98bd 5ccb ce3c
000000d0: f7f9 203d 9cb1 a8bd 60ff 613c 968d 933d
000000e0: 3f73 d8bc 94c9 123d 17be 76bd 6925 eeb8
000000f0: a0c8 7fbc d6e2 93bd 4f82 0d3d 44a2 a5bc
0.040743977 -0.038659323 -0.045497168 0.00481599 -0.017197795 0.07122713 -0.004947888 0.0891352
0.00534009 0.044454284 -0.06614269 -0.03971987 0.069625415 0.08143357 -0.046582077 0.04278089
-0.017094772 -0.02980095 -0.009223568 0.026457947 -0.07171063 0.06403201 -0.06198715 0.02418017
0.07001825 0.03067124 0.037815485 -0.041587334 -0.058385894 0.036220975 0.08041922 0.014608146
-0.0038669226 -0.08717446 -0.040522907 -0.042206336 0.08131556 0.06669992 0.0022798479 -0.017186537
0.06798582 -0.06960105 0.07525631 -0.0064714793 -0.04064707 -0.04299235 -0.049060028 0.082485035
0.047363587 -0.010414335 -0.07432776 0.025243454 0.039300885 -0.08237001 0.013793796 0.0720474
-0.026422141 0.03583677 -0.060239878 -0.000113556925 -0.015611798 -0.07221 0.0345481 -0.020218976
