models_submitted/test_acc-CNN_2L_DFC_R400.pt (torch, 160902 bytes, 22 tensors)

conv1.weight f4 [32, 1, 1]
0	0x3dab8c05	0.08376316
1	0xbf6320f2	-0.88722146
2	0x3ed98440	0.4248371
3	0x3f1b27ba	0.6060749
4	0x3f0b5fd8	0.5444312
5	0x3ea069d5	0.31330743
6	0x3eb8e58e	0.36112636
7	0xbf0e640e	-0.5562142
8	0x3f45a56a	0.77205527
9	0x3ebfc8ba	0.3745783
10	0x3ed5d340	0.41762733
11	0x3f63fb3b	0.8905522
12	0x3f49266f	0.7857427
13	0x3d2ae0bc	0.04171823
14	0x3f734759	0.9503074
15	0xbd5e7f70	-0.054320753
16	0xbf73118f	-0.9494867
17	0x3f110d21	0.5666066
18	0x3d857cb0	0.06517923
19	0x3f21a298	0.63138723
20	0xbdd2f79f	-0.10301136
21	0xbec24680	-0.37944412
22	0x3ea2a26e	0.3176455
23	0xbf3922ca	-0.7231871
24	0xbf21deff	-0.6323089
25	0x3e09c10a	0.13452545
26	0x3f462eca	0.77415144
27	0xbf1f3f94	-0.6220639
28	0xbdfc83a9	-0.123298
29	0xbf318c48	-0.6935468
30	0xbe90f39d	-0.28310862
31	0x3dda3455	0.10654513

conv1.bias f4 [32]
0	0xbf55c4ae	-0.83503234
1	0x3e684695	0.22683175
2	0x3c716e44	0.014735762
3	0xbe15c2b5	-0.14625056
4	0x3f638f19	0.88890225
5	0xbf7658de	-0.9622935
6	0xbe80750b	-0.25089297
7	0x3dbc193e	0.09184502
8	0xbc30cd5e	-0.010791151
9	0xbeb3ba5d	-0.3510312
10	0xbf168fc1	-0.588131
11	0xbf4224fd	-0.7583769
12	0xbe3c7a0c	-0.18405932
13	0x3f14d68d	0.5813988
14	0x3f1544df	0.58308214
15	0xbcb6d1d8	-0.022316858
16	0x3f75c3d3	0.9600193
17	0x3e733b38	0.23753059
18	0xbe909c30	-0.28244162
19	0x3f2dae54	0.6784413
20	0xbf057d9a	-0.5214478
21	0xbf2a48f7	-0.66517586
22	0x3ee94781	0.45562366
23	0x3edc1bf2	0.4299007
24	0xbf68e6b9	-0.90977055
25	0xbedbe08f	-0.42944762
26	0xbf7649ac	-0.96206164
27	0x3f53aa89	0.8268209
28	0x3f766f98	0.9626403
29	0x3f102dba	0.56319773
30	0xbd3634bc	-0.044483885
31	0xbf38b8cf	-0.72156996

conv2.weight f4 [64, 32, 1]
0	0xbc67e305	-0.014153247
1	0x3da3f2a6	0.08005266
2	0xbdd34660	-0.10316157
3	0x3da5bdd2	0.08092846
4	0xbb8bcb3c	-0.004266171
5	0x3e00d77b	0.125822
6	0x3d63fdf5	0.055662114
7	0xbc23e65f	-0.010003655
8	0xbdd7c6b4	-0.105359465
9	0x3d48eb6e	0.04905265
10	0xbcc6221d	-0.024186188
11	0x3dad325f	0.08456873
12	0x3e345219	0.17609443
13	0x3c815028	0.015785292
14	0x3c2127f6	0.009836188
15	0xbd97780a	-0.073959425
16	0x3e209233	0.1568077
17	0x3da79b92	0.081839696
18	0xbe02e3a6	-0.12782153
19	0xbde1b366	-0.11020546
20	0xba8e28e6	-0.0010845929
21	0xbd87902b	-0.06619295
22	0xbd066398	-0.032809824
23	0xbdfe0c1e	-0.12404655
24	0xbd3c5fef	-0.045989927
25	0x3d3a20a2	0.045441277
26	0x3d13dfb7	0.036102023
27	0x3da8724c	0.082249254
28	0xbe1b86c5	-0.15188129
29	0xbe278a0f	-0.16361259
30	0x3d8a6329	0.067571945
31	0xbe12a32f	-0.14320062
32	0x3d4313a0	0.047626138
33	0xbe2dce38	-0.16973197
34	0x3d6e1801	0.05812836
35	0xbd4bfe71	-0.0498032
36	0xbdcc7be0	-0.09984565
37	0x3e20e6fb	0.15713112
38	0xbe320649	-0.1738521
39	0xbdfd6306	-0.12372403
40	0x3df334f6	0.11875336
41	0xbb562cc3	-0.0032680489
42	0xbdb57528	-0.088602364
43	0x3d804eb6	0.06265013
44	0x3d5be972	0.053689428
45	0x3e2e0bd6	0.16996703
46	0xbe0810ae	-0.13287613
47	0xbcdbd0f9	-0.026833044
48	0xbde6b97b	-0.11265846
49	0x3d6ea967	0.058267023
50	0xbe3505d7	-0.17678009
51	0xbd0a8f57	-0.033828106
52	0xbd33fef7	-0.043944325
53	0xbdd32552	-0.10309853
54	0x3dec4d15	0.1153814
55	0x3d69f54b	0.057118695
56	0x3def08e0	0.11671615
57	0xbd466586	-0.048436664
58	0x3ca590d5	0.020210663
59	0x3e10c373	0.14137058
60	0xbddf3b1d	-0.10899947
61	0xbe234d27	-0.159474
62	0x3e1a91a5	0.15094621
63	0xbe1c7a7d	-0.152811
64	0xbe191332	-0.14948729
65	0x3d4eae2b	0.05045907
66	0x3bd5fff5	0.0065307566
67	0xbde3dbb7	-0.11125892
68	0xbdee238b	-0.11627873
69	0xbd833510	-0.06406605
70	0x3bded402	0.0068001756
71	0x3e230d58	0.15923059
72	0x3da54c9a	0.08071251
73	0x3dcbc2d8	0.09949273
74	0x3e2235a9	0.15840782
75	0x3d869fb7	0.06573432
76	0xbbe026e9	-0.006840576
77	0x3c83abcc	0.01607313
78	0x3dcc0cdb	0.099633895
79	0xbd4ee183	-0.050508033
80	0x3e08645a	0.13319531
81	0x3e18f2c0	0.14936352
82	0x3e2a4c52	0.16630676
83	0xbdc81af1	-0.09770764
84	0x3e15d6c2	0.14632705
85	0x3d95b973	0.07310762
86	0xbc06dcc8	-0.008231349
87	0x3e0eba76	0.13938317
88	0xbdb2c390	-0.08728707
89	0xbdb1f2e4	-0.08688906
90	0xbd94c40b	-0.07263955
91	0xbcad8688	-0.021182314
92	0xbe112fb1	-0.14178349
93	0xbe248b2d	-0.16068716
94	0x3a10ece4	0.00055284635
95	0x3e32f2ab	0.17475383
96	0x3d07e64b	0.03317861
97	0x3d06c56f	0.03290313
98	0xbe2d18a5	-0.16903932
99	0x3e1cf67f	0.15328406
100	0xbcf68839	-0.030094253
101	0x3ddbe262	0.107365385
102	0x3d469c9f	0.04848921
103	0xbdc8c131	-0.09802473
104	0xbe01c4eb	-0.12672774
105	0x3d950951	0.072771676
106	0xbd6541c6	-0.05597093
107	0xbd916b62	-0.0710056
108	0xbe27500a	-0.16339126
109	0x3e320246	0.1738368
110	0x3ccf167f	0.025279282
111	0xbd8313c3	-0.064002536
112	0x3d805747	0.06266647
113	0x3e20e46d	0.15712138
114	0x3c8f78d9	0.01751368
115	0xbb9a84cd	-0.004715538
116	0xbdd29fd7	-0.10284393
117	0x3d6bf0bb	0.057602625
118	0x3da98b64	0.0827854
119	0xbb8a338c	-0.0042175706
120	0xbdb13f8d	-0.086546995
121	0x3e22b3d6	0.15888914
122	0xbe3362f5	-0.17518218
123	0xbe025a8f	-0.12729858
124	0xbda98682	-0.082776085
125	0x3db9e893	0.09077563
126	0xbe1d49dd	-0.15360208
127	0x3dd02e32	0.10165061
128	0x3e0768d9	0.1322359
129	0xbe06781d	-0.13131757
130	0x3da1621c	0.07880041
131	0xbd1f16e6	-0.038840197
132	0xbe310fab	-0.17291133
133	0x3b93d61f	0.004511609
134	0x3e20255f	0.15639256
135	0xbd921863	-0.07133558
136	0x3e20fcc2	0.1572142
137	0xbdc725c5	-0.09724001
138	0xbd9b2794	-0.07575908
139	0xbdefa1a5	-0.11700753
140	0x3d37f0d9	0.044907425
141	0xbdb9b514	-0.09067741
142	0xbd9bffc2	-0.07617141
143	0xbd5085e4	-0.050908938
144	0xbd2d3cea	-0.04229442
145	0xbd8170c5	-0.06320337
146	0xbd3a562d	-0.04549234
147	0x3cf3fd1e	0.029783782
148	0x3c7ceb5d	0.015436974
149	0xbde27a7f	-0.110585205
150	0xbd227a34	-0.039667323
151	0x3e30d6e2	0.17269471
152	0x3d3fa47a	0.046787716
153	0xbd952665	-0.07282714
154	0xbe019dc4	-0.12657839
155	0x3dd637bb	0.104598485
156	0xbcba40a9	-0.02273591
157	0x3e287a2e	0.16452858
158	0xbd451cf4	-0.048123315
159	0xbe30c7ca	-0.17263713
160	0x3de401c2	0.11133148
161	0x3ce09078	0.027412638
162	0x3dadb12b	0.08481058
163	0xbe087886	-0.13327226
164	0x3e1ed73d	0.15511794
165	0xbc9164a0	-0.017748177
166	0x3e02a0b5	0.12756617
167	0xbd502698	-0.050818056
168	0xbd2127bb	-0.03934453
169	0x3db5bd51	0.08874
170	0xbe05246b	-0.13002174
171	0x3cc3f863	0.023922151
172	0x3e2c0f17	0.16802631
173	0xba8861b4	-0.0010405094
174	0x3dabae1b	0.08382817
175	0xbe2127c1	-0.15737821
176	0x3d24f900	0.040276527
177	0x3e09a4eb	0.13441817
178	0x3dbceef2	0.09225263
179	0xbc2df073	-0.01061641
180	0x3cac7d0d	0.021055723
181	0xbd00c836	-0.031440936
182	0xbdca9241	-0.09891177
183	0xbdfc7e47	-0.12328773
184	0x3d8500ba	0.06494279
185	0x3c633a68	0.013868906
186	0xbc5d6131	-0.013511942
187	0x3d0a0e6a	0.033705153
188	0xbcd7bb62	-0.026334468
189	0xbdec8990	-0.115496755
190	0xbd3d856d	-0.046269823
191	0xbb91d03b	-0.004449872
192	0x3e132113	0.14368086
193	0xbe16d44a	-0.1472942
194	0x3de90200	0.113773346
195	0xbe142418	-0.14466894
196	0x3cd65112	0.026161704
197	0x3dba3b5a	0.09093352
198	0x3e0ffa10	0.14060235
199	0xbe151963	-0.14560466
200	0xbc60202d	-0.013679546
201	0xbdd0078c	-0.101576895
202	0x3e04e179	0.12976636
203	0xbe0622fc	-0.13099283
204	0x3e32a441	0.1744547
205	0x3e1c47df	0.15261792
206	0xbccf1ae2	-0.025281373
207	0xbde8eb87	-0.11373048
208	0xbe1fe2e5	-0.15613897
209	0xbd83704c	-0.06417903
210	0x3d44c6ae	0.04804104
211	0xbda1421b	-0.07873937
212	0x3e2b2cc3	0.16716294
213	0x3d46ffaf	0.048583683
214	0x3e20e8d9	0.15713824
215	0x3e14bda0	0.14525461
216	0xbddb5c55	-0.1071097
217	0x3de325f3	0.110912226
218	0xbdcf83c8	-0.10132557
219	0xbcbfca2d	-0.023411835
220	0xba76549b	-0.00093967625
221	0x3e20e5ed	0.1571271
222	0x3db5db5e	0.088797316
223	0x3d91b66d	0.07114873
224	0xbe1e0d79	-0.15434827
225	0x3e1c0fbb	0.15240376
226	0xbd6b392b	-0.057427566
227	0x3d93e759	0.072218604
228	0x3dad44e8	0.084604084
229	0xbca3487c	-0.019932024
230	0xbd26e76e	-0.040748052
231	0x3d063e37	0.032774176
232	0x3d0fd81a	0.0351182
233	0xbde9d4c8	-0.11417538
234	0x3d6c0922	0.057625897
235	0xbd73132b	-0.059344452
236	0x3e2686e7	0.16262399
237	0xbd8b5efc	-0.06805226
238	0x3dab5b6d	0.083670475
239	0xbe1d9382	-0.15388301
240	0xbe04f040	-0.12982273
241	0x3e0d5bfc	0.1380462
242	0x3c331bef	0.010931953
243	0xbe16e912	-0.14737347
244	0xbd24657d	-0.04013585
245	0xbd3c2d35	-0.04594155
246	0xbad09029	-0.0015912104
247	0x3e0333ec	0.12812775
248	0xbd81ad17	-0.063318424
249	0xbdd8e18d	-0.105898954
250	0xbd52f846	-0.051506303
251	0xbc1896e2	-0.009313317
252	0xbd80abb4	-0.0628275
253	0xbb238dd6	-0.0024956367
254	0x3de9990a	0.11406143
255	0xbdd8ad0f	-0.10579883

conv2.bias f4 [64]
0	0x3c9a0b30	0.018804163
1	0xbe00e723	-0.12588172
2	0x3d079f24	0.033110753
3	0xbd4c03be	-0.049808256
4	0x3df698c0	0.120408535
5	0xbdb6088d	-0.0888835
6	0x3e2cb696	0.16866526
7	0x3d2b3d01	0.041806225
8	0x3d4e8dea	0.05042831
9	0xbe34440e	-0.17604086
10	0x3de585b2	0.11207141
11	0x3a8c4e9c	0.001070458
12	0xbc65bd03	-0.014022115
13	0xbd009ef5	-0.031401593
14	0x3e0084a9	0.12550606
15	0x3c351fbb	0.011054928
16	0xbc90bc1c	-0.017667823
17	0xbd451406	-0.0481148
18	0x3d22017f	0.039552208
19	0xbde92816	-0.11384599
20	0xbc467b36	-0.012114337
21	0xbe1bf5f2	-0.1523054
22	0x3de39111	0.111116536
23	0x3dc69103	0.096956275
24	0xbda9b910	-0.08287251
25	0xbc2393b0	-0.009983942
26	0x3e34fae2	0.17673829
27	0xbda5c1e9	-0.08093626
28	0x3df9e606	0.122020766
29	0xbd42ae5a	-0.047529556
30	0xbdaad3ac	-0.083411545
31	0x3d8dd76d	0.06925855
32	0xbd7f5eb2	-0.062346168
33	0x3dff0d45	0.12453703
34	0xbd241d21	-0.040066842
35	0xbd842c32	-0.06453742
36	0xbe15d051	-0.14630248
37	0x3bf6112a	0.0075093703
38	0x3e1a5c29	0.15074219
39	0xbdbd1761	-0.09232975
40	0xbd33178c	-0.043723628
41	0x3beff8e8	0.007323373
42	0x3e14c483	0.14528088
43	0x3da4809b	0.08032342
44	0xbd077f1d	-0.03308021
45	0x3d644bc1	0.055736307
46	0x3db4b40e	0.08823405
47	0x3c0b052f	0.008485123
48	0xbabe5b68	-0.0014523091
49	0x3ddb266f	0.1070069
50	0xbdefdced	-0.1171206
51	0x3e1ed47c	0.15510744
52	0xbe029611	-0.12752558
53	0x3e2d9e42	0.16954902
54	0xbdcd26cc	-0.100171655
55	0x3dc594de	0.09647535
56	0xbc83f4a7	-0.01610787
57	0xbd9a4e17	-0.07534426
58	0x3d3a6262	0.04550398
59	0xbdd5d403	-0.10440829
60	0x3dacc45b	0.08435889
61	0x3d6f2649	0.05838612
62	0x3e19f549	0.15034975
63	0x3d8629c0	0.06550932

fc1.weight f4 [16, 896]
0	0x3cb2503a	0.02176677
1	0x3be8a63a	0.007099894
2	0x3c8847df	0.016635833
3	0xbb7ba833	-0.0038399815
4	0xbc836078	-0.01603721
5	0x3cf2fcdd	0.02966159
6	0x3d071fb5	0.032989223
7	0x3ce04cae	0.027380314
8	0x3a867f4f	0.001026133
9	0x3cf7ef5d	0.030265504
10	0xbcf63a95	-0.030057231
11	0x3c11af1d	0.008891848
12	0xbcc6dcb4	-0.024275161
13	0x3c0b291d	0.008493689
14	0xbc934cbd	-0.017980928
15	0xbcdd7202	-0.027031902
16	0x3cab4cc0	0.02091062
17	0xbc581b0b	-0.013190041
18	0xbcb5977b	-0.022166958
19	0xbc8cdc1f	-0.017194806
20	0xbcb11fdc	-0.021621637
21	0xbcbcb6a5	-0.02303631
22	0xbc447a33	-0.011992025
23	0xbca0bce8	-0.019621328
24	0x3b920009	0.0044555706
25	0xbbe35e63	-0.006938742
26	0xbc008a94	-0.00784554
27	0xbd038f66	-0.032119177
28	0xbd06b467	-0.03288689
29	0xbbc5b0b9	-0.00603303
30	0xbcd857f2	-0.026409123
31	0x3c95ddd3	0.01829425
32	0x3c24d951	0.010061578
33	0xbc4b7956	-0.012419065
34	0x3c465831	0.012105987
35	0x3c440010	0.0119629055
36	0x3ceff71e	0.02929264
37	0x3bfea54f	0.007771171
38	0xbb92b1f6	-0.004476781
39	0xbbe06f71	-0.0068492224
40	0xbbec0265	-0.007202434
41	0x3c52a0df	0.0128557375
42	0x3a2ae956	0.0006519755
43	0x3cae6a00	0.02129078
44	0xbc32f1cd	-0.010921908
45	0xbb851c27	-0.004062194
46	0x3c9c0333	0.019044494
47	0xbca293ad	-0.019845808
48	0x3cb3a503	0.02192927
49	0xbaf91dab	-0.0019006034
50	0x3ba85146	0.0051366417
51	0xbc56f710	-0.013120428
52	0x3adbddfe	0.0016774533
53	0xbc01e3a9	-0.007927814
54	0xbc4d9826	-0.012548482
55	0xbce9f918	-0.02856116
56	0xbc0a5a9d	-0.008444455
57	0xbc33f4b0	-0.010983631
58	0xbc92435e	-0.017854389
59	0xbb6101a3	-0.003433325
60	0x3c9ab9b9	0.018887388
61	0xbd048fba	-0.03236363
62	0x3cfa5b53	0.030561125
63	0xbbe703c2	-0.0070500085
64	0xbcefb9d5	-0.029263416
65	0x3b22553e	0.0024770047
66	0xbc1bcd95	-0.009509464
67	0xbcbf86ac	-0.023379646
68	0x3a9d224b	0.001198837
69	0x3c60a1fd	0.013710496
70	0x3c5e574f	0.013570621
71	0xbcb0f95e	-0.021603283
72	0xbc1029f8	-0.008799069
73	0x3cf961e5	0.030442188
74	0xbc9ae1a8	-0.01890643
75	0x3a7ab6be	0.0009563974
76	0xbccc0174	-0.024903037
77	0xbc16cdc8	-0.0092043355
78	0xbcadbd6f	-0.021208493
79	0xbb553e90	-0.003253851
80	0x3c81fdc2	0.015868071
81	0xbd04be5b	-0.0324081
82	0x3cdc72a6	0.026910137
83	0xbd18aed9	-0.037276123
84	0x3cd30cca	0.025762934
85	0xbc78e74a	-0.015191862
86	0x3c13a893	0.009012359
87	0x3cb59b64	0.022168823
88	0x3cc0c3c2	0.023530845
89	0xb98bb04c	-0.00026643497
90	0xbcf3d180	-0.029762983
91	0xbba1a2ad	-0.0049327225
92	0xbaa4f3c4	-0.0012584855
93	0x3cbb51fa	0.022866238
94	0xbb798768	-0.0038075093
95	0x3bd2cc14	0.0064330194
96	0x3b017931	0.0019756074
97	0xbcc4e637	-0.024035556
98	0x3a1f0ea2	0.0006067549
99	0xbd07c4a1	-0.033146504
100	0xbc593765	-0.013257836
101	0xbc97868f	-0.01849678
102	0xbcb356eb	-0.021892032
103	0xbbfc9555	-0.0077082315
104	0x3d01392e	0.03154867
105	0x3cb2cb5d	0.021825487
106	0xbcc0590f	-0.023479966
107	0xbcdc46c4	-0.026889212
108	0xbcd4d48e	-0.02598026
109	0x3a820dca	0.0009922322
110	0x3c9981ab	0.018738588
111	0x3c1afa54	0.009459097
112	0xbd1654c2	-0.036701925
113	0xbc7d8ebb	-0.015475924
114	0x3cf03a01	0.029324533
115	0xbbbb65d5	-0.0057189264
116	0x3cbbfc4e	0.022947457
117	0xbcfefcbe	-0.031126376
118	0xbcd74f16	-0.026282828
119	0x3ce83dc4	0.028349765
120	0xbc393902	-0.011305096
121	0xbbdbd4ba	-0.0067087086
122	0x3c2c7a45	0.010527198
123	0xbcc7fd6b	-0.024412831
124	0x3c2f59eb	0.01070259
125	0x3cd43a2d	0.025906647
126	0x3ca90491	0.02063206
127	0xbcd3876a	-0.025821406
128	0xbc9c7636	-0.019099336
129	0x3c85eb9a	0.016347695
130	0x3d01ba94	0.031672075
131	0x3ce54b3f	0.027989982
132	0xbd01b958	-0.0316709
133	0xbcc97ed4	-0.02459661
134	0xbceaebfd	-0.028676981
135	0x3b9fd966	0.004878211
136	0x3c659e7f	0.014014839
137	0xbd0845b9	-0.033269618
138	0x3cadfefe	0.021239754
139	0xbcf90c24	-0.030401297
140	0xbcb70e23	-0.022345608
141	0x3b3bb21b	0.0028640095
142	0x3acd5372	0.0015665127
143	0xbc90cf21	-0.017676892
144	0xba73c5b0	-0.0009299172
145	0x3ce0427b	0.02737545
146	0x3ca42154	0.020035423
147	0x3c118aec	0.008883219
148	0x3d05c4d1	0.032658402
149	0x3c9c9580	0.019114256
150	0x3c13d124	0.009022031
151	0x3a0b8a3d	0.00053230283
152	0x3c1b1408	0.009465225
153	0x3cb2ddcb	0.021834275
154	0xbcef09e5	-0.029179523
155	0xbb842a09	-0.0040333313
156	0xbc7f14d2	-0.015568929
157	0x3cd11c1e	0.025526103
158	0x3c352435	0.011055996
159	0x3ccdf035	0.025138954
160	0xbcaa8be7	-0.020818664
161	0xbcc53f22	-0.024077956
162	0xbc877a91	-0.016537936
163	0xbc1ad51e	-0.009450225
164	0xba0a6dbb	-0.00052806333
165	0xbc53583a	-0.012899453
166	0xbbf332a8	-0.00742181
167	0x3cc467e5	0.023975322
168	0xbd202ec3	-0.039107095
169	0x3ce497f1	0.027904483
170	0x3bb76b27	0.0055974904
171	0xbc78dad1	-0.015188889
172	0x3ca66846	0.020313393
173	0x3ceac9e7	0.028660728
174	0x3c8f1a9e	0.017468747
175	0xbb4644ec	-0.0030253483
176	0xbb9c3169	-0.0047666323
177	0x3cb92dcd	0.022604847
178	0xbcce6fa3	-0.025199717
179	0x3c44cb37	0.012011341
180	0xbcd35578	-0.02579759
181	0xbc888882	-0.016666654
182	0xbce82ea0	-0.028342545
183	0xbb1c87de	-0.0023884694
184	0x3c11986b	0.008886437
185	0x3c7911a2	0.015201958
186	0x3b69d221	0.0035678225
187	0xbca8ff2c	-0.020629488
188	0xbccac877	-0.024753792
189	0xbcce054c	-0.02514901
190	0xbc45cbe6	-0.012072539
191	0x3cb9d9f9	0.022686945
192	0xbbe14827	-0.0068750563
193	0x3cfef3bd	0.031122083
194	0x3c74921f	0.014927416
195	0x3c94d977	0.018170102
196	0x3ca9ef73	0.020744061
197	0xbc9c0532	-0.019045446
198	0x3cf33e79	0.029692875
199	0x3ccffdca	0.02538957
200	0xbd0446a7	-0.03229394
201	0x3cb46a44	0.022023328
202	0x3a85714f	0.0010180863
203	0x3ced9ca1	0.02900535
204	0x3c82a76b	0.015948972
205	0xbac5b98a	-0.0015085202
206	0x3bb14186	0.0054094223
207	0x3b4b0c71	0.0030982757
208	0xbcf63d7d	-0.030058617
209	0xbcbfed8f	-0.023428706
210	0xbb8a3f44	-0.0042189676
211	0xbd07aee6	-0.03312578
212	0xbca8a699	-0.020587252
213	0xbc0a8926	-0.00845555
214	0xbca16adb	-0.019704273
215	0xbc502f66	-0.012706613
216	0xbcf09072	-0.029365752
217	0x3c829424	0.01593978
218	0x3cdd2b2b	0.026998123
219	0x3cc3694a	0.023853917
220	0xbcc0d915	-0.023541013
221	0x3cd05645	0.025431762
222	0x3cffd176	0.031227808
223	0xbcb00db5	-0.021490911
224	0xbac082b4	-0.001468739
225	0xbca34799	-0.019931601
226	0xbcb52061	-0.022110166
227	0xbc9f2670	-0.019427508
228	0x3cdd3ca8	0.027006462
229	0x3ca9c7ee	0.020725217
230	0x3cf80780	0.030277014
231	0xbc8963b2	-0.016771171
232	0x3c9f9589	0.019480484
233	0x3d008b71	0.03138298
234	0x3cf4051d	0.029787594
235	0x3c8a3b29	0.016873913
236	0xbcae0e13	-0.021246945
237	0x3bf52817	0.0074815857
238	0x3cdd1a9b	0.026990226
239	0x3c80a9a4	0.015705891
240	0xbc44fab7	-0.012022666
241	0xbcf91712	-0.030406509
242	0xbb4e469c	-0.0031475192
243	0xbb87214b	-0.004123842
244	0x3c2340d3	0.009964186
245	0x3c277002	0.010219576
246	0xbbe64e6e	-0.0070283925
247	0x3cb57400	0.02215004
248	0xba98a735	-0.0011646511
249	0x3b0c94bb	0.0021450955
250	0x3c2bff86	0.010497933
251	0x3cb2fe71	0.021849843
252	0x3c8716ab	0.016490301
253	0x3bb635e8	0.0055606253
254	0xbce2a375	-0.027665833
255	0xbd00afdb	-0.03141771

fc1.bias f4 [16]
0	0xbbd3d2c6	-0.006464335
1	0x385d5311	5.2767868e-05
2	0xbcd3d90d	-0.025860334
3	0x3cbda511	0.023149999
4	0x3c5a74c8	0.013333507
5	0x3cbd8982	0.023136858
6	0x3cdd43e5	0.027009914
7	0xbcc09ae9	-0.023511367
8	0xbcb98059	-0.022644209
9	0xbcc6ad12	-0.024252448
10	0x3c1be14b	0.009514163
11	0xbaa24918	-0.0012381403
12	0xbb46909e	-0.00302986
13	0xbc04b0c8	-0.008098789
14	0xbcfabcef	-0.030607669
15	0x3c581d53	0.013190585

fc2.weight f4 [32, 16]
0	0xbe0d4190	-0.13794541
1	0xbe725e5d	-0.23668809
2	0xbdb3b600	-0.08774948
3	0x3d0817c0	0.033225775
4	0x3dfccc60	0.12343669
5	0x3e225598	0.15852964
6	0x3e2033a2	0.15644696
7	0xbd611c90	-0.05495888
8	0xbe71d297	-0.2361549
9	0xbd9e2a66	-0.077229306
10	0xbe4e2dae	-0.20134613
11	0xbdc5b514	-0.096536785
12	0xbe40dd49	-0.18834414
13	0xbbf9a640	-0.0076186955
14	0xbe7da3d4	-0.24769527
15	0xbd07c6b5	-0.033148486
16	0xbc090018	-0.008361839
17	0xbd6fe41f	-0.058567163
18	0x3c97a513	0.01851133
19	0xbd48f79a	-0.049064256
20	0xbdf0eac6	-0.117635295
21	0x3e1c4982	0.15262416
22	0x3e0a07e0	0.13479567
23	0xbdb6f51b	-0.08933469
24	0xbde2b8c2	-0.11070396
25	0x3e5f24c0	0.21791363
26	0xbccc26aa	-0.02492078
27	0xbbe0e698	-0.0068634264
28	0x3d80e5a0	0.062937975
29	0xbe05b0b5	-0.1305569
30	0xbb3df29c	-0.0028983718
31	0x3df8f8d2	0.12156834
32	0xbbe17e49	-0.0068815094
33	0xbc3a6d7a	-0.01137864
34	0xbe71d458	-0.23616159
35	0xbe568979	-0.20950879
36	0x3d4eaac4	0.050455824
37	0xbe6b86a8	-0.23000586
38	0x3e635a3e	0.22202393
39	0x3e1b1599	0.15144958
40	0xbe24a0bb	-0.16076939
41	0xbd753917	-0.0598689
42	0x3dfadbe9	0.12248976
43	0xbe163c31	-0.14671399
44	0x3e6463d9	0.22303714
45	0x3e36c6a9	0.1784922
46	0x3e78aa4e	0.24283716
47	0x3e4215aa	0.18953577
48	0xbe6e0d42	-0.23247245
49	0xbd1c20ee	-0.03811734
50	0xbe6993a1	-0.22810222
51	0x3d0db86d	0.03459971
52	0x3e15c6d2	0.14626625
53	0xbe78b594	-0.24288017
54	0x3e03be95	0.1286567
55	0xbb560eaf	-0.003266256
56	0x3e5f1c97	0.2178825
57	0xbe6ed602	-0.23323825
58	0x3dd16787	0.102248244
59	0xbda84404	-0.08216098
60	0x3e4c94d0	0.19978642
61	0xbe5106ff	-0.20412825
62	0x3e313bed	0.17308016
63	0x3d9f4332	0.07776488
64	0x3d9a1bb1	0.07524813
65	0x3e56ea83	0.20987897
66	0xbe267194	-0.16254264
67	0xbe36337c	-0.17793077
68	0xbe0325b0	-0.12807345
69	0xbd1a0b80	-0.037608624
70	0x3de859c0	0.113452435
71	0xbe48b3b6	-0.19599804
72	0xbde42b03	-0.11141016
73	0x3d2cbf48	0.042174608
74	0x3dbb080e	0.09132396
75	0x3e2b1e25	0.16710718
76	0xbd097918	-0.03356275
77	0x3d533c38	0.0515711
78	0xbd901b36	-0.0703644
79	0xbe063d60	-0.1310935
80	0x3c75391d	0.01496723
81	0x3e766e12	0.24065426
82	0xbe53742e	-0.20649788
83	0x3df430f8	0.119234025
84	0x3e1d7a70	0.15378737
85	0x3dce80a8	0.10083133
86	0xbe0db8ae	-0.13839981
87	0x3e43e85c	0.19131607
88	0xbdf58eb1	-0.11990107
89	0x3e781d48	0.2422992
90	0x3e3ad6a8	0.18245947
91	0x3d13a980	0.03605032
92	0xbe77e384	-0.24207884
93	0x3e5d3207	0.21601115
94	0xbe199267	-0.14997254
95	0x3e6947dd	0.2278132
96	0xbe3cef54	-0.18450671
97	0xbe321c0f	-0.17393516
98	0x3c15a192	0.00913276
99	0xbe15bf8e	-0.14623854
100	0x3da0d7fc	0.07853696
101	0xbe1401b8	-0.1445378
102	0xbe42fea0	-0.19042444
103	0xbe71d7fa	-0.23617545
104	0x3e310710	0.1728785
105	0x3cc1c9f7	0.023655875
106	0xbdec7b67	-0.11546975
107	0xbcdb6ba3	-0.026784724
108	0x3e2070df	0.15668057
109	0xbe0cc1df	-0.13745831
110	0x3e7e767c	0.24849886
111	0x3e806a32	0.2508102
112	0xbdf40b11	-0.11916173
113	0x3d7a3679	0.061087105
114	0xbe5a1f5a	-0.21301022
115	0x3d9c78a9	0.076402016
116	0xbe2a431d	-0.16627164
117	0xbdfcfd28	-0.12352973
118	0x3e2559da	0.16147557
119	0x3e1f6be4	0.15568501
120	0xbe06572c	-0.13119191
121	0xbe236cef	-0.15959524
122	0x3e436b1e	0.1908383
123	0xbe693c7c	-0.22776979
124	0xbe41c5c8	-0.18923104
125	0x3d6b6138	0.057465762
126	0xbe323691	-0.17403628
127	0x3e4bf9a4	0.19919449
128	0xbbeac5b8	-0.007164683
129	0x3e34ec6d	0.17668314
130	0x3d51ffce	0.051269345
131	0x3e45964b	0.19295613
132	0xbe70ee59	-0.23528422
133	0x3d494734	0.04914017
134	0x3e0c5fc2	0.13708404
135	0x3e766b42	0.24064353
136	0x3e17aba5	0.14811571
137	0xbccb8e1f	-0.024848042
138	0xbe1bbd5f	-0.15208958
139	0x3e5b7aab	0.21433513
140	0x3e26288f	0.1622641
141	0x3e13a4ed	0.14418383
142	0xbd98b9de	-0.07457326
143	0x3e6535cf	0.22383808
144	0x3e0f15f6	0.13973221
145	0xbd2389fb	-0.03992651
146	0xbe261985	-0.16220672
147	0x3dc249b4	0.09486714
148	0x3e5040f4	0.20337278
149	0xbe2dc210	-0.1696856
150	0xbe18274c	-0.1485874
151	0xbe77719d	-0.24164434
152	0x3de6acf5	0.11263458
153	0x3df9eb8f	0.12203132
154	0x3e0b52cb	0.13605802
155	0x3e73b6b9	0.23800172
156	0x3c1d618f	0.009605779
157	0xbe520753	-0.20510606
158	0x3dc129ad	0.09431777
159	0x3e6131a1	0.21991588
160	0x3e5db868	0.21652377
161	0xbe2de5fa	-0.1698226
162	0x3d4d5933	0.050133895
163	0x3d999ee2	0.075010076
164	0xbe317718	-0.17330587
165	0x3d17b0e6	0.037033938
166	0xbd4e0050	-0.050293267
167	0x3da520db	0.08062907
168	0x3dd6cf05	0.104887046
169	0xbe642d7b	-0.22282974
170	0x3e251950	0.16122937
171	0xbe30ce28	-0.17266142
172	0x3dbcb20b	0.092136465
173	0xbe2ee041	-0.17077734
174	0xbe35f5b2	-0.17769507
175	0x3b23b384	0.0024978826
176	0x3d861ef9	0.06548876
177	0xbdb5b3f9	-0.08872218
178	0x3e407e39	0.1879815
179	0xbcb215b0	-0.021738857
180	0x3e7b7257	0.24555336
181	0xbce4a518	-0.027910754
182	0x3e227474	0.15864736
183	0x3dd2c88b	0.10292157
184	0x3de4569c	0.11149332
185	0x3e48f670	0.19625258
186	0xbe714da3	-0.23564772
187	0xbe4aa59d	-0.19789739
188	0x3e2f5069	0.17120518
189	0x3e56754a	0.2094318
190	0xbe28e5f6	-0.16493973
191	0x3e7a9b65	0.24473341
192	0xbd92ed76	-0.07174198
193	0xbe2c8047	-0.16845809
194	0x3cd2a51d	0.025713498
195	0x3e3b0e00	0.1826706
196	0x3e2b0a72	0.16703203
197	0x3e1ffffe	0.15624997
198	0xbe7f80c2	-0.24951461
199	0xbdbc8ec5	-0.092069186
200	0xbc0bc4a7	-0.008530772
201	0x3e4d3f05	0.20043571
202	0xbde144f0	-0.10999477
203	0xbe769dc6	-0.24083623
204	0x3e59d695	0.21273263
205	0x3e3ebddc	0.18627113
206	0x3e24ce5b	0.16094343
207	0xbe72f506	-0.23726282
208	0xbe724a86	-0.23661241
209	0xbe31378f	-0.1730635
210	0x3da97acc	0.08275375
211	0xbe6c5c43	-0.2308207
212	0xbcb8f932	-0.022579763
213	0xbe5763c6	-0.21034154
214	0x3e283bce	0.16429064
215	0x3db1967c	0.08671281
216	0x3e2c326c	0.1681611
217	0x3d1f1201	0.03883553
218	0xbda004ea	-0.07813437
219	0xbc55c1e3	-0.0130467145
220	0x3e1b90bb	0.15191929
221	0xbe64916a	-0.22321096
222	0x3e0b14e6	0.13582191
223	0xbe2e0ce3	-0.16997103
224	0xbe5a7ff5	-0.21337874
225	0xbe28636b	-0.16444175
226	0x3dcab4e7	0.09897786
227	0x3d7b7806	0.06139376
228	0x374cb704	1.2201959e-05
229	0x3d536352	0.05160839
230	0xbe190544	-0.14943415
231	0x3e6e6cdb	0.23283713
232	0x3dd931cd	0.10605202
233	0x3c8ab2c6	0.016930949
234	0xbe5ebdcc	-0.2175209
235	0x3e07a4fd	0.13246532
236	0x3e044bc3	0.12919526
237	0x3e2137c2	0.15743926
238	0x3cc6bdb1	0.024260374
239	0x3e1c8375	0.15284522
240	0x3c5eb918	0.0135939345
241	0x3cca300c	0.024681114
242	0xbd3ce7f9	-0.046119664
243	0xbe2d848e	-0.16945097
244	0x3d651468	0.055927664
245	0x3d1434d9	0.036183212
246	0x3e139183	0.14410977
247	0x3e62e2e3	0.22156863
248	0xbd1801fb	-0.037111264
249	0xbe4e75be	-0.20162103
250	0xbdcb4d0a	-0.099268034
251	0xbe2f739c	-0.17133945
252	0xbe22ad08	-0.15886319
253	0xbe511627	-0.20418607
254	0x3e6b53a3	0.22981124
255	0x3e140a77	0.14457117

fc2.bias f4 [32]
0	0x3e0ecdc7	0.13945685
1	0x3dd5c16f	0.10437285
2	0x3e040e1d	0.12896009
3	0x3cce86bd	0.025210733
4	0xbe5a6aa8	-0.21329749
5	0x3ddebad1	0.10875476
6	0x3b637707	0.0034708397
7	0x3e10c691	0.14138247
8	0x3df11400	0.11771393
9	0xbe232a18	-0.15934026
10	0x3e5243f3	0.20533733
11	0xbe20b66d	-0.1569459
12	0xbe5b7dd4	-0.21434718
13	0xbd96f9ea	-0.07371886
14	0xbe1a026f	-0.15039991
15	0x3caa0b3b	0.020757308
16	0xbe54ccf7	-0.20781313
17	0x3d6636f8	0.056204766
18	0xbe6ce1d2	-0.23133019
19	0xbda63ca4	-0.08117035
20	0xbe548881	-0.20755197
21	0xbe08c889	-0.13357748
22	0xbdf9bb22	-0.12193896
23	0x3a8a5a9d	0.0010555569
24	0xbe4d66a0	-0.2005868
25	0xbd5970b7	-0.05308601
26	0xbe34f85b	-0.17672865
27	0x3e038222	0.1284261
28	0x3e0f3abe	0.13987252
29	0x3e5053e9	0.20344509
30	0xbca59c69	-0.020216184
31	0xbe58871c	-0.2114529

fc3.weight f4 [64, 32]
0	0xbda45dbb	-0.0802569
1	0xbe14a6ef	-0.14516805
2	0xbe2c6973	-0.168371
3	0x3d5e41ae	0.054261856
4	0x3d96406c	0.07336506
5	0xbb67b157	-0.0035353506
6	0xbde6be0a	-0.11266716
7	0xbde87fe7	-0.113525204
8	0x3de11d38	0.10991901
9	0x3e0bd164	0.13654095
10	0x3dd90408	0.10596472
11	0x3d1f58c5	0.038903017
12	0x3d84f36f	0.06491744
13	0x3d662e18	0.056196302
14	0x3c4efd52	0.012633638
15	0xbd76c584	-0.06024696
16	0xbe185245	-0.14875133
17	0x3e2edfad	0.17077513
18	0x3d24ae75	0.040205438
19	0x3e267fe7	0.16259728
20	0x3e00d3a6	0.12580737
21	0x3d2674bc	0.04063867
22	0xba832273	-0.0010004774
23	0xbd2e3d84	-0.042539135
24	0x3e2e22bd	0.17005439
25	0xbd79fdb5	-0.06103297
26	0x3df60188	0.12012011
27	0xbe244ab8	-0.16044128
28	0xbdecc4c9	-0.11560971
29	0xbcaf7919	-0.021420049
30	0xbdf160da	-0.11786051
31	0x3cc638ab	0.024196943
32	0x3dbf0389	0.09326846
33	0xbd41a2ba	-0.04727433
34	0x3d99093a	0.07472463
35	0x3d293365	0.04130878
36	0x3d7c22ff	0.061556812
37	0xbd27c2c0	-0.040957212
38	0x3c8b813e	0.0170294
39	0x3cae57e2	0.02128214
40	0xbb2721f1	-0.0025502408
41	0xbddbaa96	-0.10725896
42	0xbdd538c7	-0.1041122
43	0xbdb2c444	-0.08728841
44	0x3c1fa11b	0.009743
45	0x3e028761	0.12746955
46	0xbdcfe94b	-0.10151919
47	0x3da44258	0.080204666
48	0xbe2f30dd	-0.17108484
49	0x3d40c791	0.04706532
50	0xbe1a1c55	-0.1504987
51	0xbd8fd5aa	-0.07023175
52	0xbd3ce51a	-0.046116926
53	0xbd8d5238	-0.069004476
54	0x3dfeacc6	0.12435298
55	0x3e0d66df	0.13808773
56	0xbdb5ddc7	-0.08880191
57	0x3d95bcf7	0.07311433
58	0xbd8a6832	-0.06758155
59	0x3e2805ab	0.16408412
60	0x3e0f8416	0.1401523
61	0x3e1869cc	0.14884108
62	0x3e274014	0.16333038
63	0x3db3975f	0.08769106
64	0x3de7718d	0.11300955
65	0x3d99643a	0.0748982
66	0xbd9055e0	-0.07047629
67	0xbd404209	-0.046937976
68	0xbe34672a	-0.17617479
69	0x3d35119c	0.044206247
70	0x3c523dad	0.012832087
71	0x3de49c56	0.11162631
72	0xbc3d7df6	-0.011565676
73	0x3b0e45b4	0.0021709027
74	0xbe157cb9	-0.14598359
75	0xbe01e9cd	-0.12686844
76	0x3e1a202b	0.15051334
77	0x3de4fb44	0.111807376
78	0x3b74b976	0.0037341989
79	0xbdec6ad6	-0.11543815
80	0x3e24f194	0.1610778
81	0xbe251792	-0.16122273
82	0x3d582a4e	0.05277472
83	0x3e2f7926	0.17136058
84	0x3e26e4d1	0.16298224
85	0x3c7b39d9	0.015333616
86	0x3dfcee11	0.12350095
87	0x3d778234	0.060426906
88	0x3e274532	0.1633499
89	0xbdc7ab51	-0.09749473
90	0x3dbc0174	0.09179965
91	0x3dccfb69	0.1000889
92	0xbe302a74	-0.17203695
93	0x3e2216ce	0.15829012
94	0xbd8bfcc3	-0.0683532
95	0x3e2cd6bf	0.16878794
96	0xbc821a46	-0.015881669
97	0x3da64185	0.081179656
98	0xbdfe9509	-0.1243077
99	0x3e2265cd	0.15859146
100	0xbe1055e5	-0.14095266
101	0xbe0022fe	-0.12513348
102	0xbddf3e6a	-0.109005764
103	0xbc82c0ca	-0.01596107
104	0xbe2c936d	-0.16853113
105	0xbd88e492	-0.06684221
106	0x3c1fa1b2	0.009743141
107	0x3e209971	0.15683533
108	0x3cbc2e1b	0.022971204
109	0xbd2aa971	-0.0416655
110	0xbe0ece96	-0.13945994
111	0xbdd46d94	-0.10372463
112	0xbb89c876	-0.004204805
113	0x3d524bd6	0.051341854
114	0x3e0ae670	0.13564467
115	0xbdd54d6a	-0.10415156
116	0x3e32e125	0.17468698
117	0x3d48bf51	0.04901058
118	0xbd83037d	-0.0639715
119	0x3dfa90ce	0.122346506
120	0xbde2c933	-0.11073532
121	0xbcc8fa92	-0.024533544
122	0x3cc13aee	0.02358767
123	0xbcbe03b1	-0.02319512
124	0xbde57f41	-0.112059124
125	0x3e2e770b	0.17037599
126	0x3d7d1f90	0.06179768
127	0x3e348832	0.1763008
128	0x3d7c811b	0.061646562
129	0xbd04be6c	-0.032408163
130	0x3e0419e0	0.12900496
131	0xbbe79030	-0.007066749
132	0xbd2ebf98	-0.042663187
133	0x3df1848d	0.1179286
134	0x3e197933	0.1498764
135	0xbd950158	-0.07275647
136	0x3d0fc52d	0.03510015
137	0x3d62ecb9	0.055401538
138	0xbd84e6a0	-0.06489301
139	0x3d0b4cbb	0.034008723
140	0x3ce2065b	0.027590921
141	0x3e0c6d5d	0.13713594
142	0x3e2d3fe6	0.16918907
143	0x3cb93333	0.022607422
144	0xbde12eb9	-0.1099524
145	0x3d88d235	0.06680719
146	0xbdcebde3	-0.10094812
147	0x3e1122e6	0.14173469
148	0xbd04b99f	-0.032403585
149	0xbd624633	-0.05524273
150	0x3d68e101	0.056855205
151	0x3e341cb6	0.17589077
152	0xbd502d9d	-0.05082475
153	0x3da8fd90	0.08251488
154	0xbbefdd7e	-0.007320105
155	0x3d3a409d	0.045471776
156	0xbe309618	-0.17244756
157	0xbdf53114	-0.119722515
158	0xbde4b47c	-0.11167237
159	0xbdc3c6ff	-0.0955944
160	0x3e31810e	0.17334387
161	0xbdfc5b3f	-0.12322091
162	0xbd52873d	-0.051398505
163	0xbc8ba900	-0.017048359
164	0x3e038ae6	0.12845954
165	0xbd8b4631	-0.06800497
166	0x3dbf20e4	0.09332445
167	0xbd8fab27	-0.070150666
168	0xbde75f5c	-0.11297485
169	0x3c64f1ff	0.013973712
170	0xbe2aef20	-0.16692781
171	0xbe0ec91c	-0.13943905
172	0xbe0054e7	-0.12532388
173	0x3cb6006d	0.022217
174	0xbd065244	-0.0327933
175	0xbde67275	-0.112523
176	0x3c3bd8a8	0.011465229
177	0x3cd93e71	0.026519032
178	0xbd97e876	-0.07417385
179	0xbe18d474	-0.14924794
180	0xbde56361	-0.11200596
181	0xbe24aaa9	-0.16080727
182	0x3caddadf	0.02122253
183	0x3e092c6a	0.13395849
184	0xbde7522a	-0.112949684
185	0x3d3c34e9	0.045948897
186	0x3e2599e4	0.16171986
187	0xbc387f59	-0.011260831
188	0xbbf8cb7e	-0.0075926175
189	0xbd2767e3	-0.04087056
190	0x3cd09c39	0.025465118
191	0x3d8c82e8	0.06860906
192	0x3e258b36	0.16166386
193	0xbd8dd8af	-0.06926095
194	0xbda8e97c	-0.082476586
195	0xbe24e6cd	-0.16103669
196	0x3e2f30b9	0.1710843
197	0x3c4ca3ad	0.012490195
198	0xbcff7eba	-0.031188358
199	0xbdcdeb5f	-0.10054659
200	0x38f76e2e	0.000117984004
201	0x3d9a2f82	0.07528593
202	0x3e2649b4	0.16239053
203	0xbd7d8fc9	-0.061904702
204	0xbd660bef	-0.056163725
205	0x3da318b7	0.07963698
206	0x3de762de	0.11298154
207	0xbd3dacbe	-0.046307318
208	0x3e01dd28	0.1268202
209	0xbd16bcb3	-0.03680105
210	0xbd4d5faf	-0.05014008
211	0x3cb7bfd7	0.022430344
212	0x3e2e7e50	0.17040372
213	0x3ce3a19b	0.02778702
214	0x3e2d45fd	0.1692123
215	0x3ccc5eac	0.024947487
216	0x3df787e1	0.12086464
217	0x3e0ce688	0.13759816
218	0xbdb1e3bd	-0.08686016
219	0x3dbcede0	0.092250586
220	0xbdccfb36	-0.10008852
221	0xbddb31d9	-0.10702867
222	0xbcaf40f9	-0.021393286
223	0x3e2e9d05	0.17052086
224	0x3e1152be	0.1419172
225	0x3d5c13b9	0.053729746
226	0x3d56f3a8	0.052478462
227	0xbdbab3f4	-0.091163546
228	0x3cb8589c	0.02250319
229	0xbd5883d9	-0.052860115
230	0xbd21464b	-0.039373677
231	0xbd9f879e	-0.07789539
232	0xbe1482d4	-0.14503032
233	0x3c7770bf	0.015102564
234	0xbd3c3da4	-0.045957223
235	0xbd52f44b	-0.051502507
236	0x3db9e183	0.09076216
237	0xbdbc34cc	-0.09189758
238	0xbe046279	-0.1292819
239	0x3d7bcc3a	0.061474063
240	0x3dbf25ce	0.093333825
241	0xbe0e0183	-0.13867764
242	0x3e22a433	0.1588295
243	0xbc7eea68	-0.0155588165
244	0x3c295921	0.010336191
245	0x3df5cc1a	0.1200182
246	0x3e0542ce	0.13013765
247	0xbde66770	-0.11250198
248	0xbe0cd078	-0.137514
249	0xbdfe6141	-0.124208935
250	0x3e1acda7	0.15117513
251	0x3d873049	0.066010065
252	0x3d4cc217	0.049989786
253	0x3dad796a	0.084704235
254	0x3e1593e3	0.14607196
255	0xbe31ca1a	-0.17362252

fc3.bias f4 [64]
0	0xbdfcbd01	-0.12340737
1	0x3c044c01	0.008074761
2	0xbd8650c1	-0.06558371
3	0x3e0edde3	0.1395183
4	0x3e258b1a	0.16166344
5	0x3df988e2	0.121843114
6	0xbdf931ac	-0.12167677
7	0xbe2bd504	-0.16780478
8	0xbe054255	-0.13013585
9	0x3d00a5de	0.031408183
10	0x3cd7fa20	0.026364386
11	0xbcb36edd	-0.02190345
12	0xbe157e10	-0.1459887
13	0x3dadc6ae	0.08485161
14	0x3ddb8661	0.1071899
15	0xbe0be6f2	-0.13662317
16	0x3e296acf	0.1654465
17	0xbd484a50	-0.048898995
18	0xbd60f6a1	-0.054922704
19	0x3d878056	0.06616275
20	0xbd03ad35	-0.032147605
21	0x3e0459c9	0.12924875
22	0xbd653af1	-0.055964414
23	0x3c333a19	0.0109391445
24	0x3cf6d42b	0.030130466
25	0x3bf1a6b4	0.007374609
26	0x3dca08a4	0.09864929
27	0xbc578e71	-0.013156519
28	0x3e1ef98a	0.15524879
29	0x3e17669b	0.14785235
30	0x3df130a2	0.11776854
31	0xbd39f6a2	-0.045401223
32	0xbd2c810c	-0.042115256
33	0x3dd78062	0.10522534
34	0x3c82957d	0.015940422
35	0xbc1b2927	-0.009470261
36	0xbe20dac7	-0.15708457
37	0x3d972794	0.07380596
38	0x3dfc823a	0.12329526
39	0xbe24c94b	-0.16092412
40	0x3d9404a1	0.072274454
41	0xbdaed026	-0.08535795
42	0x3e30afc4	0.1725455
43	0xbd6e2d65	-0.05814876
44	0xbcf65871	-0.030071469
45	0xbe1d8ab8	-0.15384948
46	0x3e2ce196	0.16882929
47	0xbd88e8f2	-0.06685056
48	0x3db22c30	0.08699834
49	0x3d4b57ff	0.049644466
50	0xbd2b1e89	-0.041777167
51	0xbd2db870	-0.04241222
52	0x3e2584e3	0.16163974
53	0xbdf4c929	-0.11952431
54	0x3db38ec7	0.08767467
55	0x3e0f8bda	0.14018193
56	0x3d9fee07	0.07809072
57	0xbe30c923	-0.17264228
58	0x3cdfadeb	0.02730461
59	0xbd69c999	-0.057077024
60	0x3dc33b9c	0.09532854
61	0x3e22a26f	0.15882276
62	0xbccf2777	-0.025287373
63	0x3c0f0dba	0.0087313

fc4.weight f4 [128, 64]
0	0xbdaca7e9	-0.08430464
1	0x3deeae28	0.116543114
2	0xbc4c28c4	-0.012460891
3	0x3c57a42e	0.013161702
4	0xbdb30834	-0.08741799
5	0xbc11ebb2	-0.008906292
6	0x3d7f3c7b	0.062313538
7	0x3d53c7af	0.051704105
8	0xbdaec9a2	-0.08534552
9	0xbd820d45	-0.06350187
10	0xbdd60b5e	-0.10451387
11	0xbc5286ea	-0.012849549
12	0x3d520058	0.05126986
13	0xbdf5e456	-0.12006442
14	0x3c352795	0.0110568
15	0x3c30c1cb	0.010788391
16	0xbdce67a6	-0.10078363
17	0xbdaea4b6	-0.0852751
18	0xbdaa3c5a	-0.083122924
19	0x3ddcc3a7	0.10779505
20	0x3d99cad4	0.075093895
21	0xbd4f04dd	-0.050541747
22	0x3df09ce6	0.11748676
23	0xbd626de3	-0.055280577
24	0xbd17a7a2	-0.0370251
25	0xbb535813	-0.0032248541
26	0x3d5d4fad	0.054031063
27	0x3c7bf5fc	0.015378471
28	0x3d621e54	0.055204704
29	0x3da996f4	0.08280745
30	0xbc721f62	-0.01477799
31	0x3d220b8e	0.0395618
32	0xbd4dd19f	-0.05024874
33	0xbc820110	-0.015869647
34	0x3d4764b4	0.048680022
35	0xbd83e09c	-0.06439325
36	0x3d5f0312	0.054446287
37	0x3de66196	0.11249082
38	0x3c3277de	0.010892836
39	0x3c94e1ae	0.018174019
40	0x3da6380a	0.08116157
41	0xbdad9ff1	-0.08477772
42	0x3d7cb34f	0.06169444
43	0x3bb5ecfb	0.005551932
44	0x3dc7405b	0.09729072
45	0x3d14d07e	0.036331646
46	0x3cc325b3	0.023821687
47	0x3dd2c6f8	0.102918565
48	0x3d30d6f7	0.043173756
49	0x3c50ab68	0.012736179
50	0x3b9cd5b2	0.0047862167
51	0xbdb9c1b0	-0.09070146
52	0xbcc24b4a	-0.023717541
53	0xbd5316b4	-0.051535323
54	0xbdd28a5e	-0.10280298
55	0x3dbb45b8	0.09144157
56	0xbc694825	-0.014238392
57	0x3db10f12	0.086454526
58	0x3de78aa1	0.11305738
59	0x3da4e056	0.08050601
60	0x3de50f20	0.111845255
61	0xbd38158d	-0.044942427
62	0x3d562498	0.052280992
63	0xbc8823ff	-0.016618727
64	0xbd50c7b3	-0.050971698
65	0xbcf18966	-0.029484462
66	0xbd9cf04d	-0.07663021
67	0x3dd523f8	0.10407251
68	0x3de5a3b2	0.11212863
69	0x3d5b5849	0.053550992
70	0x3d40d77a	0.047080494
71	0xbd6fb625	-0.058523316
72	0xbd83a4b2	-0.064278975
73	0xbd341c2e	-0.043972187
74	0xbcb6e538	-0.022326097
75	0x3dfb4eb3	0.1227087
76	0xbca65787	-0.020305408
77	0xbdab158c	-0.08353719
78	0xbd714493	-0.058903288
79	0xbd1d65fd	-0.03842734
80	0xbdb25f5a	-0.08709593
81	0xbdb35112	-0.08755697
82	0x3d19fc50	0.03759414
83	0x3df3f1ea	0.11911376
84	0x3c54e5cb	0.01299424
85	0xbd6de6c8	-0.05808142
86	0xbdd9c1f5	-0.106326975
87	0xbdf010a1	-0.11721922
88	0xbc3bec57	-0.011469922
89	0xbdec7df5	-0.11547462
90	0x3d0173da	0.031604625
91	0xbd173e0a	-0.0369244
92	0x3db5f94a	0.08885439
93	0xbdd9096e	-0.10597502
94	0xbde2acc4	-0.11068109
95	0x3b5bf5ab	0.0033563178
96	0x3dbbcb17	0.09169596
97	0xbdc03582	-0.09385206
98	0xbd4f7360	-0.05064714
99	0xbd8c2859	-0.06843633
100	0xbcc80391	-0.024415763
101	0xbcb2f4bc	-0.021845214
102	0xbc86a1e2	-0.016434614
103	0xbd48c8b3	-0.049019527
104	0x3c14f6bd	0.00909203
105	0xbce6f3ce	-0.028192427
106	0x3db37595	0.08762661
107	0xbdca9bd7	-0.09893005
108	0xbb407924	-0.002936908
109	0xbc2f2701	-0.010690452
110	0x3deeedf2	0.11666478
111	0x3c27351f	0.010205536
112	0xbc58ecbc	-0.013240036
113	0xbd6a7a05	-0.057245273
114	0x3d941792	0.07231058
115	0xbdb33b68	-0.08751565
116	0x3c4f4813	0.012651461
117	0x3dc00b2c	0.09377131
118	0xbdbba5bd	-0.091624714
119	0x3ce1391b	0.02749305
120	0x3dc9c8c5	0.09852747
121	0xbcf8b37a	-0.030359019
122	0x3d832feb	0.06405624
123	0x3d62bc06	0.055355094
124	0x3cd932fc	0.026513569
125	0xbd806f5e	-0.062712416
126	0xbd947f17	-0.07250803
127	0x3d7fa180	0.062409878
128	0x3d4e3585	0.05034401
129	0xbcd22da5	-0.02565653
130	0x3b70b213	0.0036727234
131	0x3c89fd0c	0.016844295
132	0x3dcd6804	0.10029605
133	0xbdc860b8	-0.09784073
134	0xbd6bf7a2	-0.057609208
135	0xbd5fef57	-0.05467161
136	0x3cea0642	0.028567437
137	0x3cca7b73	0.024717068
138	0x3da9ba21	0.082874544
139	0xbdbd664f	-0.092480294
140	0xbdda9407	-0.10672765
141	0xbd4f651c	-0.050633535
142	0xbd09737a	-0.033557393
143	0x3dcd60f4	0.10028258
144	0x3d0fca71	0.035105173
145	0x3db48bdc	0.088157386
146	0xbda035b9	-0.07822747
147	0xbd0d4e32	-0.0344984
148	0xbd33d110	-0.04390055
149	0x3d6893a3	0.056781422
150	0xbcfb8695	-0.030703822
151	0xbdeee8ec	-0.1166552
152	0x3dc9d952	0.09855904
153	0xbd7352d9	-0.05940518
154	0xb7f938e3	-2.9709603e-05
155	0x3cdf2cf6	0.027243119
156	0x3de1785c	0.11009285
157	0xbd39d40b	-0.045368236
158	0xbca01ced	-0.019545043
159	0xbd54cbbe	-0.051952116
160	0x3db62f74	0.0889577
161	0xbd9c5ff2	-0.076354876
162	0x3deb56f9	0.11491198
163	0x3dcca240	0.09991884
164	0xbdbdd306	-0.09268765
165	0x3ddfdb5b	0.109305106
166	0x3dd3d83a	0.10343976
167	0x39e5de3a	0.00043843855
168	0xbb9608e7	-0.004578698
169	0x3de3f15c	0.1113002
170	0x3db5bbdf	0.08873724
171	0xbd56be52	-0.052427597
172	0xbdbb3a8e	-0.09142028
173	0xbcc8d189	-0.024513977
174	0xbda5deb1	-0.08099116
175	0x3c86e73b	0.016467681
176	0x3de0aa80	0.1097002
177	0x3dfbcf60	0.12295413
178	0x3cd5a2bc	0.026078574
179	0xbdb851af	-0.08999955
180	0x3d0676c7	0.03282812
181	0x3da024cd	0.07819519
182	0xbd569d8c	-0.052396342
183	0x3d48ec46	0.049053453
184	0x3c2f81b6	0.010712078
185	0xbbc04870	-0.00586801
186	0x3c311b87	0.010809786
187	0x3d9fe0af	0.07806527
188	0xbda1a45a	-0.07892676
189	0x3d21754b	0.0394185
190	0xbd978870	-0.0739907
191	0xbd820dfb	-0.06350323
192	0xbdb02019	-0.08599872
193	0xbd312154	-0.043244675
194	0x3d8d4661	0.06898189
195	0x3be681ae	0.007034502
196	0xbd8228f0	-0.063554645
197	0x3cc2c778	0.023776755
198	0x3c96be6c	0.018401347
199	0x3ded0b10	0.11574376
200	0xbde180ae	-0.11010872
201	0x3d77cedc	0.06050001
202	0xbd5abdad	-0.053403545
203	0xbd78d771	-0.060752336
204	0x3dc20a31	0.094746
205	0xbddc6f95	-0.1076347
206	0x3d520346	0.051272653
207	0xbd92a722	-0.07160784
208	0x3dc56389	0.096381254
209	0xbc9fb901	-0.019497396
210	0xbb4335fb	-0.0029786814
211	0x3dd0fb26	0.10204153
212	0x3ce27ee2	0.027648393
213	0x3ddeb407	0.10874181
214	0xbda51492	-0.08060564
215	0x3dd090b2	0.101838484
216	0xbc4fb7a7	-0.0126780635
217	0x3dd977bc	0.10618541
218	0x3dd5947b	0.10428711
219	0x3bf9cfeb	0.0076236627
220	0x3daf5b3d	0.08562324
221	0x3db25809	0.087081976
222	0x3d750f7f	0.05982923
223	0x3dd6a32e	0.10480343
224	0x3dc6c0ea	0.09704764
225	0x3d9c4741	0.07630778
226	0x3d56863d	0.052374113
227	0x3db2647b	0.087105714
228	0x3de60c35	0.11232797
229	0x3da7796d	0.08177457
230	0x3d6c2649	0.0576537
231	0xbdd0aa90	-0.10188782
232	0x3de5d616	0.11222474
233	0xbd162f16	-0.036666
234	0xbd012a52	-0.0315345
235	0x3d167afc	0.03673838
236	0xbc1e3bda	-0.009657824
237	0x3de1fd43	0.11034634
238	0xbd8f95aa	-0.07010968
239	0x3de2700c	0.110565275
240	0xbd041935	-0.0322506
241	0x3dce267b	0.10065933
242	0x3dca799c	0.098864764
243	0xbdbe233f	-0.092840664
244	0xbd87802f	-0.06616246
245	0xbde509f1	-0.11183537
246	0xbdf7b8bd	-0.12095783
247	0x3d9b37dd	0.075790145
248	0x3d46eff6	0.04856869
249	0x3d7afd7d	0.0612769
250	0x3b80a671	0.0039260914
251	0x3de04399	0.10950393
252	0xbdd8ff6b	-0.10595592
253	0xbda67030	-0.08126867
254	0x3c67d79d	0.014150527
255	0x3cfbcfd1	0.030738743

fc4.bias f4 [128]
0	0x3c8ca332	0.017167661
1	0xbd4ab078	-0.0494847
2	0xbcb8b5c0	-0.022547603
3	0x3db0475d	0.086073615
4	0x3d7cc6b1	0.061712924
5	0x3de430f8	0.111421525
6	0x3b729f47	0.0037021206
7	0xb9b30343	-0.0003414397
8	0x3c152104	0.00910211
9	0x3df3763c	0.11887786
10	0xbd8836dd	-0.06651089
11	0x3cbb1fe9	0.022842364
12	0xbd939950	-0.072069764
13	0xbd932ae1	-0.07185913
14	0xbd35bec6	-0.04437139
15	0xbc5849df	-0.013201206
16	0x3d88758b	0.066630445
17	0xbc9b4fb7	-0.01895891
18	0xbdfc7e29	-0.12328751
19	0x3d269c28	0.040676266
20	0xbd7599f8	-0.05996129
21	0xbdb39ea6	-0.08770494
22	0x3db81c69	0.08989794
23	0xbd60c6fd	-0.05487727
24	0xbd9d52fc	-0.07681844
25	0xbd74578c	-0.059653804
26	0x3d1fa7cb	0.03897838
27	0x3c99cee6	0.018775415
28	0xbcf50d6b	-0.029913625
29	0xbdcba809	-0.099441595
30	0x3d2aa4e7	0.04166117
31	0x3b64ff79	0.0034942313
32	0x3cd0d768	0.025493339
33	0xbd77eb0b	-0.06052689
34	0xbc8cc496	-0.017183583
35	0xbda4b0cb	-0.08041533
36	0x3df57cbb	0.11986681
37	0x3d038c3b	0.032116156
38	0xbbd9b422	-0.006643788
39	0x3dbc059e	0.09180759
40	0x3df68917	0.120378666
41	0xbc0570c0	-0.0081445575
42	0x3ca70906	0.020390045
43	0x3def4caa	0.116845444
44	0x3de1f3be	0.11032818
45	0x3c989212	0.01862434
46	0xbd49720e	-0.049181037
47	0x3d934c6c	0.07192311
48	0xbc3a0ad9	-0.011355125
49	0xbb85d9f6	-0.004084821
50	0x3dca371e	0.09873794
51	0x3da1f27b	0.079075776
52	0x3d2eb564	0.042653456
53	0x3cb3f344	0.021966584
54	0xbdb813c4	-0.08988145
55	0xbcda77f5	-0.026668528
56	0x3d085dac	0.033292457
57	0xbc985445	-0.01859487
58	0x3d889f0b	0.0667096
59	0xbda68e9c	-0.08132669
60	0xbd100188	-0.03515771
61	0x3db2f11a	0.08737393
62	0xbddfa7b6	-0.1092066
63	0x3b6bdc30	0.0035989396
64	0x3d884c80	0.06655216
65	0x3df9eb2d	0.12203059
66	0xbd595ba1	-0.0530659
67	0x3d9851a9	0.074374504
68	0xbc4042fb	-0.011734719
69	0x3dffb2d8	0.124852836
70	0xbdcafe69	-0.09911806
71	0x3dd01185	0.101595916
72	0xbd1a64df	-0.037693854
73	0xbded1208	-0.11575705
74	0x3b5ff829	0.0034175015
75	0xbb0df6a0	-0.0021661893
76	0x3d1c30a4	0.038132325
77	0xbd912191	-0.070864804
78	0xbd7afa39	-0.061273787
79	0xbb2a4e83	-0.0025986738
80	0xbcf3f7dd	-0.029781276
81	0x3d83a581	0.06428052
82	0xbdc7d928	-0.09758216
83	0xbd2c7809	-0.042106662
84	0xbdeceaab	-0.11568197
85	0x3dc20813	0.09474196
86	0xbdd5f312	-0.104467526
87	0xbdc33fbb	-0.0953364
88	0xbacbcc73	-0.0015548602
89	0x3d2b1141	0.0417645
90	0xbdd9c5ac	-0.10633406
91	0xba970d1a	-0.001152429
92	0xbd2048a0	-0.03913176
93	0x3c829f10	0.015944988
94	0x3db31e5b	0.08746024
95	0x3d625a1c	0.055261716
96	0xbb0636ec	-0.0020479513
97	0xbdf289af	-0.11842667
98	0xbdf28b9b	-0.11843034
99	0xbd011016	-0.03150948
100	0x3d431b2a	0.047633328
101	0x3d98a653	0.07453599
102	0xbd979591	-0.074015744
103	0xbdc1fe20	-0.094722986
104	0x3d32bddd	0.0436381
105	0x3bc840a9	0.0061112237
106	0x3bf8fe70	0.0075986907
107	0xbdfd1d19	-0.123590656
108	0xbde6a311	-0.11261571
109	0x3bb4be6c	0.005515864
110	0x3dd9d758	0.10636777
111	0x3cd3bcb0	0.02584681
112	0x3d5da63b	0.054113608
113	0xbd3b0591	-0.045659605
114	0xbd9f0e54	-0.07766405
115	0x3d37bfc3	0.044860613
116	0x3da95e35	0.08269922
117	0xbae2046e	-0.0017243752
118	0x3dc00556	0.09376018
119	0xbdd15aff	-0.10222434
120	0xbd65e5a9	-0.056127224
121	0x3d5290a4	0.05140747
122	0xbd9ce506	-0.0766087
123	0x3dfe8fab	0.12429746
124	0x3da455c0	0.08024168
125	0xbd7786c1	-0.060431246
126	0xbd1cd280	-0.038286686
127	0xbd4e9946	-0.05043914
