models_submitted/test_acc-CNN_2L_Drop_R400.pt (torch, 160903 bytes, 22 tensors)

conv1.weight f4 [32, 1, 1]
000000 10 44 06 bf ae 60 2b bf 01 ea 16 3e f4 d8 c7 3e
       -0.52447605 -0.66944396 0.14737703 0.3903271
000010 3d 26 05 3f 2f 1a 0d bf 37 61 65 be 90 d7 80 3b
       0.5201147 -0.5511808 -0.22400366 0.003931947
000020 c3 92 d8 3d c2 9e 51 be ae 26 38 3f ea 05 6a 3f
       0.105748676 -0.20470718 0.7193402 0.91415274
000030 d1 c1 0e bf 15 5f a4 3e f9 ff 2f bd 24 49 21 3f
       -0.5576449 0.32103792 -0.042968724 0.6300223
000040 4f bd 86 bb b4 b8 77 bc 8b 3a f7 3e 35 cb 59 bf
       -0.004111923 -0.01511972 0.48286852 -0.85075694
000050 25 0c 01 bd 99 90 91 be 68 b3 45 3f 12 e9 b1 3d
       -0.031505723 -0.28430632 0.7722688 0.08687033
000060 46 ad 00 bf 8d 18 09 3f fd 88 61 3f a4 67 1a 3e
       -0.50264394 0.53553087 0.8809965 0.15078598
000070 bc bf 40 3f 8a 93 57 be f1 e8 98 3e 25 4c 39 3f
       0.75292563 -0.21052375 0.2986522 0.7238181

conv1.bias f4 [32]
000000 d0 9d 1f be 8d aa 5b 3e 9b aa 87 3e 65 6b 40 bf
       -0.15587544 0.21451779 0.2649735 -0.7516387
000010 bd d1 a1 be 91 03 61 be c3 15 f2 be a6 08 0b be
       -0.3160533 -0.21974017 -0.47282228 -0.13577518
000020 01 68 06 bf 4b 90 70 3f e1 7f 61 bd 2b 7d 62 bf
       -0.5250245 0.93970174 -0.055053595 -0.8847224
000030 c9 2d 26 bf bb 12 1a 3f fc 15 85 3e 4a 3b 91 be
       -0.6491361 0.6018483 0.25993335 -0.28365546
000040 be 1a 0c 3f f0 85 7f bf 34 54 c1 3e 64 af f6 3e
       0.54728305 -0.9981375 0.37759554 0.48180687
000050 80 aa 8c 3c 56 23 2f 3f 4a 10 16 3c 40 61 02 3f
       0.017171144 0.68413293 0.009159157 0.5092964
000060 30 6a 18 3f 78 40 30 3e cb 53 c5 bd c6 1d 1d 3f
       0.5953703 0.17212093 -0.09635123 0.61373556
000070 41 4a 41 3e 53 82 c6 3e 35 eb d8 3e 9f e3 06 3f
       0.18875982 0.38771304 0.4236695 0.5269107

conv2.weight f4 [64, 32, 1]
000000 5e 15 8a bd 59 e4 73 3d 10 62 2a be 43 de 2e bd
       -0.06742357 0.05954394 -0.1663897 -0.042692434
000010 85 48 1c 3e c5 57 30 be ff 90 27 3d aa 56 be bc
       0.15262039 -0.17220981 0.040909763 -0.023234684
000020 57 33 e9 bd 4b 2f 84 3d ed 24 a9 3d 64 92 ce 3d
       -0.113867454 0.06454333 0.08258996 0.100865155
000030 cc da 16 be 30 05 b8 bd ba a4 1b bc a8 6e 34 be
       -0.14731902 -0.089853644 -0.009499723 -0.17620337
000040 51 89 b7 3d d2 de 35 3d 94 fa 2f 3e 61 94 04 3e
       0.08961738 0.04440195 0.17185432 0.12947227
000050 b1 58 f3 bd 0f 3a e9 bd d6 e9 f6 bd 72 e2 f2 3d
       -0.11882151 -0.11388027 -0.120563194 0.11859597
000060 75 98 27 3e dd 72 8d bd 00 4c b0 bd d6 5c 84 bd
       0.16366751 -0.06906674 -0.08608246 -0.064630195
000070 72 7c f9 3d 18 69 89 3c 8c c8 3e bd 6d 22 0c bd
       0.12181939 0.016773745 -0.046577975 -0.03421252
000080 76 70 16 3e cd bf a1 3d 14 b4 03 3c 9b 13 11 3e
       0.14691338 0.07897911 0.008038539 0.14167635
000090 80 54 a1 3b 9b 54 0f be 7f 11 bc 3d a7 6b 14 3d
       0.0049234033 -0.13997118 0.091830246 0.036235478
0000a0 85 d2 28 3d 37 8b eb bd 6a 63 e8 bd e1 7e f2 3d
       0.041216392 -0.115011625 -0.11347087 0.118406065
0000b0 55 8e 0b 3e ee ae 44 bd dc 12 6f 3c d4 08 d8 3d
       0.13628514 -0.04801839 0.014591899 0.10548559
0000c0 4c 1c aa bc 2e 0b 79 3d 12 4d f2 3d ab ed a0 3d
       -0.020765446 0.060801677 0.11831106 0.078578316
0000d0 af 24 4f 3c f1 bb 94 bb ce 73 d0 bd 25 4b 88 bd
       0.012643023 -0.004539006 -0.10178338 -0.06654958
0000e0 f4 79 67 bd fc ba 2b be 9b 17 bf bb 0f 20 23 3e
       -0.056512788 -0.16770548 -0.0058316714 0.15930198
0000f0 9e bd 02 bd 39 46 07 be 5e 5d 22 be 76 5d 1f be
       -0.031919114 -0.13210382 -0.1585593 -0.15562996
000100 01 ea 6b 3d 40 bb 2c bd cf 49 b8 3d a6 98 76 bd
       0.05759621 -0.042170763 0.08998453 -0.06020417
000110 ad 6b bf bd f5 5b 8b 3d 2e 9b df bd 5d 95 2f be
       -0.093467094 0.06804649 -0.1091827 -0.17146821
000120 a9 dc 8c 3d 92 a9 bb 3b e2 9f a6 bd 10 56 18 3e
       0.06878025 0.0057270015 -0.08135964 0.1487658
000130 7f 6a 9f 3d 10 b5 8e 3d ad 49 ce 3d 9c 3f 02 be
       0.077839844 0.06968129 0.10072646 -0.12719578
000140 22 ea d4 bc 82 1b a2 3d 60 da f8 3c 8a 41 40 3d
       -0.02599055 0.07915403 0.030377567 0.046937503
000150 a9 10 6e bd 20 be 01 bd 46 f2 95 bd 1c b4 57 3a
       -0.058121357 -0.031675458 -0.073216006 0.00082284375
000160 31 3b 82 bd 86 74 47 bc bb 82 32 be fc bf 0c 3e
       -0.06358946 -0.012173777 -0.17432682 0.13745111
000170 72 d2 01 be 69 4e 77 3d 29 bc 97 bc 62 60 09 3e
       -0.12677935 0.060377512 -0.018522339 0.13415673
000180 d2 98 83 3d 30 03 92 bc 0e b2 16 3e 01 d1 0f bd
       0.064256325 -0.017823786 0.1471636 -0.03511143
000190 e5 24 06 3e 2e 90 25 be 51 47 e4 3d cc 65 d0 bd
       0.13100012 -0.16168281 0.11146415 -0.10175666
0001a0 3b f6 1f be 36 61 ef bb ba ec 05 3d d7 ac 08 3e
       -0.15621273 -0.0073052896 0.032696463 0.13347183
0001b0 c5 63 56 3d 86 c2 94 bd 08 ad d9 3d db 4b 79 bc
       0.05234124 -0.07263665 0.10628706 -0.015215839
0001c0 14 fd cd bc 86 1a e4 bd 69 fd b3 bb 7c a3 96 3d
       -0.025145091 -0.111378714 -0.0054928553 0.07355401
0001d0 82 9e ce 3d 24 a4 d2 3d fe f9 07 be eb 13 07 3e
       0.10088827 0.102852136 -0.13278958 0.13191192
0001e0 6f 22 13 be 44 51 f9 3d 7c 36 2f be 62 d2 b9 3d
       -0.14368604 0.12173703 -0.17110628 0.090733305
0001f0 8b bc fd 3d 88 d2 06 3e c8 5a 26 3e 51 fa b6 3d
       0.12389477 0.13166249 0.16245568 0.08934463
000200 66 24 93 3b 3c e3 8b 3d d9 0d 9d 3d 5c b3 fb bd
       0.004490423 0.06830451 0.07668657 -0.122900695
000210 8f 24 18 be 6a 24 d4 bd 00 36 5e bd 3c f5 1a be
       -0.14857696 -0.10358508 -0.054250717 -0.15132612
000220 88 6b f3 bc 41 37 ca 3d 4d b7 1d be c5 e1 04 bd
       -0.02971436 0.0987382 -0.15401955 -0.032441873
000230 ea 0f 16 be 4a 7a a4 bd 3e ad c2 bd b5 f5 0f be
       -0.14654508 -0.08031137 -0.095056996 -0.14058574
000240 3e ad 11 3e 86 88 16 be b9 1e 0a be 53 4e 38 3b
       0.14226243 -0.14700517 -0.13488282 0.0028122857
000250 de e6 16 3e 51 2f f3 bd 5a 0f 62 bd 3a d2 d6 3d
       0.14736506 -0.11874259 -0.05519042 0.10489316
000260 9f a0 19 bd 52 3d 04 3e d2 49 ab 3d 90 bb 04 be
       -0.037506696 0.12914017 0.083636895 -0.12962174
000270 01 3e f8 3d 1f 0c 29 be aa 4b 33 3c ce 00 ca bd
       0.12121201 -0.1650853 0.010943333 -0.09863435
000280 8a 7d 24 3e b8 9c 06 be 26 f1 29 be ce e5 1c be
       0.16063514 -0.13145721 -0.16595897 -0.15322039
000290 00 e5 7f 3d ed e4 ec bd fe d1 a0 bd 76 38 26 3e
       0.06247425 -0.11567102 -0.07852553 0.16232476
0002a0 6f f5 04 3e 76 82 2d be b1 70 6f 3b dd 97 fa bd
       0.1298425 -0.16944298 0.0036535675 -0.12235997
0002b0 eb e3 a6 3d 61 f9 9f bd 47 79 c1 3d b8 7e a7 3d
       0.08148941 -0.07811237 0.0944696 0.081784666
0002c0 cf 94 2f bc e7 2a 15 3e 9f e6 f7 3d ef 8e 9c bd
       -0.010716631 0.14567147 0.12104534 -0.0764445
0002d0 e2 ba dd bd c7 b4 dd 3d 3a a0 69 3d 56 32 10 3e
       -0.10826661 0.10825496 0.05703757 0.14081702
0002e0 01 99 4d bd 2a 7b 22 3e ff 96 7f 3d f6 08 92 bd
       -0.050194744 0.15867296 0.06239986 -0.071306154
0002f0 f2 fa b0 bd 77 6c 1d be bd 7c 14 3e a6 bf e0 3d
       -0.08641614 -0.15373407 0.14500709 0.10974054
000300 76 93 ff bd cb cb 94 3d bc 06 25 3e 58 6d e5 3d
       -0.12479298 0.07265433 0.1611585 0.11202496
000310 86 cb 9f bc 78 66 e1 3d bd 96 0b 3e a7 25 e0 3d
       -0.019506227 0.110058725 0.13631721 0.109446816
000320 02 d1 33 3e 61 9b 71 bd a5 b6 b2 bd ab 29 27 3e
       0.17560199 -0.05898607 -0.08726243 0.16324489
000330 90 f5 0f 3e a6 55 0d bd b7 21 1c 3e 34 c4 da bd
       0.14058518 -0.03450551 0.15247236 -0.10681954
000340 c2 3c 81 3d 56 da 9e bd 80 60 07 be 2c 76 1c 3e
       0.06310417 -0.07756488 -0.13220406 0.15279454
000350 2e fd 1d bd 99 3b 01 3e 65 b1 a1 3d ba 69 ce 3c
       -0.03857153 0.12620391 0.078951634 0.025196899
000360 51 d9 59 bb 45 ef 04 be 4d 35 32 3c f8 f0 1b bc
       -0.0033241103 -0.12981899 0.010876966 -0.009517901
000370 04 b1 d0 3c 60 b8 28 3e d9 8c 15 be 4b 62 82 3d
       0.025475033 0.16476583 -0.1460451 0.06366404
000380 66 5a 00 3e 7b d7 47 3d 3a ac 18 3e b7 86 85 3d
       0.12534484 0.048789483 0.14909449 0.065198354
000390 88 29 b5 3d bd f5 5c bd 78 33 2d be 7c 8a 05 be
       0.08845812 -0.05394529 -0.16914165 -0.13041109
0003a0 63 33 2e 3e ec 40 0e be 7b 88 3a 3d 5b a3 09 3d
       0.1701179 -0.13891953 0.045540314 0.033603054
0003b0 22 0f ac bd 6b 57 89 bd 15 64 36 bd 70 64 85 3d
       -0.08401324 -0.06706127 -0.04452904 0.065132976
0003c0 96 c7 2e 3e 9b 73 5b 3d 61 30 2c be ac d8 35 bd
       0.17068323 0.053577047 -0.1681533 -0.044396088
0003d0 53 39 e0 3d 0d 4e 43 3d 51 88 0a be 2c 60 de 3c
       0.10948434 0.047681857 -0.13528563 0.027145468
0003e0 bf ce d7 3d 92 e7 0a be 1c 74 17 bc 64 8a 19 3e
       0.105374806 -0.135649 -0.009243991 0.14994198
0003f0 92 b6 08 3c 50 51 39 3d 5e ea 06 3e 43 91 c0 3d
       0.008344309 0.04524356 0.13175341 0.094027065

conv2.bias f4 [64]
000000 26 8a 1c be a5 87 f9 bd 45 f5 2a 3d da e4 23 bd
       -0.15287074 -0.12184075 0.041737814 -0.04001317
000010 a7 e6 a2 3d 25 66 24 bd ce be ce 3d 8a 00 0e 3e
       0.0795415 -0.040136475 0.10094987 0.13867393
000020 30 d6 9e 3d 60 ca e9 bd b0 4a 16 be 25 9d a4 3d
       0.07755697 -0.11415553 -0.14676929 0.080377854
000030 3a cb 15 be 2e 19 00 3e 76 12 1c 3e 61 85 17 be
       -0.14628306 0.12509605 0.15241417 -0.14796974
000040 c3 81 a0 bd 46 a2 e2 bc 38 13 d0 bd 38 c0 ed bc
       -0.0783725 -0.027665269 -0.10159916 -0.029022321
000050 10 37 c4 bd dc f2 92 3d 32 14 bf 3c 49 fa c4 bc
       -0.09580815 0.07175228 0.02332506 -0.024045127
000060 1f 99 ed bd d8 d6 14 bc 9e 6f c6 bd 48 90 10 3e
       -0.11601471 -0.009084426 -0.09689258 0.14117539
000070 42 c2 df 3d 43 10 f0 3d b7 8d e8 bd 58 fe a1 bd
       0.109257236 0.11721852 -0.11355155 -0.0790984
000080 d5 15 27 be d7 79 1c bd 4a 1c db 3b cc f2 8d 3d
       -0.16316922 -0.038202133 0.006686722 0.069310755
000090 25 45 e9 bd c8 fd c9 bd 1e 6f 31 3e 5d d1 30 3d
       -0.113901414 -0.09862858 0.17327544 0.043168414
0000a0 5c 26 0f bd 8e 98 ce 3d 2d c0 03 be 67 d1 f8 3c
       -0.03494869 0.10087691 -0.12866278 0.030373288
0000b0 89 ab 09 3e 44 88 91 bd f8 4e fd 3c 9f 00 e2 3d
       0.13444342 -0.07106069 0.030921444 0.11035275
0000c0 68 ab 1a 3e 40 d8 03 bb 30 c1 6e 3d f2 bf 16 3e
       0.15104449 -0.0020117909 0.058289707 0.14721659
0000d0 ed cc 8b bd 7a 1a 24 be c3 04 a4 bc e4 bc 8c bd
       -0.06826196 -0.16025725 -0.020021802 -0.068719655
0000e0 d6 e2 2e 3e 5c 1e d8 3a 76 c9 d0 3d df e1 33 3e
       0.17078719 0.001648854 0.101946756 0.17566632
0000f0 b3 2f e3 bd e1 da d0 3c 82 f2 14 3e c8 70 09 3e
       -0.11093082 0.025494995 0.14545634 0.13421929

fc1.weight f4 [16, 896]
000000 3d 0d 04 bd 56 46 03 bd bd 0b c8 bb 18 60 4d bc
       -0.032239188 -0.0320495 -0.006104915 -0.012535118
000010 6e 23 99 3c 05 60 a4 3c 70 9f ab 3b 3a b7 ff 3c
       0.018693652 0.020065317 0.0052375123 0.031215299
000020 fd 2c 2f 3c a2 7b a7 3b 0f 27 63 3c 19 85 81 bc
       0.010691878 0.0051111737 0.013864293 -0.015810536
000030 68 48 c5 3c 2d 0c 9e 3c f1 87 c7 b8 4e f3 b7 3c
       0.024082378 0.019292915 -9.5143805e-05 0.022454884
000040 92 7d f5 bc a3 a3 f3 3c 8c 40 02 bd 09 dd 63 bc
       -0.029967103 0.029741114 -0.031799838 -0.013907679
000050 67 d3 55 3b cd 60 de bc 13 48 95 3c 53 4d 01 bd
       0.0032627226 -0.027145768 0.018222844 -0.031567883
000060 2d 2d 92 3a c5 26 25 bc d0 b5 8d bc 04 51 76 bc
       0.001115238 -0.010080044 -0.017298609 -0.015033964
000070 70 64 00 bd f6 e6 04 3d 37 a8 13 3c 2f 6f 97 3c
       -0.031345785 0.032446824 0.0090122735 0.018485634
000080 ed 85 aa 3c e2 7e 25 3c 69 36 05 bd 33 43 a7 3c
       0.020815814 0.010101052 -0.032522593 0.020417785
000090 2a 13 ef bc 71 db 6f bc 53 ce e3 3a 6a 9c 64 3c
       -0.029183943 -0.014639721 0.0017380215 0.013953308
0000a0 e0 f6 ed bb 4a de 9b 3c 6b 05 26 3c b7 4b 8c 3c
       -0.007262096 0.019026894 0.010133128 0.017125947
0000b0 74 b0 1d bc 2d 93 ee 3c 5d fd 5a bc 34 bc 7c bb
       -0.009624589 0.029122913 -0.013366071 -0.0038564326
0000c0 c0 98 05 bd 7d f5 ca bc ce 0e 95 39 da c8 0d bc
       -0.032616377 -0.024775261 0.00028430525 -0.008653844
0000d0 5b e4 0a 3c 5a 8b cc 3c 2f 5b 6c bb 47 fa e9 bb
       0.008477296 0.024968792 -0.0036065092 -0.007140431
0000e0 a2 2e 20 bd 5b bc e5 bc 7c 43 27 3b 4c f2 e6 bc
       -0.039106973 -0.028043916 0.0025522402 -0.028191708
0000f0 a2 02 87 3b 5d de 23 3c 23 db 9d 3c 11 6f a3 3c
       0.004120187 0.010001746 0.019269532 0.019950422
000100 c4 84 06 3d bc 2c ee 3c df 89 f6 bc 83 f7 2e bb
       0.03284146 0.029074065 -0.030095039 -0.0026697821
000110 a5 f7 f5 3c b6 06 6e bc 6a 06 f8 3c c1 02 8e 3c
       0.030025313 -0.014527967 0.030276496 0.017335298
000120 69 94 24 3c cc 4f ac 38 52 1c 19 3c be c0 e6 3c
       0.010045149 8.2164624e-05 0.009345131 0.028168079
000130 db 79 c0 3c 88 a5 70 bc 28 7e 8a bc 87 a7 80 bc
       0.023495605 -0.014687903 -0.01690586 -0.015704883
000140 79 d8 6d 3b d3 21 35 3c 46 9e f3 3c dc a4 0a bd
       0.0036292358 0.011055428 0.029738557 -0.03384863
000150 2e 8a f1 3c 7d de 79 3c de b8 7a 3c f1 52 d0 bc
       0.029484835 0.015250799 0.015302865 -0.025430175
000160 15 f4 09 bd 45 f4 e7 3c f6 3c 03 bd 35 55 17 3a
       -0.03368004 0.028314719 -0.03204056 0.00057728897
000170 01 e4 83 bc 98 df b3 bc 0f 1b 08 bd 9f c3 c3 3c
       -0.016099932 -0.021957204 -0.03322893 0.02389699
000180 81 84 af bc 3d 19 ce bc 95 4b ba bc c0 1b c1 3c
       -0.021425487 -0.025158519 -0.022741118 0.023572803
000190 b0 d7 95 3c d0 84 84 3b 8b 87 ad 3b 14 54 e0 3a
       0.018291324 0.004044153 0.005295699 0.0017114901
0001a0 6b 47 1e 3c a1 a2 81 3c 9b f4 ac 3b 31 d4 fb bc
       0.009660582 0.015824618 0.0052781827 -0.03074083
0001b0 fe 38 8e 3c 78 a4 82 bc 02 11 68 bc b6 02 06 bd
       0.01736116 -0.015947565 -0.014164211 -0.03271743
0001c0 ca a9 b7 bc be 0f 02 3c 0d 1f 00 bd 97 0d 06 bd
       -0.022419829 0.007938324 -0.031279612 -0.032727804
0001d0 b7 98 06 3c 0a 35 6d 3c ae 89 b1 bc 94 d6 e6 bc
       0.008215121 0.0144779775 -0.021672096 -0.02817849
0001e0 87 4e cf 3b 6f 65 cf bc 07 2e c0 3c 17 77 eb 3c
       0.0063265 -0.025316922 0.023459448 0.02874331
0001f0 b9 25 00 3d 98 60 a4 bc e4 4a df bc 46 df a9 3c
       0.031285975 -0.02006559 -0.02725739 0.020736348
000200 e9 72 fe bc 78 a0 2c bc 3e 80 52 3c bf 32 37 3c
       -0.031060653 -0.010536306 0.012847958 0.011181532
000210 75 90 d9 3c b8 78 65 bc 1c 61 ca bc ac 4a 96 3c
       0.02655814 -0.014005832 -0.024704508 0.018346153
000220 77 63 df 3c 70 c8 ec bc 88 b1 ef bc 93 6b bc bb
       0.027269108 -0.02890417 -0.029259458 -0.0057501285
000230 86 45 ed bc 30 53 d0 3c 50 82 b2 3c d6 5a a1 bc
       -0.028963815 0.025430292 0.021790653 -0.019696634
000240 37 78 e1 3c 58 0c cd bc f6 2b af 3c 6b 19 9a 3c
       0.027523143 -0.0250303 0.021383267 0.018810948
000250 94 6a df bb 88 49 a9 3b 2a 3e bb bc ac 9d 97 3c
       -0.006818125 0.0051662363 -0.02285679 0.018507801
000260 b4 e0 1e bb c4 bb 0c 3c f7 19 04 3d a7 d5 05 3c
       -0.002424282 0.008589689 0.032251325 0.0081686145
000270 80 cb 82 bc c5 f1 92 3c a7 59 ff b8 a7 ff c7 bc
       -0.015966177 0.01793755 -0.000121760466 -0.024413897
000280 67 76 03 bd 0f 5d 82 bb c7 86 ff 3b 5d ab 4b 3c
       -0.03209534 -0.0039783786 0.007798049 0.012430993
000290 ca e0 ab 3c 9d 7e 18 b9 4a 3b 73 3c be f7 52 3b
       0.020981211 -0.00014543017 0.014845679 0.0032191123
0002a0 77 c9 08 bd c8 6d e6 bc ae ed b2 3b b5 ef c6 b9
       -0.033395257 -0.02812852 0.0054604625 -0.000379441
0002b0 4e f2 a1 3c 80 5a e6 3b c5 3c 87 3c 7a 44 f4 bb
       0.01976886 0.0070298314 0.01650847 -0.007454452
0002c0 01 12 68 3c f1 eb 7d 3c c2 24 a8 3c 73 04 ff 3c
       0.014164449 0.015498147 0.02052534 0.031130051
0002d0 fc 41 9b bb 90 57 30 b9 2a 04 2f 3c ad d3 d6 3c
       -0.0047380906 -0.00016817288 0.010682145 0.026223982
0002e0 48 0a 2e 3b 16 36 4b 3c 55 83 8c bb cc b2 62 3c
       0.002655642 0.012403032 -0.004288117 0.013836574
0002f0 c8 65 07 3c c2 48 32 3c 24 18 2c 3b 46 22 c0 3c
       0.008264013 0.010881605 0.0026259506 0.023453843
000300 88 66 2d ba 13 6b 42 3b 1c 1b ea bc db e8 6d bc
       -0.00066147046 0.0029665872 -0.02857738 -0.014520849
000310 5c 06 56 bb b6 7f f5 3c 80 7a a7 bc 2a 23 f2 bc
       -0.00326576 0.029968124 -0.020444155 -0.029557783
000320 22 ee 9b bc 1c d5 36 3c 48 73 03 bd 19 d8 59 3c
       -0.019034449 0.011159208 -0.032092363 0.013296151
000330 e1 53 5e bc 96 e9 a0 bc b4 45 96 3c ba db c8 3c
       -0.013569803 -0.019642632 0.018343784 0.024518836
000340 b6 67 b4 3c fd fa 91 ba 8d f0 ac 3c cc 7d 74 3c
       0.02202211 -0.0011137422 0.021110797 0.01492257
000350 cd cf 34 3c 66 fd 7f 3c 30 da bb 3c f5 bf e5 3c
       0.011035872 0.01562438 0.022931188 0.028045634
000360 7c 60 cb 3c 95 4c 8f 3b ee 89 f0 bc 96 bb 73 3c
       0.02482628 0.004373143 -0.029362645 0.014876267
000370 96 bc 00 bd 04 bb 09 3c 01 31 91 bc 72 82 34 bd
       -0.03142985 0.008406404 -0.017723562 -0.044069715
000380 1b 4b 92 bc 94 08 b6 3c 2e bf f5 3b fc d5 44 bc
       -0.017858079 0.022220887 0.007499597 -0.0120139085
000390 59 c1 ea 3a d4 8b 0f 3c 6a c7 ac b9 47 5b ac bc
       0.0017910405 0.008761365 -0.00032954972 -0.021039618
0003a0 f0 e4 e2 bb e0 6a 87 3c e9 42 0a 3c e7 59 b8 3c
       -0.006924264 0.016530454 0.008438804 0.022503806
0003b0 b0 e2 df 3c 26 94 71 bc 45 1f c6 bc a9 0d b5 bc
       0.027329773 -0.014744794 -0.024184832 -0.02210124
0003c0 95 89 d5 3c 7e 26 d6 3a f3 a8 e1 3c 14 2a fd bc
       0.02606658 0.0016338376 0.027546382 -0.030903853
0003d0 9a c6 02 bd fa 4e 9c 3c 61 da 33 bc e5 e7 54 3c
       -0.031927682 0.019080628 -0.010977359 0.012994741
0003e0 4a 31 c2 bc 46 8d b5 bb 44 d6 c1 bc 13 68 84 bc
       -0.023705143 -0.0055405227 -0.02366174 -0.016162908
0003f0 91 a2 0e bd 90 97 18 3b 59 6f 69 3c 44 8f 8d bc
       -0.034823004 0.0023283698 0.014247739 -0.017280228

fc1.bias f4 [16]
000000 93 af 4f bc a1 6b 16 3b 46 d3 93 bc fd 12 b7 bc
       -0.0126761375 0.0022952335 -0.018045079 -0.022347922
000010 f7 1d e3 3c 8e 8c 34 3c 5d e8 6f 3c 94 0b 91 3c
       0.02772425 0.011019839 0.014642802 0.017705716
000020 7d 99 07 bd da 98 f8 3c e3 b6 89 3c 57 82 80 3c
       -0.033105362 0.030346323 0.01681084 0.01568715
000030 c5 4a 5e 39 39 27 41 bc 70 29 93 3c 98 c8 02 bd
       0.00021199424 -0.011789137 0.017964095 -0.031929582

fc2.weight f4 [32, 16]
000000 62 fe 7e 3e d1 92 f6 3d 0e 0f 3d 3e a6 9c ad 3d
       0.24901727 0.12039722 0.18462774 0.08477144
000010 48 67 38 3e 94 11 da bd b7 2c 41 3e 5b 2a 41 be
       0.18008149 -0.10647884 0.18864714 -0.18863814
000020 92 e6 72 be ef 04 a1 3d 71 26 f7 bd 78 7e 5b 3e
       -0.23720768 0.07862269 -0.12067879 0.21434963
000030 5b 5f 89 3d 24 7a 98 3d f1 54 62 be 1e 8b 18 bd
       0.06707641 0.074451715 -0.22102715 -0.037242047
000040 7a 6a ba bd d3 d6 6d 3e 21 39 0f 3e 5c 5d d6 bb
       -0.0910234 0.2322648 0.13986637 -0.006541891
000050 08 51 39 3e 4d d0 09 bd 56 68 10 be 75 9b 6c 3e
       0.18097317 -0.033645917 -0.14102301 0.23106177
000060 42 5d 73 bd c4 ed fb bd f0 98 59 3e c1 5c 7a be
       -0.05941511 -0.123012096 0.21249747 -0.24449445
000070 34 02 11 be 4c 24 56 be 9e 03 c8 3b 77 d6 04 bd
       -0.14160997 -0.20912284 0.006103947 -0.032431092
000080 a1 09 92 bd 5d 5b 4c bd bd 0a 71 3e 2d 5e b9 bd
       -0.07130743 -0.04989182 0.23539253 -0.09051166
000090 04 6b 57 3e 66 c2 35 be 6a 54 65 3e 1f dd 6e 3e
       0.21036917 -0.17749938 0.22395483 0.23326539
0000a0 9b 80 16 bd 5c 0f ac bd 4d 65 59 bd 31 a2 e3 3d
       -0.03674374 -0.08401367 -0.053075124 0.1111492
0000b0 ed 76 f0 3d 5f 64 59 3e 91 a1 08 bd 51 c9 13 bd
       0.11741433 0.21229695 -0.033357207 -0.036080662
0000c0 4e 5d 37 3d ad 39 40 3d 5c 18 29 3e f4 ea 59 be
       0.044766717 0.046930004 0.16513199 -0.21281034
0000d0 52 39 28 be fd ef a9 bd 5c ca 63 3d e2 e7 44 bd
       -0.16428116 -0.08297727 0.055612907 -0.048072703
0000e0 a2 38 3a be 12 39 1e 3e 66 a0 54 3e da 1b a0 3d
       -0.18185666 0.15451458 0.20764312 0.07817812
0000f0 4c 4c 2a 3e 20 58 40 bc 7e 86 39 3e 3e 7c 6e be
       0.16630667 -0.011739761 0.18117711 -0.23289582
000100 da 4e 37 3e 04 d1 48 3e 53 45 3d be 7a 3d 69 bd
       0.17901173 0.19610983 -0.18483476 -0.056943394
000110 20 16 b3 bd 13 04 f6 3d ee b6 07 be 36 2c 7c bd
       -0.087444544 0.12012496 -0.13253376 -0.0615656
000120 09 35 5e be 15 cf 2c be c9 85 3d be a6 47 55 be
       -0.21699919 -0.1687587 -0.18508066 -0.20828113
000130 c2 f8 1d be a0 b9 36 3c ac 26 5a bd 5e 35 8c bd
       -0.15426925 0.011152655 -0.053259537 -0.068461165
000140 49 0c 1e be 21 40 64 be 51 1a f6 bd 2b 22 c6 bd
       -0.15434374 -0.22290088 -0.12016738 -0.09674486
000150 68 3f 60 be f1 c8 3e be 8c 83 eb 3d e5 1e 2a bd
       -0.21899188 -0.1863134 0.114997 -0.04153337
000160 e7 65 84 3d b7 08 0e be 5e 85 2e 3d 38 74 00 be
       0.06464749 -0.13870512 0.042607658 -0.12544334
000170 c0 4a c5 3d 00 e9 fb bd b7 0b 2f 3d a3 44 13 3e
       0.09633398 -0.123003006 0.04273578 0.14381652
000180 5c 9d 5a be 36 73 61 3e 17 5f 3a be 85 1f 4f be
       -0.2134909 0.22016606 -0.18200336 -0.20226867
000190 d4 90 8c 3d 8e 3e d5 3d 63 32 35 be bc 67 4c 3e
       0.06863561 0.10412322 -0.17695002 0.19961447
0001a0 e0 5b 84 bc 9e b3 77 be 68 54 55 be 22 f9 0b 3e
       -0.01615709 -0.24189612 -0.2083298 0.13669255
0001b0 70 3f 7b be 91 42 1f be d8 e8 1f be 25 4b 93 3c
       -0.24535918 -0.15552737 -0.15616167 0.017980168
0001c0 f0 c6 1d be 15 d1 7e be aa 0a 0b 3e 6b 42 ca bd
       -0.1540792 -0.24884446 0.13578287 -0.098759495
0001d0 7c d1 42 be c8 9d 70 3d 35 9c 3b 3e 64 e2 20 3e
       -0.19025224 0.058744222 0.18321307 0.15711361
0001e0 2b 49 21 3e 7a b4 6c 3e 92 4f 56 3e 50 2e 31 be
       0.15750568 0.23115721 0.20928791 -0.17302823
0001f0 9f 82 1d 3e 40 e3 ab bb 13 83 d1 3d 9a 1b 0a bd
       0.15381859 -0.005245596 0.102300785 -0.03371773
000200 d0 c0 7e 3c 9c f6 de 3d 0c fa 09 bd 58 24 79 3d
       0.0155489 0.10886881 -0.03368573 0.060825676
000210 50 ef 47 be c4 68 04 be 3a df c8 bc 5b 52 74 be
       -0.19524884 -0.1293059 -0.024520505 -0.23859541
000220 03 dd a6 bd ef 90 5a 3e de 9d 91 bd 3c 6b 4a 3e
       -0.081476234 0.2134435 -0.07110189 0.19767469
000230 db 0d e5 3c 04 ef 40 3e f2 e0 c1 bd 58 a3 ce bc
       0.027960708 0.18841177 -0.09466733 -0.025224373
000240 f5 e5 45 3e e6 8e 79 be 45 03 1c be b0 fd 4a be
       0.19326003 -0.24370918 -0.15235622 -0.19823337
000250 92 c1 32 be 2d b4 2a bd b0 31 3a bd 43 10 49 be
       -0.17456654 -0.041675735 -0.045457542 -0.1963511
000260 46 12 21 3e 87 4d 50 be a0 4c 6b 3e 9d b3 0c be
       0.15729627 -0.20342074 0.22978449 -0.13740392
000270 13 48 40 3e 1e c2 43 be cb 91 b9 3d dd ea e3 3d
       0.18777494 -0.19117019 0.09061011 0.11128781
000280 66 3c 61 be b4 88 af 3d 30 c8 7d bc 8e e4 12 be
       -0.21995696 0.08570996 -0.015489623 -0.14344999
000290 2c 40 7f 3e 81 3a 9d 3d f6 26 17 3e 79 5b 95 3d
       0.24926823 0.07677174 0.14760956 0.07292838
0002a0 af e2 71 3e c5 bf ef bd 1e 41 e9 bd 7e 36 99 b9
       0.23621629 -0.11706499 -0.11389373 -0.00029223034
0002b0 a2 91 34 be 0f a8 2a 3d 27 5d 27 be e3 8c d2 bd
       -0.1763368 0.04166418 -0.16344129 -0.10280778
0002c0 31 b7 09 3e 79 a4 7a be b8 01 2e be dd fc 73 be
       0.13448788 -0.24476804 -0.16992843 -0.23826928
0002d0 30 56 34 bd 8c 9e 29 3e 8b 22 00 bc b1 19 80 3d
       -0.044027507 0.16564387 -0.007820736 0.062549
0002e0 24 8c 3e bd a7 3b 14 be d7 ee 48 3e 32 1e 5c bc
       -0.046520367 -0.1447588 0.1962236 -0.0134349335
0002f0 44 98 6e 3e c2 c3 6b 3e 79 ff 09 3e 5b 00 58 be
       0.23300272 0.23023894 0.13476361 -0.21093886
000300 a4 f9 00 be 8b 0a fd bd 08 57 5f bd 4e 9c 06 bc
       -0.1259523 -0.123555265 -0.05452636 -0.008215977
000310 10 a3 ac 3c a9 a9 e8 3c 75 2e cd 3c 2c 29 2c be
       0.021073848 0.028401213 0.025046567 -0.16812581
000320 71 9d 32 3e 86 5e d4 3d ce 61 12 be 01 f4 56 bd
       0.17442872 0.103695914 -0.14295122 -0.052478794
000330 cf 5a ec 3d ba ad 4b 3e 80 7b 25 be 3d 7f 37 bd
       0.11540758 0.1989049 -0.16160393 -0.04479908
000340 82 26 62 be f9 50 4b be 78 7f 2b 3e ce d2 1f be
       -0.22085002 -0.19855107 0.16747844 -0.1560776
000350 40 61 79 3d 44 36 32 be 6b 41 f9 bc a9 94 5a be
       0.06088376 -0.17403513 -0.030426702 -0.21345772
000360 c3 b9 4d be f4 05 af bd 1a f4 21 be de e6 49 3e
       -0.20090394 -0.08546057 -0.15815774 0.19716975
000370 0b 47 7d bd d1 23 07 3d fd 98 2b 3e 00 8e 79 3a
       -0.06183533 0.03299314 0.16757579 0.0009519756
000380 14 c1 44 3e 45 bd 26 3e 71 3e 40 be 31 93 03 bd
       0.19214278 0.16283138 -0.1877382 -0.032122795
000390 1a 2e 44 3e 71 ea f0 3d ed ff 54 3e 36 0b 6e be
       0.19158211 0.11763466 0.20800753 -0.23246464
0003a0 c5 ec 32 be 94 7c 6c bc dc 65 04 3e 7a 2f 45 3d
       -0.17473133 -0.014433999 0.12929481 0.04814098
0003b0 ad be 7c 3e 00 95 66 3e f8 9a 87 3c b0 62 60 be
       0.24682112 0.22517776 0.016553387 -0.21912646
0003c0 07 46 8b bd 19 70 11 bc 33 89 55 bd 1c 25 93 3b
       -0.06800466 -0.008876824 -0.052132796 0.0044905078
0003d0 4c d1 90 bd d0 73 27 3e 31 da 13 be 6d 32 ab 3d
       -0.0707117 0.16352773 -0.14438702 0.08359227
0003e0 0c ad 35 3d 78 48 00 3d cc 31 37 be 7d 22 09 3e
       0.044354483 0.03131911 -0.1789009 0.13392062
0003f0 06 67 e8 3b c6 f9 64 be 19 0f 9c 3d 40 0e a0 bc
       0.0070923595 -0.22360906 0.07620067 -0.019538045

fc2.bias f4 [32]
000000 eb 7a 25 3e ec 82 32 3a b6 d8 77 3e 20 2d ea 3d
       0.1616017 0.000680967 0.24203762 0.11434388
000010 1b b3 6d be 1d eb ff 3d 75 02 51 3e 9f 38 37 be
       -0.23212855 0.12496016 0.20411094 -0.17892693
000020 86 c8 56 be eb 76 7a 3e 62 12 7a be 7b ff 49 be
       -0.20974931 0.24459426 -0.24421075 -0.19726364
000030 5d 89 14 3e 45 98 79 3c 7b 58 f0 bd 34 53 40 bc
       0.14505525 0.015234058 -0.11735626 -0.011738587
000040 25 49 4a bd 31 1b 37 3e 5d 82 10 3e 5c 72 89 bd
       -0.049386162 0.17881466 0.1411223 -0.067112654
000050 33 c6 f5 bd 82 c3 69 3e d3 87 9b bd 5b c9 c9 3d
       -0.12000694 0.22828487 -0.07594266 0.09852859
000060 c2 3a 0f be 0e d9 50 3e fc 67 23 3a ee 76 bb bd
       -0.13987258 0.203953 0.00062334514 -0.091535434
000070 11 f9 49 3e 85 1b 3e 3e 96 ea 49 3e a5 41 cd 3c
       0.19723918 0.18565185 0.19718394 0.025055716

fc3.weight f4 [64, 32]
000000 d5 ab bc bd 1e df c6 bd 5b fe 2a 3c 1b ad 8b 3d
       -0.09212462 -0.09710525 0.01043662 0.068201266
000010 6a c3 bc bd fb 5b 1d bd f0 da 16 be 0f 94 06 be
       -0.0921696 -0.038417798 -0.14731956 -0.13142417
000020 ad 8f 3b bd 26 1f f8 bd 25 f0 d9 bd 0f 54 f4 bd
       -0.045791317 -0.12115316 -0.10641507 -0.119300954
000030 e7 f4 06 bd 2a 87 65 bd 3e be 64 3d fb a8 57 3c
       -0.0329484 -0.056037106 0.05584549 0.013162847
000040 07 d8 0b bd 1f 45 ad 3d 33 d5 14 3c cf 52 23 3e
       -0.034141567 0.084604494 0.009084034 0.15949558
000050 4e f0 4a 39 85 06 16 be d3 db db bd 34 3b be bd
       0.00019353742 -0.14650925 -0.107352875 -0.09288636
000060 e1 d9 fd bd a3 09 08 be e7 eb bb bd 80 de fc bd
       -0.12395073 -0.13284926 -0.09175854 -0.12347126
000070 c0 5b 2f bd df 42 2f be a1 d3 89 bd 20 e7 ac bc
       -0.04281211 -0.17115353 -0.06729818 -0.021106303
000080 c5 8b e2 3d 1b 09 5c bd 90 91 02 be 1c a2 51 3d
       0.11061815 -0.05371962 -0.1275084 0.05117999
000090 4b 9b bb bd e0 c9 02 3e 14 9f fe 3d 9f 74 ea bd
       -0.09160479 0.12772322 0.124326855 -0.11448025
0000a0 04 e0 a8 3d 11 92 9f 3d a9 96 36 bd 49 d6 8c bb
       0.082458526 0.07791532 -0.044577274 -0.0042980057
0000b0 78 c6 20 be fa 7f 22 be f7 ef c4 bd a2 5a 5f bd
       -0.1570071 -0.15869132 -0.09616082 -0.054529794
0000c0 bc 25 d1 bd 8a 3c 0b bd cf 6b ee bd ea 7e e2 bd
       -0.102122754 -0.03399328 -0.116416566 -0.11059363
0000d0 6d 70 36 3c 8b 53 23 3e 33 6f fa 3c 27 8b 74 bd
       0.011135203 0.15949838 0.030570602 -0.05970302
0000e0 b1 63 97 3c 14 cb 11 bd 58 e9 28 3e 4c c5 14 3d
       0.018480154 -0.03559406 0.16495264 0.03632097
0000f0 c8 70 67 3d fc 40 98 3b 1a a0 22 be b3 9b d8 3d
       0.05650404 0.0046464186 -0.15881386 0.10576572
000100 ab 11 6a 3d 22 8b 23 3e 8c 34 a7 bc 86 1d 98 3d
       0.057145756 0.15971044 -0.020410798 0.07427506
000110 e2 a4 c0 3d 7a 2f 8b bd f1 94 80 bd 89 55 ef bd
       0.09406449 -0.06796165 -0.06278408 -0.116862364
000120 ef fe 72 3d c2 f4 c1 bd 1d 36 e8 bd 74 ee 6b bd
       0.059325155 -0.09470512 -0.11338446 -0.057600453
000130 4b ac 34 3e ad e5 c3 bd 7b 52 24 3e a9 97 05 3e
       0.1764385 -0.095652916 0.16047089 0.13046135
000140 41 d5 7c 3d 57 0c 00 3e 5f 6b a4 3d 75 0e 1d be
       0.061726812 0.12504707 0.08028292 -0.15337546
000150 22 1d 8b bc 5f 4e 11 3e 36 ba 9f bc 43 6c 0a 3d
       -0.016981665 0.14190052 -0.019497972 0.033794653
000160 dd 8b 87 3d 60 bf 88 bd 49 17 5b bd 3f 45 c4 3d
       0.06618474 -0.06677127 -0.053489003 0.0958352
000170 ef 4d 2e be ec 5f d5 3d d7 0d a4 bd 7d ea 29 be
       -0.17021917 0.10418686 -0.08010452 -0.16593356
000180 7f 6c 29 be 15 e1 34 3d 6d 69 9d 3d 6f 19 a0 3d
       -0.16545294 0.044159967 0.07686124 0.07817351
000190 af aa b6 bd 1d 7c a7 b9 1e 36 22 3e 36 a7 73 3d
       -0.08919274 -0.00031945194 0.15840957 0.059485637
0001a0 e5 7b dc 3d 13 18 28 be 06 9d 08 be 8b 07 32 be
       0.107658185 -0.16415434 -0.1334115 -0.1738569
0001b0 85 e0 06 3e 38 d0 42 3d 78 1f aa 3d 05 04 68 bc
       0.13171585 0.047561854 0.083067834 -0.014161115
0001c0 9f ee 29 3e e0 f6 d1 3d ca 7b 27 be c7 90 4b 3d
       0.16594933 0.10252166 -0.16355816 0.049698617
0001d0 84 ff f5 3c 91 24 02 be d0 09 14 3e 0f 4f 2c bd
       0.030029066 -0.12709261 0.14456868 -0.042067584
0001e0 2c bc 0c 3e 36 00 a6 bd 1f 80 34 be cf 9a 23 3d
       0.13743657 -0.08105509 -0.17627 0.03994256
0001f0 81 5a 1a 3e a5 5b 1c 3d 7c f1 bf 3d 60 c8 8a bd
       0.15073587 0.038173337 0.09372231 -0.067765
000200 3c 19 f7 bd 23 ef e8 3d 9a 56 b2 3d 40 32 16 3e
       -0.1206536 0.11373737 0.08707924 0.14667606
000210 3c 98 de 3d 12 d4 a5 bd 64 88 a7 bd a9 6c 20 3e
       0.1086888 -0.0809709 -0.08180311 0.1566645
000220 da e9 15 3d 11 10 a8 bd c8 50 fe 3d a6 18 e9 bd
       0.03659997 -0.082061894 0.124177516 -0.113816544
000230 43 ba ff bd 96 8a 91 3d d9 b2 70 3d 84 2c fd 3d
       -0.124866985 0.07106511 0.058764312 0.12362006
000240 f2 0e 17 be d3 3c 2d bd 34 a1 8e 3b 50 ef 10 bc
       -0.14751795 -0.042294335 0.004352713 -0.008846119
000250 a1 48 fb bd c8 fb 00 3e 2d fa cb bc f2 a3 07 bd
       -0.12269712 0.12596047 -0.024899567 -0.033115335
000260 13 14 e2 3b 14 1b b8 3b 51 fa d6 3d 80 c2 ac bd
       0.0068993657 0.0056184623 0.10496963 -0.084355354
000270 3a 40 00 3e 64 1c 8d bd cb c5 78 3d da b0 0c be
       0.125245 -0.06890181 0.060735505 -0.13739339
000280 0f 72 b1 bd cc 8c 18 bd ea eb 26 be 4f 5e bb bd
       -0.08664333 -0.03724365 -0.16300932 -0.09148847
000290 08 2e 10 be 51 0f da 3d e7 b1 50 bd c7 ea 81 bd
       -0.1408006 0.106474526 -0.05095091 -0.06343608
0002a0 ba 39 fb 3d 28 65 d3 bd 2b 4c d7 bd 32 ee 27 3e
       0.1226687 -0.103220284 -0.10512575 0.16399458
0002b0 22 83 68 3d fd bd 85 3d 97 32 07 3e 7e 84 12 3d
       0.056765683 0.06530378 0.13202892 0.035770886
0002c0 2f fc 10 be 43 e9 86 bc 6e d7 0c 3e 50 45 50 3d
       -0.141587 -0.01646865 0.13754055 0.05084735
0002d0 05 22 96 bd fb cd 1b bd 7c dd e0 3d 5a c3 99 bc
       -0.073307075 -0.038038235 0.10979745 -0.018769909
0002e0 1a 40 c7 bd 73 38 25 be 50 0b 0a 3e f2 a1 eb 3d
       -0.09729023 -0.16134815 0.13480878 0.11505498
0002f0 56 74 43 3d 3c e2 a7 3a 8d 9b a7 bd 30 82 c9 3a
       0.04771837 0.0012808512 -0.08183966 0.0015373882
000300 32 f5 db 3c 97 be 2e be 42 89 5b bc d4 1a 74 bd
       0.026850317 -0.17064892 -0.013399424 -0.059595898
000310 f6 f4 9c bd 6a 6d 19 3d 3a 6f 8f 3d 1e 9b 2a be
       -0.0766391 0.03745786 0.07003637 -0.16660735
000320 2d 7e 09 be 2a 18 1e be 66 ea 82 3d 48 17 a4 3c
       -0.13427038 -0.15438905 0.06392364 0.020030633
000330 4e 19 c4 3d cd 74 0b bd 00 45 16 bd fe 7f 19 3e
       0.09575139 -0.034046937 -0.036686897 0.14990231
000340 bf 3c 06 be da 30 d8 bd 08 37 de 3d 3d ff cb bd
       -0.1310911 -0.10556193 0.1085034 -0.09960792
000350 15 d5 1d 3e 6d 8a 2c 3c b9 b2 1c be fe fc 18 3e
       0.15413316 0.01053105 -0.15302552 0.14940259
000360 1c bd 56 bd 74 00 15 3e c7 73 a6 bd 01 fc ff bd
       -0.052426443 0.14550954 -0.081275515 -0.12499238
000370 35 13 dd 3d 58 74 0b 3e 03 99 c7 3d 54 3a 04 be
       0.10794679 0.136186 0.097459815 -0.12912875
000380 05 67 d4 3d db ed 0d be 8a 7d be bc aa 25 d5 3d
       0.10371212 -0.13860266 -0.023253221 0.104075745
000390 d6 6f bc bc 0e af 13 3e d8 05 62 bd d0 a1 cd 3d
       -0.023002546 0.14422247 -0.055181354 0.10040629
0003a0 81 a7 31 be 1f a4 15 be 4b aa e7 3d 26 73 65 bd
       -0.17349054 -0.14613388 0.11311778 -0.056018017
0003b0 3a 36 a4 bd a7 53 10 3e 5c 28 27 be aa e1 a0 3c
       -0.080181554 0.14094411 -0.1632399 0.019638855
0003c0 1e 26 cc 3d 55 e2 92 bd 08 7b c4 bd a5 3c d3 bd
       0.09968208 -0.07172076 -0.09593779 -0.103143014
0003d0 8b 91 3e bd 8c 22 91 3d 1c 84 05 3e 2d cc bb 3d
       -0.04652552 0.070866674 0.13038677 0.09169803
0003e0 af d4 00 3e 38 da 92 3d 30 25 16 3e a2 da b0 bd
       0.12581132 0.07170528 0.14662623 -0.08635451
0003f0 e6 14 24 be a8 85 2f 3e 30 bf 45 3c fd 2f 06 be
       -0.16023597 0.1714083 0.012069508 -0.13104244

fc3.bias f4 [64]
000000 52 3d c9 bd 83 0f 0d be ad 62 9b bd 9e 22 26 be
       -0.09826149 -0.13775449 -0.0758718 -0.16224143
000010 27 26 30 bd c4 78 3d 3d a3 3d 97 3d 19 03 1f bd
       -0.043005135 0.04625775 0.07384803 -0.038821314
000020 3d 6a d2 bd 5d 64 51 3c 4d 92 01 3d 21 4c eb 3c
       -0.102741696 0.012780276 0.031633664 0.028722825
000030 0d 3d 9b bd 36 3f 89 bd 70 6d d7 3c cc cc 09 be
       -0.07580004 -0.0670151 0.026297301 -0.1345703
000040 f8 be 1f be 8a 6a 89 3d 9a 5f 37 3d 8f ec 30 be
       -0.15600193 0.06709774 0.044768907 -0.1727774
000050 c3 7a 1b be 1d d6 9b 3d 99 82 51 3d bc a0 12 3e
       -0.15183549 0.07609198 0.05114994 0.14319128
000060 e5 39 41 bd a0 5a 09 3e ee 7f 33 3d 58 fe 29 3e
       -0.047174353 0.13413477 0.043823175 0.1660093
000070 13 d3 a6 3d ae 0e cb bd 22 41 8c bd 0d 53 8e bd
       0.08145728 -0.09914909 -0.068483606 -0.069494344
000080 8c b7 26 3e 3a 86 06 3e 3f 76 e4 bd ee 57 af bd
       0.16280955 0.13137141 -0.11155366 -0.08561693
000090 38 1c 83 3a 33 8b 95 bd a3 d0 02 3d 86 7c 9a 3d
       0.0010002917 -0.07301941 0.031937253 0.07543282
0000a0 9b 3b e7 bd 4e 2f a7 bd e6 bd 17 3e 93 da 1a 3e
       -0.11290666 -0.081633195 0.14818534 0.15122442
0000b0 bc 2a 01 3e 2c 9e 98 3d 52 de 0c be 50 34 23 be
       0.12613958 0.07452044 -0.13756683 -0.15937924
0000c0 32 8b 00 bd 69 6a 1f 3c b6 6c 05 be 32 8f 2c 3e
       -0.031382747 0.00972996 -0.13029751 0.168515
0000d0 a7 7d 2f be 95 bf 19 bd a0 64 e7 bd f5 37 ba 3d
       -0.17137776 -0.037536222 -0.112984896 0.09092704
0000e0 6d c3 25 3d 5a ad 2e bd 50 ab b6 bb 99 f7 2c be
       0.040469576 -0.04264579 -0.0055746213 -0.16891326
0000f0 f5 f1 cf bd f9 89 d6 bd 0d 65 bb bd 01 1f a6 bd
       -0.101535715 -0.10475535 -0.09150133 -0.08111382

fc4.weight f4 [128, 64]
000000 7c e9 3e bd 62 0a 83 3d a5 9b f9 bd 58 0d cf bd
       -0.046609387 0.06398465 -0.1218789 -0.10109967
000010 89 aa 77 bd 91 58 cb bd 05 6a cd bd 15 2d 0e 3d
       -0.06046537 -0.09929002 -0.10029987 0.034710962
000020 59 3e c8 bd 4f ee 31 bc 2c 00 53 bc 5c 3d df 3c
       -0.09777517 -0.01086004 -0.012878459 0.027250938
000030 c8 91 83 3d 11 ff c2 3c 13 5f ff 3d 1e 0b 9d 3d
       0.0642429 0.023803266 0.12469306 0.07668136
000040 2d 31 fb 3d 36 dd 89 bc 9e 8a f3 bd 01 af b3 3c
       0.12265239 -0.016829114 -0.118916735 0.021934034
000050 61 c9 b0 bd 92 54 22 3c 76 80 80 3d b2 ed b3 3d
       -0.0863216 0.009907858 0.06274502 0.08785571
000060 1c f4 d2 bc 74 f2 7f bd 4a 2c f6 bc 98 35 8e bd
       -0.025751166 -0.06248708 -0.030050416 -0.06943816
000070 94 ad f5 3d d1 cd 5f 3d b8 84 1f bd c9 7a e1 bd
       0.11995998 0.05463964 -0.03894493 -0.110097475
000080 5b 53 df 3c ff ba 3c 3d 4a 9c aa bd 73 f6 b4 3c
       0.027261427 0.04607677 -0.08330591 0.022090172
000090 33 e6 8d 3c b5 c2 d6 3d 5f 26 62 bd b3 4e fb 3c
       0.017321682 0.10486356 -0.055212375 0.030677175
0000a0 31 2e fc bd 44 20 e2 bd 41 17 84 3d d1 0a 51 3d
       -0.12313498 -0.110413104 0.06449748 0.051035706
0000b0 74 6e 72 3d a0 e4 d2 bd 06 ee c3 bc 08 1a a2 bc
       0.059187368 -0.10297513 -0.02391721 -0.019787803
0000c0 0b 21 c5 3d b4 a9 94 bd 9c 20 d7 3c 53 a5 bf bd
       0.09625443 -0.07258931 0.026260667 -0.09357705
0000d0 c0 50 4e 3d 8f 34 b6 3d 3a 05 3c 3d a6 1b bd bc
       0.050369978 0.088967435 0.045903422 -0.023084473
0000e0 e4 52 a7 3c 36 24 e8 3d 2f 5e b7 bd 00 fb a4 bc
       0.020425268 0.11335032 -0.08953511 -0.020139217
0000f0 72 72 d9 3d 01 9d 54 bd fe f9 6e 3d 6c 73 23 bd
       0.10617532 -0.051907543 0.05834388 -0.039904997
000100 f9 44 f3 3b 25 1d c6 bc 92 e1 c8 bd fb a7 ff bb
       0.0074239937 -0.02418382 -0.09808649 -0.0078020073
000110 c5 a5 af 3d eb d2 f1 3d 2a 08 22 3d ec ca d7 3d
       0.0857654 0.118078075 0.039558567 0.10536751
000120 31 48 da bd ec 89 eb bd 99 7b 39 bd 2b 49 c2 bd
       -0.10658301 -0.11500916 -0.045283888 -0.09486612
000130 c5 6e 88 bd f7 df fd bb da a3 1c 3d 7d c7 a8 3d
       -0.066617526 -0.007747646 0.0382422 0.08241174
000140 27 b4 33 bd 07 5c 82 3d 46 2f c7 3d ce ce 6a bd
       -0.04387298 0.06365209 0.097258136 -0.05732613
000150 7f 6e b0 bc 26 cf 97 bd a5 49 e7 bd 0f 6d 8e bd
       -0.021537064 -0.07412557 -0.112933435 -0.06954395
000160 3b 02 9a bd bd 0a cd bd c6 dc 5f 3d 3a 22 82 bc
       -0.07519957 -0.10011814 0.054653905 -0.015885461
000170 8b ed 4f 3c 86 ee f4 3d 61 4f ba bb d0 ad fc bd
       0.012690912 0.11959557 -0.0056857322 -0.123378396
000180 df af a4 bb 0e f7 84 bc 84 d9 1a 3d 3e b2 96 3d
       -0.0050258483 -0.016231086 0.037805095 0.07358216
000190 13 a3 63 bd f8 b4 a4 3d c5 53 86 bd 9c 49 a0 3d
       -0.05557544 0.080423295 -0.065589465 0.0782654
0001a0 24 f1 d2 bb 13 e5 a7 bd a8 88 65 bd 7a 7e e0 3d
       -0.0064374376 -0.08197989 -0.05603853 0.109616235
0001b0 5c c3 92 3c 47 b6 2f 3d 65 bd c4 3d 3c c2 d2 bd
       0.01791542 0.042898443 0.09606437 -0.102909535
0001c0 a1 e7 1b 3d 0e 7b b2 3d 83 29 5a bd 59 31 ac bd
       0.038062695 0.08714877 -0.053262245 -0.0840785
0001d0 01 e0 66 bc 2f e5 b4 3d 82 ba 4f 3c 59 81 0a 3c
       -0.014091493 0.08832776 0.012678744 0.00845369
0001e0 fe 7b 6b bd 49 b8 2a 3d d5 c0 36 3d 5b a1 23 3d
       -0.057491295 0.041679654 0.044617493 0.039948802
0001f0 5a 2b 21 3c 5a 0c 74 3c e1 42 0d 3c ed cd ad 3d
       0.009836996 0.014895523 0.008621902 0.08486543
000200 95 12 61 bd 81 97 bf 3c b4 36 91 3a d1 39 8d 3d
       -0.05494936 0.023387672 0.0011078925 0.06895793
000210 2a e5 88 3c 28 54 74 bb 2d cb 37 3d 3e fa bc bd
       0.016710836 -0.0037281606 0.044871498 -0.092274174
000220 99 7a de 3c 12 44 02 bc 9f 57 62 3c 5a f5 e7 bd
       0.027158068 -0.0079508 0.013814836 -0.11326094
000230 a9 55 d4 3d da 8b 9c 3d ac aa a6 bd 4b f2 e6 bd
       0.10367901 0.07643862 -0.08138022 -0.112766825
000240 7b 46 29 bd 1c da 9a 3c 14 fa 18 bc 84 50 3d bc
       -0.04132698 0.01890283 -0.009336967 -0.011554841
000250 d0 26 4f 3d 8a 79 90 bd 8a e0 94 bd ab 08 d4 3c
       0.050574124 -0.07054432 -0.0726939 0.02588304
000260 4a 93 a5 bd 0b 5f de bd be 2b 95 3d ef 2d ce 3d
       -0.08084734 -0.10857972 0.07283734 0.10067355
000270 d5 91 2f 3d ba 7e 83 bd 2e 97 b6 bc 74 94 b0 bc
       0.042863686 -0.064206555 -0.022288885 -0.021555163
000280 4b c9 2a bd cf b8 1d 3d c7 9f d4 3d 9f 89 ca 3b
       -0.041695874 0.038506325 0.103820376 0.0061809565
000290 4f fc b7 bd ae 2a fc 3d b0 66 2f 3d 82 0d ee bd
       -0.08983671 0.12312828 0.04282254 -0.1162367
0002a0 22 0a dd bc 99 8d 8c bc ea 43 8b bd a6 7e 86 bc
       -0.02698237 -0.017157363 -0.06800063 -0.016417813
0002b0 8b 32 38 bd 7d 98 bb 3c 9b bb d3 3d 36 10 f1 bd
       -0.044970077 0.02289986 0.10338517 -0.1177067
0002c0 2e 64 7a 3d 47 b0 f8 3d 8f 54 c0 bd e2 bf d3 3c
       0.061130695 0.12142997 -0.09391128 0.025848333
0002d0 57 f5 87 3d d8 1f 6f 3d d5 95 82 bd 24 be 96 bd
       0.06638592 0.058379978 -0.063762344 -0.07360485
0002e0 ca 6e b1 bc 06 c0 d8 3d 2f 9d 91 3d 35 0f de bd
       -0.021659274 0.105835006 0.071100585 -0.10842744
0002f0 8a 7b e5 3d 25 82 28 bd 61 2d f0 bd f5 11 c9 3c
       0.11205204 -0.04113974 -0.11727405 0.024544695
000300 1d 16 9e 3c ac e8 54 bc 7a 8e 94 bc 6f 47 09 bd
       0.019297654 -0.012994926 -0.018134344 -0.03351539
000310 71 88 ed bd eb 7f 80 3c 65 f4 5f bd 4f 1f 0f bd
       -0.1159829 0.015685996 -0.054676432 -0.034941968
000320 f4 5a b4 bd 83 f2 73 3d 82 49 0f bd 14 dd 21 bd
       -0.088064104 0.05955745 -0.034982212 -0.039517477
000330 fd 55 a6 bd 63 cf ef 3d 96 47 22 bd a9 ff 95 3c
       -0.0812187 0.11709478 -0.03961905 0.018310385
000340 be 68 75 bc 94 92 f6 bd 3a 40 d4 bd df 23 ec bd
       -0.014978586 -0.12039676 -0.10363813 -0.11530279
000350 26 55 c4 bc e1 e5 37 bc 2d 44 7a 3d f6 1c df 3d
       -0.023966383 -0.011224241 0.061100174 0.10894196
000360 26 3b de bd 2e 9b e7 bd a7 1c 5a 3d ef 2d d6 3d
       -0.108511254 -0.11308895 0.05324998 0.1045798
000370 27 68 b1 3b dd f9 7f 3b 47 c6 f4 3c 60 30 f3 bb
       0.0054140273 0.0039058842 0.029879702 -0.0074215382
000380 7d a4 b1 3d 1d a3 d2 3a 40 db f7 bd 5a cd 04 bd
       0.08673952 0.001607034 -0.121023655 -0.0324224
000390 15 5f 25 3d 27 24 0e 3d 82 37 ec bd 18 9b 01 3d
       0.04037388 0.034702446 -0.11534025 0.03164205
0003a0 c0 9f ba bd 18 da 08 bd 01 a1 a4 bd bc 35 f0 3d
       -0.09112501 -0.033411115 -0.080385216 0.11728999
0003b0 44 3f a8 bd 3d d5 d8 3d 8c dd 43 3c 13 83 c5 3d
       -0.08215192 0.10587547 0.011954676 0.09644141
0003c0 f8 a3 f8 bd 55 1d 9e bd 98 cc 5c bd f5 4e 37 3c
       -0.121406496 -0.077204384 -0.053906053 0.011188258
0003d0 c0 e4 e1 3d 71 22 67 bc c3 4c ab bd e6 1b fc 3d
       0.11029959 -0.014107333 -0.083642505 0.12310009
0003e0 a1 9f e1 bd 4d cb 37 bd 9c 1e 47 bd 37 36 31 bb
       -0.11016775 -0.044871617 -0.048613176 -0.0027040371
0003f0 53 1a a5 b9 81 a9 3e 3d 18 70 aa 3c 26 e5 7c bd
       -0.00031490866 0.04654837 0.020805404 -0.06174197

fc4.bias f4 [128]
000000 76 34 b2 bd a7 ec 98 bd 1b df ed bd 36 eb 1c bd
       -0.087014124 -0.07467013 -0.116148196 -0.038310252
000010 9b 5c 82 bb ed 20 89 bc a2 56 c3 3d f1 71 cd 3d
       -0.0039783246 -0.016739333 0.09538008 0.10031498
000020 b2 d4 e2 3d d1 04 c9 bd 64 47 1c 3d 1c 99 25 3d
       0.11075725 -0.09815372 0.03815402 0.04042922
000030 8d 00 6e bd a1 19 36 bd 32 9e 01 3d 5b c6 9d 3d
       -0.058105994 -0.044458035 0.031645007 0.07703849
000040 d3 cb 1e bd b8 f5 8e bd ce 83 e3 bb 02 75 cb bc
       -0.0387686 -0.06980461 -0.0069432026 -0.024836067
000050 03 91 df bd b3 9c 4d b7 1d c5 5a 3d db 68 63 bd
       -0.10916331 -1.2255437e-05 0.053410638 -0.05551992
000060 62 79 e7 bd 85 da ef bd 61 dc a6 3d f1 97 9d bc
       -0.11302449 -0.11711601 0.08147503 -0.01923749
000070 a9 6f bf bd 20 a3 d3 3d 52 f0 00 bd ff b7 bd 3d
       -0.09347469 0.10333848 -0.031479187 0.0926361
000080 dd f9 d9 3d 8c 99 e6 3a f3 36 b9 3d 3c ce f1 3a
       0.10643361 0.0017593368 0.09043684 0.0018448303
000090 79 d8 26 bd fb a8 e6 3d d2 bd 52 bd af 82 9a bc
       -0.04073379 0.11262699 -0.051450558 -0.018861143
0000a0 94 1f 32 bd 78 86 64 bd 01 2a b7 bd 9f 1b ca 3d
       -0.043487146 -0.055792302 -0.089435585 0.098685496
0000b0 c7 bd 63 3d 08 86 87 bd 92 9f f3 3c 42 ed ba bd
       0.055600908 -0.06617361 0.029739175 -0.091272846
0000c0 86 6e 7c 3d 0e e8 dd 3c 0b 0c 77 bd 77 65 93 bc
       0.06162884 0.027088191 -0.06031422 -0.017992718
0000d0 db 50 bf bd 7a bb 71 3c ea 21 d3 3d 4b 3e 8a 3d
       -0.09341594 0.014754171 0.10309203 0.06750163
0000e0 2b f2 93 bd 19 10 42 bd 0b ce 6b bd 7f 0e c9 bb
       -0.07223924 -0.047378633 -0.057569545 -0.0061357613
0000f0 51 19 83 bd aa 0d 47 3d f1 1c 1e bd d0 8d 59 3c
       -0.06401313 0.048597015 -0.03860182 0.01327844
000100 07 f4 a0 3d 86 ca 11 3c d8 2a 80 3d a9 05 8f 3a
       0.078590445 0.008898383 0.06258172 0.0010911721
000110 55 25 cb 3c 31 04 e8 bd a4 77 b0 3d d8 c3 0f 3c
       0.024798075 -0.113289244 0.0861657 0.00877472
000120 56 08 13 3a 58 2d 83 bd 12 15 a4 3d 5c b5 a1 3d
       0.0005608847 -0.06405133 0.08011831 0.0789592
000130 85 ce 30 bc b9 f1 bc 3d e3 24 8c 3c d7 eb d7 bd
       -0.010791426 0.092257924 0.017107433 -0.1054303
000140 c3 e1 d6 3d f2 c7 3d bd f8 fa 09 3d 94 ff 8c bd
       0.104922794 -0.04633326 0.033686608 -0.06884685
000150 a2 db d1 bc 54 e1 40 3d d8 32 d7 3d a8 30 f1 3c
       -0.025617424 0.04708989 0.105077446 0.029442146
000160 0c 82 9d bd 51 a0 a3 ba d4 82 d3 bd bd 3d d5 bd
       -0.0769082 -0.0012483691 -0.10327688 -0.10412166
000170 80 5a b6 3d 76 d5 46 3d cb e5 25 bb fd 11 d9 3d
       0.0890398 0.048543416 -0.002531397 0.10599134
000180 4b 42 6a bd 1d 30 29 3c 5a 71 d7 bc 8b 37 b6 bc
       -0.05719213 0.0103264125 -0.026299167 -0.022243282
000190 1c 5f aa bd 6e 81 9d bd 09 cd d1 3d 94 9d 7d 3b
       -0.08318922 -0.076907024 0.102441855 0.003869866
0001a0 0a 2f 42 bd ea 69 20 bd eb 50 dd bd 7b 67 60 3d
       -0.04740814 -0.039163508 -0.108064495 0.054786187
0001b0 00 4f 75 3d 58 0f 9c bd cd 71 89 3d d8 e7 e2 bd
       0.059889793 -0.07620114 0.06711159 -0.11079377
0001c0 e0 32 a0 bd b6 ee 74 bd b6 50 c2 3c 89 26 ea 3d
       -0.07822204 -0.059797965 0.023720127 0.11433131
0001d0 fc 5a 06 3d 52 96 f9 3d 08 fc 87 bd 93 b2 8c bc
       0.032801613 0.121868744 -0.06639868 -0.017174995
0001e0 14 f9 26 3c 50 53 74 3d 33 36 43 bd 13 f1 ae bd
       0.010191221 0.059649765 -0.04765911 -0.08542075
0001f0 6f 56 b1 3d f6 72 18 3d 46 ef 80 3c eb b9 a3 bd
       0.08659064 0.03721901 0.015739094 -0.079944454
