models_submitted/test_acc-CNN_2L_FC_R400.pt (torch, 160817 bytes, 22 tensors)

conv1.weight f4 [32, 1, 1]
000000 7b a1 25 bf fc a2 fe 3e 67 bb 71 3f bd 0c aa be
       -0.64699525 0.49733722 0.9442658 -0.33212844
000010 f4 cd 57 bf 0b 2d ce 3c 0d 5b 3d bf 8a a0 56 3f
       -0.84298635 0.025167963 -0.7396706 0.83838713
000020 e8 d7 48 3f b6 62 10 bf 39 40 6a 3f d6 db 6e 3e
       0.78454447 -0.5640062 0.91504246 0.23326048
000030 dd 3d c3 3e 96 79 51 3f e2 4d 2c 3f fd 2a d2 be
       0.38133135 0.8182615 0.6730634 -0.41048422
000040 eb c4 44 bf cf a3 d8 be 19 57 25 be 9c 83 de bd
       -0.7686297 -0.42312476 -0.16146506 -0.10864946
000050 2d 46 55 bf 49 57 2e bd 4b ca 83 3e 36 77 57 bf
       -0.83310205 -0.04256371 0.25740275 -0.84166276
000060 03 1c 8b be b3 02 57 bf ac 73 4d bf ff 4c 4f 3c
       -0.2716981 -0.83988494 -0.80254626 0.012652635
000070 36 98 57 3e 6e 58 40 3f 0e 3c 3c 3e 73 a4 70 3f
       0.21054158 0.75134933 0.18382284 0.9400093

conv1.bias f4 [32]
000000 f8 87 1e bf 19 c7 f2 be 44 d0 73 bf 78 60 67 3f
       -0.6192622 -0.47417524 -0.95239663 0.90381575
000010 18 c3 0a bf 8f 59 44 bf 75 7d 6e 3f 98 9d 73 3f
       -0.5420394 -0.76699156 0.9316018 0.95162344
000020 30 64 71 bf c5 15 44 be 0e 33 33 bf 64 1c 8d be
       -0.942935 -0.1914893 -0.6999978 -0.27560723
000030 56 f2 30 bf a8 40 53 bf 11 7e a0 3e c7 f1 ab be
       -0.69119775 -0.8252053 0.3134618 -0.335829
000040 2a ba 2d 3f a9 3d b6 be f6 77 f1 3e 2e 61 ef 3e
       0.6786219 -0.35593918 0.47161835 0.4675383
000050 83 d4 c9 be fd 34 3e bf 7d 13 58 3f 2b 11 15 3f
       -0.39419946 -0.74299604 0.84404737 0.5822932
000060 98 35 0a 3e 0f 18 ab be e4 54 74 bf 07 dd f8 be
       0.13497007 -0.33416793 -0.9544203 -0.4860613
000070 4b b0 53 3f 00 c0 8a 3e da a5 cf 3e db 35 73 bf
       0.82690877 0.2709961 0.40556222 -0.9500405

conv2.weight f4 [64, 32, 1]
000000 8f c0 01 3e 75 8d d8 bc 78 b5 4f bd b0 7b 94 bd
       0.12671112 -0.02643464 -0.05071017 -0.07250154
000010 9f 0e 22 3d 6f 37 82 3d a9 70 34 bd 54 04 e7 3d
       0.039564725 0.06358229 -0.044052754 0.112801224
000020 e1 7c 17 3e 51 02 54 3a 4b 9e ba 3c 04 7c ee 3d
       0.14793731 0.00080875034 0.022780558 0.11644748
000030 20 fc c3 3c 5a f9 f9 bc d9 ad 05 be 24 a5 1a be
       0.023923934 -0.030514408 -0.13054599 -0.15102059
000040 b7 40 80 bc 3d d4 e2 3d 4d 16 8b 3d 41 97 c6 3d
       -0.015655858 0.110756375 0.06791363 0.09696818
000050 49 2e 57 bd 35 e2 e4 3d 32 23 2c 3e 30 07 1a 3d
       -0.052534375 0.11175958 0.16810301 0.03760451
000060 18 8c 8e bd ef 42 c9 bd ad db 06 be c8 a7 90 3d
       -0.069603145 -0.0982722 -0.13169737 0.07063252
000070 4f cb a9 bd 36 a0 26 be ca ad 78 bc 25 e6 2c 3e
       -0.08290731 -0.16272053 -0.015178153 0.16884668
000080 b3 3e 8c bb 74 f5 0f bd 2c e8 45 3c 5d fd 2f be
       -0.0042799353 -0.03514619 0.01207928 -0.17186494
000090 18 ae e9 3c 47 2e d7 bd 60 5c 02 3e 46 8a 91 3d
       0.028525397 -0.105068736 0.12730551 0.07106452
0000a0 fa 5c b0 bd 5c 58 2e 3e b5 3c 49 bc 42 56 f3 3d
       -0.08611484 0.17025894 -0.01228254 0.11881687
0000b0 28 52 d6 3d 08 56 14 be 00 91 0f 3c 46 31 9a 3d
       0.10464889 -0.14485943 0.008762598 0.075289294
0000c0 04 ee 66 3d d6 07 e8 3d 67 08 e3 bc 18 d0 e1 bd
       0.056379333 0.113296196 -0.027713967 -0.11026019
0000d0 a6 e3 9d 3c 64 fd 7f bd 8e 62 86 bd 07 33 a4 3d
       0.01927359 -0.06249751 -0.065617666 0.08017545
0000e0 04 8c fa bd ce 02 f7 3d 14 88 cb 3d 0f a7 8b 3c
       -0.12233737 0.12061082 0.09938064 0.017047433
0000f0 a1 83 05 3e ed b2 02 3c 94 9e e4 bd 92 23 20 3e
       0.13038494 0.00797723 -0.11163059 0.15638569
000100 c1 77 e3 3d f6 0d 9f bd bd 72 f8 bd 27 6d 7b bd
       0.111068256 -0.07766335 -0.121312596 -0.061383393
000110 01 86 42 bd 43 b2 a7 3b 76 13 05 be 33 41 24 3e
       -0.047491077 0.005117686 -0.12995705 0.16040497
000120 12 db 25 be fb 79 07 be 04 5d 54 3d 15 f8 0e be
       -0.1619685 -0.13230126 0.05184652 -0.13961823
000130 e6 08 d7 3d fe 72 9b bd 30 32 70 bd b9 24 1e be
       0.10499744 -0.075902924 -0.058641613 -0.15443696
000140 0e 8c 15 3e 93 5b c3 3d 3f ae b2 3d 0d 25 bb 3d
       0.14604208 0.09538951 0.08724641 0.09137926
000150 63 eb ef bb ea 76 85 3c d0 a6 28 be 90 fc 2e 3e
       -0.0073217615 0.016292054 -0.16469884 0.17088532
000160 fd 10 f9 bd 13 7f 62 bc 57 06 ed 3d b7 19 1c bd
       -0.121614434 -0.013824242 0.11573475 -0.03811046
000170 fa 16 26 3e fc 51 2b 3c 78 c4 30 3e 14 ef 6d 3d
       0.16219702 0.010456558 0.17262447 0.05808933
000180 d1 74 34 3e 90 6a ab 3d 62 99 0a be 99 b7 2b be
       0.17622687 0.083699346 -0.13535073 -0.16769256
000190 9e 9c 59 bd 6c 75 a3 3d e8 b1 1d bd a1 9f a0 3d
       -0.053127877 0.07981381 -0.038499743 0.07842947
0001a0 e6 c3 75 3d 28 3c 04 3e 0d 03 c3 bd fe 88 49 bd
       0.060001276 0.12913573 -0.09522066 -0.04920291
0001b0 04 b3 12 3e 32 c0 02 be 04 af ec 3c 4a 11 b1 bd
       0.14326102 -0.12768629 0.028892048 -0.08645876
0001c0 d9 71 32 be 38 13 f4 bc 5e ca 1f 3e 08 9d 16 3e
       -0.17426242 -0.02979432 0.1560454 0.1470834
0001d0 42 2b 51 3d 82 2b d6 bd 34 e0 54 3d ae 7f b0 bd
       0.051066644 -0.10457517 0.05197163 -0.08618103
0001e0 85 35 a7 bd 84 0c 06 be 33 14 1d 3e 26 55 05 3c
       -0.08164505 -0.13090712 0.15339737 0.008137977
0001f0 20 f3 ee 3d 9f ab 0c be 70 63 5e bb 29 66 23 be
       0.11667466 -0.13737343 -0.003393378 -0.1595694
000200 78 72 10 3e a2 b0 0d 3e 83 55 e8 3d a7 76 90 bd
       0.14106166 0.13836911 0.11344435 -0.07053881
000210 72 30 6a 3d 10 0b 33 3d 0b 1a a4 3d 84 db 1c be
       0.057175107 0.043711722 0.0801278 -0.15318114
000220 c5 bf fc 3d ed 45 bd 3d 0c 1f 57 bd 81 16 ac bd
       0.12341265 0.09241853 -0.052519843 -0.0840273
000230 83 6e b0 3d 38 b4 2c bc c8 07 6c bd ad 06 d2 bd
       0.086148284 -0.010541014 -0.05762461 -0.102551796
000240 9e 48 0b be 61 49 88 bd eb 56 1c 3e 2d a5 53 bc
       -0.1360192 -0.06654621 0.15267532 -0.012917799
000250 6e ea 14 3e f3 a3 d5 bd 65 75 ab 3b d8 95 70 3d
       0.14542553 -0.104316615 0.0052325004 0.058736652
000260 a7 ae da bd ce b0 c3 3d 77 aa d8 3d 1c 67 d3 3c
       -0.106778435 0.09555207 0.105793886 0.025806002
000270 aa 87 5f bd 9e 75 0a be e5 d8 2b bd 48 5e 87 bd
       -0.05457274 -0.1352143 -0.041954894 -0.066097796
000280 5d 4e b2 3c 58 df 5d 3d 8c df c9 3b 91 76 00 3e
       0.021765882 0.054168075 0.006160682 0.1254523
000290 5c 30 93 bd 91 4f 27 be 91 ef f6 3d 67 f4 0c bc
       -0.07186958 -0.16338946 0.120574124 -0.008603192
0002a0 6d 62 af 3d 51 db 8d bd f1 d1 27 be 19 89 0c be
       0.08563695 -0.06926597 -0.1638868 -0.13724174
0002b0 6b 0f 8f bd b7 ce 93 3d c2 16 b8 bd 8e 43 01 be
       -0.069853626 0.07217162 -0.08988716 -0.12623426
0002c0 9a 72 96 bd cb 00 ba bd 49 3f 63 3d cb 0e 87 3d
       -0.07346077 -0.090821825 0.055480275 0.065946184
0002d0 ca c2 3d 3b 6b 3a c0 3d 06 22 d2 bd cf b7 27 3e
       0.0028955215 0.09386142 -0.10260396 0.16378711
0002e0 50 a5 d3 bd 36 2c be bd d4 fb d4 3c 42 0c 1d be
       -0.10334265 -0.09285776 0.025998987 -0.15336707
0002f0 83 53 f5 3d 9e f8 71 3d b1 7b 27 3e c5 e6 90 bd
       0.11978819 0.05907499 0.16355778 -0.07075266
000300 75 69 93 3d 62 d4 64 bc 3c 1c f6 bd 6a 95 f7 bd
       0.07197849 -0.013966652 -0.12017104 -0.12089045
000310 3a bd f9 3d c8 27 bb bd 28 b2 2b bd 94 ed a8 3a
       0.12194295 -0.09138447 -0.04191795 0.0012888187
000320 f3 a3 de 3c 84 aa 10 3d 45 7a 36 bc 85 3a 31 be
       0.027177786 0.035318866 -0.01113755 -0.1730748
000330 ec 60 04 3b 8d 3a ad 3d 21 c1 0a 3e b8 74 04 3e
       0.0020199372 0.08458433 0.13550235 0.1293515
000340 9c 9f 5f 3c 6f a2 ee 3c a0 70 04 be 17 3e ca 3d
       0.013648894 0.029130189 -0.12933588 0.09875124
000350 38 2d ec bd 6a f7 b4 38 cf 56 b1 3d 2d 99 76 3d
       -0.11532062 8.629153e-05 0.086591356 0.060204674
000360 c1 04 44 3d b9 cf 0c 3e b7 66 f1 bc 58 da 1c be
       0.047856096 0.13751115 -0.029467924 -0.15317667
000370 de 8b 07 be e5 92 a8 bd 8c f6 b4 3d a3 a8 00 3d
       -0.13236949 -0.08231143 0.088360876 0.031410825
000380 af c6 f9 3d a7 86 94 bd 9d f8 92 3c d8 50 08 be
       0.12196099 -0.072522454 0.017940814 -0.1331209
000390 74 15 ed 3d 92 a9 62 bd 33 7f 1e be 0b 34 d0 bc
       0.115763575 -0.055337496 -0.1547821 -0.025415441
0003a0 6c 51 2b 3e 8a 85 13 be 0f 8f a3 bc d3 61 d3 bc
       0.16730279 -0.1440641 -0.019965677 -0.025803482
0003b0 82 78 90 bc aa fb a0 bd 80 fc 5a bd ab 36 1c bd
       -0.017635588 -0.07860501 -0.05346346 -0.038138073
0003c0 69 56 dc 3d 7a 5b 29 3e 1d eb 3b bd dd 5c bd 3b
       0.10758669 0.16538802 -0.04587852 0.0057788924
0003d0 3f 01 2c 3e 57 c9 ee bc 94 eb ba 3d a2 06 51 3d
       0.1679735 -0.02914874 0.09126964 0.051031716
0003e0 ae 42 f5 3d ff f1 71 3d a3 d5 e2 3d ad e9 93 3d
       0.11975609 0.059068676 0.11075904 0.072223045
0003f0 38 46 93 3a 7c 9a 63 bd ca f4 8c 3d b7 57 cf bd
       0.0011236137 -0.05556725 0.06882627 -0.10124152

conv2.bias f4 [64]
000000 98 2c 21 be e1 d1 34 3d 2a 20 98 3c 9c a6 ca bd
       -0.15739667 0.04414547 0.018570025 -0.098950595
000010 0a 48 98 bd b8 16 7d bd d8 4c ec bc a0 f4 f8 bd
       -0.07435615 -0.061789244 -0.028845236 -0.121560335
000020 00 a8 19 3e c0 ac 11 be bc a2 db bb 12 f0 4a bd
       0.15005493 -0.14226055 -0.006702749 -0.049545355
000030 b8 2b ea bd 1b 28 3d bd f3 de 12 3d 5e 1b cf bd
       -0.1143412 -0.046180826 0.035857152 -0.10112642
000040 2e ee 9c bc 65 56 c8 bb ed 92 23 3e a7 94 ac 3d
       -0.019156542 -0.0061138147 0.15974016 0.08426791
000050 11 c5 2b be f4 5b b9 bb 3f 1b 81 3d f1 08 9b 3d
       -0.16774394 -0.0056567136 0.06304025 0.07570065
000060 c7 c2 2a be fa 78 1e 3e b2 2d b9 3d 15 7d a6 3c
       -0.16675864 0.15475836 0.09041919 0.020323316
000070 aa 49 2a be 1e 67 31 be c0 7b 2f 3e 26 8b 99 bd
       -0.16629663 -0.17324492 0.1713705 -0.074972436
000080 ab 80 4f 3d 9f 2b 04 be de 5c a2 3d 4d 9b b0 3d
       0.050659817 -0.12907265 0.07927869 0.08623371
000090 db 43 32 be 45 d0 d2 bd ec d6 17 3e 6f 4b d1 3c
       -0.17408697 -0.102936305 0.1482808 0.025548665
0000a0 a2 aa 31 be 93 b5 fd bd 2c 5b 96 bd 83 8d 2c 3e
       -0.17350248 -0.12388148 -0.073416084 0.16850857
0000b0 87 23 32 bd 5c 2f a8 bb 51 34 3e 3d a6 3f 9a bc
       -0.043490913 -0.005132599 0.04643661 -0.018829178
0000c0 62 b6 c0 3c 6d 62 98 3d 5f 64 a8 bd c2 fd a5 3d
       0.023524467 0.07440648 -0.08222269 0.08105041
0000d0 16 6b c7 3c b5 ab c6 3d 57 fb 0d 3e 24 d0 99 3d
       0.024343055 0.09700719 0.1386541 0.07510403
0000e0 4b 4d 98 bd f9 82 12 be 6e b2 8c bd 14 a0 03 be
       -0.074366175 -0.14307775 -0.0686997 -0.12854034
0000f0 cb de 9d bd ba 4b 1d be 74 d8 37 ba 10 da bc 3d
       -0.0770851 -0.15360919 -0.000701315 0.092212796

fc1.weight f4 [16, 896]
000000 e1 80 01 bd a1 12 d5 3c 12 6d 8d 3c d8 da 7b bb
       -0.03161705 0.02600986 0.017263923 -0.0038430002
000010 75 a0 8f bb f8 6d f7 3c c0 e2 b3 3c 4d ce a2 bc
       -0.0043831416 0.030203804 0.021958709 -0.019873763
000020 f9 1a 53 3c c4 2f 13 3b 8b 0b 22 bc 40 12 da 3c
       0.012884849 0.002245889 -0.009890447 0.02662003
000030 3f 2f e9 bb 8a ff ef bc d2 b4 d9 3a 49 3c d8 bc
       -0.007116228 -0.029296655 0.0016609675 -0.026395934
000040 19 63 94 3c a3 44 83 3c 58 e3 8f bc 16 2c 48 3c
       0.01811366 0.01602394 -0.01756446 0.012217542
000050 5b 0a fc 3b 98 38 79 3c ba dc 02 3d 91 c5 3f 3c
       0.007691664 0.015211247 0.031948783 0.011704818
000060 ef dc f9 bc 9a 5c 44 3c c5 a0 7f 3b 25 4d b7 bb
       -0.030500857 0.011984969 0.0039005738 -0.005593913
000070 ec bf cd bb bb d6 da bc 0f 4a ba ba 57 91 5f bc
       -0.0062789824 -0.02671372 -0.0014212745 -0.013645492
000080 f8 f5 7a bc 26 26 00 3d 1d 91 ca b8 48 7a e0 bc
       -0.015317433 0.03128638 -9.65914e-05 -0.027402058
000090 37 1b 2c bc e2 00 fe 3b 46 5b 79 bc 32 4d 51 bc
       -0.010504535 0.00775157 -0.015219515 -0.012774752
0000a0 ac 37 b7 3c dd 8b 1c 3c 29 83 97 bc 8e 04 c8 3c
       0.022365414 0.00955483 -0.01849516 0.024416234
0000b0 3f d5 e1 bc c0 da bd bc a4 9d ac 3c 25 2c 8f 3c
       -0.027567504 -0.023175597 0.021071263 0.017477104
0000c0 e2 cd 07 3d ed 69 ac bc 7f 91 45 3c 5f 85 31 bc
       0.03315533 -0.021046603 0.012058615 -0.010835021
0000d0 96 60 8a 3c 63 cf 04 bd d8 a4 32 3b 9a 2c d0 bc
       0.016891759 -0.032424342 0.00272589 -0.025411893
0000e0 9b ea b3 3c 24 36 d3 3b a1 a8 af 3a 31 db dd bc
       0.021962455 0.006445663 0.0013401696 -0.027082058
0000f0 b8 da 91 3c 9b 01 a4 3c c5 11 29 3c 0a 11 85 bc
       0.017804489 0.020020297 0.010319178 -0.016243476
000100 9d 84 3a ba 1f 88 ba bc 58 77 8c bc ed 08 03 bd
       -0.0007115098 -0.022769986 -0.017146751 -0.031990934
000110 36 3e 9a bb c5 4f e7 3c 42 2e 43 bc 16 3e 02 3b
       -0.004707123 0.02823628 -0.011912884 0.0019873432
000120 10 0b 84 3c 71 b3 f5 bc 07 a4 fc bc 8e c2 a4 3c
       0.016118556 -0.02999279 -0.030839933 0.020112302
000130 82 eb 8c 3c 68 58 c8 3c c9 06 47 bc 1f b6 07 bd
       0.017202143 0.024456218 -0.012147614 -0.03313267
000140 23 1f a8 3b b8 94 52 bc 96 3c fa bb 79 8e a0 3c
       0.005130665 -0.01285284 -0.007636617 0.019599186
000150 dd 79 1d bd c9 40 85 bb ee a2 e7 bc 72 d4 2c 3c
       -0.038446296 -0.004066561 -0.028275933 0.010548698
000160 5e 43 b0 bb 9d cb b1 bb ed 31 ad ba c2 a1 9f 3c
       -0.0053791245 -0.005425884 -0.0013213732 0.019486312
000170 17 1b 44 bc e7 41 a9 bc 1e 20 90 3c 91 c8 9f 3c
       -0.011969349 -0.020661307 0.01759344 0.019504817
000180 53 de 49 39 7f 7f bd 3c 71 e3 95 bc 6e cc d8 ba
       0.00019251676 0.023132084 -0.01829693 -0.0016540417
000190 84 42 80 3c e0 ad 39 3c d8 9a e3 bc 93 0e 01 bd
       0.015656717 0.011332959 -0.027783796 -0.03150804
0001a0 f8 0f ad 3b c8 2c 73 3c 11 fa 04 bd e1 ec 72 3c
       0.0052814446 0.01484222 -0.032465044 0.014826984
0001b0 2c b9 9e 3c 6b 8b b6 3b ae 27 b4 bc 7b a1 73 bc
       0.019375406 0.005570819 -0.021991577 -0.014870043
0001c0 b1 b8 32 bd d1 c5 ec bc 32 08 d8 3c 75 ab a5 3c
       -0.043633167 -0.02890292 0.026371095 0.020223359
0001d0 16 40 d6 bc ec b6 02 bd 16 0b 95 bc bd e5 97 3c
       -0.026153605 -0.03191273 -0.018193763 0.018542165
0001e0 c4 03 c0 3c 3d c4 69 39 d2 87 8e 3c 37 f5 04 3d
       0.023439296 0.00022293716 0.017398749 0.032460418
0001f0 5e 1f c8 3c b3 e6 a8 bc 3c c1 b1 bb c5 3a 8c 3c
       0.02442902 -0.020617818 -0.0054246467 0.017117867
000200 73 f2 e5 bc 98 4a bd 3c 16 d9 8f bc 5a 75 01 3c
       -0.02806971 0.023106858 -0.01755957 0.007901514
000210 5a 49 c6 3b 9c fe e2 bc 48 67 03 3c b1 25 07 3d
       0.0060512247 -0.027709298 0.00802023 0.03299493
000220 be fc f2 bb f8 be 12 bc 5b 82 df bc c2 e7 33 3c
       -0.007415383 -0.008956663 -0.027283838 0.010980548
000230 34 d0 27 bd ca 48 9e bc 26 1f f1 3b cc 5a 81 3c
       -0.040970042 -0.019321818 0.0073584495 0.015790366
000240 71 0c 55 bc 52 ca 2e 3c f1 60 83 bc 0d 18 7a 3b
       -0.013003455 0.010668354 -0.016037436 0.0038161308
000250 f2 b5 9f 3c e3 29 d7 ba bb 19 93 3c 0e a5 2a 3c
       0.019495938 -0.0016415681 0.017956605 0.010415329
000260 c4 52 e7 3c b4 bf c2 3c 28 80 21 3c 2d da 7e bc
       0.028237708 0.023773052 0.009857215 -0.015554947
000270 33 1f 12 bc bc e8 02 bc ea e1 1f bc ba 1e 80 3b
       -0.008918571 -0.0079900585 -0.009758452 0.003909913
000280 c6 df cd 3c 56 cf 1b bc 94 df 6b 3c 92 dc b5 bb
       0.025131118 -0.009509882 0.014396567 -0.0055499757
000290 3e 5d 5f bc 53 a5 e1 3c 24 8e 8e bc 9c 52 5c bb
       -0.0136330705 0.027544653 -0.017401762 -0.0033618575
0002a0 48 75 57 bc e6 90 4e 3c 56 79 a4 bc 77 f8 bc bb
       -0.013150521 0.012607789 -0.020077389 -0.005766924
0002b0 8c 6b 59 3c 94 86 15 3a c1 1e 9c bb f5 a7 c0 3c
       0.01327027 0.00057039526 -0.0047644083 0.023517588
0002c0 19 e3 81 bc 1c 2b c0 3c 39 6f 81 bc ae dd 02 bd
       -0.015855359 0.023458056 -0.015800105 -0.03194969
0002d0 6f 9b d4 bc 4b 5e be bc 88 1a a3 bc eb 0d 46 bc
       -0.025953023 -0.023238322 -0.019910112 -0.012088279
0002e0 25 51 32 bc 02 31 0e bd 34 5a 9b bb 53 1a ac bb
       -0.010883604 -0.034714706 -0.0047409777 -0.0052521615
0002f0 b7 54 00 3d bf a4 32 bc 31 f4 a2 bc 17 d6 f7 3c
       0.03133079 -0.010903536 -0.01989183 0.030253453
000300 35 ea 03 3d 44 64 e7 bb a4 e2 f6 3b bb 3d 0c bd
       0.03220578 -0.007061513 0.007534342 -0.03423856
000310 9f 1c 1c 3b 19 05 ef bc 89 4e 9a 3c 3c 8d b4 bc
       0.002382077 -0.029177235 0.018836277 -0.022040002
000320 74 c8 07 3d 79 a1 d1 3c 80 c7 01 bc 56 de f8 bc
       0.03315015 0.025589691 -0.0079211 -0.030379456
000330 06 e2 c4 bc 3c d0 20 bb b9 70 08 3c 8c cc be 3c
       -0.024033558 -0.002453818 0.008327656 0.023290895
000340 7d 58 9a 3c 0d 59 aa bc 08 ee 5a bd 5c 36 c3 3c
       0.018841023 -0.020794416 -0.05344966 0.023829632
000350 d3 b1 5c 3c 82 fb 00 bc a9 53 37 bc 2f 2c f6 bc
       0.013470131 -0.007872464 -0.01118938 -0.030050365
000360 da 65 f9 b9 a2 74 19 bc 58 ba d9 bc 04 31 9e 3c
       -0.00047568866 -0.009366186 -0.026578113 0.019310482
000370 c8 4e 7e bc 2c bb ef 3b 98 c6 ac 3b fd 9a d9 3c
       -0.015521713 0.007316014 0.0052726977 0.026563162
000380 9d 27 23 bb f2 ef e0 3c 6d b3 d1 3b 11 34 93 bb
       -0.0024895438 0.027458165 0.006399563 -0.004492291
000390 55 69 78 3c d3 8c 65 bc f9 eb 04 3d e3 90 4f 3b
       0.015161832 -0.014010626 0.032451604 0.0031672053
0003a0 f5 0b e3 bc 00 a9 44 bb d9 0c 07 bd 20 f2 bb bc
       -0.027715662 -0.0030007958 -0.032971237 -0.022942603
0003b0 eb d2 ea 3c 73 0e 98 bc f7 d0 04 3d 6c 5d 0c bc
       0.028665027 -0.018561577 0.032425847 -0.008567195
0003c0 83 6a 8b 3b 97 22 2f 3b e4 f6 6d bc b5 71 bb 3c
       0.0042546405 0.0026723498 -0.014524195 0.022881368
0003d0 8a ce 04 bc b0 62 d2 3c 81 36 ce 3c d8 82 bf 3c
       -0.008105883 0.025681823 0.025172474 0.02337782
0003e0 06 18 de ba c3 72 c5 3c b3 a9 9f bc 06 47 df bc
       -0.0016944415 0.024102574 -0.019490099 -0.027255546
0003f0 5f 30 f1 bc 4e f9 ed 3b 44 9a af bb 54 54 74 bc
       -0.02944201 0.0072623855 -0.005358966 -0.0149126835

fc1.bias f4 [16]
000000 23 5d f4 bc 1c 90 e0 3c 63 fa 36 bc 6a b4 a8 bc
       -0.029829567 0.027412467 -0.011168095 -0.02059384
000010 79 5c bd 3c 38 e6 e7 3b 4c db 9d 3c fe 46 a4 3b
       0.023115383 0.0070770048 0.019269608 0.0050133457
000020 ec 85 e8 3c 65 cb 9a 3c 45 e5 bf 3c 07 59 02 3b
       0.028384171 0.018895814 0.023424754 0.001988949
000030 ba e1 fb 3c 0f b3 e6 3c 2f c9 ca bc 51 99 84 3c
       0.030747283 0.028161554 -0.024754135 0.016186388

fc2.weight f4 [32, 16]
000000 40 2a 37 3d f6 68 41 be 28 d2 6a bd 77 78 1c be
       0.044718027 -0.18887696 -0.057329327 -0.15280329
000010 00 ad 80 bc 80 26 7e 3c 4a 50 7a 3e 10 14 fc bc
       -0.015707493 0.015512109 0.2444469 -0.030771285
000020 98 1b ca 3d 90 04 36 be f4 df 8a 3d c7 7a 04 be
       0.09868544 -0.17775178 0.06780997 -0.12937461
000030 50 b5 a7 bc 34 24 b6 bd 08 49 00 3d a0 f2 5f be
       -0.020472199 -0.08893624 0.031319648 -0.21869898
000040 0b 86 37 be 59 b5 5a 3e 72 1b 01 3e 99 eb 97 bd
       -0.17922227 0.21358241 0.12608126 -0.074179836
000050 42 c1 4c 3e 18 a1 77 3e 4c 86 46 3e 80 68 df 3b
       0.19995597 0.24182546 0.19387168 0.0068178773
000060 77 a8 ec bc 82 df 79 3d 5b 7e 2e 3d c7 71 1b 3e
       -0.028888924 0.06100417 0.04260097 0.15180121
000070 f8 c3 98 3d de ed c7 bd 00 69 51 be 42 44 91 bc
       0.07459253 -0.097621664 -0.2045021 -0.017732743
000080 07 37 7d 3d 6b ec 1b 3e 3a 39 22 3e 1c b6 21 be
       0.061820056 0.15226905 0.15842143 -0.15792125
000090 3c 85 c3 3d c8 24 b5 bd be ea 67 be 98 1f ce 3d
       0.09546897 -0.08844906 -0.22648141 0.1006462
0000a0 49 1e a8 3d 6b ea 2c 3e ec 68 20 be 1d 32 52 be
       0.082089014 0.16886298 -0.15665025 -0.20526929
0000b0 23 86 60 be 77 66 98 bb e9 6d 3c be 08 46 62 3e
       -0.21926169 -0.0046508866 -0.18401302 0.22097027
0000c0 06 b6 3b be aa b7 fa bd 33 36 56 3c 44 3b cc bc
       -0.18331155 -0.122420624 0.013074446 -0.024930604
0000d0 e9 39 25 be a1 fb 54 3c e6 34 7d 3e 14 f4 e4 bd
       -0.16135372 0.012999446 0.2472721 -0.11179367
0000e0 de 2c fa bd e9 3f 9f 3c 79 89 06 3c 86 d1 de 3d
       -0.12215589 0.019439654 0.008211487 0.10879807
0000f0 ad 1b 37 3e 08 ea 61 bc 21 4b 38 3e ec 34 4e be
       0.17881651 -0.013788708 0.1799741 -0.20137376
000100 00 65 d8 bc 2f 70 08 3e 7a 0e 8e 3d ae b4 98 bb
       -0.026415348 0.13324045 0.06936355 -0.0046602106
000110 81 15 69 be 83 46 75 bd 5c 23 30 3d de 84 54 3e
       -0.2276211 -0.0598817 0.04300247 0.2075381
000120 6f 62 b9 bc 27 2c 17 be 56 53 40 3e ae 7a 0c be
       -0.022629945 -0.14762937 0.1878179 -0.13718674
000130 1a 21 2f be 21 9e 86 3e 4f af 4c 3e 74 24 78 be
       -0.17102471 0.26292518 0.1998875 -0.24232656
000140 75 c3 72 3e eb 81 72 3e 25 c4 ca bc bf 14 0d 3e
       0.23707373 0.23682372 -0.024751732 0.13777445
000150 a0 1d 23 be 12 7d 17 3e eb ce bd bb a4 c7 40 be
       -0.1592927 0.14793804 -0.005792489 -0.18826157
000160 0b 23 61 3d ed f1 32 be 2e 0d 17 3e 17 19 90 bd
       0.05496506 -0.174751 0.14751121 -0.070360355
000170 37 bc 20 be d5 14 13 be 66 c4 a4 3d ff a5 7a be
       -0.15696798 -0.14363416 0.080452725 -0.24477385
000180 1e 8a a1 bd 08 03 c8 3d 2d f8 3b 3e ef b3 18 3e
       -0.07887672 0.09766203 0.1835639 0.14912389
000190 05 80 8a bd d1 dd 53 3e c5 b6 81 bd 70 17 d8 3d
       -0.06762699 0.20690085 -0.06333689 0.10551345
0001a0 16 60 eb 3d 1c 87 70 be 90 28 fb 3d b1 ed 73 be
       0.11492936 -0.2348904 0.12263596 -0.23821141
0001b0 f5 02 f3 bd 93 b6 05 3e 46 8e 36 be b5 f7 59 be
       -0.118657984 0.13057928 -0.1782771 -0.21285899
0001c0 24 9a 69 be 48 c6 62 3e fd cf 57 bc 9e 15 81 3e
       -0.22812706 0.22145951 -0.013172147 0.25211805
0001d0 8d 42 2a be cf fe 0b be 65 83 09 3e 7c 4b 0d be
       -0.1662695 -0.1367142 0.1342903 -0.13798326
0001e0 75 96 f3 3d 44 29 00 bd 8b 2e fb bd 7c a7 52 3e
       0.11893932 -0.031289354 -0.12264737 0.20571703
0001f0 83 6b a7 bb 14 63 dc 3d 82 35 bc bd a3 7a 1f 3e
       -0.005109252 0.10761085 -0.09189893 0.15574126
000200 ac 9c d4 3d 1d 26 9d bd 4c 0f 06 3e 49 2f 1c 3d
       0.10381445 -0.07673285 0.13091773 0.038131032
000210 b7 a0 11 bc a0 20 59 3d 96 2b 21 bc 58 49 a6 3d
       -0.008888415 0.05300963 -0.009837052 0.08119458
000220 55 8f f2 3b 2a c9 04 3e 2b 6e 12 3e 2e 18 1b 3e
       0.0074023404 0.12967363 0.14299838 0.15145943
000230 80 da 28 bd d1 74 10 3e 45 1d 99 3d 4a 01 13 3e
       -0.041224003 0.14107062 0.07476286 0.1435596
000240 6e c8 51 bd 29 dd 1e 3e 1e d1 2f 3e 45 76 86 bb
       -0.051216535 0.15514053 0.17169616 -0.0041034543
000250 6e f1 14 be a4 f9 f3 3d b6 e1 d4 bd 80 dd ba 3c
       -0.14545223 0.119128495 -0.103946134 0.022810698
000260 10 dd c5 3d c5 4b 63 be dc fc 56 3e 27 9c ea ba
       0.09661305 -0.22196873 0.20994896 -0.001789932
000270 8f da 53 be 44 b6 20 be de e1 42 3d 24 e5 3d 3d
       -0.20688842 -0.15694529 0.047578685 0.046361104
000280 55 71 f0 bc 50 7c a9 bd 2b e5 f7 3d dd 08 5c be
       -0.029350916 -0.08275664 0.12104257 -0.21487756
000290 f3 47 d1 bd 68 2e 60 3d 5c eb 51 bd aa 67 78 be
       -0.10218801 0.054731756 -0.051249847 -0.24258295
0002a0 d2 75 50 be 35 7f 35 3e 42 15 0c be 84 38 7f be
       -0.20357445 0.17724307 -0.13679984 -0.24923903
0002b0 84 f0 66 be ff ca 5f 3e 62 f0 cb 3d ce c4 56 be
       -0.22552687 0.2185478 0.09957959 -0.20973513
0002c0 3c 36 17 be e2 be 6c 3e 0b ae 56 3e b8 b4 05 3b
       -0.14766783 0.23119691 0.2096483 0.0020401906
0002d0 c2 a7 4b be bb ca 63 3e b6 37 36 be 80 8f 5c be
       -0.19888213 0.22245304 -0.1779469 -0.21539116
0002e0 d3 ef d6 3c bf e9 92 3d 03 b4 f9 3c 68 24 4f 3e
       0.026237404 0.0717349 0.030481344 0.20228732
0002f0 3d c4 ed bd e1 70 5c 3e e8 52 6b bd 2a 21 fa 3d
       -0.11609695 0.21527435 -0.057452112 0.12213357
000300 73 44 3a be ec 8e 12 be e8 88 28 be 2a c5 6c be
       -0.18190174 -0.14312333 -0.16458476 -0.23122087
000310 16 49 d9 bc 80 4d c2 bd 63 92 f2 bd 04 28 7a be
       -0.026524108 -0.09487438 -0.11844327 -0.24429327
000320 b5 1e 72 3b fe 9d 8b 3b b8 53 cd 3d 0d 3e 23 3d
       0.0036944572 0.0042607775 0.10025734 0.039854098
000330 c0 87 a7 bd f9 5f 27 be 44 e3 e1 bd 0f 27 c4 bc
       -0.08180189 -0.16345204 -0.110296756 -0.023944406
000340 f2 62 8e 3d 52 4c 14 be 06 d3 fc bd 63 42 6b 3e
       0.06952466 -0.14482239 -0.12344937 0.22974543
000350 dd 9e 60 3e f2 bb 31 be b7 e2 5b be fc 53 4f 3e
       0.21935602 -0.17356852 -0.21473204 0.20246881
000360 bd c1 d8 3d 9b 24 a6 bc 77 28 f4 3d 24 24 a8 bd
       0.10583828 -0.020281127 0.119217806 -0.08210018
000370 b1 56 6c be e7 cd cf 3b fa fa 52 be c7 53 9a 3c
       -0.23079945 0.006341684 -0.20603552 0.018838776
000380 ad 36 78 3e 40 b9 ea bc 8f 4f da 3c 5a 10 18 be
       0.24239607 -0.028652787 0.026649265 -0.14849988
000390 61 63 60 3e 54 98 ac bd 20 d4 fa bd 2e 49 3f 3e
       0.2191291 -0.08427492 -0.12247491 0.1868026
0003a0 eb 7a d0 3d 53 e8 eb 3d ef d9 5c be ef 0d 1b 3e
       0.10179695 0.11518922 -0.2156751 0.15142034
0003b0 c3 0f 8a 3c 9e 7b 11 b8 9e 88 96 bd 1d b2 04 bd
       0.016853219 -3.468582e-05 -0.073502764 -0.032396425
0003c0 5e 12 4c 3e 32 04 48 3d 99 23 5a be 84 fd 37 3c
       0.19928882 0.048832126 -0.21302642 0.011229876
0003d0 42 f5 3c 3e 0b 23 24 be 21 e4 e0 bd c0 aa ed 3d
       0.18452933 -0.16028993 -0.10981012 0.116048336
0003e0 36 d0 79 3e 4f 12 78 be 19 c7 41 3d b6 36 58 3d
       0.24395832 -0.24225734 0.047309015 0.05278655
0003f0 99 c6 fe 3d 32 1b 04 3e b7 dd 9e 3d 7f c6 68 be
       0.12440223 0.12900999 0.077571325 -0.2273197

fc2.bias f4 [32]
000000 cc ba 07 3e 57 60 36 3e 3c 78 6c 3d 96 bc 7d 3e
       0.13254851 0.17810188 0.057731852 0.24778971
000010 b3 19 de bb 43 c1 19 3e 0e f2 2b 3d b2 a9 7d be
       -0.006777966 0.1501513 0.04197889 -0.24771765
000020 30 27 28 be 6f 2e 04 be 47 6b 83 bd 7d f3 a7 3d
       -0.16421199 -0.12908338 -0.06416946 0.082007386
000030 77 01 a9 bd a8 41 44 3e 64 e4 87 bd 1b b1 8d bc
       -0.082522325 0.19165671 -0.06635359 -0.017296365
000040 9f f6 54 bd 71 3d 94 3d b2 13 1f be 2b a5 1b be
       -0.05199301 0.072382815 -0.15534857 -0.15199725
000050 34 f8 30 3e c9 64 df bd e7 0c 1a 3e fd 4e 3c 3e
       0.17282182 -0.10907895 0.15043984 0.18389507
000060 a1 4b 0f bd 61 8a 94 3d 3b 18 cb 3c c2 ac 3c 3d
       -0.034984235 0.07252956 0.024791827 0.046063192
000070 eb 53 fc bd d5 75 7f 3e 64 2d 19 be ce 8e 9f 3c
       -0.123206936 0.24947293 -0.14958721 0.019477274

fc3.weight f4 [64, 32]
000000 8c 0f 98 bd 8f 32 e2 bd a7 c2 cc 3d 83 7a d4 3d
       -0.0742484 -0.110447995 0.099980645 0.1037493
000010 48 7f 00 be c2 8d e3 bc f3 35 da bc ab 66 0b 3e
       -0.12548554 -0.027777556 -0.026637053 0.13613383
000020 e3 0e 17 3e 97 02 36 3d b0 8f 18 bd f8 a6 26 3d
       0.14751773 0.044436064 -0.037246406 0.040686578
000030 15 66 9f 3d ce 98 26 be 30 42 c0 bc e6 f9 c1 3d
       0.077831425 -0.16269228 -0.02346906 0.094714925
000040 64 f1 27 be ca ea cf 3d 8d ca d9 3d b4 35 16 3e
       -0.16400677 0.10152204 0.106343366 0.14668924
000050 7c 27 9a bd f6 a8 e8 bd 90 0b 1d 3e 58 75 84 3c
       -0.07527062 -0.11360352 0.15336442 0.016169235
000060 44 eb e5 bc 47 bb c7 bd 99 6e d7 3c 29 94 10 3e
       -0.028066285 -0.09752517 0.026297854 0.14119019
000070 08 dc c1 3d 30 09 86 3d 48 78 80 3d 15 3e e6 3d
       0.09465796 0.06544721 0.06272942 0.1124231
000080 ca 86 9c 3d 66 59 32 3e 19 3a 28 be e5 f0 b4 bd
       0.076428965 0.17416915 -0.16428412 -0.088350095
000090 68 53 f6 3d 82 34 ea 3c 01 9c 1e 3e 5a a9 cb bd
       0.12027627 0.02858949 0.15489198 -0.099444106
0000a0 48 2f e0 3d 23 9f 65 3d 06 17 9a 3d a2 a7 ac bc
       0.10946518 0.056059968 0.075239226 -0.021076027
0000b0 e0 45 5a 3c 48 db 20 3e 2b e3 11 bd a8 81 ce bd
       0.013322324 0.15708649 -0.035617035 -0.10083324
0000c0 5a d6 59 3d a9 e9 de 3d 8e 71 73 bd 06 e7 9a bd
       0.053182937 0.10884411 -0.059434466 -0.075635955
0000d0 e2 76 d7 bd c4 a4 13 be a2 95 f4 bd 47 c9 73 bd
       -0.10520722 -0.14418322 -0.11942603 -0.059518125
0000e0 16 8a 3e 3d b9 e6 16 bd 2e a1 72 bd 7e ce 23 be
       0.046518408 -0.036841128 -0.059235744 -0.1599674
0000f0 41 29 02 be 47 6d 00 3e 92 4a 84 3c e4 2f 15 3e
       -0.1271105 0.12541686 0.01614884 0.1456905
000100 af 8f 28 3e 24 e9 99 3d 6e e3 07 3e 34 92 07 3e
       0.16461061 0.07515171 0.13270351 0.13239366
000110 b8 97 b6 bc 4f 9d 13 be 3a 1b 28 be ac 41 bb 3d
       -0.022289142 -0.14415477 -0.16416636 0.09143385
000120 01 23 d6 3c e0 c3 21 bd 3b 0f 0f 3e 3e 5c 11 be
       0.026139738 -0.03949344 0.13970654 -0.14195344
000130 9b 86 c5 bd 30 b6 9e bd cf bb 88 bd 2a dc a9 bd
       -0.096448146 -0.07749593 -0.06676447 -0.08293946
000140 9d e7 21 3d e0 ad 9e 3c 5a d6 7a 3d cd 9c 75 3d
       0.039527524 0.01937002 0.061239578 0.05996399
000150 0a bc b4 bc ac a7 28 be 86 e4 eb 3d 08 e2 bb 3d
       -0.02206232 -0.16470212 0.11518197 0.091739714
000160 bf c5 d9 3d dc 0f ad 3d 8a 65 24 be c9 cf 26 3e
       0.1063342 0.084502906 -0.16054359 0.16290201
000170 a8 25 18 be 73 32 d2 3d 89 5f c2 3d c7 0d 2a 3e
       -0.14858115 0.10263529 0.09490878 0.16606818
000180 a7 35 a1 bd ac c5 dd 3d 57 95 15 3d 1d 34 0d be
       -0.078715615 0.108287185 0.036519375 -0.13789411
000190 15 e0 4b 3d 39 ec 9c ba 5c 3b c0 bc 85 6d 88 bd
       0.04977425 -0.0011972255 -0.023465805 -0.06661514
0001a0 ac 7b 9d bd c0 d7 25 3e 07 89 bd bd 5b ca 1c 3e
       -0.07689604 0.16195583 -0.092546515 0.15311567
0001b0 c8 89 8c 3d 6a b1 82 bb a5 09 1e bd 51 cd 3d 3d
       0.06862217 -0.0039884346 -0.038583416 0.046338383
0001c0 54 4a 90 bd 4c 53 10 3e 71 b1 c8 bd 0c 92 2b 3b
       -0.07045427 0.14094275 -0.09799469 0.002617958
0001d0 c6 fb 0e be b9 10 06 3e fd 82 7a bc 84 f7 7c bd
       -0.13963231 0.13092317 -0.015290019 -0.061759487
0001e0 9e 6d 96 bc fd e0 26 be ee b6 8a bd 70 25 49 bd
       -0.018362816 -0.16296764 -0.06773172 -0.04910797
0001f0 46 f3 3e 3d 7b 5b a3 3d 9b 6e 3b bc 4b d1 f9 bd
       0.046618722 0.07976433 -0.011439945 -0.121981226
000200 e5 0c 29 3e 7e fd d0 3d 79 fc 29 be 48 ab da 3d
       0.16508825 0.102046 -0.16600217 0.106772006
000210 4f 50 bc bd f3 49 41 3d 3c f4 53 3d 76 90 be bd
       -0.09195005 0.047189664 0.051746592 -0.093048975
000220 d1 8d 38 3c 14 16 b4 bd 45 dc 02 bd 4c a3 10 be
       0.01126428 -0.087932736 -0.031948347 -0.14124793
000230 a2 d3 98 bd b3 cb 97 bc 63 47 d7 bd c1 81 fb 3d
       -0.07462241 -0.018529749 -0.10511663 0.12280608
000240 8f ba 34 3d 1d b1 0c be 61 21 2b be da 74 83 bc
       0.04412323 -0.13739438 -0.16711952 -0.01604693
000250 d2 37 1b 3e fd 45 45 bd d3 44 63 bc e7 99 6d bc
       0.15158013 -0.04816245 -0.013871389 -0.014502025
000260 1e 24 ce bb a5 10 03 bd ed 77 92 3d 1b 22 08 ba
       -0.0062909266 -0.031998295 0.0715178 -0.00051930704
000270 25 a0 e4 3d 08 3c 53 3d 75 4d 2f 3e cc 92 a4 3c
       0.11163358 0.051570922 0.17119391 0.02008953
000280 b4 2f 5a 3c 0c 45 c7 3d 24 62 22 be 07 54 36 bb
       0.013317037 0.097299665 -0.1585775 -0.002782108
000290 65 42 ba 3a 02 fa fa bd b5 1e 30 be ac 89 16 be
       0.0014210461 -0.122547165 -0.17199214 -0.14700955
0002a0 c2 16 c8 bd 86 ee 05 3e 14 3f 9e bd 44 b1 11 bd
       -0.09769966 0.1307927 -0.07726875 -0.035569444
0002b0 15 8c 19 3e a8 47 4b 3c 69 96 06 3e bd f7 86 bd
       0.14994843 0.012407221 0.13143314 -0.06590221
0002c0 c3 4d 00 be 90 5b 2a be 44 ed 4b 3d 39 ae 07 3e
       -0.12529664 -0.16636491 0.04978682 0.13250054
0002d0 31 24 9c bc aa c2 26 be 7c 6f a6 3c bd ab 27 3e
       -0.019060226 -0.16285196 0.020316832 0.16374107
0002e0 ed b7 8e bd 2e e6 b8 bd 2b 42 2a be eb b8 ab 3d
       -0.06968675 -0.09028278 -0.16626804 0.0838488
0002f0 3b 37 21 3e 3b b6 f1 bd b4 92 aa 3d 79 77 10 be
       0.15743725 -0.11802336 0.08328763 -0.14108075
000300 25 58 20 3e fb ab ee 3c fb 1d 48 3d e1 ad 21 3e
       0.15658624 0.029134741 0.048856717 0.15788986
000310 2f d0 da bd b7 fa b2 bc ae b3 0e bd 27 8d 60 3d
       -0.10684239 -0.021848066 -0.034839325 0.054822113
000320 c2 27 d8 3d 8d b2 e1 bd 4c 93 00 3e ec 7d 0a be
       0.10554458 -0.11020384 0.1255619 -0.13524598
000330 6b 09 54 bd 18 78 b1 bd be b0 13 be ae a9 b1 bd
       -0.051766794 -0.08665484 -0.1442289 -0.08674942
000340 e6 77 9b 3d 7f 14 6d bd 54 32 ad 3d e9 fe c9 3d
       0.07591228 -0.057880875 0.08456865 0.098630734
000350 f5 f1 1e 3e 2e 38 07 3e f5 3b ab bd 8f 13 0f 3e
       0.15521987 0.13205025 -0.08361045 0.13972305
000360 8b af 0a 3e 37 38 de 3d f0 c6 64 bd 89 6e 26 bd
       0.13543527 0.10850566 -0.055853784 -0.04063276
000370 2d 6a 2f bd c5 d3 d2 bd d6 07 12 3e 16 83 a6 bd
       -0.042825866 -0.10294298 0.14260802 -0.081304714
000380 87 37 b4 bc 59 78 0a 3d cd 58 be bd cc 58 2c 3e
       -0.021999134 0.03380618 -0.09294281 0.16830748
000390 d5 2d f0 3b 2e 5a 81 bd 23 ee da 3d 6f ab 2a 3e
       0.0073296824 -0.063160285 0.10689952 0.16666959
0003a0 14 14 16 3e 69 d3 21 3e 59 b7 46 bd 52 e1 9e bd
       0.14656097 0.15803303 -0.048514698 -0.0775782
0003b0 d1 2a fb 3d 98 a5 20 3c d4 44 c9 bc 8b e3 c8 3d
       0.12264026 0.009805106 -0.024568953 0.098090254
0003c0 ff f4 83 3d 83 54 9f 3d a7 ff ba bd 2b 66 14 be
       0.06443214 0.07779791 -0.09130793 -0.14492099
0003d0 be dd e1 3d 42 4d 9f bc d5 55 32 be ae 96 ff bc
       0.11028622 -0.01944602 -0.17415555 -0.03119978
0003e0 95 bc c7 3d b4 ca 5c 3d 47 5a c1 bd f2 b9 15 be
       0.09752766 0.05390425 -0.09441047 -0.14621714
0003f0 72 2b 9d bb 8e 74 31 be ee c5 58 bc 70 a1 82 bd
       -0.004796439 -0.17329618 -0.013230784 -0.06378448

fc3.bias f4 [64]
000000 53 db 3a 3c c4 db 31 bd 69 4b ba bd 20 52 be 3d
       0.01140483 -0.043422475 -0.090964146 0.09293008
000010 2d a2 c6 bd b0 3e 58 bc b9 7d ff bd b0 76 ad 3d
       -0.09698901 -0.01319854 -0.124751516 0.084699035
000020 82 45 1d 3c dd 67 c9 3d cc 2b 02 3e 9d 19 3b bd
       0.0095990915 0.098342635 0.1271202 -0.045678724
000030 b9 e6 ec 3c 14 40 eb 3c 97 59 86 bc 70 1b b2 ba
       0.02891861 0.028717078 -0.016400142 -0.0013588499
000040 5b 98 50 bc 66 ab 34 bd 9b c1 c7 bb fe ce b2 bd
       -0.012731637 -0.04410877 -0.0060960776 -0.08730887
000050 47 9d af 3d d6 2b c0 3d 64 58 7e bd f2 13 ec bc
       0.0857492 0.09383361 -0.062096015 -0.028818104
000060 7f 41 b0 bd 44 82 47 3d b3 5d fb bd d8 1a 86 3d
       -0.086062424 0.048708215 -0.12273731 0.06548089
000070 c9 cd 1f be 89 eb 25 be ef 52 9d bd 28 35 13 3e
       -0.15605845 -0.16203131 -0.07681834 0.14375746
000080 6e e6 0f 3e e1 6b e2 3d a9 65 04 be 6f 08 7a bd
       0.14052746 0.110557325 -0.12929405 -0.0610432
000090 a5 45 27 be 90 c1 b5 3d 9a e7 48 bc 73 68 3c bd
       -0.16335161 0.0887481 -0.012262249 -0.045998048
0000a0 3d 92 12 be 5c c7 1f be fd c1 7e 3b 02 eb 0f bd
       -0.14313598 -0.15603393 0.003887295 -0.03513623
0000b0 11 4e ca 3d c3 28 b6 bd 99 5b f8 bd 23 5a ea bb
       0.09878171 -0.088944934 -0.12126846 -0.0071518584
0000c0 fa 51 02 be 12 49 25 be fe 46 27 be fa 03 82 bc
       -0.12726584 -0.16141155 -0.16335675 -0.015871037
0000d0 5a df e4 3d b1 d2 f4 bd 2c fc f5 3c 38 1e 15 3e
       0.111754134 -0.11954249 0.030027471 0.14562309
0000e0 43 c6 19 3e bf 28 15 3e 64 b0 0c 3e f8 58 ae bd
       0.15017037 0.14566325 0.13739163 -0.08513063
0000f0 74 7b af 3c ee de 30 3e 19 e3 e9 bd 71 64 7d 3d
       0.021421172 0.17272541 -0.114202686 0.061863367

fc4.weight f4 [128, 64]
000000 d8 9c a5 bd 82 45 83 3d e8 09 7d 3d 94 54 b6 bd
       -0.08086556 0.06409742 0.061777025 -0.08902851
000010 54 4a e4 bd 04 4b c0 bd 48 01 83 3d fc a4 aa bd
       -0.111469895 -0.09389308 0.06396729 -0.083322495
000020 f8 f6 ac 3c b4 51 16 3d 64 34 73 bd c4 e7 43 bd
       0.021113858 0.036699012 -0.059376135 -0.04782845
000030 8a 4a df bd 14 4c b5 bd 52 f0 d4 3d 30 29 04 bc
       -0.10902889 -0.088524014 0.103974 -0.0080664605
000040 ea 38 b2 3d 4c 19 e0 3d 74 5a ca 3d c0 d7 ca bd
       0.08702262 0.10942325 0.09880534 -0.09904432
000050 a4 80 b3 3d 88 09 c2 3d e6 8f f1 3d ee 2d ed bd
       0.087647706 0.09474474 0.117950246 -0.11581026
000060 10 2e d9 bd c6 c0 85 bd 40 5f 22 bb 98 08 c8 bc
       -0.10604489 -0.06530909 -0.0024776012 -0.02441816
000070 88 69 cc 3c c0 c4 92 bb ce 98 d9 bd cc fe 44 3d
       0.024952665 -0.004479021 -0.10624848 0.048094556
000080 34 ba 44 3d 7e 40 d0 bd fe aa a6 3d b8 ac bd bc
       0.04802914 -0.10168551 0.08138083 -0.023153648
000090 ee dc 9a 3d cc c1 b4 bd 00 0b ef 3d c6 75 93 3d
       0.0756167 -0.08826026 0.1167202 0.07200198
0000a0 90 f0 83 bd a6 30 c7 3d 54 18 e4 3d 30 a1 81 3d
       -0.06442368 0.09726076 0.11137453 0.06329572
0000b0 d4 94 a2 3d 5c 61 b0 bd 30 70 12 3c 80 77 bd 3b
       0.07938543 -0.0861232 0.00893788 0.005782068
0000c0 a0 23 10 3d 00 6f eb ba 8e 1e f9 bd 6c 6c ca bd
       0.035190225 -0.0017962158 -0.12164031 -0.09883961
0000d0 50 ff 74 bd 10 80 23 3d f8 27 c1 bd e0 04 33 3c
       -0.059813797 0.03991705 -0.094314516 0.010926455
0000e0 d8 bd de bd dc 1b 31 bd 98 cb a5 bd 8c 62 f4 3d
       -0.108760536 -0.04323946 -0.08095473 0.11932859
0000f0 9c 86 44 3d 68 e3 b5 bc 24 81 c7 bd 9e 66 9b bd
       0.047979936 -0.022203162 -0.097414285 -0.07587932
000100 0a 07 85 bd 0d cb 9c 3c ae f5 b7 3c d9 34 89 bd
       -0.06495483 0.01913979 0.022456016 -0.06699533
000110 6a c1 93 3d a0 27 e8 bd ab 80 89 bd 64 ce 19 bd
       0.07214625 -0.11335683 -0.067139946 -0.037550345
000120 fc ce 81 3d de 55 9a bd cc 10 da bd 51 82 7d 3d
       0.06338307 -0.07535909 -0.10647735 0.061891858
000130 17 f9 db 3d 63 ee f4 bd 6a 91 9c 3c 02 e7 9f bd
       0.107408695 -0.11959531 0.019112308 -0.07807733
000140 1f b0 ae 3d dc 04 ec ba 2d 3c ea 3c c2 66 53 bb
       0.08529686 -0.0018006819 0.028593147 -0.0032257293
000150 7e d5 d4 bc ff 5e 91 bc 23 82 5a 3d 27 60 a5 bd
       -0.025980707 -0.017745493 0.053346764 -0.0807498
000160 9f 62 65 bc 75 77 d0 bd cf 6d ed bd c7 5f a6 bd
       -0.014000564 -0.101790346 -0.1159321 -0.08123737
000170 2f 7e 39 3c 03 92 eb 3d 2b df ee 3d 2e 13 fb 3d
       0.011321588 0.11502459 0.1166366 0.122595176
000180 ee 37 fe 3d 72 3a b8 3c d1 a4 ee bd 48 9c 01 bd
       0.124130115 0.022488806 -0.1165253 -0.031643182
000190 09 f2 f0 3d 01 53 7f bd 9b a0 c7 3d 7d 94 63 3d
       0.117649145 -0.062335018 0.0974743 0.05556153
0001a0 bc d8 c4 3d 85 3a 0b bd 24 f1 f8 3d cb ba 3e bd
       0.09611651 -0.033991355 0.12155369 -0.04656486
0001b0 eb 0b 7a 3d e6 1f b1 3d f4 51 ee 3d ef bd 48 3d
       0.061046522 0.08648662 0.11636725 0.04900926
0001c0 1b fc f4 3d 0e 0b b5 3d 2c c9 cb bc 75 58 df 3d
       0.11962148 0.08839999 -0.0248762 0.10905544
0001d0 da 96 ac 3d f2 ae a4 3d 80 f8 e3 3d fd 1f e7 3d
       0.0842721 0.08041181 0.11131382 0.11285398
0001e0 b0 9e c8 3d e7 10 08 3c 9c 4d b3 bd dc 3b c0 bd
       0.09795892 0.008304811 -0.08755037 -0.09386417
0001f0 ff eb 4f bd 99 a4 43 bc 16 15 c4 3d f5 aa 30 bd
       -0.050762173 -0.011941099 0.09574334 -0.043131787
000200 fe 42 c9 bd 18 75 a3 bd 80 3f 77 bc 0e 57 fa 3d
       -0.09827231 -0.07981318 -0.015090823 0.122236356
000210 90 9e 22 3c 2c e5 2d bd 20 81 09 bd 88 0e 44 3d
       0.0099255 -0.042454883 -0.03357041 0.04786542
000220 48 69 9b 3c 46 9e fe bd a0 6a 42 bd 50 ed 5b 3d
       0.0189711 -0.12432532 -0.047464967 0.053693116
000230 86 a3 e8 3d 46 97 a6 3d 06 ef d3 bd 5c 90 10 bd
       0.113593146 0.08134322 -0.103483245 -0.03529392
000240 b8 8c 42 bd 8c cf 1c bd e0 7c 41 bc 80 cf 3e 3b
       -0.04749748 -0.03828387 -0.011809558 0.002911538
000250 9c b9 d8 bd 80 c1 c8 bb 5c 43 47 3d 54 94 a5 3d
       -0.10582277 -0.0061265826 0.048648223 0.08084932
000260 a0 d5 0e 3d 38 74 32 bd e0 34 8b bd c0 ba b5 bd
       0.034871697 -0.043567866 -0.067971945 -0.0887351
000270 52 9c e9 bd 44 a0 86 bd 80 27 05 3b c2 ee dc 3d
       -0.11406769 -0.06573537 0.0020317733 0.10787727
000280 d0 a5 67 3d be 39 fb bd b2 97 b4 bd a8 68 58 3d
       0.056554615 -0.12266873 -0.08817996 0.052834183
000290 72 39 ab bd 90 b1 e7 3c 10 9b c9 3d 00 bf c7 bd
       -0.08360566 0.02828291 0.09844029 -0.09753227
0002a0 9a 96 c0 3d 36 24 84 3d 90 07 78 bd f2 73 ed bd
       0.09403725 0.06452219 -0.060554087 -0.115943804
0002b0 70 8a 72 3d c0 43 4c bd c0 dd 40 bc 70 2f 67 bc
       0.059214056 -0.0498693 -0.011771619 -0.014110431
0002c0 0e c6 8b 3d 10 8b e2 3c 10 90 8c 3c d6 19 a5 bd
       0.06824885 0.0276542 0.017158538 -0.080615684
0002d0 68 34 db bc 60 c9 a6 3d 94 04 a2 bd f0 48 f2 bd
       -0.026758388 0.08143878 -0.079110295 -0.11830318
0002e0 08 92 44 3d 20 b3 a4 bd b6 2b ed bd 56 65 ff bd
       0.04799083 -0.08041978 -0.11580603 -0.124705
0002f0 10 e8 04 bd 48 dd 94 3d 0c 33 c5 3d a8 6e ef 3d
       -0.032447875 0.072687685 0.09628877 0.11691028
000300 59 a2 c9 bd 66 34 96 bd ec c3 51 bd 54 e2 b9 bd
       -0.098454185 -0.07334213 -0.051212236 -0.09076372
000310 4b aa 97 3c 90 70 97 3c 6e 60 4a bd 38 e3 2a 3d
       0.01851382 0.018486291 -0.04940837 0.0417206
000320 1e 18 af bd c8 78 ef bd 94 86 b9 bb e3 f3 e1 3d
       -0.08549522 -0.11692959 -0.005661795 0.11032846
000330 80 4b ea bc e2 12 6a bc 66 6f c7 bd b7 87 2c 3d
       -0.028600454 -0.014286729 -0.097380444 0.042121615
000340 36 e7 d4 bd d8 c4 e5 bc 09 77 f4 bd a8 a1 9e bd
       -0.103956625 -0.028047964 -0.11936767 -0.07745677
000350 38 88 db bc 6d 81 4c bd da ec 28 bd 7a 0a 88 bd
       -0.026798353 -0.049928118 -0.041241504 -0.06642623
000360 48 c1 a4 bd 45 3d 54 3d 62 09 8a 3d 6f 99 1f 3c
       -0.08044678 0.051816244 0.06740071 0.009741171
000370 f8 96 79 bd 20 1e ac 3c 39 db db 3d 59 5f 02 3c
       -0.06093499 0.021010458 0.10735173 0.007957303
000380 af 11 fa 3d 29 05 e4 bd 67 63 cc bd 4e f8 c6 bd
       0.12210404 -0.11133797 -0.09979897 -0.09715329
000390 80 d5 86 bc da 0b e4 bd 5e 59 a0 3d 2c 43 db bd
       -0.016459227 -0.11135073 0.078295454 -0.107061714
0003a0 b3 4b 6a 3d b3 05 c3 3d 6c b4 28 bd e2 39 ef 3b
       0.0572011 0.095225714 -0.04118769 0.0073006013
0003b0 89 c6 ea bc 7e 08 dd bd d8 dc e8 3d 25 ab ab bd
       -0.028659122 -0.107926354 0.113702476 -0.083822526
0003c0 5f 23 15 bc 77 26 ba bd 55 79 74 3d 16 cb 3f 3d
       -0.009102671 -0.09089368 0.059686024 0.046824537
0003d0 6f 94 e1 3b 66 17 ae bc 5b 3a 92 bd 88 f8 a1 bc
       0.0068841497 -0.021251392 -0.07140037 -0.01977183
0003e0 56 8f d8 3d 83 bb af bd 46 28 86 bd 0c bf d8 bd
       0.10574214 -0.08580687 -0.0655065 -0.10583314
0003f0 d5 c7 bf 3d 00 ac 20 3d 11 e7 66 bd 5c f9 f6 bd
       0.09364287 0.039226532 -0.056372706 -0.1205928

fc4.bias f4 [128]
000000 d6 0f f1 bd a2 fc 26 bd fc 7f 3d bd d4 fe a3 bd
       -0.117705986 -0.040768273 -0.046264634 -0.08007589
000010 c5 b9 6b 3d 2e 16 50 bd 3e a2 c3 bd fb 35 55 3d
       0.05755021 -0.050802402 -0.095524296 0.052053433
000020 9f 13 c9 bd 78 6c f0 3d d3 b4 8e 3b 1d a3 6e bd
       -0.098181956 0.11739439 0.004355052 -0.058261026
000030 2b de 47 bc ad 08 63 bd 15 4c 60 bc b1 19 bf bd
       -0.012198965 -0.055428196 -0.013690014 -0.09331072
000040 97 23 85 3d 8e 5d c3 bd 78 88 44 bd 32 1d ff 3c
       0.06500929 -0.095393285 -0.04798171 0.031141851
000050 42 c5 ff bd b0 b4 c1 bd c7 92 a6 bd ab 94 fc bd
       -0.12488796 -0.094582915 -0.08133464 -0.12333044
000060 a6 c0 0d 3d 7f 79 d5 bd eb 00 94 3d e5 0f 17 bc
       0.034607552 -0.10423564 0.072267376 -0.009220098
000070 36 2f 30 3d 19 77 c0 bd 19 74 c0 bd e6 2c 4f bd
       0.043013774 -0.09397716 -0.09397144 -0.050579928
000080 41 7b 88 3d 07 d8 9a bd 29 4f fc 3d df b8 ce 3a
       0.06664134 -0.07560735 0.12319786 0.0015771649
000090 f4 54 db 3c aa 91 83 3c 5b bb cc bc 70 7f d7 3d
       0.026773907 0.016060669 -0.024991682 0.10522354
0000a0 4d 10 ef 3d da 75 95 bd 14 1c 24 bc e5 a4 2b bd
       0.11673031 -0.07297869 -0.01001646 -0.041905303
0000b0 83 9a 83 3c 4a f5 17 3b d8 70 3e 3d 73 21 c4 bd
       0.016064888 0.0023186975 0.046494335 -0.095766924
0000c0 17 3b 09 3d b5 68 ae bd 40 f6 8b bb 1a ce 82 3d
       0.033503618 -0.08516065 -0.0042712986 0.06386967
0000d0 37 2f 98 3d d3 b5 51 bd 9c f3 85 bd ba 25 53 bb
       0.074308805 -0.05119879 -0.065406054 -0.0032218532
0000e0 f5 68 67 bc b4 70 3c 3d 4c 92 08 bd 9e 05 22 bb
       -0.014124145 0.04600592 -0.033342645 -0.0024722586
0000f0 51 7d ae bd 61 e7 db 3d 35 9e f4 bd 4f 39 ba bd
       -0.08519996 0.107374914 -0.11944238 -0.09092962
000100 78 dd 71 bd 1b ef c6 bd 15 76 99 3c 41 d8 bc bd
       -0.0590491 -0.097135745 0.018733064 -0.09220935
000110 63 81 1d 3c 90 2c 55 bd fe f4 6e bd 83 1b 9d bd
       0.009613368 -0.05204445 -0.05833911 -0.07671263
000120 d0 4b ec 3d 7f a9 27 3c 94 fd 1a bb 37 b4 a6 3d
       0.115378976 0.010233282 -0.002364968 0.08139842
000130 a0 b5 d7 bb db 62 d6 bd c2 d9 f0 3d f6 60 ca 3d
       -0.0065829307 -0.10468074 0.11760284 0.09881775
000140 23 a5 e7 bc 0b c1 a3 bd e0 ff ce bc 24 8a 8d bd
       -0.028276986 -0.079958044 -0.025268495 -0.06911114
000150 e0 6f 71 3d 5b fd a8 bd 4c 76 4a bc b7 4f 90 3b
       0.058944583 -0.08251449 -0.012357306 0.004404034
000160 60 ac 96 bc 8e b6 de bd de 6e e6 bd e7 de fe bc
       -0.018392742 -0.10874663 -0.11251615 -0.031112147
000170 37 e8 e9 bd 25 8d 73 3d f9 5f cc bd fa e3 d0 bc
       -0.114212446 0.059460778 -0.09979243 -0.025499333
000180 87 bf cf bd 4b 34 f2 bd bf e2 4c bd fc fe b5 bb
       -0.10143953 -0.1182638 -0.05002093 -0.005554078
000190 fa 01 df bc a0 cb 49 3c a5 09 da bd 7c 9c b7 bd
       -0.027222622 0.012316614 -0.10646371 -0.08965394
0001a0 7c 77 34 3d b6 68 db 3d 17 d3 be 3d bf e2 87 3d
       0.04405926 0.107133314 0.09317606 0.06635045
0001b0 3f b6 d3 bd 38 ef 59 bd 4e 8c 24 3d c2 2d 89 bd
       -0.10337495 -0.053206652 0.040172867 -0.06698181
0001c0 69 d8 3c bd e6 f7 d8 bd d8 48 22 bb f5 d3 94 bd
       -0.046104822 -0.10594158 -0.0024762657 -0.0726699
0001d0 90 e4 7f 3d 23 8b dd 3c 9f 7d 6b bd 8d 0e 24 3d
       0.062473834 0.027043885 -0.05749285 0.04005294
0001e0 3c cd ed bd 06 64 89 3d c9 9d 3c 3c df e8 4f bd
       -0.11611411 0.06708531 0.011512228 -0.050759193
0001f0 a1 5f 1c bd ac cd 84 bd ce 8f 2b bd 1c f3 6d 3d
       -0.038177136 -0.06484541 -0.04188519 0.058093175
