models_submitted/train_acc-CNN_2L_Drop_N400.pt (torch, 160903 bytes, 22 tensors)

conv1.weight f4 [32, 1, 1]
000000 af 15 04 3f 99 51 0b bf 48 89 6c 3f 12 1e 20 3e
       0.51595587 -0.54421383 0.92396975 0.15636471
000010 04 81 ac be 05 50 00 3f a2 be 38 3f e8 9d 54 3f
       -0.3369218 0.501221 0.7216588 0.83053446
000020 3b 5b f5 3e 7d c5 20 bf 1f fa 72 bf ea 92 6c 3e
       0.47921166 -0.62801343 -0.94912905 0.23102918
000030 6a 08 88 3e bd 31 5d 3e 52 62 63 bf f4 75 43 bf
       0.2656892 0.21601005 -0.888219 -0.7635186
000040 91 58 0e 3f d0 f8 ab 3e ba 98 37 3f e4 c0 5e 3f
       0.5560389 0.33588266 0.7171742 0.8701308
000050 95 ea 73 3f 34 d0 fa 3d d7 25 be 3e a5 60 7a 3f
       0.9527982 0.12246743 0.37138245 0.9780372
000060 50 b4 62 be d2 a4 23 3e 6d 75 53 bf 85 63 31 bf
       -0.22139096 0.15980843 -0.8260105 -0.6929248
000070 b3 2b 5a bf 65 00 09 bf 10 eb 7d bf e9 15 ba bd
       -0.8522293 -0.53516227 -0.991868 -0.0908621

conv1.bias f4 [32]
000000 33 10 e4 3e 3f dc ee be 2a 62 18 be da 60 04 3f
       0.4454361 -0.4665241 -0.14881197 0.51710284
000010 ca 21 28 3f fe 2d 1a 3f 9e 7f ae be 83 ab 0a bd
       0.6567656 0.6022643 -0.3408174 -0.033854973
000020 af 20 42 3f b9 37 bd bd f3 4b 4b bf 75 f0 84 be
       0.7583112 -0.09239144 -0.79412764 -0.25964704
000030 c8 5a df 3e 80 86 23 bf 73 ee 4a bf 88 15 f8 be
       0.43623948 -0.63877106 -0.79270095 -0.48453927
000040 d4 7e 9c be 97 0e d1 3e 56 5d ff be 58 5a 03 3e
       -0.30565512 0.40831444 -0.49875897 0.12827432
000050 2b 3b 6d be 30 62 9d bd 60 88 19 bf 0d c0 52 3f
       -0.23167102 -0.076847434 -0.59973717 0.82324296
000060 42 52 81 3e 8d c4 55 3d 95 ef 94 3d 91 ec 41 bf
       0.2525807 0.0521894 0.07272259 -0.75751597
000070 a7 e7 d3 3e b4 07 bf 3e d4 12 39 bf e9 e7 60 3f
       0.41387674 0.37310565 -0.72294354 0.87853867

conv2.weight f4 [64, 32, 1]
000000 b3 3a 21 bd cc 5a 98 bc 44 9e 3b bc 06 0f e1 3d
       -0.03936262 -0.018597983 -0.011451308 0.109891936
000010 44 8a 97 3c ce 12 24 3e e9 e2 66 bd 6c f3 08 3e
       0.018498547 0.16022798 -0.056368742 0.13374108
000020 d3 e1 9c ba 7e 72 ee bd 7f 5b bd 3d b9 cc ea 3d
       -0.0011969156 -0.116429314 0.09245967 0.11464829
000030 8a 9f a8 3d 94 23 e9 3d 17 77 cf bd a8 0a 14 3e
       0.08233555 0.11383739 -0.101301365 0.1445719
000040 e1 56 25 be dd bf 7c bb 66 ff 33 3e 57 49 8a 3d
       -0.16146423 -0.0038566508 0.17577896 0.0675227
000050 56 43 ee 3d 10 44 63 bb ec 8e 30 bc 35 ba e2 bd
       0.11633937 -0.003467802 -0.010776263 -0.110706724
000060 9e 74 c8 bd c4 d1 00 3e ce 21 9e 3d 04 cf 27 be
       -0.09787868 0.12580019 0.077212915 -0.16387564
000070 a6 04 e9 3d db 18 5d 3d 67 6b 87 3d 16 1b 7e 3d
       0.1137784 0.053978782 0.06612282 0.06203755
000080 44 e3 28 bd 05 9f 5d bd e2 ee d3 3c c8 39 c0 bd
       -0.041232362 -0.05410673 0.025870744 -0.09386021
000090 9a ad 17 be ca 5a 35 be e5 5c c4 bd 3e 8d a0 3c
       -0.14812317 -0.17710415 -0.09588031 0.0195986
0000a0 1e 19 33 3c 23 fa 09 be eb 7f 27 be 3b c1 cb 3c
       0.010931281 -0.13474326 -0.1635739 0.024872413
0000b0 39 f3 a8 3d 7a 3a d3 bd f4 98 c8 bd ed df 2c be
       0.08249516 -0.10313888 -0.097947985 -0.16882296
0000c0 17 c8 93 3d bf bb 1b bd 5b 27 c3 3d 58 45 0c 3c
       0.072158985 -0.038020846 0.09528991 0.008561455
0000d0 9a 61 1c 3e a2 e3 ca bd 9d 5e c5 bd 99 8a 21 3d
       0.15271607 -0.09906699 -0.09637187 0.039438818
0000e0 9b f5 ea 3d b1 c5 0a be 03 38 1d be ce 66 87 bd
       0.11472627 -0.13551976 -0.15353398 -0.06611405
0000f0 7c 68 eb bd 10 32 0c bc 3c 6c 28 3e 7f 00 de 3c
       -0.11494538 -0.008556858 0.16447538 0.027099846
000100 c7 bc fa 3d 8b eb 78 3a 46 e1 ef bd 22 d5 b5 bb
       0.12243038 0.0009495548 -0.117128894 -0.005549089
000110 4a 6b 42 3d c5 b4 dd 3c bf 4d 94 3b e6 54 66 3d
       0.0474656 0.027063737 0.0045258696 0.05623331
000120 f4 44 22 be 9c 37 0f be 52 50 99 3d fe 6a e9 bc
       -0.15846616 -0.13986057 0.07486023 -0.0284934
000130 9c 77 a1 3d 55 51 21 be 17 ca d7 bd f9 ba 6e bd
       0.07884142 -0.15753682 -0.105365925 -0.05828378
000140 97 fa 2b be 3a 1f d7 3c cc b9 21 be 72 45 ea 3d
       -0.16794811 0.026260007 -0.15793532 0.11439027
000150 01 db 65 3d 1f b6 2e be c5 02 68 3d 08 e8 05 be
       0.05611706 -0.17061661 0.056643266 -0.13076794
000160 57 c8 20 3e 83 1e 0b 3e 2b f7 c5 3d 69 2f 30 3e
       0.15701424 0.13585858 0.09666284 0.17205586
000170 c8 b7 12 3d 32 91 77 3d d3 4a ab bd c0 9f cc bd
       0.0358198 0.060441203 -0.08363881 -0.099914074
000180 04 3a 90 bd 34 95 f6 3d c5 e7 5d 3c 9a 1a 24 be
       -0.070423156 0.12040177 0.013544028 -0.16025773
000190 a6 f8 5a 3a 0f b2 c0 bd 86 3a d4 bc c0 15 b7 3c
       0.00083530915 -0.09408962 -0.025906812 0.022349238
0001a0 35 46 e9 3c f6 95 1f 3d 94 53 8f bd 4f 93 ea bc
       0.02847586 0.038961373 -0.06998363 -0.028634695
0001b0 31 ae 0f 3e e4 1d ce 3d 17 8d d3 3c 1a 97 57 bb
       0.14031292 0.10064295 0.025824113 -0.003289646
0001c0 a9 93 1b be 3c 14 9b bc f6 26 b9 ba ba 15 cd 3d
       -0.15193047 -0.018930547 -0.0014125991 0.1001391
0001d0 44 f3 a0 3d 1a 69 20 bd 0f 89 69 3d 4b 74 a2 3d
       0.07858899 -0.039162733 0.057015475 0.079323374
0001e0 9b 23 ad bd 73 5f 07 3e 36 3c 33 3e 92 e6 12 3d
       -0.08454057 0.13220005 0.17503437 0.03586442
0001f0 2c b4 27 3e 8c ae 26 be 8a 94 32 3e 9a b5 16 be
       0.16377324 -0.16277522 0.17439476 -0.14717713
000200 18 15 38 3e 86 69 d5 3c 22 46 19 be 4b 96 9e bc
       0.17976797 0.026051294 -0.1496816 -0.019358775
000210 b6 db 8c 3c 24 fc 46 3d 1a 7c 08 3e e8 1c 06 be
       0.01719461 0.048580304 0.13328591 -0.13096964
000220 c8 40 24 bd d3 6b 84 3d 76 8e 12 bd 25 a0 00 3e
       -0.040100843 0.06465878 -0.035780393 0.1256109
000230 ca 1d 01 3e 3d 82 44 bd a1 d7 cd bd 08 dd 12 3d
       0.1260902 -0.047975767 -0.100508936 0.035855323
000240 4a e2 df 3c 70 4e fb 3c b6 b4 b0 3c 67 04 98 3d
       0.027329583 0.03067705 0.021570545 0.07422715
000250 a8 cb db 3d 1c 51 f2 bc c8 db a5 3d 5a aa 0f 3e
       0.10732204 -0.029579692 0.080985606 0.14029828
000260 4d a8 1f be a1 0a 75 bb e0 7c 2a 3e 9d e8 04 3b
       -0.15591545 -0.0037390369 0.16649199 0.002028025
000270 44 b0 cc bd e1 84 31 3e ca 32 25 3e a7 e1 f4 3d
       -0.099945575 0.17335846 0.16132656 0.11957102
000280 39 ce e3 3d 4a e4 0b be 8a e7 12 3e 1a cf 84 bd
       0.11123318 -0.13661304 0.14346138 -0.06484814
000290 e4 85 1a be 37 f6 f6 3c ca 9c 38 3d 03 28 fa bc
       -0.15090138 0.030146701 0.0450714 -0.030536657
0002a0 a3 e5 07 be ba 22 1f 3e f6 65 a9 bd 73 54 90 3c
       -0.13271193 0.15540591 -0.08271401 0.017618394
0002b0 70 0f 31 bd a7 fe 15 be 61 d5 ce bd 16 33 3e bc
       -0.043227613 -0.14647923 -0.100992925 -0.0116088595
0002c0 7d 93 02 3c d4 8b 04 3c 25 90 78 3d f5 e4 0b bc
       0.007969734 0.008089978 0.060684342 -0.008538474
0002d0 9c 71 e8 bd d8 95 de 3c e3 6a 57 3d df 7c 1d be
       -0.11349794 0.02717106 0.05259217 -0.15379666
0002e0 3e af 97 bd d0 cf fa bd 33 2c c1 3c 45 f4 11 3e
       -0.07406472 -0.12246668 0.023580646 0.14253338
0002f0 0d 74 34 3e e5 5d 06 be e7 01 6e bb ee 71 22 be
       0.17622395 -0.13121755 -0.0036317052 -0.15863773
000300 19 77 b6 bc c4 e6 96 bd ef fa 09 bd 46 d8 c8 bd
       -0.022273587 -0.07368234 -0.033686575 -0.09806876
000310 eb 84 33 be 3d 0f de bc fa 2c a2 bd 22 26 02 3e
       -0.17531173 -0.027106876 -0.07918735 0.12709859
000320 ec fb 5d 3d 37 27 30 be 75 05 2a 3e 0e ac 97 bc
       0.05419533 -0.1720246 0.16603644 -0.01851466
000330 48 04 cf bd b0 05 18 3d 6c 15 15 be 7b 6b 06 be
       -0.101082385 0.0371148 -0.14558953 -0.13126938
000340 8d 4e b1 bd 75 6b a9 bc e0 88 da 3d 94 72 21 bd
       -0.086575605 -0.020681122 0.10670638 -0.03941591
000350 5b a8 88 bb a6 bc c0 bd df 5d 8b 3d 40 d7 26 be
       -0.00417046 -0.09410982 0.06805014 -0.16293049
000360 38 c2 04 be b3 48 a6 bd 47 29 ed bd 75 9c ea 3b
       -0.12964714 -0.08119335 -0.11580139 0.0071597644
000370 59 42 54 3d 0e 96 21 be b4 00 e2 bd 6c 7a d1 bd
       0.051821087 -0.15779898 -0.1103529 -0.10228428
000380 bb e3 a0 bd 72 88 d6 bd d2 4a e7 3d 49 9b 2d be
       -0.07855936 -0.10475244 0.11293568 -0.16953768
000390 a1 09 aa bd c1 b1 28 be fd de b0 bd 34 52 16 be
       -0.08302618 -0.16474058 -0.08636282 -0.14679796
0003a0 b4 d3 15 3e c7 28 a6 3d 05 95 d2 3c 2d 96 e2 3d
       0.1463154 0.081132464 0.025705824 0.110638
0003b0 9c da 4f bc 8b ef e9 bc e4 c5 c6 3d 92 d4 33 be
       -0.012686398 -0.028556606 0.097057134 -0.17561558
0003c0 2d cf cb 3d 2f ee 5b 3d 7b bc 4c bd e8 3d 29 3e
       0.09951625 0.053693946 -0.049984436 0.16527522
0003d0 2b 50 13 be 1e 72 15 be 3e 65 b6 3d b3 58 15 3e
       -0.1438605 -0.14594314 0.08906029 0.14584617
0003e0 f7 13 e9 bd d5 07 27 bd 2b 15 2c 3e 84 1d 02 3e
       -0.11380761 -0.040778954 0.1680495 0.12706572
0003f0 cf 9e 39 3b fb e5 07 3c ff 8c ec bc 47 24 61 bd
       0.0028323417 0.008294578 -0.028875826 -0.054966237

conv2.bias f4 [64]
000000 53 b5 4d 3d 0b b5 44 bc ab a0 24 3e b0 64 fd bc
       0.050221752 -0.012006055 0.16076915 -0.0309318
000010 15 69 95 bd e2 41 91 bd 95 b7 b4 3d 61 cf bd 3d
       -0.072954334 -0.07092644 0.08824078 0.0926807
000020 f8 77 59 3d 45 cd 70 bd 90 5f 30 be e9 cb 80 3b
       0.053092927 -0.05878951 -0.17223954 0.003930558
000030 e0 c5 5e 3d 97 4f b4 bd 26 ab 9c bb 90 5a d8 3d
       0.054387927 -0.08804243 -0.0047811447 0.105641484
000040 ae 94 e8 bb 9c 67 77 bd 82 bc 09 3e 32 3e a6 bb
       -0.007097802 -0.060401544 0.13450816 -0.005073332
000050 c1 54 15 3c 74 01 15 be 1d 68 7f 3d c3 69 c2 3d
       0.009114445 -0.14551336 0.06235515 0.09492829
000060 02 3a 0d be 9e b8 c1 bd d8 59 26 be 34 20 04 be
       -0.1379166 -0.09459041 -0.1624521 -0.1290291
000070 cf 31 2c 3e 92 f2 88 3d e0 71 fc 3d 9f 3b c0 bd
       0.16815875 0.066868916 0.123264074 -0.09386372
000080 84 71 e8 bd f6 00 11 3e b6 14 30 3e 68 3e 96 bd
       -0.113497764 0.14160523 0.171954 -0.07336122
000090 23 e1 2f bd 73 c1 df 3c 9d fd 4e 3d f1 aa 26 bc
       -0.042939316 0.027313923 0.050534833 -0.010172592
0000a0 0b 32 21 3e 54 ba 27 be 2a a7 2b be 12 96 bc bc
       0.15741746 -0.16379672 -0.16762987 -0.023020778
0000b0 9a f1 47 bd 9f e9 01 be 08 c1 0d be 09 4f aa 3d
       -0.048814394 -0.12686776 -0.13843167 0.08315856
0000c0 38 b8 fe bc 42 8f 12 3e a6 1d 4c 3d ca 72 d4 bd
       -0.031093702 0.14312461 0.049832962 -0.10373457
0000d0 e7 c3 80 3d dc e2 17 3e 42 61 b4 3d 4f 9b 02 3e
       0.062873654 0.14832634 0.08807613 0.12754558
0000e0 7b e9 db bc ee d8 3c bd 6d ae 4a bd 79 4d 97 bc
       -0.02684473 -0.046105318 -0.04948275 -0.018469559
0000f0 75 55 26 bd 55 c3 48 bd b0 72 10 be c2 c4 1f 3e
       -0.040608842 -0.04901441 -0.1410625 0.15602401

fc1.weight f4 [16, 896]
000000 4a 45 6a 3b 35 d3 15 bd 06 ad ca bc f6 28 a8 3c
       0.0035746866 -0.036578376 -0.024740707 0.020527344
000010 8d f3 f7 3c ce 82 08 3d 77 af 0c 3a 76 2b 97 3c
       0.030267501 0.03332787 0.00053667225 0.018453341
000020 e3 3d e0 bc 61 5e 9f bc c8 97 83 bc f3 16 ef 3c
       -0.02737326 -0.019454183 -0.016063586 0.029185748
000030 64 e6 3a 3c 0c a7 82 3c 09 5b 2a bb a8 6f 54 3c
       0.0114074685 0.015948795 -0.0025994203 0.012966074
000040 89 8a 3e 3c b1 d0 13 bc ef 48 42 3c e0 66 99 3c
       0.011629709 -0.009021924 0.011858209 0.018725812
000050 53 61 07 3c 47 e0 18 bc 86 ba a3 bb 3e c6 e4 3b
       0.00826295 -0.009330816 -0.0049966006 0.00698164
000060 d8 5b c9 bb 5c 93 10 3c 92 41 a7 3c b8 b8 95 bc
       -0.006144982 0.008824196 0.020417009 -0.018276557
000070 07 c2 d3 ba 5d 98 ed bc 9c 84 a4 3c c0 b6 25 3c
       -0.0016155847 -0.029003317 0.020082764 0.010114372
000080 9b e8 07 3d dd 19 02 bc a6 3a f8 3c 45 ac 9f bc
       0.033180814 -0.007940737 0.030301403 -0.019491324
000090 01 01 8a 3c e0 93 14 3b e5 b8 ef bc d5 60 98 bc
       0.016846182 0.0022671148 -0.02926297 -0.01860086
0000a0 60 c4 9f bc 3f 3c d9 bc c1 0f cf 3c 7e d0 90 bb
       -0.019502819 -0.026517985 0.025276067 -0.0044193855
0000b0 8c 62 bf 3b ea 95 a8 bb dd 91 08 bd 98 5b 21 bc
       0.005840605 -0.0051448243 -0.03334223 -0.009848498
0000c0 38 a0 e5 bc 13 f0 df 3a a1 48 49 bc 5a 81 d5 ba
       -0.0280305 0.0017085097 -0.0122853825 -0.001628916
0000d0 f6 fa dc 3c 76 a4 24 bc 83 ed 95 3c 9f 7c d7 bc
       0.026975136 -0.010048976 0.018301731 -0.026304541
0000e0 61 c4 8f 3b 43 f2 81 3c a6 29 0c 3b 0a 8e 8c 3c
       0.004387424 0.01586259 0.002138713 0.017157573
0000f0 89 b8 e9 bc ec bf 2d bc 60 d6 9e bc 5f 5f f1 bc
       -0.028530376 -0.01060484 -0.019389331 -0.029464422
000100 33 95 7a bc 89 cc bf 3b a1 34 fa bb c5 37 96 3c
       -0.015294361 0.00585324 -0.0076356684 0.01833714
000110 56 24 c3 3c c7 cc ce bc fb db 4e bb 56 c8 a0 3b
       0.023821037 -0.02524413 -0.0031564224 0.0049066944
000120 f3 a2 e0 bc 43 d5 07 3d cd 72 d5 bc be 06 82 3c
       -0.02742145 0.033162367 -0.026055718 0.015872356
000130 46 64 89 3c 3f 30 85 bc db fa 30 3c 2c f4 11 3c
       0.016771447 -0.016258357 0.010801996 0.008908313
000140 3b cd 35 bb 39 82 f5 bc 59 c0 83 bc 83 92 ab bb
       -0.0027740735 -0.029969322 -0.01608293 -0.0052359714
000150 13 54 c5 bc 5c a9 dd bb e5 90 bd 3c ea 2b 51 3c
       -0.024087941 -0.006764574 0.02314038 0.012766818
000160 ca c8 bd 3c 77 3d 6e ba 8e 3e 08 bd 1f ab 4d bb
       0.023167033 -0.00090881385 -0.03326278 -0.0031382514
000170 4f 12 59 bc 7e bd 59 bb ca d1 5d bc e2 36 58 bc
       -0.013248994 -0.0033224518 -0.013538787 -0.013196679
000180 33 f0 04 bd 55 59 e4 3c 54 7b 2f bc e4 c8 f5 3c
       -0.032455634 0.027874628 -0.010710556 0.030003019
000190 79 f4 eb bb 0b 34 d7 3b b5 a9 bf bb bf 7b 0f bc
       -0.0072007743 0.0065674833 -0.005849088 -0.008757531
0001a0 cd 68 c4 bb 20 74 e9 3a 93 8d 4b 3c f9 fa 56 bb
       -0.0059939385 0.0017811097 0.012423891 -0.00328034
0001b0 95 cc f2 3c c2 8c 0c 3a 1a 96 9c bc c2 3b 5a bc
       0.029638568 0.0005361551 -0.019114543 -0.013319911
0001c0 c2 3a a3 3c 4c 5a 45 3c b4 86 98 bc b5 88 d2 3c
       0.019925479 0.012045454 -0.018618919 0.025699953
0001d0 a0 f2 b4 bc 35 81 64 bc d8 0c b8 bc 9b 17 c4 bb
       -0.022088349 -0.013946821 -0.022467062 -0.0059842593
0001e0 3f 20 a1 bc ec 9d e5 3c 8a 0e ee bc 16 59 93 bc
       -0.019668696 0.028029405 -0.029059667 -0.017986815
0001f0 ac 27 ce bc 80 f6 b6 bb dd aa a3 bc 2c ad f1 bc
       -0.025165401 -0.0055835843 -0.019978935 -0.02950152
000200 96 68 de bc 4a ca b7 bc f3 15 b1 bb 9a c8 dd bc
       -0.02714948 -0.022435326 -0.005404228 -0.027073193
000210 50 7b d5 ba 13 88 ff 3c 12 24 cd bb 05 48 c6 3c
       -0.001628736 0.031192815 -0.0062604034 0.024204263
000220 08 a0 ed 3c 2d 1e eb bb e0 6a bd 3c 07 42 cd 3a
       0.029006973 -0.007175228 0.023122251 0.0015659936
000230 91 b7 02 bd 3d 94 d7 ba 2e 90 67 bc 4e cb bf 3c
       -0.031913344 -0.0016447377 -0.014133496 0.023412373
000240 61 b0 a6 bc 0b 77 1e bc e3 ba 07 3d 14 55 51 bc
       -0.020347776 -0.009671937 0.033137213 -0.012776632
000250 4f 1c 9b 3c bc cd c7 3c 4d eb e2 3b 1f b6 92 bc
       0.018934397 0.024390094 0.0069250227 -0.017909108
000260 e8 fa e0 bc 83 e2 de 3c 27 dd ca bc 76 9e 0b bd
       -0.027463391 0.027207619 -0.024763657 -0.034086667
000270 a1 1a cf bc 78 29 aa 3b 15 b5 76 bb 36 77 b4 3c
       -0.025281252 0.0051929317 -0.0037644554 0.0220295
000280 54 b1 e3 3c 07 b0 b3 bc 5b 4e 76 3b 10 90 f3 bc
       0.027794518 -0.021934522 0.0037583325 -0.02973178
000290 1b 46 b4 3c 48 ef d2 bc 51 1b d5 3a af e6 15 bd
       0.022006085 -0.025748864 0.0016258751 -0.03659695
0002a0 19 db 42 3b 52 de 47 bc 25 d1 f4 3c b6 16 13 3b
       0.0029732643 -0.012199001 0.029884884 0.0022443957
0002b0 ae dd c4 3c 49 00 cf bc 60 19 e0 bb 0e fd 8a bc
       0.024031486 -0.02526869 -0.0068389624 -0.016966369
0002c0 f8 1c 8c 3b 42 91 e7 3c 91 e6 c3 bb 51 ef b7 3c
       0.0042759143 0.028267507 -0.0059784134 0.022452982
0002d0 9a 49 5e 3c 80 23 82 bc 10 ef 6b bc 87 46 5f bc
       0.013567353 -0.015886068 -0.014400259 -0.013627655
0002e0 42 e8 ea 39 7f 1b 84 3b ad 94 fb 3c f1 ad 74 3b
       0.00044805004 0.004031598 0.030710543 0.0037335122
0002f0 93 e7 00 3d 69 53 bc 3c 5d 85 95 3c 17 fc bf bc
       0.031470846 0.022988992 0.01825207 -0.023435635
000300 2c dd 14 3c 3e 3c 2c b9 4e 4f f5 bc e9 a2 f8 bc
       0.009085935 -0.0001642564 -0.029945042 -0.03035112
000310 f2 ec 9a bc 3c 24 ec bb 48 72 f6 bc 12 19 03 3d
       -0.018911812 -0.007206468 -0.03008379 0.03200633
000320 f3 db 17 bc f3 22 d1 ba bc 08 bc 3c df 5b e9 3c
       -0.009268749 -0.001595585 0.022953384 0.02848619
000330 b7 b3 df bc 69 17 08 3d 53 a9 07 bd b3 c9 a1 bc
       -0.027307374 0.03322545 -0.033120465 -0.019749498
000340 5d bd 33 3c b9 67 06 3d 10 c1 5e 3c 39 6d 0e bd
       0.010970441 0.03281376 0.013595834 -0.03477213
000350 e5 04 6c 3c 1c 3e 9e 3c 6b 3c 5c 3c 1f 8f 73 bc
       0.014405464 0.019316725 0.013442139 -0.014865666
000360 23 22 a8 bc 2a 5f 86 bc 68 ab 4b bc fd 45 f5 3a
       -0.02052409 -0.0164028 -0.012431003 0.0018712875
000370 ee 91 7f bb 46 17 7a bc 67 7e fc 3c e0 49 83 3c
       -0.0038996893 -0.015264338 0.030821992 0.016026437
000380 4d db 12 bc 08 4a 97 bc 69 93 e4 bc 61 e6 b6 3b
       -0.008963418 -0.018467918 -0.027902322 0.0055816625
000390 fe c7 f5 3c aa 19 97 3b 28 11 ce 3c 22 06 3a 3b
       0.03000259 0.0046112137 0.025154665 0.0028385003
0003a0 a9 38 6a 3c bd d8 00 bd 0a 20 d3 3c 37 0f a0 3c
       0.014295735 -0.031456698 0.025772113 0.019538505
0003b0 f3 d6 f0 3c 82 9c f9 3c a9 c2 5c 3b 24 74 95 3b
       0.02939937 0.030470137 0.0033685362 0.004560964
0003c0 51 1e 8e bc b4 e6 aa bc 3d f3 b1 3c 74 3c 8a bc
       -0.01734844 -0.020861961 0.02172243 -0.01687453
0003d0 fd 86 2b bc 2f 3b 03 3d c5 e6 7f 3c 87 6c cb bc
       -0.010469195 0.032038864 0.015618985 -0.024832023
0003e0 8a 5f 8e 3c 07 b1 91 3c 6c aa c8 3c d3 71 c1 3b
       0.017379541 0.017784609 0.024495326 0.0059034615
0003f0 7a 77 f7 bc d7 79 c3 b8 a8 57 2d 3c e6 4a f3 3c
       -0.030208338 -9.321019e-05 0.010579981 0.0296988

fc1.bias f4 [16]
000000 93 38 20 3a a1 04 78 3b ea 57 ed 3b 21 8f c5 3c
       0.0006111946 0.0037844556 0.007243146 0.0241161
000010 b5 65 f9 bc 3c 53 9b bc 82 8e 64 bb 94 b9 82 bc
       -0.030444006 -0.018960588 -0.003487498 -0.015957631
000020 89 e0 0f 3c a6 93 28 bb 44 66 ce 3c 18 f2 a4 bc
       0.008781561 -0.002572277 0.025195248 -0.02013497
000030 7b 88 69 3c 96 26 ae 3c af 35 05 3d 26 e2 d8 bc
       0.014253731 0.021258634 0.0325219 -0.026475023

fc2.weight f4 [32, 16]
000000 7b a1 c7 3c 44 a5 27 3e e6 18 73 be 7a 7c 06 be
       0.024368992 0.16371638 -0.23739967 -0.13133422
000010 93 7e 87 3b f4 67 70 be eb cf 1b be 64 be b4 bd
       0.004134962 -0.23477155 -0.15216033 -0.08825377
000020 5f c2 34 bd ad d9 df 3d 81 18 f7 b9 f4 aa 7d 3e
       -0.04413068 0.1093019 -0.00047129768 0.24772245
000030 ef 16 56 3d 88 5c ba 3d 51 a0 27 3e 8e 08 71 bd
       0.052267965 0.0909968 0.1636975 -0.05884605
000040 89 0b 6c 3e 0f 12 e2 bd 3b a9 93 3c bc 92 48 3e
       0.23051275 -0.11038601 0.018025031 0.19587225
000050 98 2f d1 3d 18 dd a5 3d bf 8d 63 be 4c 48 ea bd
       0.10214156 0.08098811 -0.2222204 -0.11439571
000060 86 84 38 3e 28 92 52 3d ea 99 c0 3d 65 25 70 be
       0.18019304 0.051408917 0.09404357 -0.23451765
000070 4d 4e 7c be cd dc c8 bd d5 3e 44 be 14 6f 74 3e
       -0.24639244 -0.098077394 -0.19164594 0.23870498
000080 58 9a 86 3a a7 42 8b bc 71 49 20 be 20 50 32 3e
       0.0010269387 -0.016999556 -0.15653016 0.17413378
000090 9e 0d ee bd 70 f3 95 bc 4f 40 be bd 45 5f 27 3e
       -0.11623691 -0.018304557 -0.0928961 0.16344936
0000a0 b2 92 ae 3d e8 82 61 be 29 26 79 3e a2 84 0f be
       0.08524074 -0.22022593 0.24330963 -0.14015439
0000b0 9e ff 5f 3c 59 1e 57 bd 89 0a 4b 3e ca 68 a8 bd
       0.013671784 -0.052519176 0.19828238 -0.08223112
0000c0 4f 56 4b be eb ed 76 be b0 05 d0 3d c0 43 00 bd
       -0.19857143 -0.24114196 0.10157335 -0.03131461
0000d0 52 c6 d5 3c f6 b9 1f be 4c 52 89 bb b2 98 1c 3e
       0.026095543 -0.15598282 -0.0041907188 0.15292624
0000e0 22 34 45 be 17 f1 b9 3c 62 2f 28 3c d6 71 d0 3d
       -0.19258168 0.022697968 0.010265203 0.101779625
0000f0 3c 15 ae bc 8a 04 71 be db f3 7b 3e 8c e3 0d bd
       -0.02125036 -0.23536888 0.24604742 -0.034640834
000100 82 e8 e4 3d 77 a8 1e be 39 a9 40 be 40 cd 86 3c
       0.1117716 -0.15493952 -0.18814553 0.016455293
000110 11 37 15 3d 08 50 a9 3d ad 4f d4 3d 13 c2 6a 3c
       0.03642947 0.08267218 0.103667594 0.014328497
000120 72 b4 4d be 39 3b 32 be b6 c7 3d 3e 74 06 77 be
       -0.20088366 -0.17405404 0.18533215 -0.24123555
000130 48 ba 06 be 18 e8 35 3e 13 9a 94 3d 44 32 70 be
       -0.13156998 0.17764318 0.0725595 -0.23456675
000140 51 ae 9d bd f9 16 d1 3d 1f e1 ca 3d 1c 68 1f be
       -0.07699264 0.1020946 0.0990622 -0.15567058
000150 a1 f2 0e 3d 30 29 e8 3d 39 c8 36 be 91 a6 a0 bd
       0.034899358 0.11335981 -0.17849816 -0.0784427
000160 8d ca af bd 38 ab 7d 3e 20 71 ba bc 80 ea ad 3c
       -0.08583555 0.24772346 -0.02275902 0.021229982
000170 84 bd 52 3c 2c 77 49 3e 17 28 53 be 43 4b 49 be
       0.012862567 0.19674367 -0.20620762 -0.19657616
000180 b1 1c 57 3d 88 90 af bd 31 79 23 be e0 0c 83 bd
       0.052517597 -0.08572489 -0.159642 -0.0639894
000190 4d db cf 3d 88 a0 d4 3d da f9 6a be 4d df bd 3d
       0.1014925 0.103821814 -0.22946873 0.09271107
0001a0 49 43 4e 3e 99 51 38 3e ae d1 02 be ca c3 a8 bd
       0.20142855 0.17999877 -0.12775299 -0.08240469
0001b0 16 eb 65 be 3c 4e 3f be 24 9f 2f 3e af 95 1b 3e
       -0.2245296 -0.18682188 0.17150551 0.15193819
0001c0 17 2d e5 3d 82 54 e2 3d 5b 83 05 3d 94 73 e2 bd
       0.11190241 0.11051275 0.032595973 -0.11057201
0001d0 d9 c3 4c be e8 f8 fc 3d e8 0b ff bd 0f 66 fd bc
       -0.19996585 0.123521626 -0.12453443 -0.030932454
0001e0 47 8c 33 bd 00 8b fd bd 40 ce 0d 3e bd ae 2b 3d
       -0.04383495 -0.12380028 0.1384821 0.04191469
0001f0 b8 df 14 3e 7f 96 e4 bd 52 7d 03 be b7 3a 79 3b
       0.14538467 -0.11161517 -0.12840775 0.0038029382
000200 40 92 eb bd 7b ca 75 3e 88 7c af bd 88 25 78 3d
       -0.11502504 0.24003021 -0.08568674 0.060582668
000210 3f 55 2e be 32 d0 77 3e a0 9a 05 bc 65 61 63 be
       -0.17024706 0.24200514 -0.008154541 -0.22205122
000220 84 e3 20 bd a7 7b 7e 3e 42 67 75 3d 01 23 a1 bd
       -0.039279476 0.24851857 0.059912927 -0.078680046
000230 40 bd 32 3e 52 72 5d be 4a 87 66 3c b5 53 4e bd
       0.17455006 -0.21625641 0.014070341 -0.050372798
000240 58 d1 6b be c5 db 98 bd 31 2a 65 3d 40 c5 dd bd
       -0.23029077 -0.07463793 0.05594844 -0.10828638
000250 05 71 45 be 16 69 55 3e 19 73 07 be 2c 83 2e be
       -0.19281395 0.20840868 -0.132275 -0.17042226
000260 74 8f f7 bd 34 30 ab bb c5 37 f4 3d 61 0f 41 3e
       -0.120879084 -0.005224252 0.119247 0.18853523
000270 de 21 87 3d 7c 09 05 3c 3e ce c1 bd 43 87 80 3e
       0.065982565 0.008119937 -0.09463166 0.25103197
000280 d4 93 1f be f3 60 3b be e7 2d cb bd 74 01 5e 3e
       -0.15583736 -0.18298702 -0.099208646 0.21680242
000290 53 5f 82 bd 30 f3 13 bd 90 b0 e0 3d b7 f6 09 3e
       -0.06365838 -0.036120594 0.109711766 0.1347302
0002a0 c2 b1 1a be 61 9d 64 be 85 ea cd 3d 50 52 49 be
       -0.15106872 -0.2232566 0.10054497 -0.19660306
0002b0 81 9f c2 bd 19 ef 42 3d 16 20 27 bd 55 37 37 3e
       -0.09503079 0.047591303 -0.040802084 0.17892201
0002c0 96 87 b5 bd ec 8d d1 bd 3e 48 c0 bd 8c bf 83 bd
       -0.088637516 -0.102321476 -0.09388779 -0.06433019
0002d0 f1 f7 06 3e 08 e5 d3 3d 29 96 0c 3e 9d 98 f9 3c
       0.1318052 0.103464186 0.13729157 0.03046828
0002e0 39 48 75 be 23 3f 5b be 63 5b ea bd 69 0d e6 bc
       -0.23953332 -0.21410803 -0.11443212 -0.028082566
0002f0 78 f1 23 3e 3a f4 4a 3e 89 ce 1f be ea db 28 be
       0.16010082 0.19819728 -0.1560613 -0.1649014
000300 f8 dd 26 3d e4 f7 86 bd 27 91 aa 3c c0 57 6b bd
       0.04073903 -0.0659025 0.020821167 -0.05745673
000310 80 40 2c be 20 b8 dd bd a3 34 44 3e 43 b2 29 be
       -0.1682148 -0.10826135 0.19160704 -0.16571908
000320 d0 b3 0c 3e 00 ed 57 be 1b 72 59 3e 1c 6e 21 be
       0.13740468 -0.21086502 0.21234934 -0.1576466
000330 42 d0 4b be 9e 33 c8 3d 72 85 f9 bd 34 af 0d be
       -0.19903663 0.0977547 -0.12183656 -0.13836366
000340 bf 7b 5f be 63 f2 2d be 8c bb f3 3d a4 63 4c be
       -0.21824549 -0.16986994 0.11901006 -0.19959885
000350 c1 ac ff bd 00 2c 46 3d e4 58 27 3e 8f 7a da 3d
       -0.12484122 0.048381805 0.16342503 0.106679074
000360 45 1b 07 3e 99 20 78 be 1d d8 44 be da 4f a2 bd
       0.13193996 -0.24231185 -0.19223066 -0.07925387
000370 84 0d f4 bd 20 bf 28 be b6 c9 79 3e b5 33 89 3d
       -0.119166404 -0.16479158 0.24393353 0.066993155
000380 2f 09 ef bd fd 82 05 3a a9 04 55 be 90 fe 98 bc
       -0.116716735 0.0005093066 -0.20802559 -0.018676072
000390 65 b5 e2 bc b8 36 44 be e7 5c 39 3d f1 99 a3 3d
       -0.027674386 -0.19161499 0.045254614 0.07988346
0003a0 01 2f 12 3e 2c 72 a8 3c b1 21 61 3e 7c 94 6a be
       0.14275743 0.020562254 0.21985509 -0.22908205
0003b0 14 60 36 be df ad bf bd 9b f9 52 3e 5d 0e 48 3d
       -0.17810088 -0.09359335 0.2060303 0.048841823
0003c0 c7 2d 6d be e7 11 c4 3c 69 5f 68 3e b4 5c 72 be
       -0.23161994 0.023934318 0.22692646 -0.23668176
0003d0 00 b0 1b be 38 e8 b3 3d 39 52 75 3e 11 97 0d 3e
       -0.15203857 0.087845266 0.23957147 0.13827159
0003e0 37 ed 63 3d 26 15 2d 3d 95 d3 5d bd 6b ff c7 3c
       0.055646148 0.042256497 -0.05415686 0.024413785
0003f0 d1 8e 24 be ab 46 ac bd d3 5d 44 3e 2d f2 c2 bd
       -0.16070105 -0.08411916 0.19176416 -0.095188476

fc2.bias f4 [32]
000000 f3 d4 41 3e d4 ec 31 3e db 1e 4b 3e 42 37 ff bd
       0.1892889 0.17375499 0.19835989 -0.124617115
000010 89 bd b3 3d 0f e9 38 bd 70 f7 05 be 7e b3 cc bd
       0.08776385 -0.045144137 -0.13082671 -0.09995173
000020 e1 30 18 3e 37 2d c6 3d 8a 6a 3d 3e 0d 73 01 be
       0.14862396 0.09676593 0.18497673 -0.12641545
000030 63 66 43 be c2 cb 73 3e 41 d9 ef 3d 4f 7a d6 bd
       -0.19082026 0.23808196 0.1171136 -0.10472547
000040 70 1a 08 3e 1e e2 66 bd ab fe 71 bd 3d 87 d2 bd
       0.13291335 -0.056367986 -0.05908076 -0.10279701
000050 63 b6 30 be 69 af 94 3c cd b0 86 3d 65 82 5c 3e
       -0.17257075 0.018150048 0.06576691 0.21534117
000060 3d bf 92 bd 0d 88 d3 3c 8e c0 cb 3b 76 f8 ba 3d
       -0.07165382 0.02582171 0.0062180227 0.091294214
000070 4f d7 ba bd 40 7e ad 3d 9c 61 70 be 95 e0 84 3d
       -0.09123098 0.08471346 -0.23474735 0.06488148

fc3.weight f4 [64, 32]
000000 b6 af a9 bd 59 b3 a3 bd 35 12 18 3e ae 14 ae 3d
       -0.08285467 -0.07993192 0.14850695 0.08500038
000010 77 58 60 bd 5b 83 83 bc 8e 04 2f 3b bf 4b 0b 3d
       -0.054771867 -0.016053846 0.0026705596 0.034007784
000020 65 31 ec bd 47 1e 55 bc 26 f3 7c bd be 5a 11 be
       -0.11532859 -0.013007707 -0.061755322 -0.14194772
000030 0b c2 87 3d 28 94 48 bd 31 50 5f bd ca 88 f3 bc
       0.06628808 -0.048969418 -0.054519836 -0.029728312
000040 e6 cb 0a 3e 7b d8 04 3e bc 23 a9 bc 31 0f 92 3d
       0.13554344 0.12973206 -0.020646922 0.07131804
000050 28 88 bb bd bf c3 c7 bd 34 a5 1a bd f6 aa ab bd
       -0.09156829 -0.097541325 -0.037755206 -0.083822176
000060 37 58 bc 3d da 43 06 be 2b cb 52 bd f0 bc 29 3e
       0.09196513 -0.13111821 -0.051463287 0.1657598
000070 14 3a e0 bc 9b 89 d9 bd 12 46 c8 bd 22 df 14 be
       -0.027371444 -0.10621949 -0.0977899 -0.14538243
000080 7a 03 16 be 3f 25 41 3d b6 1d b5 bd ed 5f 5a bd
       -0.14649764 0.04715466 -0.088435575 -0.05331414
000090 7a 66 4f 3d d7 ed 3c bd fa 39 60 3d 85 be b6 bd
       0.05063484 -0.04612526 0.05474279 -0.089230575
0000a0 9c 2f 1c be a3 c4 26 be 87 9c af 3d a3 31 45 3d
       -0.15252537 -0.16285948 0.08574777 0.04814304
0000b0 c1 32 12 3e 80 17 c8 3c 36 f1 ae 3d 7b e1 4c bd
       0.14277174 0.024425268 0.08542101 -0.050019722
0000c0 9f e3 84 bc 4d 65 a8 bc 7a ec 1c 39 c2 d0 0c 3e
       -0.01622182 -0.020556116 0.00014965414 0.1375151
0000d0 2d 02 19 3e 4e 4b 0d bd 8e 8f a7 bd fa df 7d 3d
       0.14942236 -0.034495644 -0.08181678 0.06198118
0000e0 40 f3 55 3d 2a 1e ca bb c5 3f da 3c 50 a2 a8 3c
       0.052233934 -0.0061681466 0.026641736 0.02058521
0000f0 65 ef 2a 3e 48 ef 5f bd 4c 2e 8f bd 0e ee 20 be
       0.16692884 -0.054671556 -0.06991252 -0.1571581
000100 63 05 df bd f3 21 88 3c 04 49 26 3e 5a eb d6 bd
       -0.10889699 0.01661775 0.16238791 -0.104941085
000110 7f a7 10 3e fd a4 f7 bd a0 34 8f 3d a9 ff bc 3d
       0.14126395 -0.12092016 0.06992459 0.09228451
000120 55 4f a3 3d c0 ac 0e be 5c 2e 05 be 45 f9 03 3e
       0.07974116 -0.13933086 -0.13005966 0.12888058
000130 f4 15 0e 3e d9 ad ec 3d 4b a8 c4 3d ad d9 97 bd
       0.13875562 0.11556596 0.09602412 -0.07414565
000140 65 e9 69 3d 92 b6 c7 bd 4a 77 24 3e 84 87 90 3d
       0.057107348 -0.097516194 0.1606113 0.070570976
000150 b2 29 f3 bc 5a f9 07 be 2c ef 9d bd ba cf e8 3b
       -0.029682968 -0.13278714 -0.07711634 0.007104841
000160 e9 2a 11 3e 32 26 dc bd c2 0c 52 3c 33 91 47 3d
       0.14176525 -0.10749473 0.0128204245 0.048722457
000170 31 3d 03 bc 37 f8 e1 3d d8 d6 03 3e 1a 06 3b 3e
       -0.008010195 0.11033671 0.12874925 0.18264046
000180 d5 50 25 3e 18 5d 20 be c1 3a fe bc 64 1d dd bd
       0.16144116 -0.15660512 -0.031033875 -0.107966214
000190 63 21 94 bd 8d 8c 0e be 1d 5f c8 3d 60 39 2e 3d
       -0.072329305 -0.13920803 0.097837664 0.042535186
0001a0 c7 90 1a be fe 68 79 bd 21 28 86 bd 09 94 fb 3d
       -0.1509429 -0.060891144 -0.06550623 0.12284095
0001b0 57 11 f5 bd 3b f1 be bd d3 cf ff bc 7d 5e 01 3e
       -0.11966198 -0.09323355 -0.031227028 0.126337
0001c0 09 8d 7e bd 52 c2 3d bd 67 e8 18 3b 75 00 82 bc
       -0.06214622 -0.046327896 0.0023331882 -0.015869359
0001d0 41 cb 98 3b e0 95 05 3e fe 66 9e bd 99 ee 26 bd
       0.0046629016 0.13045454 -0.07734488 -0.04075489
0001e0 53 44 6f bd 93 74 00 bd 6f 54 05 3e 4a 38 b4 3d
       -0.05841477 -0.031361174 0.1302049 0.08799799
0001f0 a0 14 14 bd b5 50 75 3d 8b 6a d4 bd 7a 4e c9 3d
       -0.036152482 0.05989142 -0.10371884 0.09829421
000200 a2 cc 22 be c0 a0 db bb 8c 6e 04 3e 38 5f 75 bd
       -0.15898374 -0.0067025125 0.12932795 -0.05990526
000210 6b 27 e2 bd bf ce c7 bd 18 fa b9 bd 5b 99 45 bd
       -0.11042675 -0.097562306 -0.09080905 -0.048241954
000220 04 18 e0 bd 27 7e fe 3d a5 b7 c5 3d 3a 90 ab 3d
       -0.109420806 0.124264054 0.09654168 0.083771184
000230 9e f3 c1 3d 73 de a7 bd e8 66 f2 bc 41 0e 10 be
       0.094702944 -0.08196726 -0.029590085 -0.14067937
000240 7f 9d 71 3d e5 52 0c 3e 50 45 44 bd 79 5d b2 bd
       0.05898809 0.13703497 -0.047917664 -0.08709235
000250 bd af 19 3e d8 6c 6c 3d de ec fe 3d 25 96 2d 3e
       0.15008445 0.05772099 0.124475226 0.16951807
000260 19 51 d5 3d b1 12 1e 3d f2 26 21 3e 54 be 0a bd
       0.10415859 0.038592044 0.15737513 -0.033872917
000270 57 73 f6 bd 05 75 8d bd 9b 85 2c be 7f 26 c8 3c
       -0.12033718 -0.06907085 -0.16847841 0.024432419
000280 ea 0d 9a bd cc fd 0a 3e 85 60 91 bd 09 ea 06 be
       -0.07522185 0.13573378 -0.07098488 -0.13175215
000290 08 f7 fd bd 0f 92 16 bd db a7 f4 bd 90 b7 c2 bd
       -0.12400633 -0.036760386 -0.119460784 -0.09507668
0002a0 8d f4 09 be f5 ba 2d 3e 67 0a 88 3d 73 70 f4 bd
       -0.13472195 0.1696585 0.06642609 -0.119355105
0002b0 c7 ed bc 3b 6a 54 33 3d fe 26 77 bd a4 6a 05 3e
       0.00576565 0.043781675 -0.06033992 0.13028961
0002c0 9d 78 d5 3d 95 ce aa 3d 9f 70 e2 bd 66 ac b2 bd
       0.10423396 0.08340184 -0.11056637 -0.08724289
0002d0 bf 17 1f be ab da 86 bd 2b 7e 02 3d 89 2d 0a be
       -0.15536402 -0.06584676 0.031858604 -0.13493933
0002e0 8b 36 a9 3d 32 7f 43 3d d1 6c 15 3c 19 fe 0a 3e
       0.08262356 0.047728725 0.009120182 0.13573493
0002f0 e1 e2 07 3e ee d0 f3 3d b8 ac c4 bd b4 4d 1f be
       0.13270141 0.119050846 -0.09603256 -0.15556985
000300 ea 1c 20 be 84 aa 08 be d0 de 08 be b8 98 53 bd
       -0.1563603 -0.13346297 -0.13366246 -0.051659316
000310 e4 63 08 3d f6 24 a4 bd 54 31 29 be 9c 66 f1 3c
       0.033298388 -0.08014862 -0.16522723 0.029467873
000320 1c 2f bf 3c 27 dc 27 3d f0 0e f8 3d 3e 5a 12 3b
       0.023337893 0.040981438 0.12112224 0.002233162
000330 d0 99 c0 bd cd c3 1a 3d 45 ca f9 3c ba ea 2e 3e
       -0.094043374 0.037784386 0.030491957 0.17081729
000340 03 ce 02 be 1e 4f 1e be 63 f4 e4 bb 13 a9 b0 3d
       -0.127739 -0.15459868 -0.006987141 0.08625998
000350 52 3b 5e bd 37 71 f0 bd 04 bb 35 bd 1e a4 57 bb
       -0.05425579 -0.11740344 -0.044367805 -0.0032904218
000360 83 5a 75 3d e7 cf 88 3d b3 d0 e3 bd c9 a3 1c be
       0.05990077 0.06680279 -0.111237906 -0.15296854
000370 08 10 24 be ad af 08 be 9e 31 d3 3d d2 fa 36 3e
       -0.1602174 -0.13348265 0.10312198 0.17869118
000380 60 6e b2 3d 8e a0 28 bd a5 31 24 3e 41 11 23 3e
       0.087124586 -0.041168742 0.16034563 0.1592455
000390 3c d1 1a 3d dc d6 0e 3e 43 48 03 3e bb 0c 30 be
       0.037797198 0.1394915 0.12820534 -0.17192356
0003a0 82 cf bb bd 27 dd 34 be 98 00 34 3d 4d 18 bb 3d
       -0.09170438 -0.17662488 0.04394588 0.091354944
0003b0 48 e5 f2 3d 55 9a 1b bd 71 86 2b 3e 07 1e 82 bd
       0.11860138 -0.03798898 0.16750504 -0.063533835
0003c0 a7 1d ff 3d a8 59 2b be bb 88 e3 3c d8 fb 76 3d
       0.124568276 -0.1673342 0.02777516 0.06029877
0003d0 12 a3 26 3e 19 b6 95 bd 1a 7d a1 bd e6 78 8c bd
       0.16273144 -0.07310123 -0.07885189 -0.06858997
0003e0 d8 9e 2a 3e e9 38 87 bb e0 ec 08 3e 23 13 cd 3d
       0.16662157 -0.0041266573 0.1337161 0.10013416
0003f0 09 88 08 be 07 28 37 3d 98 d3 2c 3e 8e 4c 07 be
       -0.13333143 0.044715907 0.16877592 -0.13212797

fc3.bias f4 [64]
000000 66 f0 24 be 55 36 8a bd fb fe 21 3e c7 c9 17 be
       -0.1610733 -0.06748644 0.15819924 -0.14823066
000010 0b 42 95 3d 2f 5a 43 3c ed 07 0c 3b 46 02 d5 bd
       0.07287987 0.011923357 0.0021367029 -0.10400824
000020 14 f1 27 3e 5f 25 33 be 07 6e fa bd 72 cb 6b bd
       0.16400558 -0.17494725 -0.12228017 -0.057567067
000030 db ce 2e bc 23 6f e6 bd 46 6e 64 3d 35 5e e9 bd
       -0.010669435 -0.112516664 0.055769227 -0.11394922
000040 77 54 10 bd a0 fd 7a bd fb 69 d2 bd 4e a6 22 3e
       -0.035236802 -0.061277032 -0.102741204 0.15883753
000050 f2 79 2a 3e 83 f1 13 be c5 66 3f bd b7 1d 92 bd
       0.16648081 -0.14447598 -0.046728868 -0.07134574
000060 93 a2 ad 3d 44 1d 26 3e 1d d3 02 3d 3d cb 1a be
       0.08478274 0.16222101 0.031939615 -0.15116592
000070 c6 c0 41 3d 97 7c ab bd 3f e5 b7 3c 38 3b 25 be
       0.047302984 -0.08373373 0.02244818 -0.16135871
000080 4e f3 03 3d 91 a9 d5 3d 16 bd 32 be e1 7b 8e bd
       0.032214455 0.10432733 -0.17454943 -0.06957222
000090 c7 98 ec bd 0b 37 c6 bd 80 d5 0d be ef 08 df 3d
       -0.115525775 -0.09678467 -0.13850975 0.10890376
0000a0 ba fa bd 3d a7 8c 82 bc b5 fe cf 3d 9c 1f 59 bd
       0.09276338 -0.015936209 0.101560034 -0.05300866
0000b0 ba 26 e8 bd cd 9b 1c be 79 97 d2 3c 55 23 0b 3e
       -0.113355115 -0.15293808 0.025706993 0.13587697
0000c0 5f 58 a6 3c 73 82 d6 bd a4 3e 26 3e 66 bb b2 bc
       0.02030581 -0.104741 0.16234833 -0.021817874
0000d0 36 9a c7 3d d3 a8 d9 bd 91 43 49 bd 5c 01 03 3e
       0.0974621 -0.10627904 -0.049136702 0.12793487
0000e0 ef cc af bb 13 d2 11 be e6 bf 12 3e ed 40 83 3c
       -0.005365006 -0.14240293 0.14331016 0.01602217
0000f0 1f e1 2c 3e d9 90 2e bd c2 3c 2d be 91 49 b1 bd
       0.16882752 -0.042618606 -0.16917709 -0.0865661

fc4.weight f4 [128, 64]
000000 96 a4 9b 3d 13 35 ad bd 17 86 f3 3c 38 cf b9 3d
       0.07599752 -0.08457389 0.029727025 0.09072727
000010 58 a8 45 bc d3 0c 0f 3d 2b 8b a2 bd c0 52 82 bd
       -0.012064062 0.03492434 -0.079367004 -0.063634396
000020 41 ab ed bd 30 f5 71 bd 4e 83 17 bd 5a 39 97 bd
       -0.1160493 -0.05907172 -0.036990456 -0.07383986
000030 65 92 eb bc 61 08 69 b9 46 e8 35 3d fa 3a b1 3d
       -0.02875633 -0.00022223733 0.044410966 0.08653827
000040 7f 55 81 3c 0c 58 80 bd 84 3d e8 bd 15 f1 ca bd
       0.015787838 -0.062667936 -0.11339858 -0.09909264
000050 f6 8a 7a bd 9d ff 24 3d ba da 6e 3d cd 51 fc bd
       -0.06116768 0.040282834 0.058314063 -0.1232029
000060 91 e6 72 bd 65 b9 c0 bd 4f 22 a4 3d c2 9f d1 3d
       -0.059301917 -0.09410361 0.08014356 0.102355495
000070 d0 4e 96 3d 00 d6 22 3d ab 28 9b 3d 4f db fb bb
       0.07339251 0.039754868 0.07576116 -0.0076860557
000080 2b 7f 49 3d dd af d4 bd eb d2 ff bc a9 fa 90 3d
       0.049193542 -0.10385106 -0.031228503 0.0707906
000090 38 1c b8 bd 8a 5e 47 3d 33 72 b0 bd 0b d9 3d 3d
       -0.08989757 0.048674144 -0.08615532 0.046349566
0000a0 a9 c4 fe 3b 57 64 22 bd aa 0d 5d bd 98 86 d3 3d
       0.0077749086 -0.039646473 -0.05396811 0.10328406
0000b0 56 cf 91 bd 3a 57 b4 bd 56 2a 3c 3d 22 c5 e7 bd
       -0.07119624 -0.088057 0.045938812 -0.11316897
0000c0 77 56 6e bd 30 bc 48 3d eb 71 e0 bd d0 f4 50 3d
       -0.058187928 0.049007595 -0.10959228 0.05101472
0000d0 f0 53 ca bc fb a5 dc bd e1 bc e1 bd 31 fa bf 3d
       -0.024698228 -0.10773846 -0.11022354 0.09373892
0000e0 24 3c f0 3d 15 05 8a bb 16 6f e8 3d 4b 4d 8d bd
       0.11730221 -0.0042120316 0.11349313 -0.06899508
0000f0 06 94 9c 3c 82 fb 7c bd ef 0f d8 3d 84 fa 9e bd
       0.019113552 -0.061763294 0.10549914 -0.07762626
000100 ff f7 42 bd 71 4c 7d bc 8d ba e0 bc 16 fd 9f bd
       -0.04759979 -0.01546012 -0.027432704 -0.07811944
000110 9f 4c 74 bd 08 44 a3 bc b0 23 cb bc 3b a9 8d 3c
       -0.059643384 -0.0199299 -0.02479729 0.01729261
000120 07 e1 6f 3d 95 ea 3d bd b3 a7 f2 3d 4a 3a e1 bd
       0.058564212 -0.046366293 0.11848392 -0.10997446
000130 d9 db c2 3b 4a c2 02 bd 73 fd 93 bc 5b d2 e4 3c
       0.005946618 -0.03192357 -0.01806519 0.027932337
000140 7d 73 17 3d 8a 76 bc 3d 81 6c 03 bb af a0 a2 3d
       0.036975373 0.09202297 -0.0020053687 0.07940804
000150 f8 f3 86 bc f6 c0 bd 3c 22 e7 30 3c 16 d8 07 bd
       -0.016473755 0.0231633 0.010797294 -0.03316506
000160 9c df cb bd 57 c1 b0 bd e2 c7 5b bc 1e d0 eb bd
       -0.099547595 -0.08630627 -0.013414355 -0.115143046
000170 a4 12 a8 bb e4 ff ef bd e5 98 df bd 7c cd 29 3c
       -0.0051291753 -0.11718729 -0.10917834 0.010363933
000180 97 6d ac bd 56 99 45 3d 7e 4c ce 3c 14 c2 2a 3d
       -0.0841934 0.048241936 0.025182959 0.041688994
000190 92 39 50 bd ca be cd bc bd e2 e3 bd f8 f8 c5 3d
       -0.050836153 -0.02511539 -0.11127231 0.09666628
0001a0 f4 2a b8 3d 44 b1 d9 3d a9 33 a4 bd b8 2e 1f bd
       0.08992568 0.10629514 -0.08017666 -0.038862914
0001b0 91 68 d5 3d 52 13 72 3d 7b 62 b7 3c e7 5d d5 3a
       0.10420335 0.059100457 0.022385826 0.0016278595
0001c0 14 c1 a2 3d d3 e7 42 3b 5f 95 40 bd d5 f9 15 3d
       0.07946983 0.0029740229 -0.04701745 0.03661521
0001d0 22 e8 f7 bd f6 6e 07 3d e5 80 02 bd 60 9d f2 bd
       -0.12104823 0.033064805 -0.031861205 -0.11846423
0001e0 34 c7 f9 bc 0c 5b a4 bd 34 1a 55 3d 87 bd d4 bd
       -0.030490495 -0.08025178 0.052026942 -0.10387712
0001f0 2f 8f 01 3b 25 10 aa bd 06 2d c2 3d ed 8f 6c 3b
       0.0019769182 -0.083038606 0.09481244 0.0036096529
000200 20 91 a0 bd 01 2c c5 3c 2c e5 8d bd 5e 55 ea bd
       -0.078401804 0.024068834 -0.06928477 -0.11442064
000210 5c 98 47 ba eb 18 e3 bd 6e 05 00 3e d3 6d fc 3d
       -0.0007613951 -0.11088737 0.12502071 0.12325635
000220 1e 32 ab bd 92 41 d6 bd ac 82 9a bd 8f 5c a9 3d
       -0.083591685 -0.10461725 -0.07544455 0.08269607
000230 e8 5c f9 bd 8f 54 a2 bd 40 c0 07 bd 37 f9 1f 3d
       -0.121759236 -0.079262845 -0.03314233 0.03905603
000240 1c 20 f3 bd 81 22 74 3d 0f 33 fa 3d 60 75 4b bd
       -0.11871359 0.059603218 0.1221677 -0.049672484
000250 70 eb de 3d 14 0e ff 3d 8a e4 b6 bc 59 bb 5e 3d
       0.1088475 0.12453857 -0.022325773 0.054377887
000260 e4 a0 bf bd 25 d5 71 3c 8a c0 8d 3d da 00 06 3d
       -0.09356859 0.01476029 0.069214895 0.032715656
000270 41 b5 58 bd f8 fe f6 bd 4e 48 d5 3d d1 ee 89 bd
       -0.052907232 -0.1206035 0.10414182 -0.06735004
000280 51 7e 4b bd fa ee 77 bd ca 54 84 bd f3 43 df 3d
       -0.04968101 -0.06053064 -0.06461485 0.10901632
000290 ad b9 11 bc 43 b6 76 3d b7 70 1b 3d e8 2e 81 3d
       -0.008894366 0.060232412 0.03794929 0.06307775
0002a0 e0 f9 90 bd 90 c7 d9 bd 61 fc 2f bd 74 f9 e3 3b
       -0.0707891 -0.10633767 -0.042965297 0.0069572274
0002b0 4a 80 14 bd dc f2 de 3d d8 67 04 bd fc c5 c1 bd
       -0.03625516 0.108861655 -0.032325596 -0.09461591
0002c0 5c b2 52 3d 38 69 82 3d f3 08 91 bd 78 af 33 3d
       0.051439628 0.06367725 -0.07081785 0.043868512
0002d0 00 21 ce bd 54 ac 71 3d be a6 ce 3d a7 83 8c 3d
       -0.10064888 0.059002236 0.10090397 0.06861048
0002e0 59 33 16 bd ca c1 f2 bc 7e 19 d5 bd b1 64 f9 bd
       -0.036670063 -0.029633421 -0.10405253 -0.121774085
0002f0 f5 a6 8e bd 78 cc ab bb 4b 72 2f 3d 19 4e ee bc
       -0.06965438 -0.0052428804 0.042833608 -0.029089974
000300 4c 62 52 bd cc fb 26 3d 9c 36 82 bd 3c 10 23 3c
       -0.051363274 0.040767476 -0.06358072 0.009952601
000310 b8 bb 42 bd 40 15 24 bd bc 79 f8 3b f2 3d 7e bd
       -0.047542304 -0.040059328 0.0075828712 -0.062070794
000320 cb 6a 1a bd c6 6b dc 3d 79 00 be 3d c3 30 d8 bd
       -0.037699502 0.10762744 0.09277434 -0.105561756
000330 30 0e d9 3d ef e5 50 bd 75 62 eb bc c3 0f 91 bd
       0.10598409 -0.05100053 -0.028733471 -0.070830844
000340 0c f1 ad bd 36 57 34 bd 4c 57 79 3b 81 ef 4a 3d
       -0.08493242 -0.044028483 0.0038046418 0.049544815
000350 89 73 0b 3c b1 f7 46 3d d4 6e 38 3d 72 7d a8 bd
       0.008511432 0.04857606 0.04502757 -0.08227052
000360 f1 67 a1 3d f6 51 20 3d 98 fb 90 3d 54 15 6f bd
       0.078811534 0.039140664 0.07079238 -0.05836995
000370 ec 4f 40 bd 3d 00 e2 bd 6d 5f 88 bd 1e 0b 6c 3c
       -0.04695122 -0.11035202 -0.06658826 0.014406947
000380 3c ae b1 bd 7f af f6 bd 7e 36 c9 3d b7 65 60 bd
       -0.08675811 -0.12045192 0.09824847 -0.054784503
000390 8d 83 71 bd cd 49 9a 3d 0a 5c 07 bd 7f 12 3d 3d
       -0.058963347 0.07533608 -0.03304676 0.046160217
0003a0 36 df d1 3d 6e 56 bf bd 00 14 6f 3d 97 78 f2 3c
       0.10247652 -0.09342657 0.058368683 0.029598517
0003b0 4d 04 ac bd 95 7f d1 3d f5 dc d7 3b c9 e5 9a 3d
       -0.08399258 0.102294125 0.0065876194 0.07563359
0003c0 a4 fe 94 bd 91 0b e4 3d ec 83 8f 3d 1b b3 d1 bd
       -0.07275131 0.111350186 0.07007584 -0.1023924
0003d0 65 d4 8a bd 84 9a b3 bc 62 25 f0 3d 36 2f aa 3d
       -0.06778792 -0.021924265 0.1172588 0.08309786
0003e0 c5 0d 38 bd ef 00 27 3c 80 21 4c 3b e2 e3 e9 3c
       -0.044935007 0.010193094 0.0031147897 0.028551046
0003f0 a4 ee a3 3d aa 93 f1 bd 9d 61 c5 3c f5 21 b0 3d
       0.080045015 -0.11795743 0.024094397 0.08600227

fc4.bias f4 [128]
000000 b0 6a a2 bc 09 35 ef 3c c3 c9 a1 bd fd 9e 2e bd
       -0.019826263 0.029200094 -0.07899811 -0.04263209
000010 10 02 31 bb 5a ef a3 3d 3e fc d7 bc 08 3f 9b 3c
       -0.0027009286 0.08004637 -0.026365396 0.018950954
000020 b9 b8 45 3d a0 80 dd 3d 64 9f 3e 3d 3c a5 cd bd
       0.04827187 0.10815549 0.046538725 -0.100412816
000030 83 81 11 3d df 0b f7 bd 48 2b b2 3d 17 00 d0 3d
       0.035523903 -0.12062811 0.086996615 0.10156267
000040 7c 86 82 3c e3 a4 b2 3d f5 cd b4 3d f7 fc bc 3d
       0.015933268 0.08722856 0.08828346 0.09227937
000050 29 9e 92 3d b7 a5 e4 3b 99 e0 c8 3c 47 80 20 3d
       0.07159073 0.0069777626 0.024521159 0.039184835
000060 53 4f ca bd fc 98 91 3d 59 20 04 bc 63 1c b9 bd
       -0.09878411 0.071092576 -0.008064353 -0.090386175
000070 3c c4 a3 3c 60 f3 ed bd 8e 36 32 3c 01 10 0c 3c
       0.019991033 -0.11618686 0.010877265 0.0085487375
000080 22 8b 1f 3d c1 51 b3 3b 20 bb fc 3d a1 b8 38 bd
       0.038951047 0.0054723923 0.12340379 -0.04509795
000090 30 10 c6 3d 28 e2 52 3c 77 0a 41 bd 14 d9 ea bd
       0.09671056 0.012871303 -0.04712912 -0.114671856
0000a0 63 58 d1 bd 6b 65 ce 3c 2e d7 f1 bd f9 7a 50 bd
       -0.102219366 0.025194844 -0.118086204 -0.050898526
0000b0 ff 95 cd 3d c2 b0 c6 3d 3e 74 e3 bb 4d 38 9e bd
       0.10038375 0.097016826 -0.0069413474 -0.07725582
0000c0 ec f2 81 3d 37 fc 0e bd 78 77 be bd 9a 7a f8 3d
       0.06345162 -0.0349085 -0.093001306 0.121327594
0000d0 3f c2 bd 3a 28 35 f3 3c ab 68 a3 bd 9a df 80 bd
       0.0014477446 0.029688433 -0.07978948 -0.062926486
0000e0 a8 7e 94 3d c8 47 1a bd 01 c9 bc 3d ea 44 ba bc
       0.0725072 -0.037666112 0.09218026 -0.022737939
0000f0 96 cb 76 bd f6 5f c7 bd 7c ae 73 bc 77 94 8d ba
       -0.06025275 -0.097351 -0.014873143 -0.0010801692
000100 68 5d 4c bc 80 9e 8e 3b 76 53 25 bd 9e 66 03 3d
       -0.012473442 0.0043523908 -0.040362798 0.032080285
000110 1c 3d 4b bd 4e a8 8b bb 5d 48 f7 bc 32 c3 87 3d
       -0.049618825 -0.004262007 -0.030185873 0.066290274
000120 bb 9b 9f bd 4c 0b 0e bd 7b cc 65 bd 94 0d bc 3d
       -0.07793375 -0.034678742 -0.05610321 0.09182277
000130 bc 25 d7 3d b8 97 17 3d c8 9d 89 3c ef 65 99 3c
       0.10505244 0.037009925 0.016798869 0.018725364
000140 19 5e e1 3d 29 e3 d0 bb 14 b5 52 bd bc 83 58 bd
       0.11004276 -0.006374736 -0.05144222 -0.052860007
000150 fb 5d 86 bd fe 24 d1 3d 15 8c 14 3d f3 09 9b 3d
       -0.06560894 0.10212134 0.036266405 0.07570257
000160 d4 1a f1 3d f7 4d 8d bc 96 c1 9f bc 26 55 3e ba
       0.11772695 -0.01724909 -0.019501489 -0.0007260613
000170 70 35 63 bd 97 d5 11 bd 10 42 5d 3c 79 6e 74 3d
       -0.055470884 -0.035604086 0.01350452 0.059675667
000180 54 67 a0 bd a9 07 40 3d d6 4c 43 3d 24 d4 2e 3d
       -0.07832208 0.046882305 0.0476807 0.04268278
000190 89 d3 8e 3d 17 62 c6 bd b9 3b de bd 31 60 86 3c
       0.06973941 -0.09686678 -0.10851235 0.01640329
0001a0 23 6e 44 bd 5a f9 cd 3c 8d 89 7b 3c 43 a3 f4 3d
       -0.047956597 0.025143314 0.015352619 0.11945202
0001b0 bc 25 81 bd 70 2b 34 3d d7 cd a1 3d 9d 48 95 3d
       -0.063060254 0.043986738 0.07900589 0.072892405
0001c0 e2 c1 3e 3d 7d a0 5b 3d a6 12 9f bb 79 62 e5 bd
       0.04657162 0.05361985 -0.004854518 -0.11200423
0001d0 39 2e 9e bd a1 2d 28 3d ca 33 da 3c 19 f6 b9 3d
       -0.0772366 0.04105914 0.026636023 0.090801425
0001e0 41 e8 8e bd 1d 26 a1 bd 43 a3 4c bd dd 51 a6 bc
       -0.06977893 -0.07868598 -0.049960386 -0.020302707
0001f0 28 04 c8 3d f9 ae 15 3d df db b2 bd 76 f9 ea bc
       0.09766418 0.03654382 -0.08733343 -0.028683405
