models_submitted/train_acc-CNN_2L_FC_N400.pt (torch, 160817 bytes, 22 tensors)

conv1.weight f4 [32, 1, 1]
0.9463306 0.6836582 0.6728759 0.6343392 -0.72582585 -0.39395863 0.29529703 -0.12926851
0.4482914 -0.8172451 -0.5785024 0.27186394 -0.12445544 -0.9427583 0.038969148 -0.33601978
0.67663336 0.6786206 0.5036468 -0.9775374 0.98080623 0.88787687 0.70017964 0.4601167
-0.85252076 0.7242423 0.070549205 0.34707507 0.24839607 0.63997257 0.47277796 0.7210587
00000000: b942 723f 3904 2f3f 9841 2c3f 0e64 223f
00000010: b9cf 39bf f2b4 c9be 2c31 973e f75e 04be
00000020: 7386 e53e fa36 51bf bc18 14bf c031 8b3e
00000030: 7ee2 febd 9c58 71bf 1d9e 1f3d c90a acbe
00000040: d837 2d3f 14ba 2d3f ffee 003f e43f 7abf
00000050: 1e16 7b3f e64b 633f f93e 333f 6b94 eb3e
00000060: cd3e 5abf f267 393f 1a7c 903d d3b3 b13e
00000070: 8a5b 7e3e 3ed5 233f f40f f23e 4e97 383f

conv1.bias f4 [32]
-0.5042159 0.52093834 -0.9045267 0.2739884 -0.23700868 0.65913004 -0.26369914 0.41919726
-0.78822356 -0.7780669 -0.7866286 0.35158435 0.63340694 -0.2586707 -0.8285877 -0.75484717
0.94239026 -0.91333306 -0.4050319 0.68252784 0.57064956 -0.7472999 -0.6604803 -0.13142614
-0.036694184 -0.9673 -0.55367285 -0.67917156 0.19198927 -0.93721193 0.4585858 -0.8516415
00000000: 4b14 01bf 375c 053f 108f 67bf 3548 8c3e
00000010: 67b2 72be bfbc 283f 9303 87be 06a1 d63e
00000020: 05c9 49bf 642f 47bf 7e60 49bf dd02 b43e
00000030: f526 223f 7c70 84be 531e 54bf aa3d 41bf
00000040: 7d40 713f 32d0 69bf 5760 cfbe 25ba 2e3f
00000050: 1716 123f 0c4f 3fbf 3d15 29bf 9394 06be
00000060: a44c 16bd f9a0 77bf 81bd 0dbf 30de 2dbf
00000070: d698 443e 1fed 6fbf c2cb ea3e 2d05 5abf

conv2.weight f4 [64, 32, 1]
-0.072951175 0.1504277 -0.09056608 -0.16430393 -0.099565186 -0.004361227 -0.14594035 -0.03437595
0.087613225 -0.1017139 0.059752274 -0.009486232 0.051125254 0.095620535 -0.06983081 0.07021347
-0.13376182 -0.083828814 -0.14592186 0.08979383 0.024571255 0.09671047 0.029597687 -0.025199242
0.068771034 -0.07619042 -0.026684012 0.015630096 -0.102670185 -0.04340609 0.14800239 -0.036960993
0.16475329 0.117396675 0.17129427 0.14625861 -0.115077004 -0.009758602 -0.08706574 0.0552227
0.017097667 -0.16127706 -0.14447238 0.0900875 -0.017869592 0.12642589 0.1144004 -0.02695645
0.0155238975 0.17074494 0.16229866 -0.16219608 -0.06403391 -0.085670464 -0.04889521 -0.0100128455
0.045378007 0.15648845 -0.09769223 -0.09201198 0.04260123 -0.040146485 -0.1280928 0.14646773
0.13526428 0.10365753 0.1667442 -0.03371304 -0.14783984 0.10994876 0.11668497 -0.10044647
0.004402363 -0.0052103344 0.02337172 0.13206184 0.1333494 0.0215208 0.0839195 0.13097636
-0.13818198 0.109401375 -0.07778302 0.08564393 -0.14153223 0.03981429 -0.07477403 -0.049429618
0.13240293 -0.08138055 0.1345054 0.12840581 0.06306981 0.06284581 0.035991695 0.020610113
-0.07258724 -0.1449151 0.011224043 0.13081492 0.12579133 -0.15572141 0.07271526 -0.018149821
-0.12885448 -0.04999717 0.04186455 -0.13250282 0.1448923 0.08855046 0.031973884 -0.106570214
-0.06854902 -0.025494501 -0.09643325 0.13466495 -0.1681064 0.062094614 -0.10355224 -0.16226882
-0.13180102 0.049353115 -0.026011348 0.023692535 -0.1292016 -0.13690719 -0.060547635 0.0926644
-0.13955756 -0.070072085 -0.022503614 0.14016128 0.17833698 0.15430874 -0.11969463 -0.083275035
-0.012673431 -0.0530535 -0.121814676 0.16169621 -0.0766279 -0.16399145 -0.14344446 -0.06001811
0.062483266 0.15746024 0.09520547 0.10734885 -0.13753337 -0.1208234 -0.06693786 0.020773591
0.13807403 -0.12322944 -0.046699867 -0.07661279 -0.109140776 0.104916 -0.13449003 0.045948155
0.05759078 0.027743816 -0.104302004 -0.0011622204 0.113661334 -0.15907712 -0.015877075 -0.16680779
0.11453838 -0.035666347 0.110757925 0.113832444 0.002411117 0.1287226 0.082180746 0.17728585
0.12182378 -0.12059336 -0.1626628 -0.020130552 -0.12300212 -0.08640061 -0.093127124 0.032836314
-0.016706003 0.037177186 -0.06496572 0.024925034 -0.06487795 0.055960856 -0.09387881 0.097790994
0.048332594 -0.15937652 -0.13760017 0.07039525 0.13415252 0.092934944 0.039611865 0.11750285
-0.042993687 0.101249255 0.13724618 -0.1100222 -0.04683705 0.058661614 -0.1291593 -0.048125245
-0.08518113 0.14607178 0.054066397 -0.09601544 0.16366601 -0.1200067 0.1213623 0.09801284
0.010630495 0.15797542 0.008544106 -0.065659136 -0.13990977 -0.031706914 -1.3010213e-05 -0.15376772
-0.021034978 0.09825636 0.1493729 0.053463835 -0.01950807 -0.14003867 0.04989594 0.17248142
-0.021035291 -0.029246056 0.04015054 0.09392324 -0.066869386 -0.07061633 0.17584977 -0.067934416
-0.14530721 0.14245772 -0.17305721 -0.06454054 0.16471143 -0.13554114 -0.041179296 0.1336783
0.06184293 -0.16613223 -0.08926858 -0.0016820972 0.15709013 -0.02287196 0.10739832 0.1393787
00000000: 6d67 95bd b809 1a3e b57a b9bd 4a3f 28be
00000010: d5e8 cbbd a0e8 8ebb 6371 15be cccd 0cbd
00000020: 906e b33d 614f d0bd cdbe 743d 246c 1bbc
00000030: b768 513d b3d4 c33d 7503 8fbd 14cc 8f3d
00000040: dcf8 08be 71ae abbd 8a6c 15be d4e5 b73d
00000050: a849 c93c 2410 c63d d976 f23c a46e cebc
00000060: d4d7 8c3d b909 9cbd 6e98 dabc b00a 803c
00000070: bf44 d2bd 96ca 31bd f08d 173e 6964 17bd
00000080: 16b5 283e ab6d f03d c467 2f3e d1c4 153e
00000090: 7ead ebbd 8be2 1fbc 864f b2bd 3331 623d
000000a0: 6810 8c3c d025 25be 91f0 13be cc7f b83d
000000b0: 4063 92bc ca75 013e c24a ea3d c6d3 dcbc
000000c0: f257 7e3c c3d7 2e3e 9f31 263e bb16 26be
000000d0: 3624 83bd ff73 afbd 5846 48bd eb0c 24bc
000000e0: 4ade 393d 823e 203e dd12 c8bd c770 bcbd
000000f0: a17e 2e3d a470 24bd c22a 03be a3fb 153e
00000100: b882 0a3e 664a d43d febe 2a3e af16 0abd
00000110: 5463 17be d12c e13d 88f8 ee3d e1b6 cdbd
00000120: b341 903b 74bb aabb 0d76 bf3c 383b 073e
00000130: bf8c 083e 644c b03c fddd ab3d ab1e 063e
00000140: 947f 0dbe d40d e03d b44c 9fbd 1666 af3d
00000150: d3ed 10be 4f14 233d 2023 99bd b676 4abd
00000160: a294 073e d9aa a6bd c9bb 093e d07c 033e
00000170: bf2a 813d 4eb5 803d 076c 133d 8ad6 a83c
00000180: 9ea8 94bd a064 14be 0ce5 373c 59f4 053e
00000190: 71cf 003e 6f75 1fbe bdeb 943d efae 94bc
000001a0: 6ef2 03be d5c9 4cbd 2a7a 2b3d d2ae 07be
000001b0: a65e 143e f259 b53d 0cf7 023d 7c41 dabd
000001c0: 6e63 8cbd d8d9 d0bc cc7e c5bd 9ce5 093e
000001d0: 1624 2cbe ec56 7e3d 3213 d4bd cc29 26be
000001e0: d9f6 06be 7e26 4a3d c015 d5bc d916 c23c
000001f0: 6d4d 04be 6631 0cbe cc00 78bd d5c6 bd3d
00000200: 2de8 0ebe f481 8fbd 8059 b8bc 7086 0f3e
00000210: f89d 363e 1c03 1e3e 7522 f5bd 1a8c aabd
00000220: 39a4 4fbc a04e 59bd f979 f9bd b193 253e
00000230: 17ef 9cbd 60ed 27be 1be3 12be 8dd5 75bd
00000240: 74ee 7f3d 423d 213e 16fb c23d b7d9 db3d
00000250: 8cd5 0cbe 4272 f7bd b716 89bd 612d aa3c
00000260: 4763 0d3e b75f fcbd 5c48 3fbd 2be7 9cbd
00000270: 3385 dfbd 33de d63d c1b7 09be 2234 3c3d
00000280: 4fe4 6b3d 0047 e33c 4a9c d5bd a555 98ba
00000290: 46c7 e83d 1de5 22be a410 82bc a9cf 2abe
000002a0: 1993 ea3d e016 12bd 0dd5 e23d fc20 e93d
000002b0: d503 1e3b dbcf 033e 614e a83d 6c8a 353e
000002c0: bf7e f93d a7f9 f6bd 1491 26be d4e8 a4bc
000002d0: 89e8 fbbd cef2 b0bd 6fb9 bebd 5f7f 063d
000002e0: 07db 88bc 1b47 183d bf0c 85bd 962f cc3c
000002f0: bbde 84bd 3637 653d 8943 c0bd a546 c83d
00000300: 66f8 453d 9933 23be 0fe7 0cbe 632b 903d
00000310: 475f 093e ad54 be3d 0d40 223d 56a5 f03d
00000320: 261a 30bd c55b cf3d 438a 0c3e 5253 e1bd
00000330: 35d8 3fbd 2947 703d 5642 04be fa1e 45bd
00000340: 7273 aebd d793 153e ba74 5d3d bea3 c4bd
00000350: 1098 273e 13c6 f5bd cc8c f83d f5ba c83d
00000360: 872b 2e3c 4fc4 213e 94fc 0b3c 4c78 86bd
00000370: 8244 0fbe 1cdf 01bd 7046 5ab7 4975 1dbe
00000380: 8c51 acbc a13a c93d 36f5 183e e5fc 5a3d
00000390: 63cf 9fbc 4c66 0fbe af5f 4c3d f89e 303e
000003a0: 3452 acbc 6d95 efbc e574 243d d45a c03d
000003b0: d1f2 88bd 4b9f 90bd f611 343e 3321 8bbd
000003c0: 6acb 14be 70e0 113e e935 31be d52d 84bd
000003d0: 1daa 283e 4ccb 0abe 9fab 28bd f7e2 083e
000003e0: 034f 7d3d 911e 2abe 72d2 b6bd d179 dcba
000003f0: 3cdc 203e fa5d bbbc a7f3 db3d 4ab9 0e3e

conv2.bias f4 [64]
-0.16387983 0.16838299 -0.08314363 -0.015998505 -0.16129877 0.051017057 0.1021163 0.106107384
-0.049361385 -0.15864721 -0.1689418 0.06537022 -0.020494241 -0.0198546 -0.16852932 -0.14907563
0.000119518605 0.013049044 0.0051151994 -0.13201168 0.050954994 0.06607067 0.02764534 -0.13074131
0.08613416 -0.015859302 0.073258474 0.14593871 0.07939978 -0.07530904 0.012066474 -0.14088704
-0.09956121 -0.11955197 0.022667618 -0.10355489 -0.022051029 0.033717144 -0.12971117 -0.11932889
0.13370635 0.010075035 -0.02889386 0.050497714 -0.005597383 0.09178708 0.0111194765 0.067696
0.010955251 0.13351877 0.011496313 -0.01718538 0.15077339 0.1301476 0.023468714 -0.066569194
-0.0111423945 0.13509879 0.14112973 -0.0778055 -0.07183427 0.09101877 0.14186583 -0.12764287
00000000: 1dd0 27be 976c 2c3e 3547 aabd 4c0f 83bc
00000010: 812b 25be 43f7 503d 5a22 d13d d44e d93d
00000020: 2a2f 4abd 6a74 22be 14ff 2cbe d2e0 853d
00000030: 8ae3 a7bc 1da6 a2bc f392 2cbe 48a7 18be
00000040: 10a6 fa38 a8cb 553c 679d a73b 122e 07be
00000050: 2fb6 503d 0f50 873d 7b78 e23c 0de1 05be
00000060: 1b67 b03d 5eeb 81bc 8a08 963d f570 153e
00000070: 5a9c a23d a03b 9abd 76b2 453c b144 10be
00000080: bfe6 cbbd aad7 f4bd 71b1 b93c 9614 d4bd
00000090: 5ca4 b4bc fd1a 0a3d 01d3 04be b562 f4bd
000000a0: 51ea 083e c211 253c d1b2 ecbc b1d6 4e3d
000000b0: 406a b7bb ddfa bb3d 772e 363c 33a4 8a3d
000000c0: a77d 333c 25b9 083e 085b 3c3c 5bc8 8cbc
000000d0: 5764 1a3e 6a45 053e 7641 c03c 6e55 88bd
000000e0: 978e 36bc 5657 0a3e 5084 103e 7d58 9fbd
000000f0: d91d 93bd 0d68 ba3d 4745 113e d0b4 02be

fc1.weight f4 [16, 896]
0.02578043 -0.0044941436 -0.01946074 -0.027941028 -0.017584907 -0.019380575 0.026035123 -0.0076086037
-0.01187313 0.016565677 -0.001981597 0.030001285 0.012176194 -0.006710553 0.023350295 -0.014298776
0.021125605 -0.0142901875 -0.0031330623 0.029771112 0.012923511 -0.03045658 0.023146238 -0.008564436
0.021750212 -0.012862722 0.0024278099 0.008584711 -0.019949649 0.016196527 0.019951416 0.01122373
-0.02444253 -0.029593645 0.010557183 -0.027628519 -0.023802208 -0.028865114 -0.0029264858 -0.0041485815
-0.028308744 0.0063882503 -0.015953979 -0.004323868 0.021510115 -0.03335398 0.01140667 0.013690328
-6.811884e-05 0.014315729 0.023469733 -0.0012887963 -0.014075524 0.016419278 -0.017928105 -0.015726864
0.022953445 -0.032377485 0.03135789 0.0152574675 -0.006647059 0.031191671 0.024458233 0.013724951
-0.025181327 0.0007792145 0.023411617 0.018258456 0.013671506 -0.027886476 -0.014743036 0.013215282
0.010224363 -0.012666627 -0.0012546505 0.0023978674 -0.026306862 -0.01205368 -0.009080407 -0.022098018
-0.020449225 -0.020737613 -0.006859966 -0.013610486 0.03067642 -0.012352733 -0.023671452 -0.025702188
0.03316218 0.025992934 0.000103383376 -0.003058714 0.003386789 0.014893609 0.022327505 -0.029100964
-0.0035231968 0.026182737 -0.0277016 -0.031590074 -0.031574104 -0.024961825 0.015928445 -0.019765105
0.018834706 0.01906497 0.019666534 0.01358725 0.023251368 0.019724814 -0.026295578 -0.018835902
-0.01549204 -0.028067758 -0.004099032 -0.019435665 -0.016407508 -0.0144238295 -0.014660905 0.028604176
-0.013399252 0.0215434 0.02959512 -0.01415663 -0.009103725 0.026709372 -0.029770052 -0.0027837635
0.026648246 0.007591467 0.009266839 0.01711476 -0.024414731 0.029360386 0.03304539 0.009699582
0.00619618 -0.023964997 -0.025910031 0.017528145 -0.028843356 -0.013589943 0.030615635 0.029615285
-0.011712611 0.0017342501 0.02667487 -0.024709193 0.009978487 0.0329877 0.031197147 -0.010314469
-0.03293368 0.013814745 0.004569675 0.004081595 -0.010483456 0.0033336056 0.031866465 -0.031139964
-0.0019247492 -0.0078044273 0.0033276195 -0.029967763 -0.010294362 -0.020781681 -0.011731744 -0.02143745
0.0028392498 -0.011906604 -0.0025717649 0.025988478 -0.031328157 0.013698073 0.0035024956 0.031755306
0.02302752 -0.007981226 0.017209286 0.0075703915 -0.010241444 0.0049621826 0.029487422 -0.020170584
0.0006759701 -0.01598704 -0.0011481317 0.0099853575 0.024548052 0.023150396 0.012014988 0.006917679
0.0032996987 -0.027019836 0.014834162 -0.0047429814 -0.023296705 -0.014269602 0.028280245 -0.007007231
-0.015149037 -0.0013870513 0.03141361 -0.023251211 -0.021251699 0.01791582 0.009915333 -0.03061516
0.028025124 0.0028989017 0.01461676 0.010831946 -0.02012056 0.030460276 0.009520416 -0.00622955
0.010871675 -0.009927849 -0.013505245 0.013566515 0.02855351 -0.0034128416 -0.031421583 -0.00629834
0.030945987 -0.010111517 -0.021893594 0.018652063 -0.032605026 0.016224539 -0.0030528984 -0.023350937
0.013252084 0.02626838 0.021295145 -0.020965666 -0.015841931 0.009936305 0.020495899 -0.018492086
0.029736906 0.030510643 0.003173286 -0.015008715 0.032931373 0.008235318 0.017359084 -0.020181783
-0.01981648 -0.0239899 0.014051492 0.02136136 -0.0017342715 -0.021903677 0.0026046466 -0.024486892
00000000: 7b31 d33c 9c43 93bb 216c 9fbc 95e4 e4bc
00000010: 390e 90bc 03c4 9ebc 9c47 d53c 9851 f9bb
00000020: 8487 42bc beb4 873c aedd 01bb 41c5 f53c
00000030: a97e 473c 33e4 dbbb 1e49 bf3c 6a45 6abc
00000040: 9b0f ad3c 6421 6abc 1054 4dbb 8ce2 f33c
00000050: 22bd 533c 1480 f9bc 2e9d bd3c d951 0cbc
00000060: 802d b23c 2bbe 52bc e41b 1f3b e3a6 0c3c
00000070: 726d a3bc 94ae 843c 2771 a33c bce3 373c
00000080: b33b c8bc 5f6e f2bc 09f8 2c3c 3455 e2bc
00000090: d9fc c2bc 8876 ecbc 49ca 3fbb d3f0 87bb
000000a0: bde7 e7bc 8754 d13b ebb1 82bc 3caf 8dbb
000000b0: fb35 b03c 2f9e 08bd 0be3 3a3c 664d 603c
000000c0: 06db 8eb8 858c 6a3c 9943 c03c d4ec a8ba
000000d0: 079d 66bc b981 863c f6dd 92bc a0d5 80bc
000000e0: dd08 bc3c 419e 04bd 2271 003d 75fa 793c
000000f0: 93cf d9bb ad85 ff3c a25c c83c 9ede 603c
00000100: 1249 cebc 3344 4c3a b8c9 bf3c c292 953c
00000110: 74fe 5f3c 2e72 e4bc c68c 71bc e984 583c
00000120: 1684 273c af87 4fbc 1673 a4ba 8a25 1d3b
00000130: 7d81 d7bc cc7c 45bc fdc5 14bc e706 b5bc
00000140: 2285 a7bc ede1 a9bc 91c9 e0bb 84fe 5ebc
00000150: 1e4d fb3c 1e63 4abc a2ea c1bc 658d d2bc
00000160: 11d5 073d 22ef d43c 87cf d838 b574 48bb
00000170: e4f4 5d3b 5304 743c 2ce8 b63c 2565 eebc
00000180: 6fe5 66bb 2e7d d63c 77ee e2bc 9864 01bd
00000190: d953 01bd be7c ccbc 5f7c 823c 6eea a1bc
000001a0: 3e4b 9a3c 242e 9c3c b61b a13c 0f9d 5e3c
000001b0: a779 be3c ef95 a13c d369 d7bc c04d 9abc
000001c0: 53d2 7dbc 5bee e5bc 2c51 86bb 8b37 9fbc
000001d0: 0a69 86bc ed51 6cbc 4b34 70bc 4e53 ea3c
000001e0: 8988 5bbc c97b b03c 7771 f23c 36f1 67bc
000001f0: ca27 15bc 9dcd da3c 53e0 f3bc cd6f 36bb
00000200: 6c4d da3c d7c1 f83b f1d3 173c 4134 8c3c
00000210: 6701 c8bc 3185 f03c 9a5a 073d ffea 1e3c
00000220: 5309 cb3b 3e52 c4bc 4641 d4bc 2f97 8f3c
00000230: e748 ecbc 5aa8 5ebc a4cd fa3c c19b f23c
00000240: 40e6 3fbc c74f e33a 4285 da3c ef6a cabc
00000250: cf7c 233c 1c1e 073d 2991 ff3c 05fe 28bc
00000260: 77e5 06bd 3d57 623c 36bd 953b e7be 853b
00000270: cdc2 2bbc 9f78 5a3b 6986 023d 3d19 ffbc
00000280: de47 fcba 48bc ffbb 3114 5a3b f47e f5bc
00000290: afa9 28bc 583e aabc 8036 40bc 979d afbc
000002a0: b512 3a3b eb13 43bc 0e8b 28bb cae5 d43c
000002b0: f451 00bd e26d 603c 208a 653b da11 023d
000002c0: 36a4 bc3c b0c3 02bc 7dfa 8c3c 0c11 f83b
000002d0: bbcb 27bc ce99 a23b 9b8f f13c c83c a5bc
000002e0: 9633 313a 41f7 82bc e87c 96ba a099 233c
000002f0: ff18 c93c e6a5 bd3c 83da 443c b3ad e23b
00000300: c23f 583b b458 ddbc fc0a 733c 036b 9bbb
00000310: bbd8 bebc 0ccb 69bc f9ab e73c ea9c e5bb
00000320: ab33 78bc b8cd b5ba 8fab 003d 5379 bebc
00000330: 0b18 aebc 33c4 923c ec73 223c a5cc fabc
00000340: f294 e53c 80fb 3d3b 237b 6f3c 7978 313c
00000350: dfd3 a4bc d487 f93c 85fb 1b3c 4121 ccbb
00000360: 1c1f 323c 6ba8 22bc 1a45 5dbc 1746 5e3c
00000370: 0de9 e93c fba9 5fbb ebb3 00bd 4e62 cebb
00000380: 7082 fd3c c7aa 25bc 325a b3bc 36cc 983c
00000390: d98c 05bd 53e9 843c 2313 48bb 774a bfbc
000003a0: 451f 593c c930 d73c 2873 ae3c 30c0 abbc
000003b0: f0c6 81bc e2cb 223c 04e7 a73c b77c 97bc
000003c0: d09a f33c 75f1 f93c e8f6 4f3b 1de7 75bc
000003d0: 0ce3 063d 6ded 063c a334 8e3c 4454 a5bc
000003e0: 2c56 a2bc 7786 c4bc 3b38 663c 05fe ae3c
000003f0: 7f50 e3ba 576f b3bc b8b2 2a3b bc98 c8bc

fc1.bias f4 [16]
-0.030484064 -0.029763358 0.013518148 0.024284981 0.009993049 0.012294758 -0.030482197 -0.030422598
0.029084882 -0.019889 -0.028146693 -0.014740635 0.004941307 -0.024924295 0.00853842 0.008737861
00000000: b7b9 f9bc 49d2 f3bc 397b 5d3c 4cf1 c63c
00000010: e3b9 233c f46f 493c cdb5 f9bc d038 f9bc
00000020: 6b43 ee3c 42ee a2bc e593 e6bc b482 71bc
00000030: b0ea a13b 092e ccbc bbe4 0b3c 3f29 0f3c

fc2.weight f4 [32, 16]
-0.14025515 0.005294621 -0.094407976 -0.21504605 0.22989553 0.033464372 0.15465611 -0.20010155
0.17530921 0.017531842 -0.14248595 0.22947875 -0.24190456 -0.16017738 -0.043748647 -0.07456121
-0.028819382 -0.067056775 -0.13029516 0.17692944 -0.19080716 -0.11327696 0.14705989 -0.029072136
0.12313375 0.24560693 -0.24688837 -0.21911833 0.01674518 0.07808375 -0.1447975 -0.19159496
0.24856263 0.10948155 0.12823035 0.23477188 0.24279815 -0.065432124 0.10210133 0.10179165
-0.12243837 0.01669419 -0.11603224 -0.011368434 0.13079971 -0.025486652 -0.19903547 -0.123196006
-0.2452147 -0.045316696 -0.20905444 0.21505865 0.015844196 -0.04947862 -0.024730533 0.24391487
0.19816545 0.15380916 0.23581907 -0.14480174 0.025147796 -0.0045382977 -0.12010133 0.22076449
0.064938545 0.19694026 0.064011544 -0.14937444 -0.05267441 -0.08661012 -0.19646479 -0.100122355
-0.09777087 0.026530225 0.06463829 0.13283445 0.00021460316 -0.22100759 -0.09032433 -0.13891768
0.11999902 0.21404092 0.081477895 -0.16040653 0.22514214 0.10573469 0.14867483 -0.22008733
-0.06707619 -0.025258156 0.074740805 0.2149485 -0.06334332 0.17506398 -0.00819329 0.16607727
0.10381004 0.19231674 -0.14397904 0.07817 -0.10807812 -0.008050472 -0.22698763 0.093129784
-0.09196913 -0.21092317 -0.008104682 0.23302421 -0.14433327 -0.14216137 -0.10250044 0.17996106
-0.06762478 -0.11226681 0.09300338 -0.22831613 0.22554256 0.019005144 0.06421858 0.23286042
0.09947768 -0.07427735 0.109635055 -0.21870202 -0.020076461 -0.23400739 -0.18778756 -0.005772854
-0.0719555 0.15945294 -0.22532104 -0.15631059 -0.039595395 -0.24697685 0.061737806 0.12041265
0.22181478 -0.09403076 0.03376963 -0.06639466 -0.20093533 0.2071363 0.18142323 -0.22829276
-0.16108719 0.16222824 -0.24659403 0.23197892 0.104120106 0.093402155 0.078503884 -0.21845159
0.09955019 0.15399946 -0.18146107 0.16998638 0.12552242 -0.12853031 0.024075303 -0.1117506
0.18947208 -0.17236772 -0.24777603 -0.056102514 -0.016489476 -0.21953407 0.04552397 0.24521369
0.085550815 -0.08601153 0.06344694 0.13702554 -0.1824517 0.082832456 0.19887513 -0.047729164
-0.24680668 0.056768257 0.1723848 0.024200585 -0.1573892 -0.03634951 0.20057677 0.18691853
-0.10350097 -0.07339101 0.23922253 0.24330118 0.08209716 0.120589584 0.25605732 -0.24034937
0.1689196 -0.23155947 -0.1670569 -0.037445437 -0.030786283 0.22186066 0.13816394 0.19665588
-0.042007342 0.10561687 0.24937658 -0.19273822 -0.084352985 -0.11303254 0.22004567 0.19100696
0.17094345 -0.06899748 -0.059157867 -0.116526194 -0.071581945 0.082825504 -0.124486 0.10721507
0.20041321 0.14276911 0.19635065 -0.027928889 0.17978558 -0.09194441 0.05986189 0.09774498
-0.14395161 0.034568973 -0.08904451 -0.010337208 -0.008514506 0.22844234 0.13135403 0.0037272254
-0.12739208 -0.20687227 -0.21532752 -0.2418135 0.04676805 0.2292667 0.19801919 0.07671908
-0.045785576 0.10467985 -0.07472125 -0.06589255 0.21943766 0.17787567 0.1826244 -0.111422926
0.19243672 0.1817658 0.010219425 0.22706008 -0.22741586 -0.2492289 -0.21764421 0.23286167
00000000: 0c9f 0fbe 807e ad3b f858 c1bd 0835 5cbe
00000010: bc69 6b3e f011 093d 2c5e 1e3e 6ce7 4cbe
00000020: 4284 333e f09e 8f3c d6e7 11be 7afc 6a3e
00000030: d4b5 77be 8a05 24be c831 33bd 8cb3 98bd
00000040: a016 ecbc 1055 89bd 186c 05be fe2c 353e
00000050: f462 43be c0fd e7bd de96 163e b028 eebc
00000060: 8c2d fc3d 6280 7b3e 4ed0 7cbe 8e60 60be
00000070: 302d 893c 60ea 9f3d cc45 14be 7831 44be
00000080: 3487 7e3e dd37 e03d d14e 033e 0a68 703e
00000090: 14a0 783e 4701 86bd 811a d13d 2478 d03d
000000a0: f8c0 fabd 41c2 883c 50a2 edbd ab42 3abc
000000b0: 5cf0 053e 62c9 d0bc f4cf 4bbe 304e fcbd
000000c0: 9019 7bbe 009e 39bd 5e12 56be 5638 5c3e
000000d0: b0cb 813c 18aa 4abd b097 cabc d2c4 793e
000000e0: e2eb 4a3e 2680 1d3e 8e7a 713e e846 14be
000000f0: c002 ce3c 00b6 94bb b0f7 f5bd 1610 623e
00000100: 80fe 843d b5aa 493e 7c18 833d 9df5 18be
00000110: 1fc1 57bd a660 b1bd 112e 49be f30c cdbd
00000120: 183c c8bd ea55 d93c 1461 843d c105 083e
00000130: 1907 6139 d04f 62be f6fb b8bd 7040 0ebe
00000140: 0cc2 f53d 8b2d 5b3e e2dd a63d 9c41 24be
00000150: a98b 663e 6e8b d83d 373e 183e 935e 61be
00000160: 3e5f 89bd 31ea cebc b511 993d 761b 5c3e
00000170: 24ba 81bd f943 333e 263d 06bc 2910 2a3e
00000180: 5c9a d43d aeee 443e 3e6f 13be 9817 a03d
00000190: 1058 ddbd 20e6 03bc 726f 68be d4ba be3d
000001a0: 505a bcbd 3efc 57be 80c9 04bc e69d 6e3e
000001b0: 1acc 13be c092 11be c0eb d1bd b647 383e
000001c0: dc7e 8abd 24ec e5bd 8e78 be3d b4cb 69be
000001d0: a1f4 663e adb0 9b3c 0885 833d f672 6e3e
000001e0: f4ba cb3d b91e 98bd 5888 e03d 6cf3 5fbe
000001f0: 6477 a4bc a29f 6fbe 624b 40be 362a bdbb
00000200: 685d 93bd a247 233e 8fba 66be e20f 20be
00000210: c82e 22bd 80e7 7cbe c8e0 7c3d e89a f63d
00000220: 6a23 633e 3393 c0bd 0652 0a3d ecf9 87bd
00000230: fec1 4dbe 8a1b 543e 03c7 393e 94c5 69be
00000240: 0af4 24be 291f 263e 2583 7cbe e28b 6d3e
00000250: ec3c d53d a149 bf3d a5c6 a03d c6b1 5fbe
00000260: f8e0 cb3d 09b2 1d3e eed0 39be e910 2e3e
00000270: f388 003e 739d 03be 9239 c53c 80dd e4bd
00000280: f804 423e 2a81 30be 00b9 7dbe c0cb 65bd
00000290: f014 87bc 8acd 60be 5877 3a3d 4c19 7b3e
000002a0: 4435 af3d d026 b0bd 78f0 813d 6c50 0c3e
000002b0: 9ed4 3abe 10a4 a93d eca5 4b3e a87f 43bd
000002c0: e4ba 7cbe d585 683d a485 303e 4e40 c63c
000002d0: a22a 21be 39e3 14bd ff63 4d3e 9267 3f3e
000002e0: 51f8 d3bd 074e 96bd c0f6 743e f223 793e
000002f0: 8e22 a83d acf7 f63d f219 833e 251e 76be
00000300: 42f9 2c3e ed1d 6dbe f710 2bbe 6360 19bd
00000310: 8433 fcbc 712f 633e d97a 0d3e 2960 493e
00000320: e40f 2cbd a84d d83d 935c 7f3e 2b5d 45be
00000330: 42c1 acbd 9b7d e7bd a753 613e 5497 433e
00000340: cd0b 2f3e 8d4e 8dbd 854f 72bd 49a5 eebd
00000350: 8e99 92bd 6ba0 a93d 84f2 febd 9393 db3d
00000360: 1f39 4d3e 1132 123e 2510 493e 20cb e4bc
00000370: b619 383e 5a4d bcbd be31 753d 852e c83d
00000380: 0d68 13be 3298 0d3d f85c b6bd 655d 29bc
00000390: 6d80 0bbc caec 693e ac81 063e 7744 743b
000003a0: 1273 02be 53d6 53be d17e 5cbe f59d 77be
000003b0: db8f 3f3d e4c4 6a3e 8bc5 4a3e e51e 9d3d
000003c0: a889 3bbd 6462 d63d 7407 99bd acf2 86bd
000003d0: 44b4 603e 0a25 363e e401 3b3e b431 e4bd
000003e0: 220e 453e d020 3a3e 606f 273c 7082 683e
000003f0: b4df 68be dc35 7fbe 20de 5ebe 4a73 6e3e

fc2.bias f4 [32]
-0.042116553 -0.03444743 -0.17262039 0.22777647 -0.15908638 -0.24311781 -0.16723663 -0.13802189
-0.19684952 0.027286163 -0.09383616 0.03825676 -0.17134124 0.22949256 0.10676272 0.17179078
-0.15979537 0.124510884 0.0953883 -0.19072218 0.080152996 0.16064034 0.100985825 -0.09045414
0.15358858 0.23545939 -0.0123315025 0.11733418 0.14637023 0.01875246 0.24691659 0.21491702
00000000: 6882 2cbd c018 0dbd 66c3 30be 3c3e 693e
00000010: 8ae7 22be e0f3 78be 1440 2bbe 9c55 0dbe
00000020: ec92 49be 3b87 df3c 2c2d c0bd 1fb3 1c3d
00000030: 1474 2fbe 1900 6b3e 6aa6 da3d ece9 2f3e
00000040: 66a1 23be 90ff fe3d f15a c33d ad4c 43be
00000050: 4127 a43d e77e 243e a8d1 ce3d 0540 b9bd
00000060: 5346 1d3e 441c 713e 120a 4abc e74c f03d
00000070: 14e2 153e c29e 993c b4d7 7c3e 3513 5c3e

fc3.weight f4 [64, 32]
0.022068238 -0.09432837 0.15251969 -0.030621517 -0.005243323 -0.05648526 -0.0095559545 -0.02699592
0.09732748 -0.016622527 0.13378398 -0.12447286 -0.0071596997 0.17406335 0.09338265 -0.094190136
-0.17524779 -0.0029638105 -0.020836938 -0.07308852 0.028357621 0.06289192 -0.17360617 0.15929815
0.029971361 0.042863328 -0.07502443 0.106628716 0.00076545455 -0.022940075 -0.10211412 0.027841855
-0.018852474 -0.054755416 0.00059105747 0.10815912 0.12660818 -0.12313973 0.14462195 0.008472865
-0.16819197 -0.02920604 0.11376751 -0.10837108 -0.07000099 0.075315356 0.14564057 0.012489144
0.1275425 0.17753679 0.11279502 0.007675282 0.14905813 0.12040028 -0.087250784 0.1585544
0.1613746 -0.11417883 -0.07007696 -0.12801778 -0.05273084 0.07363439 -0.091271214 0.158322
-0.13543144 -0.007964216 0.17095242 0.07277013 -0.10877196 0.026135545 0.16461566 -0.09323159
0.14680183 -0.05742876 -0.15454563 0.13516393 -0.061378516 0.15726256 0.08250354 -0.10910123
-0.09016452 0.0029210509 -0.12072938 -0.09473549 -0.11670077 -0.033330325 0.11930249 -0.12641671
0.014744627 -0.009876395 -0.11441292 0.061866663 -0.044650406 0.116344094 0.15335643 0.15486245
-0.079792626 0.046622083 -0.026681252 -0.071040384 -0.00856601 -0.14898449 -0.15881914 0.053578865
-0.00891193 -0.12702927 -0.03528591 0.003908467 0.0040607015 -0.09231483 -0.1431921 -0.117196456
0.15777965 -0.100525565 -0.09429767 -0.13063192 0.036898006 -0.15158133 -0.16962302 0.06320154
0.03446687 -0.04850786 0.14959124 0.03149223 -0.11899123 0.06304494 -0.037099995 -0.012756923
0.109038934 0.099694595 -0.026155813 -0.08397212 0.117720336 -0.05464805 0.06236197 0.070516184
-0.056085683 0.028859654 -0.057246063 0.036661312 0.04417946 0.12745191 0.03582762 0.032104686
-0.08596211 0.07960143 0.08529154 0.021093195 -0.056682117 -0.16447334 0.060007103 0.021412682
-0.09666348 0.07923066 0.063403375 0.056858476 -0.1339875 -0.030390522 0.02196521 -0.008842625
-0.088018045 0.09050983 -0.017087586 -0.15556192 0.16319865 -0.07530833 -0.10592862 -0.030018331
-0.025011014 0.099944845 -0.046059508 -0.02136447 0.027777959 -0.036730543 0.07342728 0.06463128
-0.07532735 0.014863048 0.13411708 -0.034160912 0.09069088 0.0030005977 0.12027132 0.02615523
0.046001423 0.1750865 -0.17163642 0.021299684 -0.007006241 0.16312669 -0.16421139 0.011267523
-0.026496839 0.06630582 0.005067187 -0.04769 0.0255988 -0.14646159 0.11298451 -0.013609281
-0.09392044 0.11036863 0.16589415 -0.03921841 0.09646081 0.11411733 -0.005401304 0.07999145
-0.097678505 -0.11173116 0.15093054 0.06535584 -0.13386703 0.08867004 0.12221922 0.17089288
-0.009335866 0.0258135 0.00939843 0.006997763 0.09616635 0.052437607 0.0726925 0.16266777
-0.028816475 0.07359198 -0.17360775 0.030107073 0.077073455 0.08842289 -0.06592825 0.12754998
-0.12023324 -0.023162775 -0.09640641 0.066523276 0.047533736 -0.14190903 -0.15337071 0.0015607821
0.04654419 -0.02829151 -0.13388433 0.016736066 -0.05782616 -0.056181513 -0.09613894 0.041585315
-0.10999614 -0.122493386 -0.020991359 -0.111448966 -0.12070375 0.10151838 -0.15379097 -0.16310592
00000000: 73c8 b43c 3c2f c1bd 1f2e 1c3e fad9 fabc
00000010: 2ed0 abbb 175d 67bd 9490 1cbc 8c26 ddbc
00000020: a153 c73d f72b 88bc abfe 083e a0eb febd
00000030: ea9b eabb aa3d 323e 673f bf3d c2e6 c0bd
00000040: 2874 33be 7d3c 42bb 3ab2 aabc 6faf 95bd
00000050: 3e4e e83c 7bcd 803d d1c5 31be 0e1f 233e
00000060: 8086 f53c 7591 2f3d 69a6 99bd 2860 da3d
00000070: c9a8 483a d3ec bbbc 3521 d1bd 9a14 e43c
00000080: 8170 9abc 3747 60bd 32f1 1a3a 8782 dd3d
00000090: 93a5 013e af30 fcbd c717 143e c6d1 0a3c
000000a0: 843a 2cbe 8141 efbc f1fe e83d a8f1 ddbd
000000b0: ae5c 8fbd f03e 9a3d cd22 153e 449f 4c3c
000000c0: 809a 023e 34cc 353e 1301 e73d ef80 fb3b
000000d0: b2a2 183e 6c94 f63d 8ab0 b2bd 165c 223e
000000e0: 623f 253e 97d6 e9bd 8284 8fbd 1817 03be
000000f0: 4bfc 57bd a1cd 963d 67ec babd 2a1f 223e
00000100: 8aae 0abe 587c 02bc 270e 2f3e 8208 953d
00000110: d5c3 debd 361a d63c 0291 283e 34f0 bebd
00000120: 3853 163e 6b3a 6bbd 3641 1ebe 6a68 0a3e
00000130: 0a68 7bbd 7009 213e 9ef7 a83d 7770 dfbd
00000140: 2da8 b8bd 1a6f 3f3b f740 f7bd ae04 c2bd
00000150: d000 efbd 6185 08bd dd54 f43d 6273 01be
00000160: 7393 713c 9ad0 21bc 5251 eabd e667 7d3d
00000170: 58e3 36bd d045 ee3d 7809 1d3e 4394 1e3e
00000180: 516a a3bd ccf6 3e3d a492 dabc 9f7d 91bd
00000190: 7358 0cbc 648f 18be 7ca1 22be 8375 5b3d
000001a0: 5803 12bc f613 02be f587 10bd 9912 803b
000001b0: a20f 853b 8f0f bdbd f3a0 12be b204 f0bd
000001c0: fd90 213e 59e0 cdbd 231f c1bd 60c4 05be
000001d0: 5d22 173d 2338 1bbe a8b1 2dbe cf6f 813d
000001e0: 222d 0d3d 2eb0 46bd 722e 193e fffd 003d
000001f0: adb1 f3bd b51d 813d 2af6 17bd 6a02 51bc
00000200: ce4f df3d ae2c cc3d b744 d6bc 93f9 abbd
00000210: 5c17 f13d a2d6 5fbd 446f 7f3d ca6a 903d
00000220: 1aba 65bd 156b ec3c d97a 6abd 2c2a 163d
00000230: 85f5 343d c182 023e fcbf 123d 3480 033d
00000240: e70c b0bd 1306 a33d 55ad ae3d a3cb ac3c
00000250: 822b 68bd b36b 28be 02ca 753d a669 af3c
00000260: 81f7 c5bd af43 a23d a1d9 813d 6fe4 683d
00000270: 0534 09be 8bf5 f8bc 62f0 b33c a8e0 10bc
00000280: ce42 b4bd 385d b93d 44fb 8bbc a04b 1fbe
00000290: 8c1d 273e 413b 9abd 1bf1 d8bd 01e9 f5bc
000002a0: e6e3 ccbc e2af cc3d e5a8 3cbd 8a04 afbc
000002b0: 9a8e e33c c472 16bd 0b61 963d 685d 843d
000002c0: 3a45 9abd 2484 733c fd55 093e 50ec 0bbd
000002d0: 24bc b93d ada5 443b cf50 f63d 7e43 d63c
000002e0: fd6b 3c3d e049 333e 75c1 2fbe ad7c ae3c
000002f0: 9c94 e5bb af0a 273e 0827 28be 6b9b 383c
00000300: e60f d9bc 59cb 873d a50a a63b 9756 43bd
00000310: 93b4 d13c 07fa 15be 6c64 e73d 76f9 5ebc
00000320: 5c59 c0bd f308 e23d 28e0 293e 7ca3 20bd
00000330: 3f8d c53d 59b6 e93d 6cfd b0bb 8fd2 a33d
00000340: ab0b c8bd 4ed3 e4bd 898d 1a3e 48d9 853d
00000350: 7014 09be a398 b53d 124e fa3d 8bfe 2e3e
00000360: 76f5 18bc d576 d33c dffb 193c 7e4d e53b
00000370: ddf2 c43d d1c8 563d cedf 943d 6192 263e
00000380: 8710 ecbc 64b7 963d 3bc6 31be 1ca3 f63c
00000390: b0d8 9d3d 0f17 b53d 6405 87bd 769c 023e
000003a0: d83c f6bd dcbf bdbc b970 c5bd 5b3d 883d
000003b0: bcb2 423d 9a50 11be 360d 1dbe 2893 cc3a
000003c0: 1fa5 3e3d 99c3 e7bc f918 09be 131a 893c
000003d0: 20db 6cbd 961e 66bd 7ee4 c4bd 5d55 2a3d
000003e0: a845 e1bd d0dd fabd 12f6 abbc 5b3f e4bd
000003f0: 8733 f7bd dee8 cf3d 617b 1dbe 3d05 27be

fc3.bias f4 [64]
0.07181899 -0.17590342 -0.0900146 0.004420235 -0.077037655 -0.08988251 0.09229558 0.06285596
-0.033989385 -0.065282024 -0.029403014 -0.041737832 0.12415088 0.08052655 -0.1495115 0.16091835
-0.013827116 -0.15691371 0.101026416 -0.020289628 -0.020401783 0.16768004 0.043343373 0.14180125
0.10077458 -0.153515 0.07596162 -0.14667498 -0.08596819 -0.0091650635 0.14831246 -0.023691285
0.008550357 -0.04158381 0.08426563 -0.0046232445 0.07089415 -0.055806894 0.16557309 0.12623252
-0.0018779093 -0.09395522 0.16363002 -0.15882437 -0.06258989 -0.14440143 0.002834097 0.14781012
-0.0861322 -0.069997095 0.13552786 0.13780746 0.10288439 -0.15720421 -0.17017497 -0.05037684
-0.05754969 -0.050684955 -0.004744888 -0.09889171 0.021016294 0.10183174 0.073026076 0.048836716
00000000: d615 933d 0720 34be 9359 b8bd 9ed7 903b
00000010: ebc5 9dbd 5214 b8bd 7705 bd3d a0ba 803d
00000020: 7438 0bbd 95b2 85bd 97de f0bc 4af5 2abd
00000030: d142 fe3d 1beb a43d 8b19 19be c8c7 243e
00000040: 218b 62bc fdad 20be f0e6 ce3d 6f36 a6bc
00000050: a421 a7bc 51b4 2b3e d288 313d 5934 113e
00000060: e762 ce3d 0933 1dbe c491 9b3d f731 16be
00000070: 1710 b0bd 1029 16bc 39df 173e 3a14 c2bc
00000080: cc16 0c3c c953 2abd 7593 ac3d 967e 97bb
00000090: f430 913d c595 64bd fe8b 293e 1943 013e
000000a0: 2e24 f6ba 986b c0bd a18e 273e dba2 22be
000000b0: 212f 80bd f8dd 13be 42bc 393b 895b 173e
000000c0: 1466 b0bd a35a 8fbd d1c7 0a3e 661d 0d3e
000000d0: 0db5 d23d 24fa 20be 5942 2ebe f257 4ebd
000000e0: 39b9 6bbd 079b 4fbd 017b 9bbb bd87 cabd
000000f0: 5d2a ac3c 298d d03d b28e 953d 0209 483d

fc4.weight f4 [128, 64]
-0.10095115 0.0420285 -0.098013 -0.02929394 -0.02664052 0.11529821 0.072458476 -0.00903222
-0.11422801 -0.02995184 0.115742475 0.07868989 0.046482757 -0.0020272434 0.089340866 0.0123927295
0.11519462 -0.010521054 0.054229498 -0.110685036 -0.093497604 -0.006967053 0.09413932 -0.0073059797
-0.122161806 -0.021530047 -0.09308854 -0.0808465 0.10201739 -0.06751147 -0.12273128 0.085325465
0.11528933 -0.11987601 0.050076514 -0.08163391 -0.11161171 -0.035511553 0.05785066 -0.07858603
0.024965778 0.015519679 0.10915378 -0.036388785 -0.04253325 -0.08036083 -0.027207807 -0.08978644
-0.09383492 -0.097049356 -0.08222118 0.09974231 0.010871902 -0.058645234 0.021326423 0.046296567
-0.050014317 -0.09698926 0.0777995 -0.074204475 -0.034660637 -0.10383831 -0.04638061 -0.11148104
0.02741393 0.05756996 0.11657711 -0.0034582466 -0.038816035 0.049609035 -0.07015293 -0.08098027
0.08207557 -0.09556666 0.014802414 0.03301938 -0.09632269 0.022885773 0.041302662 0.05573462
-0.06778267 0.04544039 -0.052533567 0.005567465 0.0571138 0.050148625 0.027831808 0.03811093
-0.012782454 0.075675346 0.09054802 0.053381525 0.09636223 0.07748176 -0.09529467 -0.018630067
-0.111096285 0.0794826 0.046677828 0.03180136 -0.0035309982 -0.09688565 -0.014459151 -0.044117853
0.041315995 -0.045834843 -0.0027306264 0.1199453 -0.019358194 0.11286506 0.11906247 0.0019682324
-0.03126347 0.0965327 0.06581354 -0.074687466 -0.023829313 0.042099033 0.046053395 -0.047066346
0.013052534 0.12424873 -0.043985825 -0.023045141 -0.0042559886 0.050775994 -0.05046782 -0.057631034
-0.08454302 -0.09193526 0.09388243 0.10370007 -0.1028449 -0.015471733 -0.050574243 -0.026889356
0.02022909 -0.074660815 0.054657124 -0.0727627 -0.052758623 0.0064618923 0.023831204 0.0983602
-0.059037402 0.029653406 -0.012291414 0.11758453 0.094679 -0.09425821 0.118377805 0.09389058
0.084357165 0.02318109 -0.06464687 0.0777527 0.07222065 0.021343991 -0.040405232 0.0026172108
-0.10386402 0.073359124 0.07580908 -0.036384117 -0.06824664 -0.08739458 0.005576152 -0.048505317
-0.016397724 0.013163285 -0.07977245 0.04198426 -0.058507923 -0.027844634 0.048474677 -0.08884231
0.104642704 -0.087880276 0.12616032 0.044378243 -0.09952945 -0.109348245 -0.11034961 0.09846951
-0.05184578 0.035459563 0.07912611 -0.027105913 -0.10749987 0.10599902 -0.02349165 0.10179368
0.09434799 0.034619093 0.09568298 -0.016192764 -0.038275175 0.052666422 -0.10197493 -0.11755929
0.044071563 0.120010525 -0.026300278 0.004808426 -0.12240875 0.019662865 -0.03628427 -0.056976978
-0.08539 -0.0131433215 -0.10493309 -0.027343066 0.11245489 -0.074407995 -0.08895393 0.016985603
-0.04742479 0.060965087 0.09114824 0.031680875 0.084084824 0.082068786 -0.05451834 -0.08369425
0.124595664 -0.028126117 -0.056338236 -0.053004365 -0.10293261 -0.06662573 -0.020544903 -0.043025028
0.044731513 -0.12271808 0.059471235 0.051107593 -0.0966868 -0.0085946 0.03743231 0.0901159
0.08402591 -0.05828254 -0.109295376 -0.11794662 -0.079750046 -0.11977388 -0.040998027 0.12319043
0.0672863 0.013034552 -0.07043491 -0.113504946 0.03404425 0.039429147 0.017377779 -0.08916329
00000000: 7abf cebd 1426 2c3d 0abb c8bd d8f9 efbc
00000010: 383d dabc 7821 ec3d 1c65 943d e0fb 13bc
00000020: 60f0 e9bd 905d f5bc 640a ed3d 2a28 a13d
00000030: b464 3e3d 80db 04bb 58f8 b63d e00a 4b3c
00000040: 28eb eb3d 8060 2cbc c01f 5e3d d6ae e2bd
00000050: ac7b bfbd e04b e4bb 1ecc c03d 0067 efbb
00000060: f82f fabd c85f b0bc 34a5 bebd da92 a5bd
00000070: 7eee d03d 7443 8abd 8a5a fbbd 1ebf ae3d
00000080: d01c ec3d 8e81 f5bd 081d 4d3d ae2f a7bd
00000090: ae94 e4bd 9074 11bd d0f4 6c3d b6f1 a0bd
000000a0: 0885 cc3c 4046 7e3c 048c df3d 680c 15bd
000000b0: 5837 2ebd 3894 a4bd e8e2 debc f4e1 b7bd
000000c0: 862c c0bd d0c1 c6bd 9463 a8bd b245 cc3d
000000d0: 1020 323c fc35 70bd c0b4 ae3c 78a1 3d3d
000000e0: d0db 4cbd 4ea2 c6bd 5855 9f3d 84f8 97bd
000000f0: 50f8 0dbd 2ea9 d4bd 98f9 3dbd 2c50 e4bd
00000100: 2e93 e03c 7ace 6b3d fbbf ee3d c0a3 62bb
00000110: 90fd 1ebd d832 4b3d 57ac 8fbd fcd8 a5bd
00000120: 3d17 a83d 74b8 c3bd d385 723c 543f 073d
00000130: d544 c5bd f27a bb3c fb2c 293d fc49 643d
00000140: a4d1 8abd b41f 3a3d 702d 57bd 486f b63b
00000150: 29f0 693d a568 4d3d 88ff e33c 351a 1c3d
00000160: 7f6d 51bc adfb 9a3d 3e71 b93d 96a6 5a3d
00000170: 9059 c53d c2ae 9e3d da29 c3bd 159e 98bc
00000180: 7386 e3bd c6c7 a23d 4031 3f3d 2542 023d
00000190: 5268 67bb fc6b c6bd 13e6 6cbc ecb4 34bd
000001a0: f63a 293d 51bd 3bbd 4ff4 32bb e2a5 f53d
000001b0: 1395 9ebc cc25 e73d 06d7 f33d 76fd 003b
000001c0: 200e 00bd f0b2 c53d 40c9 863d bef5 98bd
000001d0: b135 c3bc 0970 2c3d 7ca2 3c3d a4c8 40bd
000001e0: 4cda 553c 1e76 fe3d 7b2a 34bd 2ac9 bcbc
000001f0: d275 8bbb 7dfa 4f3d 58b7 4ebd 850e 6cbd
00000200: e424 adbd 8e48 bcbd 6e45 c03d b460 d43d
00000210: 59a0 d2bd 277d 7dbc f026 4fbd 1147 dcbc
00000220: 7ab7 a53c c5e7 98bd 26e0 5f3d 9c04 95bd
00000230: 6d19 58bd 48be d33b a839 c33c 1371 c93d
00000240: 34d1 71bd b3eb f23c ed61 49bc 28d0 f03d
00000250: 10e7 c13d 730a c1bd 1070 f23d b449 c03d
00000260: 73c3 ac3d 45e6 bd3c 9465 84bd cf3c 9f3d
00000270: 6ce8 933d 98d9 ae3c f57f 25bd 8385 2b3b
00000280: a9b6 d4bd 4f3d 963d ca41 9b3d 8307 15bd
00000290: e5c4 8bbd eefb b2bd 27b8 b63b 83ad 46bd
000002a0: 8554 86bc d2aa 573c bd5f a3bd b0f7 2b3d
000002b0: 01a6 6fbd 6e1a e4bc 628d 463d f5f2 b5bd
000002c0: ea4e d63d 93fa b3bd 2c30 013e f6c5 353d
000002d0: 19d6 cbbd f9f1 dfbd fafe e1bd 62aa c93d
000002e0: 3e5c 54bd 0c3e 113d df0c a23d 380d debc
000002f0: e428 dcbd 0416 d93d 9071 c0bc 3479 d03d
00000300: 8539 c13d c0cc 0d3d 70f5 c33d b0a6 84bc
00000310: 6ec6 1cbd bfb8 573d 3bd8 d0bd edc2 f0bd
00000320: 6284 343d 14c8 f53d ae73 d7bc 0090 9d3b
00000330: 70b1 fabd 0414 a13c d19e 14bd b160 69bd
00000340: f4e0 aebd 1657 57bc 29e7 d6bd 91fe dfbc
00000350: c04e e63d 3863 98bd 7a2d b6bd 6425 8b3c
00000360: 7f40 42bd 87b6 793d eeab ba3d cec3 013d
00000370: aa34 ac3d ae13 a83d 9f4e 5fbd e467 abbd
00000380: 032c ff3d be68 e6bc ecc2 66bd 1b1b 59bd
00000390: 55ce d2bd 1273 88bd c94d a8bc 033b 30bd
000003a0: 6438 373d 9e53 fbbd 1c98 733d 3256 513d
000003b0: bb03 c6bd 5dd0 0cbc 9f52 193d af8e b83d
000003c0: c715 ac3d acb9 6ebd 41d6 dfbd ff8d f1bd
000003d0: fe53 a3bd 024c f5bd 8ced 27bd 444b fc3d
000003e0: 66cd 893d e08e 553c 2e40 90bd 4875 e8bd
000003f0: fc71 0b3d 7580 213d d85b 8e3c 3e9b b6bd

fc4.bias f4 [128]
0.07022455 0.033684462 0.0051114517 0.08813026 -0.031733155 0.055985525 -0.04091865 -0.09215188
0.08544521 0.057687584 0.00080264546 -0.0426064 -0.06146207 -0.0519391 -0.0048475424 0.031830832
-0.054412372 -0.041214176 0.016577674 0.025548022 -0.07808119 -0.042338222 -0.023585074 -0.075364664
-0.06930152 -0.072597116 0.09641389 0.070933096 -0.08414784 -0.046000767 -0.046626665 -0.03512205
-0.10725832 -0.0910315 0.12208906 0.0059472537 0.09775913 -0.020556614 0.063746944 -0.07226994
-0.012568746 0.02002226 0.034655746 0.05835699 0.10332603 -0.044761866 0.012650788 0.050743822
0.033491015 -0.0897522 -0.09054474 -0.08462546 -0.027752727 0.004728523 -0.0011879355 -0.006676808
-0.06265583 0.07458553 -0.01542502 0.0925547 -0.023332816 0.10771352 0.111114025 0.0046919733
-0.08385381 0.032774173 -0.05791169 0.015007836 0.0058244467 0.026921988 0.113564804 -0.044070587
0.11660762 0.0511757 0.007692661 -0.09601955 0.058733933 0.0048878323 -0.07161166 0.05503182
0.10399255 0.08718579 0.11753155 -0.01959532 0.04497817 0.070336744 -0.021954909 -0.033115704
0.09884491 0.09758385 -0.0049240137 -0.012243167 -0.040245906 0.04165323 0.06196955 -0.108594336
-0.0064873886 0.08283781 -0.03920265 -0.11226557 0.069976255 -0.033026382 0.110722765 -0.042489477
0.07559491 0.06689559 -0.04973572 0.056579635 -0.09337083 -0.0763275 0.014203015 0.03334331
0.042057056 -0.009067081 0.08154337 -0.096441925 -0.034584172 -0.05945796 -0.01479661 0.053083673
-0.0045520933 0.075850554 -0.11286089 -0.03585355 0.054427885 -0.06386577 -0.07115641 0.099796146
00000000: e4d1 8f3d b8f8 093d f77d a73b a37d b43d
00000010: a0fa 01bd 1451 653d 509a 27bd 20ba bcbd
00000020: e6fd ae3d d149 6c3d a068 523a 0c84 2ebd
00000030: a7bf 7bbd 18be 54bd 22d8 9ebb 0c61 023d
00000040: 82df 5ebd 32d0 28bd e7cd 873c 164a d13c
00000050: 08e9 9fbd d86a 2dbd 7c35 c1bc ca58 9abd
00000060: f5ed 8dbd ccad 94bd a574 c53d 5f45 913d
00000070: b455 acbd 4d6b 3cbd 9afb 3ebd 24dc 0fbd
00000080: 40aa dbbd b96e babd d409 fa3d 2ee1 c23b
00000090: f035 c83d 5866 a8bc c28d 823d 4302 94bd
000000a0: 24ed 4dbc b905 a43c 2ff3 0d3d bd07 6f3d
000000b0: 999c d33d 3858 37bd 4045 4f3c c1d8 4f3d
000000c0: e02d 093d 00d0 b7bd 856f b9bd 1d50 adbd
000000d0: b059 e3bc baf1 9a3b 80b4 9bba 20c9 dabb
000000e0: b351 80bd 4cc0 983d 39b9 7cbc 528d bd3d
000000f0: 7624 bfbc e898 dc3d c08f e33d 20bf 993b
00000100: 8cbb abbd 363e 063d cf34 6dbd 6de3 753c
00000110: 00db be3b 808b dc3c aa94 e83d 5c83 34bd
00000120: facf ee3d 9c9d 513d b812 fc3b e6a5 c4bd
00000130: fe92 703d 1c2a a03b 22a9 92bd 0c69 613d
00000140: 0cfa d43d 778e b23d 62b4 f03d 5d86 a0bc
00000150: 083b 383d b60c 903d c8da b3bc 55a4 07bd
00000160: 336f ca3d 0bda c73d 9f59 a1bb 9097 48bc
00000170: e4d8 24bd 949c 2a3d c8d3 7d3d b566 debd
00000180: 2994 d4bb dfa6 a93d f592 20bd 7eeb e5bd
00000190: b64f 8f3d ac46 07bd 9ec2 e23d 7209 2ebd
000001a0: 81d1 9a3d 8e00 893d afb7 4bbd 0cc0 673d
000001b0: 3539 bfbd 9851 9cbd c3b3 683c ff92 083d
000001c0: 0544 2c3d 188e 14bc 3600 a73d 5883 c5bd
000001d0: 22a8 0dbd 318a 73bd 7b6d 72bc 446e 593d
000001e0: ba29 95bb 8957 9b3d 9c23 e7bd 2cdb 12bd
000001f0: c6ef 5e3d 0fcc 82bd 74ba 91bd ec61 cc3d

fc5.weight f4 [64, 128]
0.06600445 -0.01139648 -0.0858526 0.008415745 -0.009467204 -0.0025704203 0.07888336 0.053381607
0.016327668 0.019181285 0.035625726 0.050647147 0.03064182 -0.023989202 -0.060442492 0.057572585
0.065371566 -0.081294104 -0.019777834 0.0842559 0.07195291 0.020279946 0.04984616 -0.08669303
0.005275344 0.01902301 -0.049608365 -0.00051921804 0.024509002 0.060942467 0.005936699 -0.0060138027
-0.046498403 -0.0066301893 0.022549596 0.06455914 -0.04826652 -0.044146538 0.03900059 -0.0838751
0.049408134 0.023185465 0.034903526 -0.0069681583 0.03816206 -0.0043734624 -0.024046104 0.082987316
-0.0585664 -0.06470296 -0.088478036 0.009834017 -0.0006375975 0.05500273 -0.08715912 0.008232291
0.0061203972 -0.015416861 -0.034907263 -0.0424059 0.003735364 -0.057113018 0.07070855 0.046108305
0.07548822 0.018085042 0.026322909 0.048368547 -0.03063021 -0.030769253 -0.050258946 -0.060740247
-0.02830317 -0.03887585 -0.021756446 -0.07929178 0.06299635 -0.0009952729 -0.07307655 -0.03321159
-0.021453189 -0.060790423 -0.088779025 0.05281218 0.0653077 -0.023984874 0.042461146 -0.06806865
-0.08953635 0.057049938 -0.0045144637 -0.043514665 -0.022153426 0.014831152 0.023660945 -0.05820387
-0.015597718 0.036748163 -0.038110364 -0.0015905483 0.02409789 -0.05898009 0.04104808 0.0479769
0.027940534 0.062034898 0.015214239 0.0569788 -0.056735657 -0.0067524426 0.033933807 0.086926825
-0.06852507 0.036042348 0.053906262 -0.05631315 0.04572439 -0.017536927 0.040884215 -0.015716687
-0.011011189 0.0049284627 -0.049099542 -0.067437656 0.058714893 0.05434242 0.002137539 -0.04826442
-0.012342978 -0.076709926 -0.0052578193 0.038395505 0.028279703 0.039868232 -0.06930505 -0.08329614
0.0019918706 0.016845547 0.030395685 -0.0061613526 0.083923765 0.036418248 0.07574629 0.01829015
0.05214957 -0.009886766 -0.017047714 0.021392297 -0.06790124 0.07613932 0.045391753 -0.085930236
-0.049891993 -0.03583634 0.055129804 -0.002116815 0.07119234 -0.051122863 0.024539474 -0.08728287
0.04130386 -0.03270154 -0.012414133 0.043230582 -0.0066387714 -0.015158461 0.01488731 0.063169755
0.05015358 -0.08305038 0.0052599898 0.05025509 -0.016110001 -0.008979565 -0.023711722 0.009804168
0.015329788 -0.087123826 -0.06761584 -0.080818094 0.019402355 -0.044594463 -0.031335864 -0.02119584
-0.028734129 -0.017026346 -0.040458847 0.0035868865 0.0030704928 -0.06349247 -0.075112596 -0.07262116
0.017847199 0.059498053 -0.021560462 0.03930341 -0.06727601 0.026464006 0.073517956 0.08477296
0.014275443 -0.028018814 -0.006759164 -0.04130247 0.045129273 0.009535124 -0.08391812 0.04805568
-0.061002832 -0.030098466 -0.025869789 0.039928637 -0.06607103 -0.0753075 -0.04017018 0.03986133
0.047559608 -0.08611382 -0.029122196 0.061014537 0.05743389 0.0020975326 0.08561099 0.057335276
-0.03146123 0.03581772 -0.0018318074 0.011839513 -0.052962657 -0.07341703 -0.071749896 -0.060335394
0.060852252 0.0785766 0.020773781 -0.03615231 -0.01554126 -0.008276461 0.056204867 -0.03487456
0.021225479 -0.017698167 -0.06928641 -0.054463148 -0.04180827 -0.08276098 0.07090507 0.083333656
0.06952352 0.078126095 -0.014090766 0.016534325 0.003763176 0.0006708303 0.047389105 -0.06095861
00000000: 572d 873d 4db8 3abc 7dd3 afbd 31e2 093c
00000010: 551c 1bbc 7f74 28bb 998d a13d aca6 5a3d
00000020: 9ac1 853c 1222 9d3c 48ec 113d 6273 4f3d
00000030: 8e04 fb3c 0185 c4bc 8c92 77bd 3bd1 6b3d
00000040: 87e1 853d 867d a6bd 2005 a2bc 5b8e ac3d
00000050: 0c5c 933d 2122 a63c 7d2b 4c3d 1e8c b1bd
00000060: cbdc ac3b 25d6 9b3c 2432 4bbd 221c 08ba
00000070: 1ac7 c83c cf9e 793d a488 c23b 6f0f c5bb
00000080: 1c75 3ebd 0f42 d9bb eeb9 b83c 9537 843d
00000090: 1db3 45bd 00d3 34bd 15bf 1f3d b5c6 abbd
000000a0: 2f60 4a3d 72ef bd3c 00f7 0e3d 2655 e4bb
000000b0: d24f 1c3d 434f 8fbb 56fc c4bc 41f5 a93d
000000c0: 52e3 6fbd fc82 84bd f933 b5bd db1e 213c
000000d0: 7224 27ba 8b4a 613d 7b80 b2bd bbe0 063c
000000e0: 9d8d c83b 0097 7cbc ebfa 0ebd cfb1 2dbd
000000f0: 02cd 743b 57ef 69bd a5cf 903d 10dc 3c3d
00000100: 9199 9a3d 1527 943c 24a3 d73c 191e 463d
00000110: 35ec fabc cd0f fcbc 53dc 4dbd c4ca 78bd
00000120: 0ddc e7bc 493c 1fbd 933a b2bc bb63 a2bd
00000130: 3b04 813d d173 82ba 29a9 95bd e008 08bd
00000140: 99be afbc 61ff 78bd c7d1 b5bd 9651 583d
00000150: 0bc0 853d ed7b c4bc bdeb 2d3d 9467 8bbd
00000160: d55e b7bd 32ad 693d 11ee 93bb 6f3c 32bd
00000170: 1a7b b5bc 5cfe 723c 99d4 c13c 2e67 6ebd
00000180: 928d 7fbc 3e85 163d 9d19 1cbd f279 d0ba
00000190: f068 c53c 1b95 71bd 0822 283d 6d83 443d
000001a0: 8ce3 e43c 4e18 7e3d 2545 793c 9a62 693d
000001b0: a663 68bd 9843 ddbb 2dfe 0a3d b106 b23d
000001c0: df56 8cbd 24a1 133d d0cc 5c3d 9ea8 66bd
000001d0: 7f49 3b3d 9aa9 8fbc 3576 273d 48c0 80bc
000001e0: 4668 34bc f17e a13b 9a1c 49bd c11c 8abd
000001f0: 077f 703d 2896 5e3d f415 0c3b eab0 45bd
00000200: 343a 4abc 181a 9dbd c949 acbb 9b44 1d3d
00000210: d6aa e73c df4c 233d ceef 8dbd 2b97 aabd
00000220: 0b8a 023b acff 893c 5f00 f93c 2ce5 c9bb
00000230: 39e0 ab3d 4d2b 153d df20 9b3d 3ad5 953c
00000240: ca9a 553d 1afc 21bc a6a7 8bbc e63e af3c
00000250: ce0f 8bbd efee 9b3d b4ec 393d 31fc afbd
00000260: 8c5b 4cbd 20c9 12bd cacf 613d 43ba 0abb
00000270: 4acd 913d 3566 51bd 0207 c93c 5dc1 b2bd
00000280: 3c2e 293d 0df2 05bd a664 4bbc 8d12 313d
00000290: 0d8a d9bb 325b 78bc e7e9 733c 255f 813d
000002a0: d76d 4d3d 5116 aabd fe5b ac3b 48d8 4d3d
000002b0: 1ff9 83bc 071f 13bc 163f c2bc a9a1 203c
000002c0: cb29 7b3c fa6d b2bd 2c7a 8abd f583 a5bd
000002d0: b0f1 9e3c afa8 36bd 095a 00bd e6a2 adbc
000002e0: d663 ebbc d67a 8bbc 2db8 25bd f811 6b3b
000002f0: 523a 493b 5708 82bd a2d4 99bd 67ba 94bd
00000300: 4a34 923c 3bb4 733d 919f b0bc 9dfc 203d
00000310: 01c8 89bd 0bcb d83c 9590 963d 729d ad3d
00000320: 8ce3 693c b687 e5bc fa7b ddbb c72c 29bd
00000330: 79d9 383d 3539 1c3c 43dd abbd 08d6 443d
00000340: 1bde 79bd 0f91 f6bc e1ec d3bc 368c 233d
00000350: 4050 87bd d23a 9abd 7d89 24bd a245 233d
00000360: ddcd 423d 715c b0bd ac91 eebc 61ea 793d
00000370: cc3f 6b3d c276 093b d154 af3d 65d8 6a3d
00000380: 7edd 00bd 9ab5 123d 4219 f0ba 84fa 413c
00000390: 5fef 58bd ab5b 96bd 9cf1 92bd 3f22 77bd
000003a0: 3640 793d c5ec a03d c72d aa3c 7214 14bd
000003b0: c5a0 7ebc fe99 07bc 1337 663d a0d8 0ebd
000003c0: 0ee1 ad3c bffb 90bc 09e6 8dbd c014 5fbd
000003d0: 263f 2bbd 977e a9bd ad36 913d d6aa aa3d
000003e0: 5962 8e3d 9300 a03d f5dc 66bc fe72 873c
000003f0: 9e9f 763b a9da 2f3a 141b 423d bcaf 79bd

fc5.bias f4 [64]
0.06907082 -0.057493065 -0.06767773 -0.03633799 -0.067554176 0.07739474 -0.0023300915 0.055433083
0.03661628 0.046302974 -0.010104254 -0.05804951 0.03420408 -0.024380442 -0.009218688 0.07219563
-0.06035284 -0.06503923 -0.012081779 -0.007181444 -0.031421963 0.08226951 -0.07209981 -0.026987216
-0.07666727 -0.041524623 -0.041248668 -0.062499657 -0.07139648 -0.043691665 0.00048438463 -0.05884527
0.034662362 0.005365597 0.069507234 0.054758385 0.06623697 -0.07398953 0.03706956 -0.013400837
-0.028884342 0.028577248 -0.022530517 0.002369485 -0.058880113 -0.08492938 0.02616375 0.06642445
0.020236967 0.0551287 -0.0014547196 -0.030245956 0.0393433 0.00864689 -0.04008079 -0.0140876435
0.06972989 0.054447196 0.077943765 -0.0058894223 -0.021685101 -0.0038123631 -0.008991065 -0.059062913
00000000: 0175 8d3d d97d 6bbd 9f9a 8abd 25d7 14bd
00000010: d859 8abd 2281 9e3d 73b4 18bb cd0d 633d
00000020: f4fa 153d 30a8 3d3d 508c 25bc 53c5 6dbd
00000030: 9419 0c3d 7eb9 c7bc fb09 17bc 4ddb 933d
00000040: 8a34 77bd 4a33 85bd a7f2 45bc 5252 ebbb
00000050: 51b4 00bd eb7c a83d 11a9 93bd 4b14 ddbc
00000060: bb03 9dbd b915 2abd 5df4 28bd a4ff 7fbd
00000070: 5138 92bd 08f6 32bd 01f5 fd39 bd07 71bd
00000080: 1ffa 0d3d e4d1 af3b cf59 8e3d 544a 603d
00000090: 40a7 873d d387 97bd 40d6 173d 2f8f 5bbc
000000a0: db9e ecbc d51a ea3c eb91 b8bc 5d49 1b3b
000000b0: 462c 71bd 74ef adbd 5c55 d63c 8b09 883d
000000c0: ffc7 a53c a2ce 613d 4aac beba 5ec6 f7bc
000000d0: 7126 213d afab 0d3c c12b 24bd dccf 66bc
000000e0: 8bce 8e3d 0604 5f3d fba0 9f3d 0efc c0bb
000000f0: f4a4 b1bc d7d8 79bb 434f 13bc f4eb 71bd
