models_submitted/train_acc-CNN_2L_DFC_N400.pt (torch, 160903 bytes, 22 tensors)

conv1.weight f4 [32, 1, 1]
000000 41 9a 6c 3f 6b 14 13 bd ae b4 62 3f e7 85 3f be
       0.9242287 -0.035908144 0.88556945 -0.18703423
000010 a9 be 27 bf 17 7d 68 3f 04 5a 00 bf 0a 67 52 3d
       -0.655253 0.9081587 -0.5013735 0.051367797
000020 a2 25 04 3e a1 fc 84 be d9 62 15 be d0 b3 73 3f
       0.12904981 -0.2597399 -0.14588489 0.9519625
000030 e4 b6 36 3f 67 69 56 be a6 fc 05 3f 57 ed 3f bc
       0.7137282 -0.20938645 0.52338636 -0.011714301
000040 43 7d 46 3f 8e be b1 be 9b ef 66 bf 2d ce d8 3e
       0.77534884 -0.34715694 -0.9020936 0.423448
000050 fd 8a ac 3e 2f 14 82 be 5d 12 6a 3e 67 73 61 bf
       0.3369979 -0.25406024 0.22858568 -0.88066715
000060 f3 71 55 3e ef 39 69 3f 67 c6 a2 3d 1c 71 01 be
       0.2084425 0.91104025 0.079479985 -0.12640804
000070 fd 85 0a 3f 05 c1 10 3f f6 73 d7 bc d4 b3 48 3f
       0.541107 0.56544524 -0.026300412 0.78399396

conv1.bias f4 [32]
000000 b8 c3 41 3e fa 27 20 3f bc f5 1b 3f 6f 09 4a be
       0.18922317 0.62561 0.60921836 -0.19730161
000010 bc 82 8e 3e 80 aa b0 3e 68 62 04 3e 41 90 75 3c
       0.27834117 0.3450508 0.12928164 0.014988006
000020 71 72 8e bc b1 23 b9 3d fa ab 7c bf 20 fb 44 3f
       -0.017388554 0.09040011 -0.98699915 0.76945686
000030 c8 63 6f bf a0 cf 6f be e0 b2 93 3e 2c 2b a7 be
       -0.9351163 -0.23419046 0.28847408 -0.32650125
000040 81 f0 54 bf 60 4c a7 3e 1e 1a 40 3f 68 ec 03 3f
       -0.8317948 0.32675457 0.7503985 0.515326
000050 8c bf 40 3e 7a 92 09 3f f6 bc 3a be a5 d6 1f 3e
       0.1882307 0.5373913 -0.18236145 0.15609224
000060 72 f2 66 3f 8a 7a 46 3f c1 f1 5c bf 96 91 5d bf
       0.9021369 0.7753073 -0.8630639 -0.8655027
000070 09 82 ce bd c5 68 46 be 44 e7 64 3f ae 28 9a be
       -0.10083396 -0.19375904 0.89415383 -0.3010916

conv2.weight f4 [64, 32, 1]
000000 71 a0 94 bc 35 a3 18 3d 2d 55 27 be fa 8f 86 bd
       -0.01814291 0.03726502 -0.16341086 -0.0657043
000010 ec e2 9b 3d 38 7d 0c bc 49 df 1d be 97 99 d4 bd
       0.07611641 -0.008574776 -0.15417208 -0.103808574
000020 2e 94 ad 3d ba 9a 9d 3d 94 6c 31 3a 23 69 98 bd
       0.08475529 0.076955274 0.00067681936 -0.07441928
000030 ba 95 f7 bd 17 be 1f be 49 73 8a bd 41 1d 3c 3d
       -0.12089105 -0.15599857 -0.0676027 0.045926336
000040 06 f4 0c 3e 66 6c e8 bd fe ff 14 3e 35 1e 4e bd
       0.13764963 -0.113488 0.14550778 -0.050321776
000050 0a 81 31 3e 55 d0 e8 bd 7b 1b 17 3e 17 14 d4 3d
       0.17334381 -0.11367861 0.14756577 0.10355394
000060 b3 bd 25 bd 74 ce e3 bb 40 bd 4c 3d a2 be 12 3e
       -0.040464114 -0.0069521014 0.04998517 0.14330533
000070 51 5e e2 3d 5e 65 12 bd bb de 26 3d 2b e8 ae bc
       0.11053146 -0.035741203 0.040739756 -0.02135094
000080 6b c9 1f be 25 6d b4 bc 03 1e 31 3e 1f 16 17 be
       -0.15604179 -0.0220247 0.17296605 -0.14754532
000090 7b 7b 00 be 58 fc 18 3e 7d ba bb bc 5f af 1f bd
       -0.12547104 0.14940012 -0.022916073 -0.038985606
0000a0 87 bf 1a be 73 68 83 3d ac a0 de bc a2 74 0a 3e
       -0.15112124 0.064164065 -0.027176224 0.13521054
0000b0 fa f6 a4 bc fd d8 21 bd f7 83 7b bd d5 77 f0 bb
       -0.020137299 -0.039513577 -0.06140515 -0.007338504
0000c0 bb cc 0b 3d 76 84 0a 3e 9e 67 b3 3d 1f 47 01 be
       0.034130793 0.13527092 0.08759998 -0.12624787
0000d0 3d 1d ff bd 53 c6 d8 3c fd 07 1c 3e d4 80 8f bd
       -0.12456749 0.026461756 0.15237422 -0.07006994
0000e0 b1 3f 05 3e 86 c0 0e 3e f8 72 06 3e bc dc 90 3d
       0.13012578 0.1394063 0.13129795 0.07073352
0000f0 bf 60 ac bd ee 1b 23 be d8 ad 28 bd 2f 78 10 3e
       -0.0841689 -0.15928623 -0.041181415 0.14108346
000100 bc 5c f5 3d f6 f7 af 3c b0 fd bb 39 94 09 2d 3e
       0.11980578 0.021480542 0.0003585643 0.16898185
000110 2c 22 c4 bd ee 6f c6 3d f9 67 1e 3e ce ec 2d be
       -0.0957683 0.09689318 0.1546935 -0.16984865
000120 2f fa 23 be 16 f0 ce bb a9 40 1c 3e ae 5e 0a be
       -0.16013406 -0.0063152416 0.15259041 -0.1351268
000130 ce b9 7a bd 30 9c 12 3d ce 48 0e be 33 a8 23 be
       -0.061212353 0.035793483 -0.1389496 -0.15982132
000140 07 48 d6 bd 50 dd 09 be 57 13 ba bd ca f5 bd bd
       -0.10462957 -0.1346333 -0.0908572 -0.09275396
000150 ca 11 82 bc 6a 6e 14 3d 36 3d fe 3d 8b 0e 86 bb
       -0.015877623 0.03623811 0.12414019 -0.004091089
000160 05 27 2d bd 05 72 70 3d 14 f5 ec bd 1c 44 f9 bd
       -0.04227354 0.058702487 -0.115701824 -0.12171194
000170 3e ad 4e bd 43 d0 46 3d 07 b9 a7 bc 8d c7 1f 3e
       -0.050458185 0.048538458 -0.02047397 0.15603466
000180 2e ec 0e 3c ed 2c 7e 3d 3f a5 a3 3a 42 b6 fb 3d
       0.008723302 0.062054563 0.001248516 0.12290622
000190 a0 4c 2a 3d 9d 89 ed bd d2 7c dd 3c 86 74 08 be
       0.04157698 -0.11598513 0.027037058 -0.133257
0001a0 ff 3f 33 be 26 ac 16 3e 16 88 1b 3d b6 87 f8 bd
       -0.17504881 0.14714107 0.03797158 -0.1213526
0001b0 ac 38 54 bd ea 1d 8a bd 58 5e ee bd a5 8c 0f be
       -0.05181186 -0.06743987 -0.116390884 -0.14018495
0001c0 41 d5 ef 3d 1e 66 8b 3d 5d 67 df bd c8 54 f7 bd
       0.11710597 0.06806587 -0.10908387 -0.120767176
0001d0 8f a0 df 3c 2f 08 00 bd 96 bb 82 3d 01 fd c2 3d
       0.02729824 -0.031257804 0.063834354 0.09520913
0001e0 1d 9b 80 bd ea 0b 45 bd 79 ac 21 be 14 87 17 3e
       -0.062795855 -0.048107065 -0.1578845 0.14797622
0001f0 69 0c 2d be f4 a8 20 3e dc 82 63 bc ce d3 0a 3c
       -0.16899265 0.1568945 -0.01388618 0.00847335
000200 6a 0c ba 3d 31 a6 70 bd df 4c c1 bd 8d 1a f6 bd
       0.09084399 -0.058752242 -0.0943849 -0.12016783
000210 0e 8e 00 be a2 ee 4a 3d 7e 2c 72 bd 81 d5 cc 3d
       -0.1255419 0.049543984 -0.059124462 0.1000166
000220 86 77 5c 3c e1 de 01 3e c2 b8 73 bd f6 f5 e3 bd
       0.013456231 0.12682678 -0.05950237 -0.11130898
000230 ed 4a ff 3d 7e 13 d6 bd b8 cf b9 3c 56 50 04 3e
       0.12465463 -0.104529366 0.022682056 0.1292127
000240 91 2e f7 3c ee 3c ab bd 06 80 97 3d 03 90 24 3e
       0.030173572 -0.08361231 0.073974654 0.16070561
000250 8d d6 44 bb 54 0e b1 3d 86 7f 55 3b 35 85 c5 3c
       -0.0030035109 0.08645311 0.003257723 0.02411137
000260 e0 f9 4d bc a0 93 cb bc 0c ab ba 3d 08 b1 50 3d
       -0.012571782 -0.024850667 0.09114656 0.05095008
000270 83 8c 2f 3e e4 51 2a be aa 9e 5e 3d 50 76 f0 bd
       0.17143445 -0.16632801 0.054350533 -0.11741316
000280 9f fa 85 bd fa b5 0f bd 56 18 b3 3c cf f9 32 bd
       -0.06541943 -0.035085656 0.02186219 -0.043695267
000290 dd ed 99 bd 76 4d 13 be 1b b6 9a 3d 7f 9c 04 3e
       -0.07516072 -0.14385018 0.07554265 0.12950324
0002a0 a7 8b 2d bd ca 69 51 bd c6 7b fd 3d 26 64 3d 3d
       -0.04236951 -0.05112628 0.123771235 0.046238087
0002b0 de d6 71 3d 35 35 36 bd ff 9d aa bd 97 d2 93 3c
       0.059042804 -0.044484336 -0.083309166 0.018044753
0002c0 86 02 e2 bc 8e 1a bd bd f0 39 9c bb 24 30 67 bd
       -0.027589094 -0.092335805 -0.004767649 -0.056442395
0002d0 69 32 fb 3d 28 28 3b bd 6b 84 82 bd ea 95 fe 3d
       0.12265474 -0.045692593 -0.06372913 0.124309376
0002e0 a8 8c 79 3d 9a e9 80 3d 65 53 1c 3e 02 65 89 3d
       0.060925156 0.06294556 0.15266187 0.06708719
0002f0 05 9d d3 bd 07 41 36 3d bf fc 19 3e 66 7e 1f bd
       -0.103326835 0.04449561 0.15037821 -0.038938902
000300 97 b3 d7 39 d2 b8 2d 3e f9 63 f9 bd 20 ae 22 be
       0.000411418 0.16965035 -0.121772714 -0.15886736
000310 16 c8 b2 3d e5 4f d4 3d 15 9e 16 3d 57 a5 c0 3b
       0.087295696 0.10366801 0.036771853 0.005879085
000320 0e 66 f2 bd 56 dd 7f bd 53 de 06 bc 2a 90 29 be
       -0.11835872 -0.06246694 -0.008231717 -0.165589
000330 8b be 28 be 80 f9 f3 3d 35 98 7c 3d 44 f4 a3 3c
       -0.16478936 0.11912823 0.061668593 0.020013936
000340 40 81 30 3d 61 d8 de bd ff 74 2c 3e e3 b4 8f 3d
       0.043092012 -0.10881115 0.16841505 0.07016923
000350 51 9f c4 bd 7f b3 41 bd 4d f8 0e be 7c ae 20 3e
       -0.096007 -0.04729032 -0.13961907 0.1569156
000360 e1 35 33 be 5f 61 dd bd 5f 73 e5 bd d5 eb 8b bc
       -0.17501022 -0.10809588 -0.11203646 -0.017080227
000370 4a bf 81 3d 2c 00 12 be fd 66 a2 bc d5 39 0a bd
       0.063353136 -0.14257878 -0.0198245 -0.03374656
000380 3c e2 f0 bc b1 ef 24 be 47 f6 9c 3d d7 d3 1f 3e
       -0.029404752 -0.1610706 0.07664161 0.15608154
000390 1b 20 9c 3d fc 1b 51 bd b1 89 21 3e d1 6b e3 bd
       0.07623311 -0.05105208 0.15775181 -0.11104549
0003a0 94 f2 8e bc 1e 65 28 3e 82 01 ec bd 53 9e 9c 3d
       -0.017449655 0.16444823 -0.11523725 0.076473854
0003b0 78 11 9c 3d a0 8c ca 3d 1a 87 bb bc 94 33 be 3d
       0.076205194 0.09890103 -0.02289157 0.092871815
0003c0 58 ad 86 bc bb a5 a5 bc 84 f1 96 3c 7b a2 00 3e
       -0.016440079 -0.020220628 0.01842571 0.12561981
0003d0 85 c2 12 3e 27 f2 8c bd 09 3b 81 bd e4 9c a6 3c
       0.14332016 -0.068821244 -0.06310088 0.020338483
0003e0 a1 97 04 3e a3 72 34 be dd 23 06 be 8f 4d 2d 3e
       0.12948467 -0.17621855 -0.13099618 0.16924118
0003f0 24 ff 9e bb a7 31 22 3d 4d 6e 20 bd 75 2a 56 bb
       -0.0048521925 0.039598133 -0.03916769 -0.0032679115

conv2.bias f4 [64]
000000 b2 0b fd bd 43 d7 ea 3d 82 8e 03 be c0 dd 38 bd
       -0.12355746 0.11466839 -0.12847331 -0.045133352
000010 68 fb fe bc 64 10 ec 3d af 6b 2b 3e af 31 96 bd
       -0.03112574 0.11526564 0.16740297 -0.07333695
000020 a1 fe d2 bd b0 ac 25 3e 5f 4f 56 3d 7e ab 9d 3c
       -0.10302473 0.16179156 0.052321788 0.019246813
000030 3f ae df bd 17 0e f1 3b 0d 90 3a bd ce 90 13 bc
       -0.10921907 0.007356416 -0.045547534 -0.009006692
000040 b2 1c 21 bd 9b 6d 2f 3e b4 f1 e7 bd c8 75 9a 3d
       -0.039334007 0.17131655 -0.11325398 0.07541996
000050 df 84 a6 bd be 25 0d 3d 07 2f 05 bd 5d db d1 3c
       -0.08130812 0.034459822 -0.032515552 0.025617296
000060 16 ba 2f be 97 5a a8 bb 3a 65 8c 3d 5b 0f 53 bd
       -0.1716083 -0.0051377523 0.06855245 -0.051528316
000070 eb fa fa 3d d4 dc 02 3e 0c 38 26 3e 7b 44 1f 3d
       0.1225489 0.12779552 0.16232318 0.038883667
000080 46 15 20 3e 7f 38 2a 3d 18 72 20 3e d1 5d 1c be
       0.15633115 0.041557785 0.15668523 -0.15270163
000090 eb 91 8e bd 9e c6 9f 3d 14 50 23 3e e8 fa 70 bd
       -0.069614254 0.07801555 0.15948516 -0.058833033
0000a0 92 98 00 bd 2e 06 0a 3e 6d 42 ce bd 1d 7f 12 be
       -0.031395502 0.1347892 -0.100712635 -0.14306302
0000b0 3c 83 86 bd 47 39 19 bd 0e 42 31 be bf 96 b2 3c
       -0.06568 -0.03740814 -0.17310354 0.021800397
0000c0 30 5e 65 bd 8d 80 32 be f2 30 1c be 0a b1 40 bd
       -0.055998027 -0.1743185 -0.15253046 -0.047043838
0000d0 2c ff 03 bd b0 a5 94 bd e1 24 09 3e 5d fe 98 3d
       -0.032225773 -0.07258165 0.13392974 0.07470391
0000e0 4b e0 2d 3e 93 58 2f 3e 01 f4 b5 3c 4a 6a 21 3e
       0.16980092 0.17123632 0.022211077 0.15763202
0000f0 ce 56 83 bd 83 37 c8 bd 6f c5 90 3c 84 50 ed bd
       -0.06413041 -0.09776213 0.017672269 -0.11587623

fc1.weight f4 [16, 896]
000000 c2 35 9e 3b 1e 5d 6a bc c6 28 b1 3c e0 ce a6 3c
       0.004828186 -0.014304427 0.021625888 0.020362318
000010 68 b9 85 3c 1b d0 1d bc 00 05 1d bc 1e 52 ec bc
       0.01632376 -0.009632136 -0.009583712 -0.02884775
000020 fa 1c a3 bc 39 41 d6 bc bc da fb 3c b7 bb 38 bc
       -0.019911278 -0.026154147 0.03074395 -0.011275223
000030 d9 ca ac bc 46 2c d5 bb 95 aa 8a 3c 1e 6b 59 bc
       -0.021092819 -0.006505522 0.016927043 -0.013270168
000040 e6 15 df bc 07 2c 8f 3a c1 6d eb bc 5d ba b9 bc
       -0.027232122 0.0010923155 -0.028738858 -0.022671873
000050 10 04 90 ba 13 10 ca 3c ea 72 d0 3c b3 1a 56 3b
       -0.0010987539 0.024665868 0.02544542 0.0032669723
000060 af 5b b4 bb ec 36 fb 3c bf 96 31 3b f5 0d 26 bc
       -0.0055040936 0.030665837 0.0027097908 -0.010135164
000070 69 c2 07 3d f0 77 19 3a 91 af 9b bb c5 21 16 bb
       0.03314439 0.0005854359 -0.0047511538 -0.0022908312
000080 de 31 15 bc e4 a9 b9 bc 2e 23 a1 bc a8 95 89 3b
       -0.009106128 -0.022664018 -0.019670095 0.0041987486
000090 c0 de 88 ba 03 c8 ca 3c cb aa a0 bc aa c8 8d bc
       -0.0010442361 0.024753576 -0.01961269 -0.017307598
0000a0 99 06 ad bc 60 95 06 bd 09 de 46 3b ac 2a 1b 3c
       -0.02112131 -0.0328573 0.0030344746 0.009470623
0000b0 27 a2 1d bc ab 54 a6 bb e7 b0 0f 3c 79 7f e0 3c
       -0.00962118 -0.005076011 0.008770204 0.027404534
0000c0 8c ca bd 3c 2e 98 d5 bc 64 62 01 bd d3 06 b1 3c
       0.023167871 -0.026073541 -0.031587973 0.0216097
0000d0 47 59 dd bc fd 9d 83 bc 9d 2f ef 3b 57 15 7e 3c
       -0.02702011 -0.016066546 0.007299377 0.0155080175
0000e0 67 a0 94 bc 6d 96 eb 3c 76 bd 86 bb 5b bd 1a bc
       -0.018142892 0.028758252 -0.004111941 -0.00944456
0000f0 a9 d5 b8 bc bb 80 d5 bc db 0c 8b bc a2 48 57 3b
       -0.022562819 -0.02606236 -0.016973903 0.003284969
000100 69 d5 49 3c 54 b5 c2 ba 3c 22 9e 3b 3c d7 90 3c
       0.012318947 -0.0014855065 0.0048258584 0.017680757
000110 86 f9 f7 3c a7 5e 6d bc 69 51 7e 3c 88 b0 53 bb
       0.03027035 -0.014487899 0.015522339 -0.0032301266
000120 10 f6 a5 ba c1 af b5 3c 4a db 12 bc 75 9a 59 39
       -0.0012661833 0.022178533 -0.008963415 0.00020752272
000130 8b fe c3 3b c5 9e a3 3c 18 a9 24 3c 9b 5f ca bb
       0.0059812716 0.019973168 0.010050081 -0.006175948
000140 aa 50 09 bc 99 7d 9e bc 63 af 72 bc 4b a0 3d bc
       -0.008381048 -0.019346999 -0.014812323 -0.011573861
000150 b1 43 6a bb 9b bf 42 38 33 1d 0e bc 61 4d eb ba
       -0.0035745914 4.643165e-05 -0.008673954 -0.0017952138
000160 b4 c0 f7 bc 0a 6c 0f 3c 2a c7 33 ba bb ef b5 3a
       -0.030243255 0.008753786 -0.0006857986 0.0013880649
000170 6e 17 bd bb 6e 9a c1 3c 95 59 88 bc 95 f3 82 3c
       -0.0057706153 0.023633208 -0.016644279 0.01598529
000180 ce a7 44 3c 38 ad 8d 3b 3d 05 e6 3c 1b 99 96 bc
       0.012002898 0.004323628 0.02807867 -0.018383553
000190 7d 86 5a 3c 79 4d 69 3c 5e 8c 62 3c 01 70 7b bb
       0.013337729 0.014239662 0.013827411 -0.003836632
0001a0 e4 c1 a4 bc 87 06 d5 bb 7f 0e e0 bc 64 29 41 3c
       -0.020111986 -0.0065010223 -0.027350662 0.011789653
0001b0 e4 be 5b bc e2 5b e3 bc 35 82 06 3b 3e 87 16 3c
       -0.013412211 -0.027753774 0.0020524387 0.009187518
0001c0 40 3a ff bb 8f 78 84 3c 66 2d 4c bc f4 0c 61 3b
       -0.0077889264 0.016170768 -0.012461996 0.0034339996
0001d0 c7 c3 ee bc e9 ba f2 bc df e8 98 3c ac 46 95 bc
       -0.029146088 -0.029630141 0.01866573 -0.018222176
0001e0 1f c1 f2 bc 18 67 d9 39 6a 21 48 3c 8f 68 3e bc
       -0.029633103 0.00041466276 0.012214998 -0.011621608
0001f0 ee 07 b4 3b b3 91 a6 bc 29 fc 3b 3c 89 bb 59 bc
       0.0054941094 -0.020333147 0.011473694 -0.013289341
000200 ee 97 b6 3c 46 71 f8 bc 73 3d cc bb f0 a6 a1 3b
       0.022289243 -0.03032745 -0.0062329113 0.0049332306
000210 fa f3 a4 3b d8 74 a8 bb af b2 9d 3c 73 3c f6 3c
       0.005033967 -0.005140882 0.019250242 0.030058121
000220 d9 5b 99 bc 1c b1 44 bb eb 57 06 bd 74 c8 71 ba
       -0.018720554 -0.0030012792 -0.03279869 -0.000922329
000230 90 84 3f 3c 56 94 21 3b 86 bd 9b 3c 44 d1 fe bc
       0.01168932 0.0024655065 0.01901127 -0.031105645
000240 07 29 11 3c 47 af e0 3b bf df 44 3c 91 45 81 bc
       0.008859879 0.006856832 0.012016236 -0.015780242
000250 9e 8f 63 bc 25 37 2d 3c 27 61 98 3b fc 46 2b bc
       -0.0138892215 0.0105722295 0.0046502533 -0.010453936
000260 4d e1 c0 3c d4 31 9a bc ee 68 ab bc f6 30 ef bc
       0.023544932 -0.018822588 -0.020924058 -0.029198151
000270 fc a0 ee 3c a9 c9 fc 3c 6f 8b aa 3b 03 a0 5f bc
       0.029129498 0.030857878 0.00520461 -0.01364899
000280 3a cb 21 bc 89 fa e5 3c be 6c cf 3c 45 fb a3 3c
       -0.009875113 0.028073566 0.025320407 0.020017276
000290 91 92 03 bd 30 1a bd bc 78 d2 d4 3b 0c c2 cb bc
       -0.0321222 -0.023083776 0.0064948164 -0.024872802
0002a0 55 5d 5f bb 0c 37 48 3b 17 03 25 bb ee 05 09 bb
       -0.003408273 0.0030550389 -0.0025178844 -0.0020908075
0002b0 cb e3 af bc 4a e3 16 3c 26 69 b3 bc ce e0 6f bc
       -0.021470925 0.009209463 -0.021900725 -0.014641
0002c0 0b 67 18 bc 99 77 e4 3c 61 f4 cd 3c a1 f8 a4 bc
       -0.009301911 0.02788906 0.025140943 -0.020138087
0002d0 95 11 7c 3c 1b 0a 69 bc 16 24 72 bc a9 4c b5 3c
       0.015385051 -0.014223601 -0.014779111 0.022131281
0002e0 a9 1e e1 bc bc 2c c2 bc 81 a2 44 3c 17 ec ae 3c
       -0.02748044 -0.023702972 0.012001635 0.02135281
0002f0 27 eb e8 3b 7b 1d 58 bb 9a a8 39 bb 96 ec 04 bd
       0.0071081105 -0.0032976556 -0.0028329254 -0.03245219
000300 2a 8c 85 bc 35 e5 ce 3c 21 e1 84 3c a9 a1 a7 bc
       -0.016302187 0.025255779 0.016220631 -0.020462828
000310 04 3a 10 bc f1 ed da bc 0a f6 a5 3c 96 d2 05 3c
       -0.0088028945 -0.026724787 0.020258922 0.008167883
000320 f2 28 00 bd 86 aa 45 bc 3e 29 b7 3b c6 08 02 bd
       -0.03128905 -0.012064582 0.0055896332 -0.03174665
000330 34 0c 90 bc ab 30 a9 3b 9f ea 62 bc d6 43 9e 3b
       -0.017583944 0.0051632724 -0.013849883 0.004829864
000340 c0 ad af 3c 8c 7c 30 bc cc b1 cd bb 02 00 1b bc
       0.021445155 -0.010771882 -0.0062772986 -0.009460451
000350 58 4d 57 bc c4 81 b1 3c 40 3f 48 bc 22 2b 55 bc
       -0.013140999 0.021668322 -0.012222111 -0.013010772
000360 4b 10 87 3c 67 80 3a 3c 02 b4 cb 3c dc e5 c5 3c
       0.016487261 0.011383153 0.024866108 0.024157457
000370 ea 7f 9c bc c9 0e 53 3c 30 1c 6e bc 20 0f 2f 3c
       -0.019103963 0.012881943 -0.014533088 0.010684758
000380 8b 78 c8 3c 6d 40 41 bc b0 dc 93 bc 9e 3d b5 bb
       0.024471542 -0.011795145 -0.018049568 -0.005531027
000390 15 53 af 39 f8 2d 01 bc 17 89 52 bc 23 9a af 3c
       0.00033440502 -0.007884495 -0.012850068 0.021435803
0003a0 d6 0d 14 bc a0 6a 9f 3c ae 48 be bc dd cc 91 bc
       -0.009036502 0.019460022 -0.023228016 -0.017797882
0003b0 ae d3 04 3d 9b 6a 13 3b fc 51 eb bc 72 33 86 3c
       0.032428436 0.0022493962 -0.028725617 0.016381953
0003c0 df 8e 9e 3c 38 02 09 3d 7a 0f 95 3a ab 7e ce ba
       0.019355236 0.03344938 0.001137241 -0.0015754303
0003d0 d0 68 4c bc 3c f2 5c 3c e2 cd 20 3c 0c ba 78 bc
       -0.012476161 0.013485488 0.009814711 -0.015181076
0003e0 e1 b6 b2 bc b1 93 15 3c 39 4a be 3c a1 87 84 bc
       -0.02181572 0.009129451 0.023228751 -0.016177954
0003f0 b0 6e a1 3c b3 cf c0 3c 85 70 41 bc ba ae e8 bc
       0.0197061 0.023536539 -0.011806612 -0.028403629

fc1.bias f4 [16]
000000 0f 67 d2 bc 12 89 b3 3c 92 5b 1a 3b d3 26 ec bb
       -0.025683908 0.021915946 0.0023553115 -0.0072067766
000010 60 d7 81 39 06 e5 87 bc df e3 01 3d 58 a0 90 bc
       0.00024765264 -0.0165887 0.031711455 -0.017654583
000020 5d 54 9a bc 32 73 80 3c a3 73 2b 3c eb be 0f bb
       -0.018839056 0.01567993 0.010464582 -0.0021933864
000030 4b b1 3b b9 c9 a0 29 3c 4c a6 cd bc 3b 0b da bc
       -0.00017899756 0.010353276 -0.02510371 -0.026616683

fc2.weight f4 [32, 16]
000000 01 14 07 3e b1 38 33 3e e2 0d b3 3d 00 4a cb 3c
       0.13191225 0.17502095 0.08742882 0.02481556
000010 d3 96 68 3d 59 df 25 bd 02 ff 4b bd 70 5d 15 3d
       0.056784462 -0.040496204 -0.04980374 0.036466062
000020 ee 75 ff bd c0 78 c8 bb f1 47 8a bd 6b fa 59 3e
       -0.12473665 -0.00611791 -0.06752003 0.21286933
000030 00 6a eb 3d 9c 61 57 3e 68 f4 45 3d 30 02 e3 bc
       0.11494827 0.21033329 0.048328787 -0.027711004
000040 2f 39 49 3e ab 3e 93 3d 64 5f bc 3d 68 a9 5f 3d
       0.1965072 0.07189687 0.09197882 0.054604918
000050 a8 9a 5e be 47 57 d5 bd a1 02 e3 3d 74 81 37 be
       -0.21738684 -0.104170375 0.11084486 -0.17920476
000060 fb fb 71 bd 5e f2 60 3e 95 2b b6 3d a7 af 6e 3e
       -0.059078198 0.21967456 0.08895031 0.23309194
000070 18 a6 4b 3e b0 99 02 be d0 99 9a bd 9a c4 0e 3e
       0.19887578 -0.1275394 -0.07548869 0.13942185
000080 17 86 5c be 5c b2 06 be 80 04 2f 3e e2 7b 35 3e
       -0.21535526 -0.13153976 0.1709156 0.17723039
000090 20 88 c1 bd 96 49 0d 3c 03 8e 82 bd 6a 0f 6a be
       -0.09449792 0.008623501 -0.06374743 -0.22857442
0000a0 1d 87 34 3e 14 74 a3 3d 4a 57 9c bd c4 a8 19 3e
       0.17629667 0.079811245 -0.076338366 0.15005785
0000b0 3c da c9 bd 9e 9f 21 be 80 ce f8 bb 80 9f 71 3c
       -0.09856078 -0.15783545 -0.007592976 0.0147475
0000c0 9e c6 d0 3d a0 56 33 be 7b be 97 3d 12 c4 36 3e
       0.10194133 -0.17513514 0.07409378 0.17848232
0000d0 77 9c 84 3d c5 ef a1 bd 9e 2c ee 3d 9c 59 82 bd
       0.06475156 -0.079070605 0.11629604 -0.06364748
0000e0 bc e4 5a 3e fc 19 9f bd 01 16 57 be e6 a4 00 be
       0.21376318 -0.07768628 -0.21004488 -0.12562904
0000f0 92 7a 7a 3e 33 ee 23 3e 36 8d 19 be dc c7 12 be
       0.2446082 0.16008835 -0.14995274 -0.14334053
000100 f9 b8 bd 3d 14 a9 73 3e 7b 5c 03 be 98 cb 97 3d
       0.09263796 0.23794967 -0.12828247 0.07411879
000110 91 3a c0 bd 52 22 57 be 85 64 a7 bc 96 6d 27 3e
       -0.09386171 -0.21009186 -0.020433674 0.16350397
000120 8b 5d 4c 3e 80 d4 64 bb 09 5a 76 be 5e bf b2 3d
       0.19957559 -0.00349167 -0.24057783 0.08727907
000130 00 c5 d0 bd c5 bf 31 be a2 57 5c 3e 28 bb 38 bd
       -0.10193825 -0.1735831 0.21517804 -0.04510036
000140 0a f7 10 be e7 87 cb bd 98 48 a1 3d 00 af 6f bb
       -0.14156738 -0.09938031 0.07875174 -0.0036572814
000150 0d 45 8c 3c 38 01 f1 bd 92 24 54 be 84 5c 61 be
       0.01712277 -0.117678106 -0.20717075 -0.22007948
000160 83 fc 05 3e dc 66 8f bd 0e a0 35 3e c0 a4 11 3c
       0.13084607 -0.07002041 0.17736837 0.008889377
000170 40 52 2d be e8 4b 26 be 48 c4 61 be 62 83 62 3e
       -0.16925907 -0.16239893 -0.22047532 0.22120431
000180 98 70 10 3e 3d 88 a5 3d 5a ae 32 be 24 39 0e 3e
       0.14105451 0.08082626 -0.17449322 0.13888985
000190 ba dc 60 3e 7b 39 a8 bd 30 c9 77 be 1a 5d 38 3e
       0.219592 -0.082140885 -0.2419784 0.18004265
0001a0 df 02 1a 3c 08 24 fd 3d d6 6c 3e 3e cc 0b e9 3d
       0.009400099 0.12360388 0.18596205 0.11379203
0001b0 b4 87 e2 bd 48 18 5a 3d 18 ed 76 bd 16 ec 4a be
       -0.110610396 0.053245813 -0.060284704 -0.19816622
0001c0 c0 61 e2 bd 51 fb 9d 3d b9 d8 29 3d 00 d3 84 bb
       -0.110538006 0.077139504 0.04146645 -0.0040534735
0001d0 bc a9 49 3e 37 ee 63 3e 08 48 56 bd d0 db 27 bd
       0.19693655 0.2225884 -0.052314788 -0.040981114
0001e0 fa 22 5d be 54 4c a0 3d 89 91 7e be 5c ac 7b 3e
       -0.21595374 0.078270584 -0.24860205 0.24577469
0001f0 64 80 dd bd c0 e6 10 bc 20 c9 f8 bd 58 82 2a 3e
       -0.10815504 -0.008844078 -0.121477365 0.16651285
000200 a8 95 56 3e ae 3a 53 3e 5d 49 e5 bd 00 f5 79 bb
       0.20955527 0.20627853 -0.111956336 -0.0038140416
000210 70 4e 72 be dc cc 75 3e 2f 99 e6 bb 5c 7b bf bd
       -0.23662734 0.24003929 -0.007037304 -0.09349701
000220 38 b3 5c be 8a 20 28 be f0 e2 00 be 55 ad 51 3e
       -0.21552742 -0.16418663 -0.1258657 0.20476277
000230 82 2c 5f be 6e cd 27 3e d0 75 af 3c c2 33 31 3e
       -0.21794322 0.16386959 0.021418482 0.173049
000240 a8 90 2a 3e 5a 56 81 bd 34 12 39 3e e0 18 5a 3e
       0.16656744 -0.063152984 0.1807335 0.21298552
000250 ce 0a fc 3d 7e 5e 9e bd 92 48 05 3e 60 b7 c4 bc
       0.12306748 -0.07732867 0.13015965 -0.024013221
000260 fb 48 6f bd d0 82 97 bd 10 f2 30 3e 96 b1 01 be
       -0.05841921 -0.073979974 0.1727984 -0.126654
000270 6a 73 36 3e cc 39 5a 3e e4 da 59 be 70 90 dd bc
       0.17817464 0.2131111 -0.21274906 -0.027046412
000280 e5 a5 3e 3e 3e 83 a9 3c e4 ae 02 3e 54 4d 04 3e
       0.18617971 0.020692464 0.12762028 0.12920123
000290 20 d7 43 3e 77 33 4f 3d 31 7e 4a bd 60 a6 5e 3d
       0.19125032 0.05058619 -0.04943675 0.054357886
0002a0 16 09 7c 3e 0a a5 2b 3e 80 d9 31 be 25 f2 2f be
       0.24612841 0.16762176 -0.17368126 -0.17182215
0002b0 f0 aa 4e bd ff 5c af 3d 34 83 c3 bd a2 11 79 3e
       -0.050455987 0.085626595 -0.095465094 0.24323133
0002c0 b9 94 0b bc aa f1 96 bd 5c e9 75 be 98 2f 95 3d
       -0.008519345 -0.073703125 -0.24014801 0.072844684
0002d0 88 53 e6 bd 53 3b 63 3e ce 5f e4 3b ea 70 36 3e
       -0.11246401 0.22190599 0.0069694286 0.17816511
0002e0 c8 cb 1a be c8 d4 5f 3e 02 e9 6e 3e d5 4d d1 bc
       -0.15116799 0.21858513 0.23331073 -0.025549809
0002f0 a2 38 21 be 72 99 59 3e 1c 71 80 3d dc e6 42 be
       -0.1574426 0.21249941 0.06271574 -0.19033378
000300 81 9b 54 3e f4 05 7a be cc e8 03 3e 6c c3 34 be
       0.20762445 -0.24416333 0.12881774 -0.17652673
000310 78 f3 d5 bd d5 d8 6f be a4 c2 38 3d 14 58 ad 3d
       -0.104468286 -0.23422559 0.0451075 0.08464065
000320 e9 8c 75 be a4 91 98 bd e7 78 3a bd 00 e6 07 3e
       -0.23979534 -0.07449654 -0.045525458 0.13271332
000330 3c 9c 40 3e 79 e5 7f 3d 8c 49 f9 3d d4 d1 31 be
       0.18809599 0.0624747 0.12172231 -0.173652
000340 42 9f 72 be 08 57 f2 3d ec 65 31 be b4 72 28 be
       -0.23693565 0.11833006 -0.17324036 -0.16450006
000350 76 de 02 3e c8 d9 4c 3e 3d 2c 8d bd d0 b5 17 bd
       0.12780175 0.20004952 -0.068932034 -0.037038624
000360 b6 e2 2f be 74 ef 11 3e 00 93 a5 3d cb c4 dc bc
       -0.17176327 0.142515 0.08084679 -0.026949307
000370 60 0c ed bd dc 50 94 bd 00 3f 11 bb 92 48 50 3e
       -0.11574626 -0.07241985 -0.0022162795 0.20340183
000380 c5 cd e6 3d b4 fe ec bd f1 4d 1c be 24 63 fc bd
       0.11269716 -0.11572018 -0.15264107 -0.12323597
000390 90 c7 73 3d cf 9f 70 3e c5 6c 76 be 0a d3 1f be
       0.05951649 0.23498462 -0.2406493 -0.15607849
0003a0 72 e8 43 be 40 9e cb 3d 68 54 fc 3d 33 7b e7 3d
       -0.1913164 0.09942293 0.12320787 0.11302795
0003b0 fa 70 30 be 42 aa 57 be d8 a0 1f be fa e3 70 be
       -0.17230597 -0.21061042 -0.15588701 -0.23524466
0003c0 90 4e 0d 3e 38 bd 15 3e 72 d3 12 be 30 36 72 be
       0.137995 0.14622962 -0.14338472 -0.23653483
0003d0 40 8c 31 3c a0 85 31 bd f0 7b 94 3c 38 bb 09 bd
       0.010836661 -0.043340325 0.018125504 -0.03362581
0003e0 6e 34 5a be 98 e9 ab bd 30 49 f7 3c 78 3b a4 bd
       -0.21309063 -0.08394164 0.030186266 -0.08019155
0003f0 30 cd e6 bd 50 1d 18 3e 02 e7 12 3e 2c 92 b2 bd
       -0.11269605 0.14854932 0.14345935 -0.08719286

fc2.bias f4 [32]
000000 aa 1b b0 bc 4b cd 51 3e 32 6d 14 be e7 ab 17 be
       -0.021497566 0.2048847 -0.1449478 -0.1481167
000010 e4 44 76 be 38 f8 14 3e 12 17 14 be 1f 2d 9b 3d
       -0.24049717 0.14547813 -0.14461926 0.075769655
000020 54 42 1e bd 84 65 b4 bd 31 01 d5 3d 1a 15 36 bc
       -0.038637474 -0.08808425 0.10400618 -0.011113429
000030 ed e2 d1 bd 52 9d 09 3e d0 9f 01 be 90 11 0d bd
       -0.10248361 0.13438919 -0.1265862 -0.034440577
000040 e4 54 5e 3e 52 b3 55 bd 10 c6 54 be 9b 99 57 be
       0.2171207 -0.052172966 -0.2077868 -0.2105469
000050 38 e7 0d be 35 55 b3 bc c6 8d 19 3d 76 14 6f be
       -0.13857734 -0.021891216 0.03748872 -0.23347649
000060 2c 85 38 3e 08 98 60 3d 50 a8 f0 bd 22 9d 70 3e
       0.18019551 0.05483249 -0.11750853 0.23497441
000070 a2 73 6d 3e bb 27 da 3d d3 58 1b 3e 9a d7 1b bd
       0.23188642 0.10652109 0.15170603 -0.03804741

fc3.weight f4 [64, 32]
000000 bc be da bd c5 02 2d be 7e e2 24 3e a6 13 8c bd
       -0.10680911 -0.16895588 0.16102025 -0.06839685
000010 80 c8 24 be 7e 80 9e 3d 8d 89 01 3e c1 23 ce bd
       -0.1609211 0.07739352 0.12650128 -0.10065413
000020 0f 38 ee bd f4 fb 06 be 0b 27 13 3e a0 1d 1b be
       -0.11631786 -0.1318205 0.14370362 -0.1514802
000030 5c 3d 24 be 36 66 8e 3d c9 65 00 be c4 d8 1f 3e
       -0.16039032 0.06953089 -0.12538828 0.15610033
000040 ee 71 30 be 75 ac 2e 3e e2 ba 0d 3e 5d f2 5e bd
       -0.1723096 0.17057975 0.13840821 -0.054430354
000050 6e 29 0f be 8d c6 d7 bd 57 b6 2c 3a e1 43 22 3d
       -0.13980648 -0.105359174 0.000658845 0.039615516
000060 63 07 f6 bd 38 a5 41 3b d4 1d 18 be 25 f7 98 bd
       -0.12013128 0.002954794 -0.14855129 -0.07469014
000070 bd 5d 38 3b c2 5c 6d bb 2d 15 de 3d 41 eb c2 3c
       0.0028132044 -0.0036218618 0.10843883 0.023793818
000080 ad ba f5 3d a8 76 84 bd e9 0a 4a 3d d8 48 30 3e
       0.11998496 -0.064679444 0.04932681 0.17215288
000090 41 2b 1f 3e 88 81 e6 bd a0 bd 24 be 04 a3 89 bd
       0.15543844 -0.11255175 -0.16087961 -0.06720546
0000a0 f1 d7 bc bd 74 df c9 bd d5 f3 70 bd 6f 33 24 3d
       -0.09220875 -0.098570734 -0.058826286 0.040088113
0000b0 59 1e 2f 3e f7 fe 11 3e 44 5a 25 3e 51 2d a1 bc
       0.1710142 0.14257418 0.16147715 -0.019674929
0000c0 f8 d6 2d 3e 77 55 ee bd 93 2a 02 3d 4c 27 ff 3d
       0.16976535 -0.11637395 0.031778883 0.12458667
0000d0 df 9c f6 3b 4a 96 d3 3d 88 bd b9 bd 91 17 7a 3d
       0.0075260247 0.103314 -0.09069353 0.06105763
0000e0 68 00 30 be e8 c7 a5 bc 92 11 11 bd 17 9d 4f bd
       -0.17187655 -0.020236924 -0.035417147 -0.050686922
0000f0 d9 6b 01 3c 72 83 7b 3d 43 e1 8f bd 01 1a 1c 3e
       0.007899248 0.061404653 -0.07025387 0.15244295
000100 76 95 0f be e2 cc 88 3c 6d fe c7 bd f7 8c 7d 3d
       -0.14021859 0.016699258 -0.09765325 0.061902013
000110 ec d1 15 be 29 61 20 3d 66 ee 30 3e b1 c2 cd bc
       -0.1463086 0.03915516 0.17278442 -0.02511725
000120 47 36 7b 3c c2 b5 b6 3c af a0 34 bd 50 0c 15 be
       0.015332765 0.022303466 -0.044098552 -0.14555478
000130 82 db 2c 3e ec 5d 15 3e 39 74 9c bc fb 62 d3 bd
       0.1688061 0.1458661 -0.019098388 -0.103216134
000140 71 bc 0c bd f8 51 09 be f1 29 ed 3c 56 bf ce 3d
       -0.0343594 -0.13410175 0.028950663 0.10095088
000150 99 c5 83 3c a2 dc a1 3d bb fe 9c bd 40 20 fb 3d
       0.016085433 0.079034105 -0.076657735 0.122620106
000160 24 cf 9b 3d f0 3b 1f 3e f5 b2 a1 bd 52 bb 0f bd
       0.07607868 0.15550208 -0.078954615 -0.035090752
000170 98 dc 9c 3d 86 3f bf 3c d1 91 3c 3d 88 2a 33 3e
       0.076592624 0.02334572 0.0460375 0.17496693
000180 c5 70 40 bd 42 da 1d be a0 05 bd bb ec bd 18 be
       -0.046982545 -0.1541529 -0.005768493 -0.149162
000190 7e 18 bb ba c9 c4 87 bd 58 58 31 be 29 4c 1d be
       -0.0014274267 -0.06629331 -0.17318857 -0.15361084
0001a0 1f 02 a9 3c 6d 6c e3 bd 9e 4f 21 bd a2 61 24 3d
       0.020630894 -0.11104665 -0.03938257 0.040132172
0001b0 20 df 82 bd a6 73 09 be 2f ea 39 bc c8 ad 55 b9
       -0.06390214 -0.13423023 -0.011347338 -0.00020378001
0001c0 58 f2 80 bd 8f 49 3a 3d 92 6f 59 3d f2 f8 3e bd
       -0.062962234 0.045480307 0.053084917 -0.04662413
0001d0 08 08 0f 3e 84 0d 28 3d ef cb cf bd a7 11 6b 3d
       0.13967907 0.041028515 -0.10146319 0.05738988
0001e0 72 2e 12 3e f2 94 c1 bb a7 d0 fa 3d 01 36 0a be
       0.1427553 -0.0059076482 0.122468285 -0.13497163
0001f0 02 f4 31 3e b6 52 36 3c bd 95 0b 3e 59 dc da 3d
       0.17378238 0.011128118 0.1363134 0.10686559
000200 3a f2 e6 3d d1 87 1f 3d b5 03 1e 3e 59 5c bf 3d
       0.1127667 0.038947884 0.15431102 0.09343786
000210 ba 14 15 3e 97 8f 03 bc 0f b5 34 be 19 b0 31 3e
       0.14558688 -0.00802984 -0.17647193 0.17352332
000220 d5 74 31 3e 9b 99 02 3e 47 05 24 be f1 fc e1 bc
       0.17329724 0.12753908 -0.16017638 -0.027586432
000230 bb d4 ca bc 1c aa 3b 3b 9e fc ee 3d f8 87 cb 3d
       -0.02475964 0.0028635329 0.11669277 0.09938043
000240 f0 bb 96 bd a2 76 33 3e f8 9e d1 3c 52 6f b4 bd
       -0.07360065 0.17525724 0.025588498 -0.08810295
000250 fe 59 8c bd 81 c2 1c 3e 3c 11 14 be ac 27 67 3d
       -0.06853102 0.15308572 -0.144597 0.05643432
000260 81 ce eb 3d 4b 1f 19 3e 72 6c 0d 3e bd 8c 99 bd
       0.11513997 0.14953344 0.138109 -0.07497547
000270 11 1e 01 3e 4f 55 95 3d 7a 5a 82 3a da 34 f5 3d
       0.12609126 0.07291662 0.0009945177 0.11972971
000280 e0 cc d7 bd 4a c7 4e bd 3e bc be bd fd 32 b8 3d
       -0.10537124 -0.050483026 -0.09313248 0.089941
000290 d1 0c a8 3b 00 5d 33 3e ec 67 25 be 13 d7 17 3e
       0.005128481 0.17515945 -0.16152924 0.14828138
0002a0 c9 b6 9c 3d 35 29 c3 bd a7 a2 dd 3d 3c cb 04 3e
       0.07652051 -0.09529344 0.10822039 0.12968153
0002b0 e4 29 27 be fb e8 aa bc 10 dd da 3d e5 5a 5d bd
       -0.16324574 -0.020863047 0.106866956 -0.054041762
0002c0 92 9c e1 bd 48 c4 b5 3d 34 83 02 3e 51 9d 3e bd
       -0.110161915 0.08875328 0.12745363 -0.046536747
0002d0 f5 fa ba bd ee c2 de bd 8f 39 30 bd ee e4 53 bd
       -0.091298975 -0.10877024 -0.043023642 -0.051731996
0002e0 7a 4c eb bd ae 9d 1d be d5 ba de 3c ff 9a b0 bc
       -0.11489196 -0.15392181 0.027188698 -0.021558283
0002f0 f7 88 cc 3d 3a 62 cc 3d 10 aa c9 3c b2 37 a6 bb
       0.099870615 0.09979673 0.024617225 -0.0050725574
000300 73 25 09 3c e6 3c 64 3c 77 36 c5 3d 9e fa ed 3d
       0.008370745 0.013930535 0.09629529 0.11620067
000310 8a 35 39 bc 1b ab 3c 3d 99 85 68 3d d4 39 08 3d
       -0.011304269 0.046061616 0.056768034 0.033258274
000320 0d 42 c4 bc e5 5f 60 3d 62 bd 1c 3d d0 58 e0 3d
       -0.023957277 0.054778952 0.038266547 0.1095444
000330 62 90 1e 3e 43 37 9d 39 e1 a1 17 be 89 21 07 3e
       0.15484765 0.00029986547 -0.14807846 0.13196386
000340 56 01 8c bd 91 a8 be bd 7e 48 2e 3e 74 bd c6 3d
       -0.06836192 -0.09309495 0.17019841 0.09704104
000350 48 0e d3 3d bd 90 26 be 1d 97 d4 bd 33 34 34 3e
       0.10305458 -0.16266151 -0.10380385 0.17598037
000360 8c 9c 08 3e 6c 39 2d 3e 50 91 26 be 51 5d cd 3c
       0.13340968 0.16916436 -0.1626637 0.02506891
000370 11 a8 8c 3d d2 99 c5 3d af 28 8b bd e0 05 1c 3e
       0.068679936 0.096484795 -0.06794869 0.15236616
000380 aa c4 ba 3c 87 b6 e2 bc 1f ff ba 3d 88 f4 ce 3d
       0.022798855 -0.027674926 0.09130692 0.101052344
000390 3d c3 b2 bd 00 61 60 3c e3 83 cc bd dc 51 05 3e
       -0.08728645 0.013695002 -0.09986093 0.13019508
0003a0 18 b5 14 3e 53 5f fa bd 1b 59 30 3e 28 19 dd bd
       0.14522207 -0.12225213 0.17221491 -0.10795814
0003b0 1f 3c e4 bd a8 2e c0 bd 3e 04 2c 3a 86 d5 22 3e
       -0.1114428 -0.09383899 0.00065619114 0.15901765
0003c0 38 f7 87 bd 44 65 1f 3e b5 eb 18 3e d3 28 16 3e
       -0.0663895 0.15565974 0.14933665 0.1466401
0003d0 22 08 23 be 94 2a ee 3d a4 37 1f 3e 00 b3 b1 bd
       -0.15921071 0.11629215 0.15548569 -0.0867672
0003e0 10 6c ce 3d 0e 86 de bd c0 6b 51 bd fa 17 ed 3d
       0.10079205 -0.10865413 -0.05112815 0.11576839
0003f0 a6 64 c6 bd b9 02 7c 3d 4c 95 ef 3d 0c 9f 27 be
       -0.09687166 0.061526034 0.11698398 -0.16369265

fc3.bias f4 [64]
000000 a2 5d b6 bd b6 5f cc 3d 6c e0 18 3e 37 f2 14 3e
       -0.08904578 0.09979193 0.1492936 0.14545523
000010 02 29 cf 3c ba 38 04 3d 03 37 f4 3d a5 e6 62 3d
       0.025288109 0.03228066 0.11924555 0.05539574
000020 09 43 fb 3d dc 7d dd bd 10 12 1b 3e 25 53 c8 3c
       0.12268645 -0.108150214 0.15143609 0.024453709
000030 08 85 33 3d 4e 39 af bd c9 fa 00 3e 20 ac 2e be
       0.04382804 -0.08555852 0.12595667 -0.17057848
000040 ae 68 e2 bb 50 f5 2d 3e 13 0e 24 be e8 81 61 3d
       -0.0069094514 0.1698811 -0.16020994 0.05505553
000050 0e 9f 0c be a9 a7 92 3d 0a 7b e1 3d 9e e2 ce bc
       -0.1373255 0.07160885 0.11009796 -0.025254544
000060 61 d1 a2 bd bc a0 08 3e 63 9c ac bd 5d 06 d6 3d
       -0.07950092 0.13342565 -0.08428266 0.104504324
000070 76 de 11 3e 1e b8 2c be f1 84 5b 3d 56 ec 8e 3d
       0.14245018 -0.1686711 0.05359358 0.06978671
000080 37 8b 9b bd 14 d4 c1 bc de 3e 8d 3d 6e 0e ef 3d
       -0.075949125 -0.023660697 0.068967566 0.11672674
000090 8c b3 15 be 96 b6 1b 3e 23 f2 2d 3d 8f ae 26 be
       -0.14619273 0.1520637 0.042467248 -0.16277526
0000a0 a1 be 21 3e 84 03 7c bd cf 66 af 3d 15 21 0d be
       0.15795375 -0.06152679 0.08564531 -0.13782151
0000b0 c9 7a db 3d f0 e2 a6 bd 15 c7 1b 3e 60 08 8e 3c
       0.10716779 -0.08148754 0.15212663 0.017337978
0000c0 b4 fd b6 3d bc 26 16 be 3b c2 00 bd 54 da 21 3e
       0.08935109 -0.14663213 -0.031435233 0.15805942
0000d0 1c 24 15 bd 6e 40 1b 3e a4 8a 29 3e 75 91 2c 3c
       -0.03641139 0.15161297 0.16556793 0.0105327265
0000e0 7a 26 0a bd 13 e5 58 bd 6a 29 d2 3b 3a 08 15 3e
       -0.0337281 -0.052952837 0.0064136283 0.1455392
0000f0 d2 3d f4 3d dd 66 15 3e a6 b1 96 3d a3 66 28 3d
       0.11925854 0.1459002 0.073581025 0.041113507

fc4.weight f4 [128, 64]
000000 f5 8e b9 3d 2a 54 3c bd e4 58 94 bd a7 1e 74 3d
       0.0906047 -0.045978703 -0.07243517 0.059599545
000010 6e f1 ff 3c aa 55 9a bb 75 ab 99 bd 6d 41 c7 3d
       0.031243052 -0.004709919 -0.07503406 0.09729276
000020 2e 4f da bd 3c b7 d8 bd bb 0f a1 3b da da b4 3b
       -0.106596336 -0.10581824 0.0049152053 0.005519253
000030 f1 e6 2c 3c d4 a6 c0 3b 59 50 d9 bd 9b 67 35 bd
       0.010553108 0.0058792625 -0.10611028 -0.04428826
000040 29 3f d1 3d 7e 6d 72 bd ac 1a cf 3d 3c 91 d5 3b
       0.10217125 -0.05918645 0.10112509 0.0065175574
000050 b7 bc c4 3d 37 6f b8 bb 0c 38 03 3d 27 4b 96 3d
       0.09606307 -0.005628492 0.032035872 0.07338553
000060 aa 88 a9 3d 54 e5 94 bd 5c 73 40 bd 3d 38 fb bd
       0.0827802 -0.07270303 -0.046985015 -0.12266586
000070 2e b1 3c 3d 6f 3a 4d 3c 19 cd 20 bc 66 69 f2 bd
       0.04606741 0.012526139 -0.009814524 -0.118365094
000080 df f7 c3 bd 24 b9 f9 3d 2f 98 9a 39 3d da 14 3d
       -0.09568762 0.12193516 0.00029486555 0.03634094
000090 65 1d 3a 3d 26 75 3f bd 58 9a b9 3d 78 85 bc 3d
       0.04543819 -0.04674258 0.09062642 0.09205145
0000a0 73 c5 9d bd a2 4e 94 3d 65 ab 65 3d 38 e6 a8 3d
       -0.07703676 0.072415605 0.056071658 0.08247036
0000b0 61 b2 82 3d 6f 20 2b bd 82 a0 52 3c 51 4b 71 bd
       0.06381679 -0.041778978 0.012855651 -0.058909718
0000c0 11 f5 c3 3d 5b ed 5d bd ff 78 4c 3c 36 37 22 bd
       0.09568227 -0.054181438 0.01248002 -0.039603435
0000d0 fa e7 8b 3c 32 6b 3f 3d 99 62 b8 ba a2 21 de 3d
       0.017078388 0.04673309 -0.001406747 0.10846259
0000e0 76 09 89 3d d4 88 2c 3d 29 8f ea bd 37 c6 97 3d
       0.06691258 0.042122677 -0.11453087 0.07410853
0000f0 91 f1 e8 3c aa b5 40 bd 8c 66 c7 3d 48 54 a4 3d
       0.0284355 -0.04704825 0.09736356 0.08023888
000100 30 88 8f 3c 06 c7 a2 3d d3 4a ff 3c 25 13 19 3c
       0.017520994 0.07948117 0.031163609 0.009342943
000110 20 5f ab bd b1 7e b5 bd 22 d6 94 3b f0 34 82 bd
       -0.08367753 -0.08862055 0.004542128 -0.06357753
000120 3b 11 88 3d fd aa cc bb 24 06 41 3d 14 4a dc 3d
       0.066439115 -0.0062459693 0.047124997 0.10756317
000130 86 ee f9 3d e0 f0 8e 3d 62 6f 97 bd 74 fe 09 bd
       0.12203698 0.06979537 -0.073942915 -0.03368993
000140 68 15 a1 bc 17 a8 0d 3d cf b5 e1 3d d0 0e ca 3c
       -0.019663528 0.03458413 0.11021005 0.024665266
000150 43 af 14 bd bf 41 58 3d 66 4b a1 bd 93 30 fc 3b
       -0.036299955 0.052797075 -0.07875709 0.00769622
000160 b2 70 93 bd 8c 25 f0 bd 93 fe 7e 3c af 56 3e bc
       -0.07199229 -0.117259115 0.015563625 -0.011617347
000170 15 2d cf 3d f1 d2 92 bc 29 45 40 bd 2e 8d 2c 3d
       0.101160206 -0.01792285 -0.046940956 0.042126827
000180 b4 10 c2 3d 0c bd c5 bc 5c 4f 60 3d a9 57 db 3b
       0.09475842 -0.024137996 0.054763183 0.0066937995
000190 e2 77 a7 bd ac 3d ad bd 34 56 0d 3c e8 54 12 bd
       -0.08177163 -0.084590286 0.008626509 -0.035725504
0001a0 bc 62 af 3d f7 f2 24 bc a5 f3 80 bd a0 8c 97 3d
       0.08563754 -0.010067693 -0.062964715 0.07399869
0001b0 ea a0 45 3d 8f 08 ba 3d c2 69 a3 bd bf 2a dd 3d
       0.048249163 0.09083664 -0.07979156 0.10799169
0001c0 90 01 e2 bd 3c 8f e2 3d c4 9e 97 bc d6 40 dc 3d
       -0.11035454 0.11062476 -0.018508323 0.10754554
0001d0 21 1a b1 bd 87 39 70 3d 3e 59 92 3d ac b3 88 3d
       -0.08647562 0.058648612 0.07145928 0.06674895
0001e0 20 01 e0 3d 43 26 da bd 58 2b a4 3d f0 9b a8 bd
       0.109377146 -0.10651829 0.0801608 -0.08232868
0001f0 82 41 8c bd 85 92 1d 3d 3f c5 ae bc 70 fa ce bc
       -0.06848432 0.03846981 -0.021334289 -0.025265902
000200 91 ed a7 bd 38 70 fb bd ce 3e ae 3c 7f 58 1f 3d
       -0.08199609 -0.122772634 0.021270182 0.038902756
000210 f4 ae e9 3d ab 55 83 bd 39 57 47 3b 51 9f 68 bd
       0.11410323 -0.06412824 0.003041698 -0.05679256
000220 14 5f a7 bd 38 cf 00 3d 58 c0 a1 3c 74 f9 d8 bc
       -0.081724316 0.03144762 0.019745037 -0.026486136
000230 d2 b8 02 3d c5 72 be 3d 9b 36 6c 3d af 87 8a bc
       0.03191454 0.09299234 0.057669263 -0.016910402
000240 cd 70 e1 bd e0 5b 9a 3d ab f1 db 3b dd 23 97 3d
       -0.11007843 0.07537055 0.0067121587 0.07379887
000250 74 9c 46 3d d0 4c af bd fb ef ea bd 24 64 a0 bd
       0.04848905 -0.08559573 -0.11471554 -0.078316
000260 9b ee 88 bd 7b 6f df bd 05 ba fa bd ad 35 95 bc
       -0.066861354 -0.10909935 -0.12242512 -0.018214071
000270 0f 53 90 bd 86 5a 51 3d 6d 4c 91 bd 5d 94 70 3d
       -0.07047092 0.05111172 -0.07094655 0.05873524
000280 e5 29 4a bd d7 66 da 3c d8 58 8b bd 02 f3 af bd
       -0.04935636 0.026660366 -0.06804055 -0.08591272
000290 7d c3 03 bc e0 de 88 bd 5a c2 c4 3d 86 74 e5 3d
       -0.0080422135 -0.06683135 0.09607382 0.11203866
0002a0 54 b1 e3 bd 41 0e 6a 3d 25 3c d9 3d 2b a4 e6 3d
       -0.11117807 0.0571425 0.10607175 0.11261781
0002b0 c2 55 d5 bd 01 58 41 bd 31 f7 92 bd 20 df aa bd
       -0.10416748 -0.047203068 -0.07176054 -0.08343339
0002c0 c5 69 8b 3d 5f 52 00 bc 56 ce fc 3d b3 65 8d 3c
       0.06807283 -0.007832139 0.12344043 0.017260408
0002d0 99 f1 9b 3d 05 47 ba 3d 3d 7a a1 3b 7e d8 c0 3c
       0.076144405 0.09095577 0.004927902 0.023540732
0002e0 bd 2c ca bd a6 bc b4 3c d2 42 68 bd 86 44 a4 3c
       -0.098718144 0.02206261 -0.05670435 0.020052206
0002f0 65 b6 bc 3c 52 cc 93 bd cc ff 84 bd 09 fb 17 bd
       0.023036191 -0.072167054 -0.06494102 -0.03710464
000300 91 cf c7 bd ac 17 a9 bc d2 77 f6 bd 92 34 7d 3d
       -0.09756387 -0.02064117 -0.12034573 0.061817713
000310 b0 12 e9 bc 4f fb ae bd 5c cc 81 3c 6b ac a0 bd
       -0.028451294 -0.08544027 0.015844516 -0.07845386
000320 89 b0 1d bc 26 24 0d bd 4c 26 b0 3d dc 14 33 3b
       -0.009624609 -0.034458302 0.086010545 0.0027325666
000330 9d 9e cc 3d 3c 52 9d 3c 77 c0 ee 3d 9b cb c0 3d
       0.099911906 0.019204251 0.116578035 0.09413835
000340 0c dc bd bd 71 5f fc bd 55 66 b5 bd 19 78 e2 3d
       -0.09270486 -0.123228915 -0.08857409 0.11058063
000350 3f c6 4e 3d a8 4c cf 3d 10 a0 91 3d 21 48 d2 bc
       0.05048203 0.10122043 0.071106076 -0.02566916
000360 c7 4d 32 3d ab fa bc 3d fd f0 dd 3d ba cc 43 3d
       0.043531206 0.092274986 0.108369805 0.047802664
000370 41 c3 fa bd ee 7a 04 3d fe b9 8f 3d 21 d6 80 3d
       -0.12244273 0.032343797 0.07017897 0.06290842
000380 49 53 d2 bd 0a c8 0d bd 45 97 c5 3d b7 e8 45 bd
       -0.10269792 -0.0346146 0.09647993 -0.048317637
000390 2f 60 a1 3d fe f5 96 3d a8 80 d0 3b 51 95 4c 3d
       0.07879674 0.07371138 0.0063629933 0.049947087
0003a0 5f e4 54 bd 58 44 8a bd 90 fe de bd ad 74 13 bd
       -0.051975604 -0.06751317 -0.10888398 -0.035999943
0003b0 57 b9 aa 3d d3 11 db bd 78 cf 50 3d 28 b0 43 3d
       0.08336132 -0.10696759 0.050979108 0.047775418
0003c0 d5 f7 b6 3d 85 c4 d6 3d b3 57 7e 3c cf 6a 97 3d
       0.08933989 0.10486702 0.015523839 0.07393419
0003d0 df fd 97 3d a7 43 a9 bc 67 80 53 bc 64 00 8f 3d
       0.07421469 -0.020662142 -0.0129090315 0.069824964
0003e0 d0 55 e2 bd fa 10 84 3d e8 6c 56 3d ea e0 29 bd
       -0.11051524 0.064485505 0.052349955 -0.04147426
0003f0 14 41 a5 bd 14 82 7e 3d f5 05 21 3d 77 77 df 3c
       -0.08069053 0.06213577 0.03931232 0.027278645

fc4.bias f4 [128]
000000 57 20 7c bc ab ad 02 3c cb e9 e5 bb 58 3a f3 3c
       -0.01538857 0.007975976 -0.0070163957 0.029690906
000010 18 df 12 bd 6c be aa bd 57 db b8 3d 15 6a b5 3d
       -0.03585729 -0.08337101 0.09026211 0.08858124
000020 dc e4 1e 3d 43 6c 88 3d 6e 83 cf bd 02 e1 8b bd
       0.038792476 0.06661274 -0.1013249 -0.06830026
000030 54 07 ac 3d 7c d5 21 3d d0 f2 27 3d 1d 6a aa bd
       0.08399835 0.039510235 0.04100305 -0.08321021
000040 fb 7b ae bd 6c 9d 8e bd a1 bb 8d 3d f9 b3 ec bd
       -0.08519741 -0.069636196 0.06920553 -0.115577646
000050 e2 d9 f7 bd d3 f1 96 3d 46 d2 c2 bd 96 a1 3e bd
       -0.12102105 0.07370343 -0.09512763 -0.04654082
000060 a4 86 21 3d 81 f7 6f 3b 29 ef 46 bd 3f c0 cb 3c
       0.039435044 0.003661603 -0.048567925 0.024871944
000070 b3 2c e5 39 fa ea ce bc c5 1a 41 3c 7f 34 b3 bd
       0.00043711587 -0.02525853 0.0117861675 -0.08750247
000080 8a 82 0f bd 8c 15 50 bd e0 38 0f bd 96 65 ad 3d
       -0.0350366 -0.0508018 -0.03496635 0.084666416
000090 7f 74 1b 3b 46 29 d7 3d 1e 00 9f bd 62 26 17 3d
       0.002372056 0.10505919 -0.07763694 0.03690184
0000a0 7d f3 ae 3d 15 ab 6a bc e7 88 ff bd 55 d4 f4 bc
       0.085425355 -0.014323016 -0.12477284 -0.029886404
0000b0 e1 7e 01 bd 64 7c d0 bc e4 e4 a5 bd 24 c7 3b 3d
       -0.03161514 -0.02544994 -0.08100298 0.045844212
0000c0 85 d7 d2 3d 51 82 b5 bd 16 ce 8b 3d 2a 7d 8f 3c
       0.10295013 -0.088627465 0.06826417 0.017515738
0000d0 67 26 ca 3d 5a 3a 7c 3d 8b 27 a2 3d 00 c0 b7 3c
       0.09870606 0.061579086 0.079176985 0.02243042
0000e0 57 a9 c3 3d fc 0b 99 bd b7 15 c7 3d 84 b7 7a bd
       0.095537834 -0.07472989 0.09720939 -0.06121017
0000f0 1c a5 42 3d 1f 9a 0e 3d 20 dd e2 bd cf 8f b5 3d
       0.04752074 0.03481495 -0.110773325 0.0886532
000100 55 f5 b2 bd b7 b2 f9 bd 67 46 4a 3d 00 7c 79 ba
       -0.087381996 -0.1219229 0.049383547 -0.00095170736
000110 8c 38 36 bd b4 25 e4 bd d1 1d e7 3a 9c 35 81 3c
       -0.04448752 -0.11140004 0.0017632787 0.015772633
000120 05 1b d8 3d 88 54 47 3c 52 cb a7 bd 23 8a 42 bd
       0.105520286 0.01216615 -0.08193077 -0.04749502
000130 f6 c1 ca 3d b4 01 c6 3d 7f 3d ad bd 4a 28 01 3d
       0.09900276 0.096682936 -0.08458995 0.031532563
000140 1c ca 66 bd 56 26 e5 3d c0 97 2f 3c 51 c0 c8 bd
       -0.05634509 0.111889526 0.010717332 -0.098023064
000150 2a f9 31 3d 3a 40 30 3c 76 78 27 3b be d3 41 bd
       0.043450512 0.0107575 0.0025553978 -0.047321074
000160 0f 86 e8 ba ca af 99 bd 91 f4 b2 bd 33 a4 cd bd
       -0.0017740148 -0.07504232 -0.087380536 -0.10041084
000170 a1 fd 49 3d 3b 72 80 bd 3e a9 e8 3b 3b 36 c2 3c
       0.049314145 -0.06271788 0.0071002534 0.0237075
000180 ec f0 fa 3d 8f a0 1a 3d 5a 56 61 3c c9 6a f1 bd
       0.122529835 0.037750777 0.013753498 -0.11787946
000190 8b 6a 91 3c 78 4f 53 bd 60 a7 33 bd 73 03 ee bc
       0.017750999 -0.05158946 -0.043860793 -0.02905438
0001a0 a4 40 a1 3d d8 15 12 3d a2 2e 87 3d a9 3c eb bd
       0.07873657 0.035665363 0.066006914 -0.114861794
0001b0 f6 5f ad 3d 2e 42 2e bb ee 88 c5 bd 6c 6c 0e bb
       0.08465569 -0.002658974 -0.09645258 -0.0021732105
0001c0 87 83 62 3d a5 6e 34 3c 03 40 47 3c 91 f2 ff 3d
       0.055301215 0.011012708 0.012161258 0.12497438
0001d0 e5 a3 66 bd 2d dc 44 bd 69 7f 65 3d 34 d4 85 3b
       -0.056308646 -0.04806154 0.05602971 0.0040841345
0001e0 a2 70 b2 bd f5 81 a1 bd 28 c5 68 bd d5 66 a6 bd
       -0.08712889 -0.078861155 -0.056828648 -0.081250824
0001f0 42 b9 f1 3c 94 3c b6 bc ae 2a bb 3d d6 bc ac bd
       0.029507283 -0.022245683 0.09139 -0.08434455
