models_submitted/train_acc-CNN_2L_Drop_R400.pt (torch, 160903 bytes, 22 tensors)

conv1.weight f4 [32, 1, 1]
000000 f1 43 06 bf 88 5d 2b bf 17 eb 16 3e d0 d9 c7 3e
       -0.5244742 -0.6693959 0.14738117 0.39033365
000010 91 26 05 3f bf 1b 0d bf 9c 6e 65 be f5 00 81 3b
       0.5201197 -0.5512046 -0.22405475 0.0039368817
000020 19 8f d8 3d 13 b1 51 be 58 26 38 3f f7 05 6a 3f
       0.10574169 -0.20477705 0.7193351 0.9141535
000030 5f c3 0e bf e4 5e a4 3e 82 ef 2f bd e0 48 21 3f
       -0.5576686 0.32103646 -0.04295302 0.63001823
000040 47 73 87 bb f8 9c 77 bc 3f 3a f7 3e 0c cb 59 bf
       -0.004133615 -0.015113108 0.48286626 -0.8507545
000050 44 fa 00 bd e5 8f 91 be fb b2 45 3f 52 e7 b1 3d
       -0.031488672 -0.28430095 0.7722623 0.08686699
000060 88 ab 00 bf f2 17 09 3f 4c 89 61 3f cc 68 1a 3e
       -0.50261736 0.5355216 0.88100123 0.1507904
000070 78 bf 40 3f d1 9f 57 be 24 e8 98 3e 8f 4b 39 3f
       0.7529216 -0.21057059 0.2986461 0.7238092

conv1.bias f4 [32]
000000 d0 9d 1f be 8d aa 5b 3e 9b aa 87 3e 65 6b 40 bf
       -0.15587544 0.21451779 0.2649735 -0.7516387
000010 bd d1 a1 be 90 03 61 be c3 15 f2 be a2 08 0b be
       -0.3160533 -0.21974015 -0.47282228 -0.13577512
000020 02 68 06 bf 4c 90 70 3f d4 7f 61 bd 2b 7d 62 bf
       -0.52502453 0.9397018 -0.055053547 -0.8847224
000030 c9 2d 26 bf bb 12 1a 3f fc 15 85 3e 4b 3b 91 be
       -0.6491361 0.6018483 0.25993335 -0.2836555
000040 bd 1a 0c 3f f0 85 7f bf 33 54 c1 3e 64 af f6 3e
       0.547283 -0.9981375 0.3775955 0.48180687
000050 88 aa 8c 3c 56 23 2f 3f 59 10 16 3c 40 61 02 3f
       0.01717116 0.68413293 0.009159171 0.5092964
000060 30 6a 18 3f 78 40 30 3e c1 53 c5 bd c6 1d 1d 3f
       0.5953703 0.17212093 -0.096351154 0.61373556
000070 3a 4a 41 3e 53 82 c6 3e 32 eb d8 3e 9f e3 06 3f
       0.18875971 0.38771304 0.4236694 0.5269107

conv2.weight f4 [64, 32, 1]
000000 f0 0d 8a bd c7 ee 73 3d 46 5a 2a be ef be 2e bd
       -0.067409396 0.059553888 -0.16635999 -0.042662557
000010 4f 50 1c 3e 3c 54 30 be 4d a9 27 3d 01 18 be bc
       0.1526501 -0.17219633 0.040932942 -0.023204805
000020 aa 23 e9 bd ca 3b 84 3d 9a 34 a9 3d 11 a2 ce 3d
       -0.113837555 0.06456716 0.08261986 0.100895055
000030 4f d7 16 be 7f f5 b7 bd bf 2c 1b bc de 66 34 be
       -0.14730571 -0.089823715 -0.0094711175 -0.17617366
000040 ec 98 b7 3d b9 fd 35 3d 5f 02 30 3e 95 95 04 3e
       0.089647144 0.044431422 0.17188405 0.12947686
000050 7b 49 f3 bd d4 2e e9 bd 29 da f6 bd 24 f2 f2 3d
       -0.1187925 -0.11385885 -0.120533295 0.11862591
000060 60 9c 27 3e 30 63 8d bd 53 3c b0 bd 24 4d 84 bd
       0.16368246 -0.06903684 -0.08605256 -0.06460026
000070 1f 8c f9 3d 96 9a 89 3c 36 a9 3e bd 17 03 0c bd
       0.12184929 0.016797345 -0.04654809 -0.034182634
000080 86 76 16 3e 3d c8 a1 3d 96 80 04 3c 5f 20 11 3e
       0.1469365 0.078995205 0.008087298 0.14172505
000090 9c ed a2 3b e0 4e 0f be 60 25 bc 3d c8 9e 14 3d
       0.004972173 -0.13994932 0.09186816 0.036284238
0000a0 a6 05 29 3d ed 76 eb bd d6 49 e8 bd 75 98 f2 3d
       0.041265152 -0.11497293 -0.11342208 0.11845485
0000b0 ff 93 0b 3e cd 7b 44 bd 77 d6 6f 3c 68 22 d8 3d
       0.13630675 -0.047969628 0.014638535 0.105534375
0000c0 99 b6 a9 bc aa 3d 79 3d a6 66 f2 3d 6c f1 a0 3d
       -0.020716952 0.060849823 0.11835985 0.078585476
0000d0 c0 ea 4f 3c ec 97 93 bb 3a 5a d0 bd 92 31 88 bd
       0.012690246 -0.0045041945 -0.10173459 -0.0665008
0000e0 9b 60 67 bd 38 ae 2b be 7f 7e bd bb d3 2c 23 3e
       -0.056488615 -0.16765678 -0.005782902 0.15935068
0000f0 7d 8a 02 bd 30 3c 07 be 9a 50 22 be b2 50 1f be
       -0.031870354 -0.13206553 -0.1585106 -0.15558127
000100 25 ed 6b 3d 17 b9 2c bd 15 4d b8 3d 19 92 76 bd
       0.057599206 -0.042168703 0.08999077 -0.060197923
000110 67 68 bf bd 70 5d 8b 3d aa 98 df bd b9 93 2f be
       -0.09346085 0.06804931 -0.1091779 -0.17146195
000120 ef df 8c 3d 57 d2 bb 3b 9c 9c a6 bd b4 57 18 3e
       0.068786494 0.0057318616 -0.081353396 0.14877206
000130 f8 6b 9f 3d 53 b8 8e 3d d3 4c ce 3d f8 3d 02 be
       0.07784265 0.06968751 0.10073247 -0.12718952
000140 35 dd d4 bc c3 1e a2 3d 62 e7 f8 3c 7f 42 40 3d
       -0.025984386 0.079160236 0.03038377 0.046938416
000150 4c 0a 6e bd 82 b9 01 bd 00 ef 95 bd b5 54 59 3a
       -0.05811529 -0.031671055 -0.07320976 0.00082905154
000160 97 39 82 bd 5d 5a 47 bc 16 81 32 be 9b c1 0c 3e
       -0.06358641 -0.01216754 -0.17432055 0.1374573
000170 ce d0 01 be 8b 53 77 3d 29 af 97 bc 03 62 09 3e
       -0.12677309 0.060382407 -0.01851614 0.13416295
000180 77 95 83 3d a9 10 92 bc 23 b0 16 3e 65 da 0f bd
       0.064249925 -0.01783021 0.14715628 -0.035120387
000190 51 22 06 3e e1 91 25 be f6 43 e4 3d 29 69 d0 bd
       0.13099028 -0.1616893 0.11145775 -0.10176308
0001a0 16 f8 1f be 06 97 ef bb 1e e1 05 3d 9d a9 08 3e
       -0.15621981 -0.0073117046 0.03268539 0.13345952
0001b0 02 5d 56 3d f2 c6 94 bd af a9 d9 3d cf 77 79 bc
       0.052334793 -0.07264508 0.10628068 -0.0152263185
0001c0 63 0a ce bc e1 1d e4 bd 07 4d b4 bb 20 a0 96 3d
       -0.025151437 -0.111385114 -0.0055023464 0.0735476
0001d0 27 9b ce 3d c7 a0 d2 3d 02 fd 07 be 1c 12 07 3e
       0.10088187 0.10284572 -0.13280109 0.13190502
0001e0 20 24 13 be 16 4c f9 3d a6 39 2f be 88 ce b9 3d
       -0.1436925 0.12172715 -0.17111835 0.09072596
0001f0 a6 b6 fd 3d d8 d0 06 3e 92 58 26 3e 86 f4 b6 3d
       0.12388353 0.13165605 0.16244724 0.08933358
000200 ab ed 92 3b e1 e0 8b 3d a1 06 9d 3d 94 ba fb bd
       0.0044838986 0.068300016 0.0766728 -0.12291446
000210 2a 28 18 be a9 27 d4 bd 28 41 5e bd d7 f8 1a be
       -0.14859071 -0.10359127 -0.054261357 -0.15133987
000220 46 88 f3 bc 91 31 ca 3d e8 ba 1d be 29 f0 04 bd
       -0.029728066 0.09872735 -0.1540333 -0.032455597
000230 86 11 16 be 81 81 a4 bd 18 b4 c2 bd 50 f9 0f be
       -0.14655122 -0.080325134 -0.095070064 -0.14059949
000240 ad a9 11 3e 0f 8c 16 be 54 22 0a be 4f 2c 38 3b
       0.14224882 -0.14701866 -0.13489658 0.0028102582
000250 66 e3 16 3e 76 34 f3 bd be 1d 62 bd 05 cb d6 3d
       0.14735183 -0.118752405 -0.055204146 0.10487942
000260 bd a7 19 bd b7 39 04 3e 9a 42 ab 3d 29 bf 04 be
       -0.037513483 0.12912641 0.083623126 -0.12963547
000270 c9 36 f8 3d f5 0e 29 be 2d 12 33 3c 06 08 ca bd
       0.121198244 -0.16509612 0.010929626 -0.098648116
000280 cf 7b 24 3e 73 9e 06 be 25 f3 29 be 49 e8 1c be
       0.16062854 -0.13146381 -0.16596659 -0.15322985
000290 55 da 7f 3d 6a e8 ec bd 7b d5 a0 bd b9 36 26 3e
       0.062464077 -0.11567767 -0.07853218 0.16231813
0002a0 7b f3 04 3e 30 84 2d be c3 b0 6e 3b 9d 9e fa bd
       0.12983505 -0.16944957 0.0036421276 -0.12237284
0002b0 6e e0 a6 3d ec fd 9f bd cd 75 c1 3d 02 79 a7 3d
       0.08148275 -0.07812104 0.09446297 0.08177377
0002c0 1a b0 2f bc 2c 29 15 3e 81 e1 f7 3d 6b 92 9c bd
       -0.010723138 0.14566487 0.12103558 -0.076451145
0002d0 5f be dd bd 4c b1 dd 3d dd 93 69 3d 7c 30 10 3e
       -0.10827326 0.10824832 0.05702578 0.14080995
0002e0 fb 9f 4d bd 86 78 22 3e de 89 7f 3d e7 0c 92 bd
       -0.050201397 0.15866289 0.06238734 -0.07131367
0002f0 0a 01 b1 bd 32 6e 1d be 7a 7a 14 3e af b9 e0 3d
       -0.08642776 -0.15374067 0.14499846 0.10972916
000300 be 87 ff bd 8a d7 94 3d 7d 0d 25 3e 82 7d e5 3d
       -0.12477063 0.07267673 0.16118427 0.11205579
000310 7c 84 9f bc 30 72 e1 3d 94 9c 0b 3e 64 31 e0 3d
       -0.019472353 0.11008108 0.13633949 0.109469205
000320 75 d7 33 3e c9 83 71 bd 83 a2 b2 bd cc 34 27 3e
       0.17562659 -0.05896357 -0.08722403 0.16328734
000330 67 fb 0f 3e 5d 36 0d bd 92 27 1c 3e 25 b1 da bd
       0.14060746 -0.034475673 0.1524947 -0.10678319
000340 94 48 81 3d 9e ce 9e bd c4 57 07 be 0b 7c 1c 3e
       0.06312671 -0.07754253 -0.13217074 0.15281694
000350 b6 e5 1d bd 7a 41 01 3e 2d c6 a1 3d 2c 9d ce 3c
       -0.038549148 0.12622634 0.07899127 0.02522143
000360 a6 60 58 bb 47 e6 04 be 8d e5 32 3c d6 83 1b bc
       -0.0033016591 -0.12978469 0.010918987 -0.009491881
000370 5f 03 d1 3c 3e be 28 3e 2d 85 15 be 9a 76 82 3d
       0.025514303 0.16478822 -0.14601584 0.06370278
000380 e5 56 00 3e 80 c9 47 3d 2e a8 18 3e 38 7d 85 3d
       0.12533148 0.04877615 0.14907905 0.06518024
000390 00 1f b5 3d b9 03 5d bd f9 36 2d be fc 8d 05 be
       0.088438034 -0.05395863 -0.16915502 -0.13042444
0003a0 98 2f 2e 3e 6f 44 0e be 74 70 3a 3d 16 89 09 3d
       0.17010343 -0.13893293 0.0455174 0.033578
0003b0 18 16 ac bd cb 60 89 bd 11 72 36 bd 1b 59 85 3d
       -0.084026515 -0.06707915 -0.044542376 0.06511136
0003c0 04 c4 2e 3e 9f 65 5b 3d 97 35 2c be aa e6 35 bd
       0.17066962 0.05356371 -0.16817318 -0.04440943
0003d0 5d 32 e0 3d 0d 40 43 3d 7d 8e 0a be 2c 41 de 3c
       0.10947106 0.047668505 -0.13530917 0.027130686
0003e0 c3 c7 d7 3d e6 ec 0a be 13 dd 17 bc 47 86 19 3e
       0.105361484 -0.13566932 -0.009269017 0.14992629
0003f0 20 54 08 3c 53 43 39 3d ca e5 06 3e 10 85 c0 3d
       0.008320838 0.04523022 0.13173595 0.0940038

conv2.bias f4 [64]
000000 26 8a 1c be ab 87 f9 bd 2c f5 2a 3d c6 e4 23 bd
       -0.15287074 -0.1218408 0.04173772 -0.040013097
000010 aa e6 a2 3d f8 65 24 bd 02 bf ce 3d 6f 00 0e 3e
       0.07954152 -0.040136307 0.100950256 0.13867353
000020 3b d6 9e 3d 65 ca e9 bd b1 4a 16 be 21 9d a4 3d
       0.07755705 -0.11415557 -0.1467693 0.080377825
000030 3d cb 15 be 2e 19 00 3e 76 12 1c 3e 5b 85 17 be
       -0.1462831 0.12509605 0.15241417 -0.14796965
000040 c5 81 a0 bd f1 a1 e2 bc 43 13 d0 bd 64 c0 ed bc
       -0.078372516 -0.02766511 -0.10159924 -0.029022403
000050 06 37 c4 bd 1a f3 92 3d 36 14 bf 3c 46 fa c4 bc
       -0.095808074 0.07175274 0.023325067 -0.02404512
000060 13 99 ed bd ef d8 14 bc bc 6f c6 bd 44 90 10 3e
       -0.11601462 -0.009084924 -0.096892804 0.14117533
000070 24 c2 df 3d 3f 10 f0 3d a9 8d e8 bd 59 fe a1 bd
       0.10925701 0.11721849 -0.113551445 -0.07909841
000080 d4 15 27 be d7 79 1c bd bd 1c db 3b bb f2 8d 3d
       -0.1631692 -0.038202133 0.0066867755 0.06931063
000090 2c 45 e9 bd cf fd c9 bd 1f 6f 31 3e 34 d1 30 3d
       -0.113901466 -0.09862863 0.17327546 0.04316826
0000a0 df 26 0f bd 90 98 ce 3d 35 c0 03 be 0b d1 f8 3c
       -0.03494918 0.10087693 -0.1286629 0.030373117
0000b0 8a ab 09 3e 3d 88 91 bd 4c 4f fd 3c a3 00 e2 3d
       0.13444343 -0.071060635 0.0309216 0.11035278
0000c0 65 ab 1a 3e 77 da 03 bb 63 c1 6e 3d ef bf 16 3e
       0.15104444 -0.002011923 0.058289897 0.14721654
0000d0 ed cc 8b bd 78 1a 24 be 3c 04 a4 bc f8 bc 8c bd
       -0.06826196 -0.16025722 -0.02002155 -0.068719804
0000e0 f3 e2 2e 3e 98 23 d8 3a 8d c9 d0 3d df e1 33 3e
       0.17078762 0.00164901 0.10194693 0.17566632
0000f0 e8 2f e3 bd d0 da d0 3c 74 f2 14 3e d6 70 09 3e
       -0.11093122 0.025494963 0.14545614 0.1342195

fc1.weight f4 [16, 896]
000000 3d 0d 04 bd 56 46 03 bd bd 0b c8 bb 18 60 4d bc
       -0.032239188 -0.0320495 -0.006104915 -0.012535118
000010 6e 23 99 3c 05 60 a4 3c 70 9f ab 3b 3a b7 ff 3c
       0.018693652 0.020065317 0.0052375123 0.031215299
000020 fd 2c 2f 3c a2 7b a7 3b 0f 27 63 3c 19 85 81 bc
       0.010691878 0.0051111737 0.013864293 -0.015810536
000030 68 48 c5 3c 2d 0c 9e 3c f1 87 c7 b8 4e f3 b7 3c
       0.024082378 0.019292915 -9.5143805e-05 0.022454884
000040 92 7d f5 bc a3 a3 f3 3c 8c 40 02 bd 09 dd 63 bc
       -0.029967103 0.029741114 -0.031799838 -0.013907679
000050 67 d3 55 3b cd 60 de bc 13 48 95 3c 53 4d 01 bd
       0.0032627226 -0.027145768 0.018222844 -0.031567883
000060 2d 2d 92 3a c5 26 25 bc d0 b5 8d bc 04 51 76 bc
       0.001115238 -0.010080044 -0.017298609 -0.015033964
000070 70 64 00 bd f6 e6 04 3d 37 a8 13 3c 2f 6f 97 3c
       -0.031345785 0.032446824 0.0090122735 0.018485634
000080 ed 85 aa 3c e2 7e 25 3c 69 36 05 bd 33 43 a7 3c
       0.020815814 0.010101052 -0.032522593 0.020417785
000090 2a 13 ef bc 71 db 6f bc 53 ce e3 3a 6a 9c 64 3c
       -0.029183943 -0.014639721 0.0017380215 0.013953308
0000a0 e0 f6 ed bb 4a de 9b 3c 6b 05 26 3c b7 4b 8c 3c
       -0.007262096 0.019026894 0.010133128 0.017125947
0000b0 74 b0 1d bc 2d 93 ee 3c 5d fd 5a bc 34 bc 7c bb
       -0.009624589 0.029122913 -0.013366071 -0.0038564326
0000c0 c0 98 05 bd 7d f5 ca bc ce 0e 95 39 da c8 0d bc
       -0.032616377 -0.024775261 0.00028430525 -0.008653844
0000d0 5b e4 0a 3c 5a 8b cc 3c 2f 5b 6c bb 47 fa e9 bb
       0.008477296 0.024968792 -0.0036065092 -0.007140431
0000e0 a2 2e 20 bd 5b bc e5 bc 7c 43 27 3b 4c f2 e6 bc
       -0.039106973 -0.028043916 0.0025522402 -0.028191708
0000f0 a2 02 87 3b 5d de 23 3c 23 db 9d 3c 11 6f a3 3c
       0.004120187 0.010001746 0.019269532 0.019950422
000100 c4 84 06 3d bc 2c ee 3c df 89 f6 bc 83 f7 2e bb
       0.03284146 0.029074065 -0.030095039 -0.0026697821
000110 a5 f7 f5 3c b6 06 6e bc 6a 06 f8 3c c1 02 8e 3c
       0.030025313 -0.014527967 0.030276496 0.017335298
000120 69 94 24 3c cc 4f ac 38 52 1c 19 3c be c0 e6 3c
       0.010045149 8.2164624e-05 0.009345131 0.028168079
000130 db 79 c0 3c 88 a5 70 bc 28 7e 8a bc 87 a7 80 bc
       0.023495605 -0.014687903 -0.01690586 -0.015704883
000140 79 d8 6d 3b d3 21 35 3c 46 9e f3 3c dc a4 0a bd
       0.0036292358 0.011055428 0.029738557 -0.03384863
000150 2e 8a f1 3c 7d de 79 3c de b8 7a 3c f1 52 d0 bc
       0.029484835 0.015250799 0.015302865 -0.025430175
000160 15 f4 09 bd 45 f4 e7 3c f6 3c 03 bd 35 55 17 3a
       -0.03368004 0.028314719 -0.03204056 0.00057728897
000170 01 e4 83 bc 98 df b3 bc 0f 1b 08 bd 9f c3 c3 3c
       -0.016099932 -0.021957204 -0.03322893 0.02389699
000180 81 84 af bc 3d 19 ce bc 95 4b ba bc c0 1b c1 3c
       -0.021425487 -0.025158519 -0.022741118 0.023572803
000190 b0 d7 95 3c d0 84 84 3b 8b 87 ad 3b 14 54 e0 3a
       0.018291324 0.004044153 0.005295699 0.0017114901
0001a0 6b 47 1e 3c a1 a2 81 3c 9b f4 ac 3b 31 d4 fb bc
       0.009660582 0.015824618 0.0052781827 -0.03074083
0001b0 fe 38 8e 3c 78 a4 82 bc 02 11 68 bc b6 02 06 bd
       0.01736116 -0.015947565 -0.014164211 -0.03271743
0001c0 ca a9 b7 bc be 0f 02 3c 0d 1f 00 bd 97 0d 06 bd
       -0.022419829 0.007938324 -0.031279612 -0.032727804
0001d0 b7 98 06 3c 0a 35 6d 3c ae 89 b1 bc 94 d6 e6 bc
       0.008215121 0.0144779775 -0.021672096 -0.02817849
0001e0 87 4e cf 3b 6f 65 cf bc 07 2e c0 3c 17 77 eb 3c
       0.0063265 -0.025316922 0.023459448 0.02874331
0001f0 b9 25 00 3d 98 60 a4 bc e4 4a df bc 46 df a9 3c
       0.031285975 -0.02006559 -0.02725739 0.020736348
000200 e9 72 fe bc 78 a0 2c bc 3e 80 52 3c bf 32 37 3c
       -0.031060653 -0.010536306 0.012847958 0.011181532
000210 75 90 d9 3c b8 78 65 bc 1c 61 ca bc ac 4a 96 3c
       0.02655814 -0.014005832 -0.024704508 0.018346153
000220 77 63 df 3c 70 c8 ec bc 88 b1 ef bc 93 6b bc bb
       0.027269108 -0.02890417 -0.029259458 -0.0057501285
000230 86 45 ed bc 30 53 d0 3c 50 82 b2 3c d6 5a a1 bc
       -0.028963815 0.025430292 0.021790653 -0.019696634
000240 37 78 e1 3c 58 0c cd bc f6 2b af 3c 6b 19 9a 3c
       0.027523143 -0.0250303 0.021383267 0.018810948
000250 94 6a df bb 88 49 a9 3b 2a 3e bb bc ac 9d 97 3c
       -0.006818125 0.0051662363 -0.02285679 0.018507801
000260 b4 e0 1e bb c4 bb 0c 3c f7 19 04 3d a7 d5 05 3c
       -0.002424282 0.008589689 0.032251325 0.0081686145
000270 80 cb 82 bc c5 f1 92 3c a7 59 ff b8 a7 ff c7 bc
       -0.015966177 0.01793755 -0.000121760466 -0.024413897
000280 67 76 03 bd 0f 5d 82 bb c7 86 ff 3b 5d ab 4b 3c
       -0.03209534 -0.0039783786 0.007798049 0.012430993
000290 ca e0 ab 3c 9d 7e 18 b9 4a 3b 73 3c be f7 52 3b
       0.020981211 -0.00014543017 0.014845679 0.0032191123
0002a0 77 c9 08 bd c8 6d e6 bc ae ed b2 3b b5 ef c6 b9
       -0.033395257 -0.02812852 0.0054604625 -0.000379441
0002b0 4e f2 a1 3c 80 5a e6 3b c5 3c 87 3c 7a 44 f4 bb
       0.01976886 0.0070298314 0.01650847 -0.007454452
0002c0 01 12 68 3c f1 eb 7d 3c c2 24 a8 3c 73 04 ff 3c
       0.014164449 0.015498147 0.02052534 0.031130051
0002d0 fc 41 9b bb 90 57 30 b9 2a 04 2f 3c ad d3 d6 3c
       -0.0047380906 -0.00016817288 0.010682145 0.026223982
0002e0 48 0a 2e 3b 16 36 4b 3c 55 83 8c bb cc b2 62 3c
       0.002655642 0.012403032 -0.004288117 0.013836574
0002f0 c8 65 07 3c c2 48 32 3c 24 18 2c 3b 46 22 c0 3c
       0.008264013 0.010881605 0.0026259506 0.023453843
000300 88 66 2d ba 13 6b 42 3b 1c 1b ea bc db e8 6d bc
       -0.00066147046 0.0029665872 -0.02857738 -0.014520849
000310 5c 06 56 bb b6 7f f5 3c 80 7a a7 bc 2a 23 f2 bc
       -0.00326576 0.029968124 -0.020444155 -0.029557783
000320 22 ee 9b bc 1c d5 36 3c 48 73 03 bd 19 d8 59 3c
       -0.019034449 0.011159208 -0.032092363 0.013296151
000330 e1 53 5e bc 96 e9 a0 bc b4 45 96 3c ba db c8 3c
       -0.013569803 -0.019642632 0.018343784 0.024518836
000340 b6 67 b4 3c fd fa 91 ba 8d f0 ac 3c cc 7d 74 3c
       0.02202211 -0.0011137422 0.021110797 0.01492257
000350 cd cf 34 3c 66 fd 7f 3c 30 da bb 3c f5 bf e5 3c
       0.011035872 0.01562438 0.022931188 0.028045634
000360 7c 60 cb 3c 95 4c 8f 3b ee 89 f0 bc 96 bb 73 3c
       0.02482628 0.004373143 -0.029362645 0.014876267
000370 96 bc 00 bd 04 bb 09 3c 01 31 91 bc 72 82 34 bd
       -0.03142985 0.008406404 -0.017723562 -0.044069715
000380 1b 4b 92 bc 94 08 b6 3c 2e bf f5 3b fc d5 44 bc
       -0.017858079 0.022220887 0.007499597 -0.0120139085
000390 59 c1 ea 3a d4 8b 0f 3c 6a c7 ac b9 47 5b ac bc
       0.0017910405 0.008761365 -0.00032954972 -0.021039618
0003a0 f0 e4 e2 bb e0 6a 87 3c e9 42 0a 3c e7 59 b8 3c
       -0.006924264 0.016530454 0.008438804 0.022503806
0003b0 b0 e2 df 3c 26 94 71 bc 45 1f c6 bc a9 0d b5 bc
       0.027329773 -0.014744794 -0.024184832 -0.02210124
0003c0 95 89 d5 3c 7e 26 d6 3a f3 a8 e1 3c 14 2a fd bc
       0.02606658 0.0016338376 0.027546382 -0.030903853
0003d0 9a c6 02 bd fa 4e 9c 3c 61 da 33 bc e5 e7 54 3c
       -0.031927682 0.019080628 -0.010977359 0.012994741
0003e0 4a 31 c2 bc 46 8d b5 bb 44 d6 c1 bc 13 68 84 bc
       -0.023705143 -0.0055405227 -0.02366174 -0.016162908
0003f0 91 a2 0e bd 90 97 18 3b 59 6f 69 3c 44 8f 8d bc
       -0.034823004 0.0023283698 0.014247739 -0.017280228

fc1.bias f4 [16]
000000 93 af 4f bc a1 6b 16 3b 46 d3 93 bc fd 12 b7 bc
       -0.0126761375 0.0022952335 -0.018045079 -0.022347922
000010 f7 1d e3 3c 8e 8c 34 3c 43 e9 6f 3c 8f 0b 91 3c
       0.02772425 0.011019839 0.014643016 0.017705707
000020 7d 99 07 bd 66 8e f8 3c e3 b6 89 3c 57 82 80 3c
       -0.033105362 0.030341338 0.01681084 0.01568715
000030 c5 4a 5e 39 ca 27 41 bc 70 29 93 3c 98 c8 02 bd
       0.00021199424 -0.011789272 0.017964095 -0.031929582

fc2.weight f4 [32, 16]
000000 62 fe 7e 3e d1 92 f6 3d 0e 0f 3d 3e a6 9c ad 3d
       0.24901727 0.12039722 0.18462774 0.08477144
000010 48 67 38 3e 94 11 da bd e8 2c 41 3e 60 2a 41 be
       0.18008149 -0.10647884 0.18864787 -0.18863821
000020 92 e6 72 be 18 fb a0 3d 71 26 f7 bd 78 7e 5b 3e
       -0.23720768 0.07860392 -0.12067879 0.21434963
000030 5b 5f 89 3d de 77 98 3d f1 54 62 be 1e 8b 18 bd
       0.06707641 0.07444738 -0.22102715 -0.037242047
000040 7a 6a ba bd d3 d6 6d 3e 21 39 0f 3e 5c 5d d6 bb
       -0.0910234 0.2322648 0.13986637 -0.006541891
000050 08 51 39 3e 4d d0 09 bd 56 68 10 be ad 9b 6c 3e
       0.18097317 -0.033645917 -0.14102301 0.2310626
000060 42 5d 73 bd c4 ed fb bd f0 98 59 3e c1 5c 7a be
       -0.05941511 -0.123012096 0.21249747 -0.24449445
000070 34 02 11 be 4c 24 56 be 9e 03 c8 3b 77 d6 04 bd
       -0.14160997 -0.20912284 0.006103947 -0.032431092
000080 a1 09 92 bd 5d 5b 4c bd bd 0a 71 3e 2d 5e b9 bd
       -0.07130743 -0.04989182 0.23539253 -0.09051166
000090 04 6b 57 3e 66 c2 35 be 61 54 65 3e 26 dd 6e 3e
       0.21036917 -0.17749938 0.22395469 0.23326549
0000a0 9b 80 16 bd 08 0b ac bd 4d 65 59 bd 31 a2 e3 3d
       -0.03674374 -0.084005415 -0.053075124 0.1111492
0000b0 ed 76 f0 3d 31 65 59 3e 91 a1 08 bd 51 c9 13 bd
       0.11741433 0.21230008 -0.033357207 -0.036080662
0000c0 4e 5d 37 3d ad 39 40 3d 5c 18 29 3e f4 ea 59 be
       0.044766717 0.046930004 0.16513199 -0.21281034
0000d0 52 39 28 be fd ef a9 bd 19 ca 63 3d 40 e8 44 bd
       -0.16428116 -0.08297727 0.055612657 -0.048073053
0000e0 a2 38 3a be bc 38 1e 3e 66 a0 54 3e da 1b a0 3d
       -0.18185666 0.1545133 0.20764312 0.07817812
0000f0 4c 4c 2a 3e b1 52 40 bc 7e 86 39 3e 3e 7c 6e be
       0.16630667 -0.011738465 0.18117711 -0.23289582
000100 da 4e 37 3e 04 d1 48 3e 53 45 3d be 7a 3d 69 bd
       0.17901173 0.19610983 -0.18483476 -0.056943394
000110 20 16 b3 bd 13 04 f6 3d ee b6 07 be 36 2c 7c bd
       -0.087444544 0.12012496 -0.13253376 -0.0615656
000120 09 35 5e be 15 cf 2c be c9 85 3d be a6 47 55 be
       -0.21699919 -0.1687587 -0.18508066 -0.20828113
000130 c2 f8 1d be a0 b9 36 3c ac 26 5a bd 5e 35 8c bd
       -0.15426925 0.011152655 -0.053259537 -0.068461165
000140 49 0c 1e be 21 40 64 be 51 1a f6 bd 2b 22 c6 bd
       -0.15434374 -0.22290088 -0.12016738 -0.09674486
000150 68 3f 60 be f1 c8 3e be 47 84 eb 3d 4c 1e 2a bd
       -0.21899188 -0.1863134 0.11499839 -0.0415328
000160 e7 65 84 3d b5 08 0e be 5e 85 2e 3d 38 74 00 be
       0.06464749 -0.13870509 0.042607658 -0.12544334
000170 c0 4a c5 3d 07 e9 fb bd b7 0b 2f 3d a3 44 13 3e
       0.09633398 -0.12300306 0.04273578 0.14381652
000180 5c 9d 5a be 36 73 61 3e 17 5f 3a be 85 1f 4f be
       -0.2134909 0.22016606 -0.18200336 -0.20226867
000190 d4 90 8c 3d 8e 3e d5 3d 63 32 35 be bd 67 4c 3e
       0.06863561 0.10412322 -0.17695002 0.19961448
0001a0 e0 5b 84 bc 94 b3 77 be 68 54 55 be 22 f9 0b 3e
       -0.01615709 -0.24189597 -0.2083298 0.13669255
0001b0 70 3f 7b be 7f 42 1f be d8 e8 1f be 25 4b 93 3c
       -0.24535918 -0.1555271 -0.15616167 0.017980168
0001c0 f0 c6 1d be 15 d1 7e be aa 0a 0b 3e 6b 42 ca bd
       -0.1540792 -0.24884446 0.13578287 -0.098759495
0001d0 7c d1 42 be c8 9d 70 3d 65 9c 3b 3e 60 e2 20 3e
       -0.19025224 0.058744222 0.18321379 0.15711355
0001e0 2b 49 21 3e 70 b1 6c 3e 92 4f 56 3e 50 2e 31 be
       0.15750568 0.23114562 0.20928791 -0.17302823
0001f0 9f 82 1d 3e 7b e3 ab bb 13 83 d1 3d 9a 1b 0a bd
       0.15381859 -0.0052456236 0.102300785 -0.03371773
000200 d0 c0 7e 3c 9c f6 de 3d 0c fa 09 bd 58 24 79 3d
       0.0155489 0.10886881 -0.03368573 0.060825676
000210 50 ef 47 be c4 68 04 be 3a df c8 bc 5b 52 74 be
       -0.19524884 -0.1293059 -0.024520505 -0.23859541
000220 03 dd a6 bd 0b 90 5a 3e de 9d 91 bd 3c 6b 4a 3e
       -0.081476234 0.2134401 -0.07110189 0.19767469
000230 db 0d e5 3c b6 ee 40 3e f2 e0 c1 bd 58 a3 ce bc
       0.027960708 0.18841061 -0.09466733 -0.025224373
000240 f5 e5 45 3e e6 8e 79 be 45 03 1c be b0 fd 4a be
       0.19326003 -0.24370918 -0.15235622 -0.19823337
000250 92 c1 32 be 2d b4 2a bd fa 32 3a bd 28 10 49 be
       -0.17456654 -0.041675735 -0.04545877 -0.1963507
000260 46 12 21 3e 55 4d 50 be a0 4c 6b 3e 9d b3 0c be
       0.15729627 -0.20342 0.22978449 -0.13740392
000270 13 48 40 3e ff c1 43 be cb 91 b9 3d dd ea e3 3d
       0.18777494 -0.19116972 0.09061011 0.11128781
000280 66 3c 61 be b4 88 af 3d 30 c8 7d bc 8e e4 12 be
       -0.21995696 0.08570996 -0.015489623 -0.14344999
000290 2c 40 7f 3e 81 3a 9d 3d ec 26 17 3e d6 5b 95 3d
       0.24926823 0.07677174 0.14760941 0.07292907
0002a0 af e2 71 3e c5 bf ef bd 1e 41 e9 bd 7e 36 99 b9
       0.23621629 -0.11706499 -0.11389373 -0.00029223034
0002b0 a2 91 34 be 0f a8 2a 3d 27 5d 27 be e3 8c d2 bd
       -0.1763368 0.04166418 -0.16344129 -0.10280778
0002c0 31 b7 09 3e 79 a4 7a be b8 01 2e be dd fc 73 be
       0.13448788 -0.24476804 -0.16992843 -0.23826928
0002d0 30 56 34 bd 8c 9e 29 3e 8b 22 00 bc 38 1a 80 3d
       -0.044027507 0.16564387 -0.007820736 0.06255001
0002e0 24 8c 3e bd a6 3b 14 be d7 ee 48 3e 32 1e 5c bc
       -0.046520367 -0.14475879 0.1962236 -0.0134349335
0002f0 44 98 6e 3e b0 c4 6b 3e 79 ff 09 3e 5b 00 58 be
       0.23300272 0.23024249 0.13476361 -0.21093886
000300 a4 f9 00 be 8b 0a fd bd 08 57 5f bd 4e 9c 06 bc
       -0.1259523 -0.123555265 -0.05452636 -0.008215977
000310 10 a3 ac 3c a9 a9 e8 3c 10 30 cd 3c 29 29 2c be
       0.021073848 0.028401213 0.025047332 -0.16812576
000320 71 9d 32 3e 27 5b d4 3d ce 61 12 be 01 f4 56 bd
       0.17442872 0.103689484 -0.14295122 -0.052478794
000330 cf 5a ec 3d f9 ac 4b 3e 80 7b 25 be 3d 7f 37 bd
       0.11540758 0.19890203 -0.16160393 -0.04479908
000340 82 26 62 be f9 50 4b be 78 7f 2b 3e ce d2 1f be
       -0.22085002 -0.19855107 0.16747844 -0.1560776
000350 40 61 79 3d 44 36 32 be 6b 41 f9 bc a9 94 5a be
       0.06088376 -0.17403513 -0.030426702 -0.21345772
000360 c3 b9 4d be f4 05 af bd 1a f4 21 be de e6 49 3e
       -0.20090394 -0.08546057 -0.15815774 0.19716975
000370 0b 47 7d bd 8d 24 07 3d fd 98 2b 3e 00 8e 79 3a
       -0.06183533 0.032993842 0.16757579 0.0009519756
000380 14 c1 44 3e 45 bd 26 3e 71 3e 40 be 31 93 03 bd
       0.19214278 0.16283138 -0.1877382 -0.032122795
000390 1a 2e 44 3e 71 ea f0 3d e8 ff 54 3e 36 0b 6e be
       0.19158211 0.11763466 0.20800745 -0.23246464
0003a0 c5 ec 32 be d9 7c 6c bc dc 65 04 3e 7a 2f 45 3d
       -0.17473133 -0.014434063 0.12929481 0.04814098
0003b0 ad be 7c 3e fc 94 66 3e f8 9a 87 3c b0 62 60 be
       0.24682112 0.2251777 0.016553387 -0.21912646
0003c0 07 46 8b bd 19 70 11 bc 33 89 55 bd 1c 25 93 3b
       -0.06800466 -0.008876824 -0.052132796 0.0044905078
0003d0 4c d1 90 bd d0 73 27 3e 31 da 13 be 23 32 ab 3d
       -0.0707117 0.16352773 -0.14438702 0.08359172
0003e0 0c ad 35 3d d6 34 00 3d cc 31 37 be 7d 22 09 3e
       0.044354483 0.03130039 -0.1789009 0.13392062
0003f0 06 67 e8 3b c6 f9 64 be 19 0f 9c 3d 40 0e a0 bc
       0.0070923595 -0.22360906 0.07620067 -0.019538045

fc2.bias f4 [32]
000000 bc 58 1f 3e 8e 8c 32 3c 49 42 80 3e c1 45 ec 3d
       0.15561193 0.010897769 0.25050572 0.11536742
000010 1b b3 6d be 4f 70 02 3e 88 35 55 3e 1b 39 37 be
       -0.23212855 0.12738155 0.20821202 -0.17892878
000020 ce c8 56 be 10 03 80 3e 59 12 7a be c8 fe 49 be
       -0.20975038 0.25002337 -0.24421062 -0.19726098
000030 5f b9 0e 3e bc ab 8b 3c 7e 58 f0 bd 17 68 40 bc
       0.13937901 0.017049663 -0.117356285 -0.011743567
000040 4f 46 4a bd a0 77 36 3e f2 81 14 3e 2f 72 89 bd
       -0.049383458 0.17819071 0.14502695 -0.06711232
000050 c1 c6 f5 bd 10 77 6e 3e e4 87 9b bd ed 32 df 3d
       -0.120008 0.23287606 -0.075942785 0.10898385
000060 4a 3b 0f be bc 2f 50 3e f9 aa af b6 dd 76 bb bd
       -0.1398746 0.20330709 -5.2353103e-06 -0.09153531
000070 e9 d9 44 3e 56 cd 48 3e f5 d1 45 3e fe c1 b4 3c
       0.19223751 0.1960958 0.19318374 0.022065159

fc3.weight f4 [64, 32]
000000 d6 ab bc bd 1e df c6 bd 5b fe 2a 3c 18 ad 8b 3d
       -0.092124626 -0.09710525 0.01043662 0.068201244
000010 6a c3 bc bd fb 5b 1d bd f0 da 16 be 0f 94 06 be
       -0.0921696 -0.038417798 -0.14731956 -0.13142417
000020 ad 8f 3b bd 26 1f f8 bd 25 f0 d9 bd 0f 54 f4 bd
       -0.045791317 -0.12115316 -0.10641507 -0.119300954
000030 e8 f4 06 bd 2a 87 65 bd 3e be 64 3d fc a8 57 3c
       -0.032948405 -0.056037106 0.05584549 0.013162848
000040 0b d8 0b bd 1f 45 ad 3d 33 d5 14 3c cf 52 23 3e
       -0.03414158 0.084604494 0.009084034 0.15949558
000050 4e f0 4a 39 85 06 16 be d3 db db bd 34 3b be bd
       0.00019353742 -0.14650925 -0.107352875 -0.09288636
000060 e1 d9 fd bd a3 09 08 be e7 eb bb bd 80 de fc bd
       -0.12395073 -0.13284926 -0.09175854 -0.12347126
000070 c0 5b 2f bd df 42 2f be a1 d3 89 bd 20 e7 ac bc
       -0.04281211 -0.17115353 -0.06729818 -0.021106303
000080 17 8c e2 3d 1a 09 5c bd 7f 91 02 be af a2 51 3d
       0.11061876 -0.053719617 -0.12750815 0.051180538
000090 4b 9b bb bd 0a ca 02 3e c6 9f fe 3d 9c 74 ea bd
       -0.09160479 0.12772384 0.12432818 -0.11448023
0000a0 0a e0 a8 3d cd 92 9f 3d a9 96 36 bd 49 d6 8c bb
       0.08245857 0.07791672 -0.044577274 -0.0042980057
0000b0 78 c6 20 be fa 7f 22 be f7 ef c4 bd a0 5a 5f bd
       -0.1570071 -0.15869132 -0.09616082 -0.054529786
0000c0 be 25 d1 bd 63 3b 0b bd ac 6b ee bd ea 7e e2 bd
       -0.10212277 -0.033992182 -0.116416305 -0.11059363
0000d0 6d 70 36 3c f9 53 23 3e 33 6f fa 3c cc 8a 74 bd
       0.011135203 0.15950002 0.030570602 -0.05970268
0000e0 b1 63 97 3c 8e ca 11 bd 58 e9 28 3e 4c c5 14 3d
       0.018480154 -0.03559356 0.16495264 0.03632097
0000f0 b2 71 67 3d ce 42 98 3b 0e a0 22 be b5 9b d8 3d
       0.056504913 0.0046466356 -0.15881369 0.10576574
000100 53 17 6a 3d 21 8b 23 3e fa 26 a7 bc cd 1f 98 3d
       0.05715115 0.15971042 -0.020404328 0.074279405
000110 e2 a4 c0 3d c5 2d 8b bd 5b 91 80 bd 94 55 ef bd
       0.09406449 -0.06795839 -0.06277724 -0.116862446
000120 e7 fe 72 3d fc f3 c1 bd 1d 36 e8 bd 74 ee 6b bd
       0.059325125 -0.094703645 -0.11338446 -0.057600453
000130 cf ad 34 3e 73 e5 c3 bd 7b 52 24 3e a9 97 05 3e
       0.17644428 -0.09565248 0.16047089 0.13046135
000140 3e d5 7c 3d cc 0e 00 3e 64 6e a4 3d 75 0e 1d be
       0.0617268 0.12505645 0.08028868 -0.15337546
000150 1c 1d 8b bc fb 51 11 3e 36 ba 9f bc 51 6f 0a 3d
       -0.016981654 0.1419143 -0.019497972 0.033797566
000160 dd 8b 87 3d ff bb 88 bd 47 17 5b bd 3f 45 c4 3d
       0.06618474 -0.066764824 -0.053488996 0.0958352
000170 44 4d 2e be 40 63 d5 3d cc 0b a4 bd 65 ea 29 be
       -0.17021662 0.10419321 -0.080100626 -0.1659332
000180 5b 6c 29 be 1f e1 34 3d f8 6a 9d 3d 28 1a a0 3d
       -0.1654524 0.044160005 0.07686418 0.07817489
000190 af aa b6 bd 53 f9 a6 b9 25 37 22 3e 3a a7 73 3d
       -0.08919274 -0.00031847748 0.15841348 0.05948565
0001a0 e1 7b dc 3d 01 18 28 be 06 9d 08 be 8b 07 32 be
       0.107658155 -0.16415407 -0.1334115 -0.1738569
0001b0 2b e1 06 3e 52 d0 42 3d 78 1f aa 3d 0b 04 68 bc
       0.13171832 0.04756195 0.083067834 -0.01416112
0001c0 a0 ee 29 3e 3c f8 d1 3d ab 7b 27 be ca 90 4b 3d
       0.16594934 0.10252425 -0.1635577 0.04969863
0001d0 87 ff f5 3c 68 24 02 be d0 09 14 3e 98 4d 2c bd
       0.030029071 -0.127092 0.14456868 -0.042066187
0001e0 2c bc 0c 3e ab ff a5 bd 1f 80 34 be cf 9a 23 3d
       0.13743657 -0.081054054 -0.17627 0.03994256
0001f0 5f 5b 1a 3e dd 5d 1c 3d 39 f3 bf 3d 59 c8 8a bd
       0.15073918 0.038175453 0.09372563 -0.067764945
000200 7d 1a f7 bd 22 ef e8 3d d2 56 b2 3d 2d 32 16 3e
       -0.12065599 0.11373736 0.08707966 0.14667578
000210 3c 98 de 3d b3 d3 a5 bd 09 88 a7 bd ad 6c 20 3e
       0.1086888 -0.08097019 -0.081802435 0.15666457
000220 e0 e9 15 3d 90 0f a8 bd c8 50 fe 3d a6 18 e9 bd
       0.036599994 -0.08206093 0.124177516 -0.113816544
000230 1c bb ff bd 89 8a 91 3d dc b2 70 3d 87 2c fd 3d
       -0.1248686 0.071065016 0.058764324 0.123620085
000240 ef 0e 17 be 69 3b 2d bd 07 a5 8e 3b 51 ef 10 bc
       -0.1475179 -0.042292986 0.004353169 -0.00884612
000250 a1 48 fb bd b1 fb 00 3e 2f fa cb bc f9 a3 07 bd
       -0.12269712 0.12596013 -0.02489957 -0.03311536
000260 0c 14 e2 3b 0b 2f b8 3b 51 fa d6 3d 80 c2 ac bd
       0.0068993624 0.0056208423 0.10496963 -0.084355354
000270 d5 3f 00 3e cf 1b 8d bd 2b c3 78 3d db b0 0c be
       0.1252435 -0.0689007 0.060733 -0.1373934
000280 76 73 b1 bd f1 8c 18 bd f0 eb 26 be d3 5e bb bd
       -0.086646006 -0.037243787 -0.1630094 -0.09148946
000290 08 2e 10 be 6f 0e da 3d b0 b3 50 bd c6 ea 81 bd
       -0.1408006 0.10647284 -0.050952613 -0.063436076
0002a0 c0 39 fb 3d 5d 66 d3 bd 2b 4c d7 bd 32 ee 27 3e
       0.12266874 -0.103222586 -0.10512575 0.16399458
0002b0 16 81 68 3d f9 bd 85 3d 97 32 07 3e 80 84 12 3d
       0.05676373 0.06530375 0.13202892 0.035770893
0002c0 2e fc 10 be 43 eb 86 bc ec d6 0c 3e 4d 45 50 3d
       -0.14158699 -0.016469603 0.13753861 0.05084734
0002d0 05 22 96 bd 78 ce 1b bd 7c dd e0 3d 01 c7 99 bc
       -0.073307075 -0.0380387 0.10979745 -0.01877165
0002e0 1b 40 c7 bd 75 38 25 be 50 0b 0a 3e f2 a1 eb 3d
       -0.09729024 -0.16134818 0.13480878 0.11505498
0002f0 33 72 43 3d 69 65 a7 3a f0 9c a7 bd 4c 79 c9 3a
       0.04771633 0.0012771311 -0.0818423 0.0015371232
000300 f4 f6 db 3c 99 be 2e be 22 aa 5b bc e5 1a 74 bd
       0.026851155 -0.17064895 -0.013407262 -0.05959596
000310 f6 f4 9c bd d3 6c 19 3d 30 6e 8f 3d 1e 9b 2a be
       -0.0766391 0.0374573 0.070034385 -0.16660735
000320 2b 7e 09 be 16 17 1e be 66 ea 82 3d 49 17 a4 3c
       -0.13427036 -0.15438494 0.06392364 0.020030634
000330 2b 1b c4 3d b9 74 0b bd 00 45 16 bd fe 7f 19 3e
       0.095754944 -0.034046862 -0.036686897 0.14990231
000340 be 3c 06 be b6 2e d8 bd 86 35 de 3d 3d ff cb bd
       -0.13109109 -0.105557844 0.108500525 -0.09960792
000350 15 d5 1d 3e c8 8e 2c 3c b9 b2 1c be 6c fd 18 3e
       0.15413316 0.010532089 -0.15302552 0.14940423
000360 1b bd 56 bd 46 00 15 3e c9 73 a6 bd 01 fc ff bd
       -0.05242644 0.14550886 -0.08127553 -0.12499238
000370 18 17 dd 3d 54 74 0b 3e 60 9a c7 3d 50 3a 04 be
       0.107954204 0.13618594 0.097462416 -0.1291287
000380 5b 72 d4 3d d9 ed 0d be 71 65 be bc 13 2c d5 3d
       0.10373374 -0.13860263 -0.02324173 0.10408797
000390 d6 6f bc bc b2 b2 13 3e 4c f5 61 bd d6 a1 cd 3d
       -0.023002546 0.14423636 -0.055165574 0.100406334
0003a0 7d a7 31 be f5 a1 15 be 4a aa e7 3d 25 73 65 bd
       -0.17349048 -0.14612563 0.11311777 -0.056018014
0003b0 7d 30 a4 bd e4 53 10 3e 5c 28 27 be b1 e1 a0 3c
       -0.08017061 0.14094502 -0.1632399 0.019638868
0003c0 27 26 cc 3d 06 dd 92 bd cc 77 c4 bd a4 3c d3 bd
       0.099682145 -0.07171063 -0.09593162 -0.10314301
0003d0 89 91 3e bd 93 2e 91 3d 1c 84 05 3e 77 d2 bb 3d
       -0.046525512 0.070889615 0.13038677 0.09171002
0003e0 af d4 00 3e e6 e3 92 3d 2f 25 16 3e a2 da b0 bd
       0.12581132 0.071723744 0.14662622 -0.08635451
0003f0 4d 11 24 be 89 8d 2f 3e d7 13 46 3c 78 2f 06 be
       -0.16022225 0.17143835 0.012089691 -0.13104045

fc3.bias f4 [64]
000000 52 3d c9 bd 92 0e 0d be ff 51 9b bd e1 1f 26 be
       -0.09826149 -0.1377509 -0.07583999 -0.16223098
000010 8a 2a 30 bd 87 6c 3d 3d 28 43 97 3d a1 a3 1e bd
       -0.04300932 0.046246078 0.07385856 -0.038730267
000020 d9 6a d2 bd 60 18 52 3c ed 5b 00 3d 8e 4a ec 3c
       -0.10274286 0.012823194 0.031337667 0.028844144
000030 e5 25 9b bd 35 3e 89 bd ac 01 d9 3c d1 cc 09 be
       -0.07575587 -0.06701318 0.026490055 -0.13457038
000040 e7 b6 1f be 62 90 89 3d 01 47 37 3d 57 ec 30 be
       -0.15597115 0.06716992 0.04474545 -0.17277656
000050 7a 83 1b be b1 3d 9c 3d 9d 90 52 3d 22 dd 12 3e
       -0.15186873 0.07628954 0.051407445 0.14342168
000060 50 34 41 bd 3d 59 09 3e a8 95 33 3d 0b 0a 2a 3e
       -0.04716903 0.13412948 0.043843895 0.16605394
000070 20 4d a7 3d a7 fa ca bd a6 3a 8c bd 57 34 8e bd
       0.08169007 -0.099110894 -0.06847124 -0.06943577
000080 8b dc 26 3e b3 67 06 3e e7 89 e4 bd 5f 58 af bd
       0.16295068 0.13125496 -0.11159115 -0.08561777
000090 75 29 81 3a 18 85 95 bd cf af 02 3d 02 1a 9a 3d
       0.0009854274 -0.07300776 0.031905945 0.07524492
0000a0 b7 3b e7 bd 41 2f a7 bd cc f5 17 3e 23 cb 1a 3e
       -0.112906866 -0.0816331 0.14839858 0.15116553
0000b0 65 63 01 3e d2 e4 98 3d 40 dd 0c be 51 2d 23 be
       0.12635572 0.07465519 -0.13756275 -0.15935256
0000c0 d3 85 00 bd 94 90 1f 3c 04 36 05 be 90 a3 2c 3e
       -0.031377625 0.00973906 -0.13008887 0.16859269
0000d0 86 7d 2f be 69 6e 1a bd 10 3f e7 bd 3a a7 ba 3d
       -0.17137727 -0.03770295 -0.11291325 0.09113927
0000e0 73 86 25 3d 0b ae 2e bd dd 01 b6 bb 27 f5 2c be
       0.040411424 -0.04264645 -0.0055544213 -0.16890393
0000f0 a1 f1 cf bd f6 89 d6 bd 48 69 bb bd 77 1d a6 bd
       -0.10153509 -0.10475533 -0.0915094 -0.08111089

fc4.weight f4 [128, 64]
000000 7c e9 3e bd 62 0a 83 3d a4 9b f9 bd 5b 0d cf bd
       -0.046609387 0.06398465 -0.12187889 -0.10109969
000010 9c aa 77 bd 8e 58 cb bd 2e 6a cd bd 12 2d 0e 3d
       -0.06046544 -0.09929 -0.10030018 0.03471095
000020 59 3e c8 bd 32 ee 31 bc 40 01 53 bc 15 3e df 3c
       -0.09777517 -0.010860013 -0.012878716 0.027251283
000030 bf 91 83 3d 06 ff c2 3c 11 5f ff 3d 1e 0b 9d 3d
       0.06424283 0.023803245 0.12469304 0.07668136
000040 32 31 fb 3d 23 dd 89 bc b4 8a f3 bd 01 af b3 3c
       0.12265243 -0.016829079 -0.1189169 0.021934034
000050 63 c9 b0 bd cc 52 22 3c 90 80 80 3d 22 ed b3 3d
       -0.086321615 0.009907436 0.06274521 0.08785464
000060 1a f4 d2 bc 2c f2 7f bd a8 2c f6 bc 9b 35 8e bd
       -0.025751162 -0.062486812 -0.03005059 -0.06943818
000070 f6 ac f5 3d d6 cd 5f 3d c9 84 1f bd c9 7a e1 bd
       0.1199588 0.05463966 -0.038944993 -0.110097475
000080 06 55 df 3c db ba 3c 3d 4e 9c aa bd 73 f6 b4 3c
       0.027262222 0.046076637 -0.08330594 0.022090172
000090 27 e6 8d 3c b9 c2 d6 3d 96 26 62 bd e8 4e fb 3c
       0.01732166 0.10486359 -0.05521258 0.030677274
0000a0 31 2e fc bd 44 20 e2 bd 0c 18 84 3d c2 0a 51 3d
       -0.12313498 -0.110413104 0.06449899 0.05103565
0000b0 fb 6d 72 3d c8 e4 d2 bd 14 ee c3 bc 88 1a a2 bc
       0.059186917 -0.10297543 -0.023917235 -0.019788042
0000c0 0a 21 c5 3d b4 a9 94 bd 9a 21 d7 3c 69 a5 bf bd
       0.09625442 -0.07258931 0.02626114 -0.09357721
0000d0 c2 50 4e 3d 4a 34 b6 3d 3f 05 3c 3d 9d 1d bd bc
       0.050369985 0.08896692 0.04590344 -0.02308541
0000e0 b7 52 a7 3c 36 24 e8 3d 35 5e b7 bd 38 fb a4 bc
       0.020425184 0.11335032 -0.089535154 -0.020139322
0000f0 71 72 d9 3d 05 9d 54 bd 02 fa 6e 3d 6f 73 23 bd
       0.10617531 -0.051907558 0.058343895 -0.039905008
000100 f9 44 f3 3b 25 1d c6 bc 92 e1 c8 bd fc a7 ff bb
       0.0074239937 -0.02418382 -0.09808649 -0.0078020077
000110 c6 a5 af 3d eb d2 f1 3d 0e 08 22 3d eb ca d7 3d
       0.08576541 0.118078075 0.039558463 0.105367504
000120 31 48 da bd ec 89 eb bd 99 7b 39 bd 2b 49 c2 bd
       -0.10658301 -0.11500916 -0.045283888 -0.09486612
000130 c5 6e 88 bd f4 df fd bb d1 a3 1c 3d 7e c7 a8 3d
       -0.066617526 -0.0077476446 0.038242165 0.08241175
000140 27 b4 33 bd 06 5c 82 3d 46 2f c7 3d ce ce 6a bd
       -0.04387298 0.06365208 0.097258136 -0.05732613
000150 83 6e b0 bc 25 cf 97 bd a4 49 e7 bd 0f 6d 8e bd
       -0.021537071 -0.074125566 -0.11293343 -0.06954395
000160 3c 02 9a bd bd 0a cd bd af dc 5f 3d 3c 22 82 bc
       -0.075199574 -0.10011814 0.05465382 -0.015885465
000170 49 ed 4f 3c 86 ee f4 3d 5d 4f ba bb cf ad fc bd
       0.0126908505 0.11959557 -0.0056857304 -0.12337839
000180 f6 af a4 bb 10 f7 84 bc 83 d9 1a 3d 3e b2 96 3d
       -0.005025859 -0.01623109 0.03780509 0.07358216
000190 14 a3 63 bd f8 b4 a4 3d c5 53 86 bd 9b 49 a0 3d
       -0.055575445 0.080423295 -0.065589465 0.07826539
0001a0 25 f1 d2 bb 13 e5 a7 bd ab 88 65 bd 7a 7e e0 3d
       -0.006437438 -0.08197989 -0.05603854 0.109616235
0001b0 3e c3 92 3c 49 b6 2f 3d 64 bd c4 3d 3c c2 d2 bd
       0.017915364 0.04289845 0.09606436 -0.102909535
0001c0 a1 e7 1b 3d 0b 7b b2 3d 8a 29 5a bd 5a 31 ac bd
       0.038062695 0.08714875 -0.05326227 -0.084078506
0001d0 02 e0 66 bc 25 e5 b4 3d 8c ba 4f 3c 15 81 0a 3c
       -0.014091494 0.08832768 0.012678754 0.008453627
0001e0 fe 7b 6b bd 48 b8 2a 3d d7 c0 36 3d 5c a1 23 3d
       -0.057491295 0.04167965 0.0446175 0.039948806
0001f0 60 2b 21 3c 56 0c 74 3c e1 42 0d 3c ed cd ad 3d
       0.009837002 0.014895519 0.008621902 0.08486543
000200 95 12 61 bd 82 97 bf 3c 8f 36 91 3a d2 39 8d 3d
       -0.05494936 0.023387674 0.0011078882 0.06895794
000210 2d e5 88 3c 3d 54 74 bb 24 cb 37 3d 3e fa bc bd
       0.016710842 -0.0037281655 0.044871464 -0.092274174
000220 99 7a de 3c 13 44 02 bc a8 57 62 3c 5a f5 e7 bd
       0.027158068 -0.0079508005 0.013814844 -0.11326094
000230 aa 55 d4 3d da 8b 9c 3d ac aa a6 bd 4b f2 e6 bd
       0.103679016 0.07643862 -0.08138022 -0.112766825
000240 7a 46 29 bd 1b da 9a 3c 0d fa 18 bc 81 50 3d bc
       -0.041326977 0.018902829 -0.0093369605 -0.011554838
000250 d0 26 4f 3d 8a 79 90 bd 86 e0 94 bd b2 08 d4 3c
       0.050574124 -0.07054432 -0.07269387 0.025883052
000260 49 93 a5 bd 0b 5f de bd ba 2b 95 3d f0 2d ce 3d
       -0.08084733 -0.10857972 0.07283731 0.10067356
000270 cb 91 2f 3d b9 7e 83 bd 33 97 b6 bc 70 94 b0 bc
       0.04286365 -0.06420655 -0.022288894 -0.021555156
000280 4b c9 2a bd c8 b8 1d 3d c8 9f d4 3d 9d 89 ca 3b
       -0.041695874 0.0385063 0.10382038 0.0061809556
000290 4f fc b7 bd af 2a fc 3d b0 66 2f 3d 82 0d ee bd
       -0.08983671 0.12312829 0.04282254 -0.1162367
0002a0 22 0a dd bc 99 8d 8c bc e8 43 8b bd a7 7e 86 bc
       -0.02698237 -0.017157363 -0.068000615 -0.016417814
0002b0 8e 32 38 bd 7a 98 bb 3c 9d bb d3 3d 36 10 f1 bd
       -0.044970088 0.022899855 0.10338519 -0.1177067
0002c0 2f 64 7a 3d 47 b0 f8 3d 90 54 c0 bd c1 bf d3 3c
       0.0611307 0.12142997 -0.09391129 0.025848271
0002d0 57 f5 87 3d d9 1f 6f 3d d5 95 82 bd 23 be 96 bd
       0.06638592 0.05837998 -0.063762344 -0.073604845
0002e0 ca 6e b1 bc 05 c0 d8 3d 30 9d 91 3d 35 0f de bd
       -0.021659274 0.105835 0.07110059 -0.10842744
0002f0 8b 7b e5 3d 23 82 28 bd 61 2d f0 bd f3 11 c9 3c
       0.112052046 -0.041139733 -0.11727405 0.024544692
000300 1d 16 9e 3c df e7 54 bc c7 8a 94 bc 4d 47 09 bd
       0.019297654 -0.0129947355 -0.01813258 -0.033515263
000310 ef 87 ed bd ce 81 80 3c f6 e3 5f bd b5 1c 0f bd
       -0.11598193 0.015686896 -0.05466076 -0.034939487
000320 f4 5a b4 bd 0a f3 73 3d b0 41 0f bd 44 d4 21 bd
       -0.088064104 0.059557952 -0.034974754 -0.039509073
000330 01 53 a6 bd 5f cf ef 3d 69 41 22 bd b0 ff 95 3c
       -0.081213005 0.11709475 -0.03961316 0.018310398
000340 07 63 75 bc b1 91 f6 bd f8 3e d4 bd df 23 ec bd
       -0.014977223 -0.12039507 -0.10363573 -0.11530279
000350 db 52 c4 bc 2d b8 37 bc a7 5d 7a 3d 28 29 df 3d
       -0.02396529 -0.0112133445 0.06112447 0.10896522
000360 19 3b de bd 71 96 e7 bd e4 2f 5a 3d 02 35 d6 3d
       -0.10851116 -0.11307991 0.05326833 0.10459329
000370 3b 00 b2 3b 21 00 80 3b 7e c7 f4 3c bd 1d f3 bb
       0.0054321564 0.0039062654 0.029880282 -0.0074193166
000380 12 c1 b1 3d f8 f6 d5 3a ff da f7 bd 5a cd 04 bd
       0.08679403 0.0016324213 -0.12102317 -0.0324224
000390 86 5f 25 3d 02 25 0e 3d bc 36 ec bd cf 9f 01 3d
       0.0403743 0.034703262 -0.11533877 0.031646546
0003a0 c0 9f ba bd 18 da 08 bd f6 9a a4 bd ee 39 f0 3d
       -0.09112501 -0.033411115 -0.08037369 0.11729799
0003b0 63 38 a8 bd 46 d9 d8 3d dc dd 43 3c 86 85 c5 3d
       -0.0821388 0.105883166 0.011954751 0.09644608
0003c0 f8 a3 f8 bd 78 1c 9e bd f9 c7 5c bd 89 eb 37 3c
       -0.121406496 -0.07720274 -0.053901646 0.01122559
0003d0 c0 e4 e1 3d 29 f1 66 bc e9 4a ab bd f5 28 fc 3d
       0.11029959 -0.014095583 -0.08363897 0.123124994
0003e0 d9 9d e1 bd 08 cb 37 bd c5 1d 47 bd 07 2b 31 bb
       -0.11016435 -0.04487136 -0.048612375 -0.0027033703
0003f0 87 18 a5 b9 60 aa 3e 3d ac 70 aa 3c d5 e4 7c bd
       -0.00031489527 0.0465492 0.02080568 -0.06174167

fc4.bias f4 [128]
000000 8a 34 b2 bd d0 ec 98 bd 34 df ed bd 61 5a 1c bd
       -0.08701427 -0.074670434 -0.11614838 -0.03817213
000010 bb 41 81 bb 84 5e 88 bc f6 93 c3 3d 08 5c ce 3d
       -0.0039446033 -0.016646631 0.09549706 0.10076147
000020 14 e3 e2 3d eb 05 c9 bd d5 9b 1b 3d 77 a8 26 3d
       0.11078468 -0.09815582 0.03799041 0.040688004
000030 cf 36 6d bd 1e 02 36 bd 63 00 02 3d ed 59 9f 3d
       -0.057913598 -0.044435613 0.03173865 0.07780824
000040 69 aa 1e bd c5 ee 8e bd 86 6c e1 bb 6d 19 cb bc
       -0.038736735 -0.069791354 -0.006879392 -0.024792397
000050 48 90 df bd 9b 24 75 b8 f0 ac 5d 3d ef 6c 63 bd
       -0.10916191 -5.8446643e-05 0.054120004 -0.05552381
000060 49 78 e7 bd 4e dd ef bd 2b 2e a7 3d d1 9a 9d bc
       -0.113022394 -0.117121324 0.08163103 -0.019238861
000070 3b 6f bf bd 4d 29 d3 3d bb 78 00 bd 3d d2 bd 3d
       -0.093473874 0.10310612 -0.031365138 0.092686154
000080 d0 38 da 3d ce 75 e1 3a d9 27 b9 3d e0 3e ff 3a
       0.106553674 0.0017201246 0.090408035 0.0019473694
000090 3c dd 26 bd d2 6a e7 3d cc 09 52 bd 37 6f 9a bc
       -0.04073833 0.11299671 -0.051278874 -0.01885186
0000a0 b5 1b 32 bd 9b 92 64 bd 74 4d b7 bd 1d a2 c9 3d
       -0.043483455 -0.055803876 -0.0895032 0.09845374
0000b0 c6 53 63 3d d9 81 87 bd 0c 47 f4 3c b1 da ba bd
       0.055499814 -0.06616563 0.029819034 -0.09123743
0000c0 fe c3 7c 3d 0a b9 dc 3c fa 30 77 bd 5d a3 95 bc
       0.06171035 0.026943702 -0.060349442 -0.018266374
0000d0 57 1a bf bd 12 77 6c 3c cd 3e d4 3d ad f0 88 3d
       -0.09331196 0.014432685 0.10363541 0.0668653
0000e0 c3 2b 94 bd 4c 16 42 bd 6e 4b 6c bd 64 55 c9 bb
       -0.072349094 -0.047384545 -0.057689123 -0.0061442126
0000f0 dd 16 83 bd 98 49 47 3d 02 ed 1d bd a9 1e 57 3c
       -0.06400845 0.04865417 -0.038556106 0.013129869
000100 bf b2 a1 3d df 22 0d 3c a1 94 80 3d 89 4d e0 3a
       0.07895421 0.008614271 0.06278349 0.0017112951
000110 6d ab cc 3c ad 06 e8 bd 1e 55 b0 3d 3c 03 11 3c
       0.024984086 -0.11329398 0.08609985 0.008850869
000120 ea e3 96 3a 2a 2d 83 bd a8 28 a4 3d 98 68 a1 3d
       0.0011512015 -0.06405099 0.08015567 0.07881278
000130 27 4e 31 bc 67 69 bc 3d 9a e9 8b 3c bc eb d7 bd
       -0.010821856 0.091997914 0.017079163 -0.1054301
000140 c2 71 d6 3d fc 9f 3d bd 05 11 08 3d cb fe 8c bd
       0.10470916 -0.04629515 0.033219356 -0.068845354
000150 a8 dc d1 bc fd e6 40 3d ea 13 d7 3d 94 08 f2 3c
       -0.025617912 0.047095288 0.10501845 0.029545106
000160 4d 95 9d bd 6e 7b ba ba 70 7a d3 bd 21 41 d5 bd
       -0.076944925 -0.0014227459 -0.103260875 -0.10412813
000170 4f 38 b7 3d 07 b8 46 3d 29 20 25 bb 63 e0 da 3d
       0.08946287 0.048515346 -0.002519617 0.106873296
000180 4d 96 6a bd ce 29 2a 3c a8 24 d7 bc e5 49 b6 bc
       -0.057272244 0.010385944 -0.026262596 -0.022252033
000190 70 5e aa bd 03 81 9d bd c9 16 d2 3d c1 13 7e 3b
       -0.08318794 -0.07690623 0.10258252 0.0038769098
0001a0 e3 51 42 bd bc 76 20 bd d0 52 dd bd 08 c6 5f 3d
       -0.047441375 -0.039175734 -0.10806811 0.054632217
0001b0 59 00 75 3d 6c 28 9c bd 87 13 8a 3d e8 e6 e2 bd
       0.059814785 -0.07624897 0.06742006 -0.11079198
0001c0 a9 38 a0 bd b8 e3 74 bd 8b 98 c3 3c 29 31 e9 3d
       -0.07823307 -0.059787482 0.02387645 0.1138633
0001d0 89 cb 06 3d ac bb fa 3d a4 f9 87 bd 49 8a 8c bc
       0.03290895 0.12242827 -0.06639412 -0.017155783
0001e0 64 61 2b 3c a6 56 76 3d ea 6c 43 bd d8 f1 ae bd
       0.010460231 0.06014123 -0.04771129 -0.08542222
0001f0 15 db b1 3d b1 17 18 3d 6e 2c 81 3c 80 47 a3 bd
       0.08684365 0.03713197 0.015768256 -0.07972622
