models_submitted/train_acc-CNN_2L_DFC_R400.pt (torch, 160902 bytes, 22 tensors)

conv1.weight f4 [32, 1, 1]
0.08377709 -0.8875302 0.4247359 0.6059493 0.544403 0.31314996 0.3610612 -0.5563616
0.7720663 0.3744776 0.4176136 0.89026487 0.7855262 0.04172497 0.9500525 -0.05457936
-0.94970155 0.56644416 0.06524576 0.6312956 -0.103226304 -0.37960207 0.3175201 -0.7232452
-0.63240075 0.13455978 0.77405715 -0.62240446 -0.12328235 -0.6934252 -0.28329936 0.10642762
00000000: 5393 ab3d 2e35 63bf fc76 d93e 7e1f 1b3f
00000010: ff5d 0b3f 3155 a03e 03dd b83e b76d 0ebf
00000020: 23a6 453f 87bb bf3e 73d1 d53e 66e8 633f
00000030: 3f18 493f cde7 2a3d a436 733f 9b8e 5fbd
00000040: a41f 73bf 7c02 113f 929f 853d 979c 213f
00000050: 5068 d3bd 345b c2be ff91 a23e 9926 39bf
00000060: 04e5 21bf 0aca 093e 9c28 463f e655 1fbf
00000070: 757b fcbd 5084 31bf 9d0c 91be b9f6 d93d

conv1.bias f4 [32]
-0.8350344 0.2268502 0.014732577 -0.14625308 0.8888928 -0.9622969 -0.2509029 0.091858454
-0.010794743 -0.3510337 -0.5881342 -0.7583909 -0.18406829 0.5813987 0.583057 -0.022305284
0.9600262 0.2375285 -0.28243765 0.6784284 -0.5214316 -0.665174 0.4556128 0.4299024
-0.9097623 -0.4294495 -0.96207273 0.8268336 0.9626445 0.5631983 -0.044471353 -0.72156864
00000000: d0c4 55bf 6b4b 683e e860 713c 5ec3 15be
00000010: 7b8e 633f 1759 76bf 5876 80be 4920 bc3d
00000020: 6fdc 30bc b0ba b3be f78f 16bf e825 42bf
00000030: 667c 3cbe 8cd6 143f 3943 153f 92b9 b6bc
00000040: 47c4 753f ac3a 733e ab9b 90be 7cad 2d3f
00000050: 8b7c 05bf d848 2abf 1546 e93e 2b1c dc3e
00000060: 2fe6 68bf cee0 dbbe 664a 76bf 5eab 533f
00000070: df6f 763f c42d 103f 9827 36bd b9b8 38bf

conv2.weight f4 [64, 32, 1]
-0.014155018 0.08002014 -0.10317229 0.080913335 -0.0042806435 0.12581499 0.055653248 -0.010024048
-0.10537891 0.049043547 -0.024196172 0.08454704 0.1760748 0.015784845 0.009811784 -0.07396146
0.15677309 0.08182524 -0.12782294 -0.11022196 -0.0010879881 -0.06620698 -0.032818206 -0.12407299
-0.046013318 0.045438282 0.036083415 0.082226545 -0.15188582 -0.16363785 0.06756153 -0.14320275
0.047626138 -0.16973197 0.05812836 -0.0498032 -0.09984565 0.15713112 -0.1738521 -0.12372403
0.11875336 -0.0032680489 -0.088602364 0.06265013 0.053689428 0.16996703 -0.13287613 -0.026833044
-0.11265846 0.058267023 -0.17678009 -0.033828106 -0.043944325 -0.10309853 0.1153814 0.057118695
0.11671615 -0.048436664 0.020210663 0.14137058 -0.10899947 -0.159474 0.15094621 -0.152811
-0.14949268 0.05034075 0.006520267 -0.1112733 -0.11629409 -0.06407259 0.006791808 0.15915608
0.08069395 0.09948418 0.15839896 0.06571384 -0.0068594823 0.016070735 0.09960908 -0.05051567
0.13307399 0.14934902 0.16630508 -0.09772456 0.14630865 0.07305119 -0.008240295 0.13928857
-0.087379426 -0.08689189 -0.072656445 -0.021260554 -0.14179806 -0.16077654 0.0005142191 0.17474936
0.03317861 0.032903202 -0.16903932 0.15328406 -0.030093854 0.107365385 0.04848921 -0.09802466
-0.12672774 0.072771676 -0.05597093 -0.0710056 -0.16339126 0.17383707 0.025279565 -0.064002536
0.06266688 0.15712143 0.01751368 -0.00471523 -0.10284393 0.057602625 0.08278561 -0.0042174063
-0.086546995 0.15888914 -0.17518218 -0.12729825 -0.082775675 0.090775855 -0.15360208 0.10165061
0.1322359 -0.13127235 0.07880041 -0.038840197 -0.17291145 0.004511609 0.15639256 -0.071307205
0.1572142 -0.09724001 -0.07575908 -0.11700753 0.044907425 -0.09067819 -0.07617134 -0.050906476
-0.042244017 -0.0632033 -0.04549234 0.029783815 0.01544016 -0.1105679 -0.039667353 0.17273235
0.046817396 -0.07282714 -0.12657839 0.10463169 -0.022727057 0.16456541 -0.048109178 -0.17263713
0.11132786 0.027412469 0.08480129 -0.1332848 0.15510301 -0.017754687 0.12755892 -0.05081811
-0.03936098 0.088732556 -0.13002974 0.023904385 0.16800985 -0.0010435162 0.08380532 -0.15737821
0.040274914 0.13440502 0.09225103 -0.010632479 0.021055723 -0.031440936 -0.09892033 -0.12328823
0.06494279 0.013866075 -0.013526897 0.033703536 -0.026339872 -0.11549759 -0.046269823 -0.004453448
0.14368086 -0.14729586 0.113764964 -0.14467959 0.026142363 0.090932034 0.14059709 -0.14560553
-0.013694483 -0.101581834 0.12976189 -0.13100499 0.17444082 0.152611 -0.025305184 -0.1137305
-0.15614378 -0.06419218 0.048040908 -0.07875809 0.16716294 0.048583683 0.15712759 0.1452523
-0.1071097 0.110911645 -0.1013345 -0.023416065 -0.000947562 0.15712427 0.08879707 0.07114873
-0.15433572 0.1524175 -0.057343774 0.07233746 0.08471415 -0.019874154 -0.040677708 0.03278316
0.035270117 -0.1141027 0.057706054 -0.059171405 0.16277821 -0.06804247 0.0838598 -0.15388237
-0.12981057 0.13815868 0.010943628 -0.14724685 -0.04013275 -0.045932837 -0.0015271144 0.12813824
-0.06330432 -0.10587418 -0.051357094 -0.00930667 -0.06282999 -0.0024856506 0.11406621 -0.105781
00000000: 73ea 67bc 99e1 a33d fe4b d3bd e4b5 a53d
00000010: a444 8cbb a5d5 003e a9f4 633d e83b 24bc
00000020: e6d0 d7bd e3e1 483d 0d37 c6bc 0027 ad3d
00000030: f44c 343e 384f 813c 9bc1 203c 1b79 97bd
00000040: 2089 203e fe93 a73d 04e4 02be 0dbc e1bd
00000050: d39a 8eba 8697 87bd 626c 06bd fb19 febd
00000060: 7678 3cbd 7e1d 3a3d 34cc 133d 6466 a83d
00000070: f587 1bbe ae90 27be b35d 8a3d bea3 12be
00000080: a013 433d 38ce 2dbe 0118 6e3d 71fe 4bbd
00000090: e07b ccbd fbe6 203e 4906 32be 0663 fdbd
000000a0: f634 f33d c32c 56bb 2875 b5bd b64e 803d
000000b0: 72e9 5b3d d60b 2e3e ae10 08be f9d0 dbbc
000000c0: 7bb9 e6bd 67a9 6e3d d705 35be 578f 0abd
000000d0: f7fe 33bd 5225 d3bd 154d ec3d 4bf5 693d
000000e0: e008 ef3d 8665 46bd d590 a53c 73c3 103e
000000f0: 1d3b dfbd 274d 23be a591 1a3e 7d7a 1cbe
00000100: 9c14 19be 1a32 4e3d f7a7 d53b 42e3 e3bd
00000110: 992b eebd 7d38 83bd d18d de3b d0f9 223e
00000120: df42 a53d 5dbe cb3d 5633 223e fa94 863d
00000130: 82c5 e0bb c6a6 833c d8ff cb3d 85e9 4ebd
00000140: 8c44 083e f3ee 183e e14b 2a3e d023 c8bd
00000150: efd1 153e dd9b 953d 4d02 07bc aaa1 0e3e
00000160: fcf3 b2bd 60f4 b1bd e7cc 94bd 9d2a aebc
00000170: 8333 11be 9ba2 24be a9cc 063a 7ff1 323e
00000180: 4be6 073d 82c5 063d a518 2dbe 7ff6 1c3e
00000190: 6387 f6bc 62e2 db3d 9f9c 463d 27c1 c8bd
000001a0: ebc4 01be 5109 953d c641 65bd 626b 91bd
000001b0: 0a50 27be 5802 323e 1717 cf3c c313 83bd
000001c0: 7e57 803d 71e4 203e d978 8f3c 3782 9abb
000001d0: d79f d2bd bbf0 6b3d 808b a93d 2b32 8abb
000001e0: 8d3f b1bd d6b3 223e f562 33be 795a 02be
000001f0: 4b86 a9bd b1e8 b93d dd49 1dbe 322e d03d
00000200: d968 073e 426c 06be 1c62 a13d e616 1fbd
00000210: b30f 31be 1fd6 933b 5f25 203e 8309 92bd
00000220: c2fc 203e c525 c7bd 9427 9bbd a5a1 efbd
00000230: d9f0 373d 7db5 b9bd b8ff 9bbd 4f83 50bd
00000240: 1008 2dbd bb70 81bd 2d56 3abd 30fd f33c
00000250: baf8 7c3c 6c71 e2bd 3c7a 22bd c0e0 303e
00000260: 99c3 3f3d 6526 95bd c49d 01be 2449 d63d
00000270: 182e babc d683 283e 210e 45bd cac7 30be
00000280: dcff e33d 1d90 e03c 4cac ad3d d07b 08be
00000290: 53d3 1e3e 4772 91bc ce9e 023e a726 50bd
000002a0: fb38 21bd 6ab9 b53d 8426 05be 21d3 c33c
000002b0: c60a 2c3e 98c6 88ba 20a2 ab3d c127 21be
000002c0: 4ff7 243d 78a1 093e 1cee bc3d d933 2ebc
000002d0: 0d7d ac3c 36c8 00bd be96 cabd 8a7e fcbd
000002e0: ba00 853d 892e 633c eb9f 5dbc b80c 0a3d
000002f0: b7c6 d7bc 008a ecbd 6d85 3dbd 3bee 91bb
00000300: 1321 133e bad4 16be 9bfd e83d e326 14be
00000310: 8228 d63c 933a ba3d aff8 0f3e 9e19 15be
00000320: d35e 60bc 230a d0bd 4de0 043e 2c26 06be
00000330: 9da0 323e 0f46 1c3e d14c cfbc 89eb e8bd
00000340: 28e4 1fbe 3177 83bd 8bc6 443d ec4b a1bd
00000350: c32c 2b3e afff 463d 0ee6 203e 05bd 143e
00000360: 555c dbbd a525 e33d 7688 cfbd 0cd3 bfbc
00000370: cf65 78ba 2fe5 203e 3ddb b53d 6db6 913d
00000380: 2f0a 1ebe 5513 1c3e 4ee1 6abd aa25 943d
00000390: 9d7e ad3d 1fcf a2bc ab9d 26bd a347 063d
000003a0: 6677 103d adae e9bd 2f5d 6c3d b75d 72bd
000003b0: 55af 263e da59 8bbd b0be ab3d 5793 1dbe
000003c0: 10ed 04be 7879 0d3e e74c 333c e1c7 16be
000003d0: 3d62 24bd 1224 3cbd 7529 c8ba ac36 033e
000003e0: b2a5 81bd 90d4 d8bd d15b 52bd 017b 18bc
000003f0: 03ad 80bd 4ce6 22bb 8c9b e93d b5a3 d8bd

conv2.bias f4 [64]
0.018803483 -0.12588172 0.03311596 -0.049807824 0.12041107 -0.08888716 0.1686547 0.041805744
0.050427094 -0.17604463 0.11207327 0.001066791 -0.014024498 -0.031394377 0.12550606 0.011054928
-0.017674914 -0.0481148 0.03955214 -0.11384599 -0.01211717 -0.15230663 0.11112305 0.096961394
-0.082881175 -0.0099806525 0.17674662 -0.08091702 0.12201862 -0.047535606 -0.08341056 0.06926224
-0.062346168 0.12453564 -0.04007934 -0.06453742 -0.14630248 0.0075064725 0.15073843 -0.09232975
-0.043706685 0.007323373 0.14528088 0.080321714 -0.033070676 0.055736843 0.088231795 0.008482875
-0.0014519393 0.10700631 -0.1171198 0.15510729 -0.12751652 0.16954488 -0.100171655 0.096470125
-0.016105268 -0.07534426 0.04549198 -0.10441279 0.08435889 0.058382977 0.15034975 0.06550755
00000000: c309 9a3c 23e7 00be 9aa4 073d 4a03 4cbd
00000010: 149a f63d 790a b6bd d1b3 2c3e 803c 2b3d
00000020: a48c 4e3d 0b45 34be ac86 e53d 91d3 8b3a
00000030: 02c7 65bc 6497 00bd a984 003e bb1f 353c
00000040: fbca 90bc 0614 45bd 6d01 223d 1628 e9bd
00000050: 1887 46bc 45f6 1bbe 7b94 e33d b293 c63d
00000060: 9bbd a9bd e485 23bc 11fd 343e d3b7 a5bd
00000070: e6e4 f93d b2b4 42bd 28d3 aabd 5cd9 8d3d
00000080: b25e 7fbd 8b0c ff3d 3c2a 24bd 322c 84bd
00000090: 51d0 15be dbf8 f53b 2d5b 1a3e 6117 bdbd
000000a0: c805 33bd e8f8 ef3b 83c4 143e b67f a43d
000000b0: 1e75 07bd 514c 643d dfb2 b43d c2fb 0a3c
000000c0: 004f beba 2026 db3d 81dc efbd 72d4 1e3e
000000d0: b193 02be 2c9d 2d3e cc26 cdbd 2192 c53d
000000e0: 32ef 83bc 174e 9abd cc55 3a3d 5fd6 d5bd
000000f0: 5bc4 ac3d fd22 6f3d 49f5 193e d328 863d

fc1.weight f4 [16, 896]
0.02176677 0.007099894 0.016635833 -0.0038399815 -0.01603721 0.02966159 0.032989223 0.027380314
0.001026133 0.030265504 -0.030057231 0.008891848 -0.024275161 0.008493689 -0.017980928 -0.027031902
0.02091062 -0.013190041 -0.022166958 -0.017194806 -0.021621637 -0.02303631 -0.011992025 -0.019621328
0.0044555706 -0.006938742 -0.00784554 -0.032119177 -0.03288689 -0.00603303 -0.026409123 0.01829425
0.010061578 -0.012419065 0.012105987 0.0119629055 0.02929264 0.007771171 -0.004476781 -0.0068492224
-0.007202434 0.0128557375 0.0006519755 0.02129078 -0.010921908 -0.004062194 0.019044494 -0.019845808
0.02192927 -0.0019006034 0.0051366417 -0.013120428 0.0016774533 -0.007927814 -0.012548482 -0.02856116
-0.008444455 -0.010983631 -0.017854389 -0.003433325 0.018887388 -0.03236363 0.030561125 -0.0070500085
-0.029263416 0.0024770047 -0.009509464 -0.023379646 0.001198837 0.013710496 0.013570621 -0.021603283
-0.008799069 0.030442188 -0.01890643 0.0009563974 -0.024903037 -0.0092043355 -0.021208493 -0.003253851
0.015868071 -0.0324081 0.026910137 -0.037276123 0.025762934 -0.015191862 0.009012359 0.022168823
0.023530845 -0.00026643497 -0.029762983 -0.0049327225 -0.0012584855 0.022866238 -0.0038075093 0.0064330194
0.0019756074 -0.024035556 0.0006067549 -0.033146504 -0.013257836 -0.01849678 -0.021892032 -0.0077082315
0.03154867 0.021825487 -0.023479966 -0.026889212 -0.02598026 0.0009922322 0.018738588 0.009459097
-0.036701925 -0.015475924 0.029324533 -0.0057189264 0.022947457 -0.031126376 -0.026282828 0.028349765
-0.011305096 -0.0067087086 0.010527198 -0.024412831 0.01070259 0.025906647 0.02063206 -0.025821406
-0.019099336 0.016347695 0.031672075 0.027989982 -0.0316709 -0.02459661 -0.028676981 0.004878211
0.014014839 -0.033269618 0.021239754 -0.030401297 -0.022345608 0.0028640095 0.0015665127 -0.017676892
-0.0009299172 0.02737545 0.020035423 0.008883219 0.032658402 0.019114256 0.009022031 0.00053230283
0.009465225 0.021834275 -0.029179523 -0.0040333313 -0.015568929 0.025526103 0.011055996 0.025138954
-0.020818664 -0.024077956 -0.016537936 -0.009450225 -0.00052806333 -0.012899453 -0.00742181 0.023975322
-0.039107095 0.027904483 0.0055974904 -0.015188889 0.020313393 0.028660728 0.017468747 -0.0030253483
-0.0047666323 0.022604847 -0.025199717 0.012011341 -0.02579759 -0.016666654 -0.028342545 -0.0023884694
0.008886437 0.015201958 0.0035678225 -0.020629488 -0.024753792 -0.02514901 -0.012072539 0.022686945
-0.0068750563 0.031122083 0.014927416 0.018170102 0.020744061 -0.019045446 0.029692875 0.02538957
-0.03229394 0.022023328 0.0010180863 0.02900535 0.015948972 -0.0015085202 0.0054094223 0.0030982757
-0.030058617 -0.023428706 -0.0042189676 -0.03312578 -0.020587252 -0.00845555 -0.019704273 -0.012706613
-0.029365752 0.01593978 0.026998123 0.023853917 -0.023541013 0.025431762 0.031227808 -0.021490911
-0.001468739 -0.019931601 -0.022110166 -0.019427508 0.027006462 0.020725217 0.030277014 -0.016771171
0.019480484 0.03138298 0.029787594 0.016873913 -0.021246945 0.0074815857 0.026990226 0.015705891
-0.012022666 -0.030406509 -0.0031475192 -0.004123842 0.009964186 0.010219576 -0.0070283925 0.02215004
-0.0011646511 0.0021450955 0.010497933 0.021849843 0.016490301 0.0055606253 -0.027665833 -0.03141771
00000000: 3a50 b23c 3aa6 e83b df47 883c 33a8 7bbb
00000010: 7860 83bc ddfc f23c b51f 073d ae4c e03c
00000020: 4f7f 863a 5def f73c 953a f6bc 1daf 113c
00000030: b4dc c6bc 1d29 0b3c bd4c 93bc 0272 ddbc
00000040: c04c ab3c 0b1b 58bc 7b97 b5bc 1fdc 8cbc
00000050: dc1f b1bc a5b6 bcbc 337a 44bc e8bc a0bc
00000060: 0900 923b 635e e3bb 948a 00bc 668f 03bd
00000070: 67b4 06bd b9b0 c5bb f257 d8bc d3dd 953c
00000080: 51d9 243c 5679 4bbc 3158 463c 1000 443c
00000090: 1ef7 ef3c 4fa5 fe3b f6b1 92bb 716f e0bb
000000a0: 6502 ecbb dfa0 523c 56e9 2a3a 006a ae3c
000000b0: cdf1 32bc 271c 85bb 3303 9c3c ad93 a2bc
000000c0: 03a5 b33c ab1d f9ba 4651 a83b 10f7 56bc
000000d0: fedd db3a a9e3 01bc 2698 4dbc 18f9 e9bc
000000e0: 9d5a 0abc b0f4 33bc 5e43 92bc a301 61bb
000000f0: b9b9 9a3c ba8f 04bd 535b fa3c c203 e7bb
00000100: d5b9 efbc 3e55 223b 95cd 1bbc ac86 bfbc
00000110: 4b22 9d3a fda1 603c 4f57 5e3c 5ef9 b0bc
00000120: f829 10bc e561 f93c a8e1 9abc beb6 7a3a
00000130: 7401 ccbc c8cd 16bc 6fbd adbc 903e 55bb
00000140: c2fd 813c 5bbe 04bd a672 dc3c d9ae 18bd
00000150: ca0c d33c 4ae7 78bc 93a8 133c 649b b53c
00000160: c2c3 c03c 4cb0 8bb9 80d1 f3bc ada2 a1bb
00000170: c4f3 a4ba fa51 bb3c 6887 79bb 14cc d23b
00000180: 3179 013b 37e6 c4bc a20e 1f3a a1c4 07bd
00000190: 6537 59bc 8f86 97bc eb56 b3bc 5595 fcbb
000001a0: 2e39 013d 5dcb b23c 0f59 c0bc c446 dcbc
000001b0: 8ed4 d4bc ca0d 823a ab81 993c 54fa 1a3c
000001c0: c254 16bd bb8e 7dbc 013a f03c d565 bbbb
000001d0: 4efc bb3c befc febc 164f d7bc c43d e83c
000001e0: 0239 39bc bad4 dbbb 457a 2c3c 6bfd c7bc
000001f0: eb59 2f3c 2d3a d43c 9104 a93c 6a87 d3bc
00000200: 3676 9cbc 9aeb 853c 94ba 013d 3f4b e53c
00000210: 58b9 01bd d47e c9bc fdeb eabc 66d9 9f3b
00000220: 7f9e 653c b945 08bd fefe ad3c 240c f9bc
00000230: 230e b7bc 1bb2 3b3b 7253 cd3a 21cf 90bc
00000240: b0c5 73ba 7b42 e03c 5421 a43c ec8a 113c
00000250: d1c4 053d 8095 9c3c 24d1 133c 3d8a 0b3a
00000260: 0814 1b3c cbdd b23c e509 efbc 092a 84bb
00000270: d214 7fbc 1e1c d13c 3524 353c 35f0 cd3c
00000280: e78b aabc 223f c5bc 917a 87bc 1ed5 1abc
00000290: bb6d 0aba 3a58 53bc a832 f3bb e567 c43c
000002a0: c32e 20bd f197 e43c 276b b73b d1da 78bc
000002b0: 4668 a63c e7c9 ea3c 9e1a 8f3c ec44 46bb
000002c0: 6931 9cbb cd2d b93c a36f cebc 37cb 443c
000002d0: 7855 d3bc 8288 88bc a02e e8bc de87 1cbb
000002e0: 6b98 113c a211 793c 21d2 693b 2cff a8bc
000002f0: 77c8 cabc 4c05 cebc e6cb 45bc f9d9 b93c
00000300: 2748 e1bb bdf3 fe3c 1f92 743c 77d9 943c
00000310: 73ef a93c 3205 9cbc 793e f33c cafd cf3c
00000320: a746 04bd 446a b43c 4f71 853a a19c ed3c
00000330: 6ba7 823c 8ab9 c5ba 8641 b13b 710c 4b3b
00000340: 7d3d f6bc 8fed bfbc 443f 8abb e6ae 07bd
00000350: 99a6 a8bc 2689 0abc db6a a1bc 662f 50bc
00000360: 7290 f0bc 2494 823c 2b2b dd3c 4a69 c33c
00000370: 15d9 c0bc 4556 d03c 76d1 ff3c b50d b0bc
00000380: b482 c0ba 9947 a3bc 6120 b5bc 7026 9fbc
00000390: a83c dd3c eec7 a93c 8007 f83c b263 89bc
000003a0: 8995 9f3c 718b 003d 1d05 f43c 293b 8a3c
000003b0: 130e aebc 1728 f53b 9b1a dd3c a4a9 803c
000003c0: b7fa 44bc 1217 f9bc 9c46 4ebb 4b21 87bb
000003d0: d340 233c 0270 273c 6e4e e6bb 0074 b53c
000003e0: 35a7 98ba bb94 0c3b 86ff 2b3c 71fe b23c
000003f0: ab16 873c e835 b63b 75a3 e2bc dbaf 00bd

fc1.bias f4 [16]
-0.006464335 5.1941122e-05 -0.025860334 0.023149911 0.013334218 0.023136858 0.027009914 -0.023511367
-0.022646531 -0.024249798 0.009514163 -0.0012382814 -0.0030304678 -0.008098789 -0.030607669 0.013192231
00000000: c6d2 d3bb 5bdb 5938 0dd9 d3bc e2a4 bd3c
00000010: c477 5a3c 8289 bd3c e543 dd3c e99a c0bc
00000020: 3885 b9bc 83a7 c6bc 4be1 1b3c d44d a2ba
00000030: d09a 46bb c8b0 04bc efbc fabc 3a24 583c

fc2.weight f4 [32, 16]
-0.13794541 -0.23668705 -0.08774948 0.033225775 0.12342509 0.15852964 0.15644696 -0.05495888
-0.2361528 -0.077221595 -0.20134613 -0.096536785 -0.18834414 -0.0076186955 -0.24769527 -0.03314958
-0.008361839 -0.058362935 0.01851133 -0.04906427 -0.11770422 0.15262416 0.13479567 -0.08933469
-0.11121115 0.21733157 -0.02492078 -0.006954663 0.062937975 -0.1305569 -0.0028983718 0.12159663
-0.0068815094 -0.011370984 -0.23616159 -0.20950879 0.050476506 -0.23000586 0.22202393 0.15144958
-0.16076386 -0.059757292 0.12248976 -0.14671399 0.22303714 0.1784922 0.24283716 0.18965624
-0.23247245 -0.038093504 -0.22810222 0.03459977 0.14625943 -0.24288017 0.1286567 -0.003266256
0.21705952 -0.2335465 0.102248244 -0.08214829 0.1997836 -0.20412825 0.17308016 0.07781098
0.07524813 0.21029629 -0.16254264 -0.1779309 -0.12807584 -0.037608624 0.113452435 -0.19599804
-0.111896 0.042138323 0.09132396 0.16696322 -0.03356275 0.0515711 -0.0703644 -0.13093925
0.01496723 0.24088423 -0.20649788 0.119234 0.15373987 0.10083133 -0.13839981 0.19131607
-0.12000147 0.24290542 0.18245947 0.035953052 -0.24207884 0.21601115 -0.14997254 0.22783506
-0.18450671 -0.17423362 0.00913276 -0.14623854 0.07853141 -0.1445378 -0.19042444 -0.23617545
0.17320956 0.021602355 -0.11546975 -0.026689406 0.15667997 -0.13745831 0.24849886 0.2506518
-0.11916173 0.061084677 -0.21301022 0.076402016 -0.1662968 -0.12352973 0.16147557 0.15568501
-0.13119277 -0.15960337 0.1908383 -0.22776979 -0.18923104 0.057465762 -0.17403628 0.19915703
-0.007164683 0.17578116 0.051269345 0.19295618 -0.23517355 0.04914017 0.13708404 0.24064353
0.14792764 -0.029226115 -0.15208958 0.21444593 0.16226083 0.14418383 -0.07457326 0.22387397
0.13973221 -0.039864615 -0.16220672 0.0948672 0.2033074 -0.1696856 -0.1485874 -0.24164434
0.111478195 0.12105071 0.13605802 0.23797067 0.009599442 -0.20510606 0.09431777 0.21993983
0.21652377 -0.1698226 0.050133895 0.07501008 -0.17330596 0.037033938 -0.050293267 0.08062907
0.10504346 -0.22283994 0.16122937 -0.17266108 0.09213316 -0.17077734 -0.17769507 0.002508261
0.06548876 -0.08870441 0.1879815 -0.02173885 0.24560417 -0.027910754 0.15864736 0.10292157
0.108471185 0.1961263 -0.23564772 -0.19792582 0.17119835 0.2094318 -0.16493973 0.24487199
-0.07174198 -0.16828467 0.025713498 0.1826706 0.16700512 0.15624997 -0.24951461 -0.092069186
-0.008418366 0.19986722 -0.10999477 -0.24093814 0.21272893 0.18627113 0.16094343 -0.23719846
-0.23661241 -0.17367218 0.08275375 -0.23082058 -0.022578642 -0.21034154 0.16429064 0.08671281
0.1677 0.035426505 -0.07813437 -0.012964141 0.15191495 -0.22321096 0.13582191 -0.16993746
-0.21337874 -0.16472907 0.09897786 0.06139381 0.00020399572 0.05160839 -0.14943415 0.23283713
0.10502551 0.015599811 -0.2175209 0.13268858 0.12918918 0.15743926 0.024260374 0.1529201
0.0135939345 0.024644539 -0.046119664 -0.16945097 0.055708166 0.036183212 0.14410977 0.22156863
-0.037152667 -0.201669 -0.099268034 -0.17133945 -0.15886319 -0.20418607 0.22981124 0.14432596
00000000: 9041 0dbe 175e 72be 00b6 b3bd c017 083d
00000010: 4bc6 fc3d 9855 223e a233 203e 901c 61bd
00000020: 0ad2 71be 5b26 9ebd ae2d 4ebe 14b5 c5bd
00000030: 49dd 40be 40a6 f9bb d4a3 7dbe dbc7 07bd
00000040: 1800 09bc f90d 6fbd 13a5 973c 9ef7 48bd
00000050: e90e f1bd 8249 1c3e e007 0a3e 1bf5 b6bd
00000060: acc2 e3bd 2b8c 5e3e aa26 ccbc f1e3 e3bb
00000070: a0e5 803d b5b0 05be 9cf2 3dbb a707 f93d
00000080: 497e e1bb 5d4d 3abc 58d4 71be 7989 56be
00000090: 74c0 4e3d a886 6bbe 3e5a 633e 9915 1b3e
000000a0: 489f 24be 10c4 74bd e9db fa3d 313c 16be
000000b0: d963 643e a9c6 363e 4eaa 783e 3f35 423e
000000c0: 420d 6ebe ef07 1cbd a193 69be 7db8 0d3d
000000d0: 08c5 153e 94b5 78be 95be 033e af0e 56bb
000000e0: da44 5e3e d026 6fbe 8767 d13d 5d3d a8bd
000000f0: 1294 4c3e ff06 51be ed3b 313e 5d5b 9f3d
00000100: b11b 9a3d e957 573e 9471 26be 8533 36be
00000110: 5026 03be 800b 1abd c059 e83d b6b3 48be
00000120: bb29 e5bd 3c99 2c3d 0e08 bb3d 68f8 2a3e
00000130: 1879 09bd 383c 533d 361b 90bd f014 06be
00000140: 1d39 753c 5baa 763e 2e74 53be f530 f43d
00000150: fc6d 1d3e a880 ce3d aeb8 0dbe 5ce8 433e
00000160: 55c3 f5bd 33bc 783e a8d6 3a3e 8243 133d
00000170: 84e3 77be 0732 5d3e 6792 19be 984d 693e
00000180: 54ef 3cbe 4c6a 32be 92a1 153c 8ebf 15be
00000190: 13d5 a03d b801 14be a0fe 42be fad7 71be
000001a0: d95d 313e 6cf7 b03c 677b ecbd bea3 dabc
000001b0: b770 203e dfc1 0cbe 7c76 7e3e 6f55 803e
000001c0: 110b f4bd ed33 7a3d 5a1f 5abe a978 9c3d
000001d0: b549 2abe 28fd fcbd da59 253e e46b 1f3e
000001e0: 6657 06be 116f 23be 1e6b 433e 7c3c 69be
000001f0: c8c5 41be 3861 6b3d 9136 32be d2ef 4b3e
00000200: b8c5 eabb faff 333e ceff 513d 4e96 453e
00000210: 56d1 70be 3447 493d c25f 0c3e 426b 763e
00000220: 587a 173e 9b6b efbc 5fbd 1bbe b797 5b3e
00000230: b427 263e eda4 133e deb9 98bd 383f 653e
00000240: f615 0f3e 1449 23bd 8519 26be bc49 c23d
00000250: d12f 503e 10c2 2dbe 4c27 18be 9d71 77be
00000260: ae4e e43d 6fe9 f73d cb52 0b3e 95ae 733e
00000270: fa46 1d3c 5307 52be ad29 c13d e837 613e
00000280: 68b8 5d3e fae5 2dbe 3359 4d3d e39e 993d
00000290: 1e77 31be e6b0 173d 5000 4ebd db20 a53d
000002a0: 0721 d73d 2730 64be 5019 253e 11ce 30be
000002b0: 4fb0 bc3d 41e0 2ebe b2f5 35be a361 243b
000002c0: f91e 863d a8aa b5bd 397e 403e ac15 b2bc
000002d0: a97f 7b3e 18a5 e4bc 7474 223e 8bc8 d23d
000002e0: 2426 de3d 55d5 483e a34d 71be 11ad 4abe
000002f0: 9f4e 2f3e 4a75 563e f6e5 28be b9bf 7a3e
00000300: 76ed 92bd d152 2cbe 1da5 d23c 000e 3b3e
00000310: 6403 2b3e feff 1f3e c280 7fbe c58e bcbd
00000320: 30ed 09bc fea9 4c3e f044 e1bd 7db8 76be
00000330: 9dd5 593e dcbd 3e3e 5bce 243e 27e4 72be
00000340: 864a 72be 1fd7 31be cc7a a93d 3b5c 6cbe
00000350: d8f6 b8bc c663 57be ce3b 283e 7c96 b13d
00000360: 8cb9 2b3e 621b 113d ea04 a0bd 8c67 54bc
00000370: 988f 1b3e 6a91 64be e614 0b3e 1604 2ebe
00000380: f57f 5abe bdae 28be e7b4 ca3d 1378 7b3d
00000390: afe7 5539 5263 533d 4405 19be db6c 6e3e
000003a0: 9d17 d73d 5a96 7f3c ccbd 5ebe 84df 073e
000003b0: 2b4a 043e c237 213e b1bd c63c 1697 1c3e
000003c0: 18b9 5e3c 58e3 c93c f9e7 3cbd 8e84 2dbe
000003d0: 3f2e 643d d934 143d 8391 133e e3e2 623e
000003e0: 652d 18bd 5182 4ebe 0a4d cbbd 9c73 2fbe
000003f0: 08ad 22be 2716 51be a353 6b3e 2fca 133e

fc2.bias f4 [32]
0.13945855 0.10434675 0.1289712 0.025202157 -0.21332352 0.10875446 0.0034508223 0.14138016
0.11767692 -0.15936737 0.20535019 -0.15698947 -0.21436167 -0.073749386 -0.15040395 0.020743173
-0.20784827 0.05614388 -0.2313305 -0.08122956 -0.20755744 -0.13363163 -0.12193998 0.0010646582
-0.20059867 -0.05301025 -0.1767248 0.12842567 0.13987255 0.20348305 -0.020226719 -0.2114529
00000000: 39ce 0e3e c0b3 d53d 0711 043e c174 ce3c
00000010: 7b71 5abe a9ba de3d 3127 623b f6c5 103e
00000020: 9900 f13d 3331 23be 5247 523e d9c1 20be
00000030: a081 5bbe eb09 97bd 7e03 1abe 96ed a93c
00000040: 2dd6 54be 20f7 653d e7e1 6cbe af5b a6bd
00000050: f089 54be bbd6 08be abbb f9bd 008c 8b3a
00000060: bd69 4dbe 4721 59bd 59f7 34be 0582 033e
00000070: c03a 0f3e dc5d 503e 81b2 a5bc 1c87 58be

fc3.weight f4 [64, 32]
-0.080256924 -0.14517626 -0.16837114 0.054257277 0.07336332 -0.003540393 -0.11267521 -0.11352524
0.10990972 0.13652727 0.10596233 0.0388951 0.06491092 0.056185957 0.012630308 -0.06024702
-0.14875938 0.17077483 0.040205285 0.16259558 0.1258073 0.040626068 -0.0010078577 -0.042545468
0.17002845 -0.061036386 0.12011209 -0.16044128 -0.11560971 -0.021420915 -0.117865235 0.024196943
0.09326844 -0.04727649 0.07472482 0.041304443 0.061555043 -0.040955525 0.017025402 0.021282123
-0.002554242 -0.10726439 -0.10411451 -0.08729103 0.009735833 0.12746722 -0.10151837 0.08020475
-0.17108703 0.047064975 -0.15049869 -0.070232175 -0.046116877 -0.069005065 0.12434863 0.13807909
-0.08880801 0.0731127 -0.067584455 0.16408412 0.1401523 0.14884086 0.16332558 0.08769106
0.113009684 0.07488913 -0.07047539 -0.046955556 -0.17617564 0.04419476 0.012834878 0.11162664
-0.01156991 0.0021574788 -0.1459882 -0.12689115 0.15050595 0.11179486 0.0037325085 -0.115437165
0.16106316 -0.1612229 0.052775502 0.17136048 0.16298279 0.015308019 0.12349633 0.060419172
0.1633082 -0.097499475 0.09179567 0.1000889 -0.17203695 0.15829046 -0.06836633 0.16878794
-0.015881713 0.081176594 -0.12430757 0.15859854 -0.14095256 -0.12513022 -0.109008044 -0.015961055
-0.16853194 -0.06684358 0.009742402 0.1568257 0.022973267 -0.041666664 -0.1394581 -0.10372487
-0.0042042756 0.051341802 0.13564478 -0.10415259 0.17468716 0.048990943 -0.06397371 0.122341275
-0.110733494 -0.024532871 0.023588011 -0.02319512 -0.112059124 0.1703764 0.06179955 0.1763008
0.061646298 -0.0324292 0.12900496 -0.00707054 -0.042665042 0.11792252 0.14987077 -0.072756305
0.03508676 0.055384666 -0.06489498 0.033980586 0.027580353 0.13711993 0.16918851 0.022608282
-0.109969854 0.06680725 -0.1009486 0.14173375 -0.032403465 -0.055276677 0.056849312 0.17587414
-0.050839808 0.0825136 -0.0073260074 0.045471776 -0.17244756 -0.11972175 -0.111680105 -0.0955944
0.17334394 -0.123217 -0.05139824 -0.017046899 0.12846375 -0.06800163 0.09333351 -0.070150636
-0.11297316 0.013985208 -0.16692664 -0.13942724 -0.12531982 0.022220282 -0.032790985 -0.11252283
0.011467663 0.026519476 -0.07417344 -0.14924617 -0.11200595 -0.16080499 0.021229805 0.13399127
-0.11294189 0.045949936 0.16173837 -0.011260831 -0.0075926175 -0.040869847 0.025467152 0.06860906
0.16166371 -0.069261916 -0.08247673 -0.16104758 0.17108332 0.012481839 -0.031201635 -0.10054662
0.000106941436 0.0752678 0.16238485 -0.061927065 -0.056165367 0.079627015 0.112979256 -0.046307277
0.12680419 -0.03680152 -0.05013987 0.022429293 0.1704038 0.027777508 0.16920191 0.024926579
0.12083519 0.13759686 -0.08686277 0.092250586 -0.10008852 -0.107029095 -0.021400824 0.17052086
0.14191699 0.0537144 0.052478526 -0.09116253 0.022502193 -0.052862618 -0.03937396 -0.07789536
-0.14503314 0.015095918 -0.045956347 -0.051513527 0.090750575 -0.091900915 -0.12928249 0.06147446
0.09333161 -0.13867801 0.15882954 -0.015560118 0.0103360815 0.11998385 0.13013335 -0.11250998
-0.13751425 -0.124208644 0.15116787 0.066010065 0.049989786 0.08470454 0.14607415 -0.17362252
00000000: be5d a4bd 16a9 14be 7c69 2cbe e13c 5e3d
00000010: 823f 963d f005 68bb 43c2 e6bd ec7f e8bd
00000020: 5918 e13d cecd 0b3e c702 d93d 7850 1f3d
00000030: 04f0 843d 3f23 663d 5aef 4e3c 94c5 76bd
00000040: 6154 18be 99df 2e3e 4cae 243d 757f 263e
00000050: a1d3 003e 8567 263d 181a 84ba 2844 2ebd
00000060: f01b 2e3e 4a01 7abd 54fd f53d b84a 24be
00000070: c9c4 ecbd ea7a afbc 5463 f1bd ab38 c63c
00000080: 8603 bf3d fea4 41bd 5409 993d d92e 293d
00000090: 2421 7c3d fbc0 27bd db78 8b3c d957 ae3c
000000a0: 1265 27bb 6fad dbbd fd39 d5bd a4c5 b2bd
000000b0: 0b83 1f3c c486 023e dde8 cfbd 6342 a43d
000000c0: 7031 2fbe 34c7 403d 541c 1abe e3d5 8fbd
000000d0: 0de5 3cbd 8752 8dbd 7faa fe3d 9b64 0d3e
000000e0: f9e0 b5bd 1cbc 953d b869 8abd ab05 283e
000000f0: 1684 0f3e bd69 183e d23e 273e 5f97 b33d
00000100: 9f71 e73d 795f 993d 6755 90bd 7854 40bd
00000110: 6367 34be 9105 353d 6149 523c 829c e43d
00000120: b88f 3dbc 7d64 0d3b ee7d 15be c1ef 01be
00000130: 3b1e 1a3e b4f4 e43d 1a9d 743b 526a ecbd
00000140: beed 243e 9e17 25be 202b 583d 1f79 2f3e
00000150: f6e4 263e 7cce 7a3c a5eb fc3d 187a 773d
00000160: 443a 273e cead c7bd 5eff bb3d 69fb cc3d
00000170: 742a 30be e516 223e a503 8cbd bfd6 2c3e
00000180: 5e1a 82bc ea3f a63d f894 febd a867 223e
00000190: de55 10be 2322 00be 9c3f dfbd c2c0 82bc
000001a0: a393 2cbe 49e5 88bd 989e 1f3c eb96 203e
000001b0: 6f32 bc3c aaaa 2abd 1bce 0ebe b46d d4bd
000001c0: 05c4 89bb c84b 523d 77e6 0a3e f44d d5bd
000001d0: 31e1 323e baaa 483d a604 83bd 108e fa3d
000001e0: 3ec8 e2bd 29f9 c8bc a53b c13c b103 bebc
000001f0: 417f e5bd 2777 2e3e 8621 7d3d 3288 343e
00000200: d480 7c3d 7bd4 04bd e019 043e fdaf e7bb
00000210: 8ac1 2ebd 5d81 f13d b977 193e 4201 95bd
00000220: 22b7 0f3d 08db 623d a9e7 84bd 3a2f 0b3d
00000230: 31f0 e13c 2b69 0c3e c13f 2d3e 0135 b93c
00000240: e037 e1bd 3dd2 883d 24be cebd a722 113e
00000250: 7fb9 04bd cc69 62bd d3da 683d 5a18 343e
00000260: 673d 50bd e4fc a83d 010f f0bb 9d40 3a3d
00000270: 1896 30be ad30 f5bd 8ab8 e4bd ffc6 c3bd
00000280: 1381 313e 3259 fcbd f686 52bd f0a5 8bbc
00000290: 008c 033e 7044 8bbd a425 bf3d 23ab 8fbd
000002a0: 795e e7bd 3722 653c d1ee 2abe 04c6 0ebe
000002b0: d753 00be 4f07 b63c d74f 06bd 5f72 e6bd
000002c0: dde2 3b3c 5f3f d93c 3fe8 97bd fdd3 18be
000002d0: 6063 e5bd 10aa 24be 21ea ad3c 0235 093e
000002e0: 144e e7bd 0036 3c3d be9e 253e 597f 38bc
000002f0: 7ecb f8bb 2467 27bd 7da0 d03c e882 8c3d
00000300: 2c8b 253e 31d9 8dbd 8fe9 a8bd a8e9 24be
00000310: 7730 2f3e a180 4c3c 929a ffbc 63eb cdbd
00000320: bf45 e038 0126 9a3d 3748 263e 3ca7 7dbd
00000330: a80d 66bd 7d13 a33d ab61 e73d b3ac 3dbd
00000340: f5d8 013e 31bd 16bd 775f 4dbd a3bd b73c
00000350: 557e 2e3e a88d e33c 4443 2d3e d332 cc3c
00000360: 7178 f73d 31e6 0c3e 1ce5 b1bd e0ed bc3d
00000370: 36fb ccbd 1232 dbbd c850 afbc 059d 2e3e
00000380: b052 113e a103 5c3d b9f3 563d 6cb3 babd
00000390: 8556 b83c 7986 58bd 9746 21bd 9a87 9fbd
000003a0: 9183 14be df54 773c b93c 3cbd d9ff 52bd
000003b0: 70db b93d 8c36 bcbd a162 04be a5cc 7b3d
000003c0: a524 bf3d 9c01 0ebe 36a4 223e ddef 7ebc
000003d0: ab58 293c 18ba f53d ad41 053e a26b e6bd
000003e0: 89d0 0cbe 1a61 febd c0cb 1a3e 4930 873d
000003f0: 17c2 4c3d 9379 ad3d 7694 153e 1aca 31be

fc3.bias f4 [64]
-0.12340892 0.008074191 -0.06558286 0.13951786 0.16166326 0.12184493 -0.12167779 -0.16780595
-0.13013637 0.03140976 0.026364194 -0.021903023 -0.14598821 0.08485031 0.107189976 -0.13662285
0.16544683 -0.048900772 -0.054922156 0.06616253 -0.03214825 0.12924883 -0.055963736 0.010940187
0.030129565 0.0073747532 0.098651595 -0.013155673 0.1552469 0.14785382 0.117769085 -0.045400962
-0.04211701 0.10522561 0.015940972 -0.009470605 -0.15708476 0.073805824 0.12329796 -0.16092403
0.07227448 -0.08536152 0.172547 -0.05814952 -0.030070884 -0.15384856 0.16882835 -0.06685025
0.08699866 0.049644567 -0.041776676 -0.042412013 0.16163918 -0.1195214 0.08767457 0.14018364
0.07809235 -0.17264317 0.027305244 -0.057076726 0.09532895 0.15882166 -0.025287176 0.008730709
00000000: d1bd fcbd 9d49 043c 4e50 86bd c5dd 0e3e
00000010: 0e8b 253e d689 f93d 3532 f9bd 53d5 2bbe
00000020: 7842 05be 85a7 003d b9f9 d73c f86d b3bc
00000030: ef7d 15be 00c6 ad3d 6b86 db3d dce6 0bbe
00000040: e56a 293e 2d4c 48bd 0ef6 60bd 3880 873d
00000050: e2ad 03bd ce59 043e 3b3a 65bd 783e 333c
00000060: 47d2 f63c eaa7 f13b d909 ca3d e48a 57bc
00000070: 0bf9 1e3e fe66 173e eb30 f13d 5cf6 39bd
00000080: e382 2cbd 8680 d73d a496 823c 992a 1bbc
00000090: d4da 20be 8227 973d a483 fc3d 45c9 24be
000000a0: a404 943d 05d2 aebd 29b0 303e 312e 6ebd
000000b0: 3757 f6bc 7a8a 1dbe 57e1 2c3e c9e8 88bd
000000c0: 5a2c b23d 1a58 4b3d 051e 2bbd 38b8 2dbd
000000d0: be84 253e a3c7 f4bd ba8e b33d 4d8c 0f3e
000000e0: e2ee 9f3d 5fc9 30be 3faf df3c 49c9 69bd
000000f0: d33b c33d 25a2 223e 0d27 cfbc 3f0b 0f3c

fc4.weight f4 [128, 64]
-0.08430313 0.11654491 -0.012459376 0.013162436 -0.08741342 -0.008905528 0.062317275 0.05170289
-0.08534575 -0.06349994 -0.10451267 -0.012849646 0.051273998 -0.120063566 0.011059054 0.010788564
-0.10078323 -0.08527388 -0.08312423 0.1077977 0.07509439 -0.050540123 0.11748629 -0.055281427
-0.037025385 -0.003222112 0.05403379 0.01537679 0.055207018 0.082811385 -0.014778835 0.03956025
-0.05024912 -0.015868476 0.048680525 -0.064392656 0.05444664 0.11249241 0.0108937565 0.018174002
0.08116229 -0.08477863 0.061690252 0.0055571278 0.09728982 0.036333695 0.023820475 0.102918975
0.043175027 0.012735964 0.004788002 -0.09070133 -0.02371682 -0.0515325 -0.10280284 0.09144212
-0.014239869 0.08645537 0.113057785 0.08050659 0.11184652 -0.044940952 0.052284956 -0.016616601
-0.05096787 -0.029484851 -0.07662815 0.10406655 0.11212615 0.053550065 0.04707968 -0.05852915
-0.06428095 -0.043977235 -0.022329034 0.12270625 -0.020304905 -0.0835371 -0.05890562 -0.03842735
-0.08709626 -0.087557286 0.037594605 0.119100556 0.012993671 -0.058079444 -0.10633066 -0.117220856
-0.011475107 -0.11547431 0.031593114 -0.036926024 0.08884986 -0.10597553 -0.110682175 0.0033504672
0.09169219 -0.09385155 -0.0506596 -0.068435945 -0.024415279 -0.021845847 -0.016436398 -0.049019154
0.009087542 -0.028191054 0.087622814 -0.098930106 -0.0029404887 -0.010689675 0.11666611 0.010204338
-0.013239637 -0.05724818 0.07231073 -0.08751515 0.012651502 0.09376928 -0.09162667 0.027488653
0.09852662 -0.03035854 0.06405617 0.05535989 0.026512245 -0.06271244 -0.07250964 0.062409848
0.050338365 -0.025655592 0.0036676184 0.016842483 0.10028869 -0.09783946 -0.057617486 -0.054669365
0.02856705 0.024711588 0.08286711 -0.09248001 -0.10673199 -0.050633576 -0.033557933 0.10028252
0.035104528 0.088144355 -0.07823169 -0.034506615 -0.043900512 0.056777555 -0.030706514 -0.11665995
0.09856127 -0.05941166 -5.478306e-05 0.027241334 0.11007568 -0.045369472 -0.019546814 -0.051955514
0.088959895 -0.076354705 0.114912845 0.099918276 -0.09268722 0.10929013 0.1034342 0.0004371961
-0.00457877 0.11127985 0.0887335 -0.052437004 -0.09142293 -0.024521345 -0.080995165 0.01646804
0.10970074 0.12295443 0.02607768 -0.089998625 0.032823 0.07819268 -0.052394062 0.04905359
0.010702556 -0.00587424 0.010810617 0.07806085 -0.07892548 0.039419048 -0.073999226 -0.06350499
-0.085998654 -0.043235205 0.06898405 0.0070369113 -0.063542604 0.023781618 0.01840376 0.115749545
-0.11010563 0.060514297 -0.053402524 -0.060750324 0.09475242 -0.10762316 0.051281653 -0.07160669
0.09638488 -0.01949598 -0.0029734047 0.1020449 0.027648684 0.1087478 -0.08060145 0.1018459
-0.012675294 0.10619407 0.104291484 0.00762653 0.085625306 0.08709221 0.05983099 0.10480768
0.097049125 0.07631327 0.052382346 0.08710812 0.11233045 0.081772365 0.057654392 -0.101884365
0.11222951 -0.036669284 -0.031529147 0.036744334 -0.009659574 0.11034823 -0.07010448 0.11056731
-0.032245528 0.10066359 0.098868206 -0.09283876 -0.06615489 -0.111829214 -0.12095003 0.075798646
0.04857062 0.061273992 0.0039305356 0.10950676 -0.10595098 -0.08126128 0.014159974 0.030742463
00000000: 1fa7 acbd 19af ee3d 6922 4cbc 42a7 573c
00000010: cf05 b3bd 7ee8 11bc 6640 7f3d 69c6 533d
00000020: c1c9 aebd 420c 82bd bd0a d6bd 5287 52bc
00000030: af04 523d e3e3 f5bd 0931 353c 84c2 303c
00000040: 7067 cebd 12a4 aebd 093d aabd 0ac5 dc3d
00000050: 16cb 993d 2903 4fbd a79c f03d c76e 62bd
00000060: eea7 17bd 122a 53bb 8952 5d3d efee 7b3c
00000070: c120 623d 0499 a93d ed22 72bc ee09 223d
00000080: 05d2 4dbd 9bfe 81bc 3b65 473d 4ce0 83bd
00000090: 7103 5f3d 6c62 e63d ba7b 323c a5e1 943c
000000a0: 6a38 a63d 6ba0 adbd ebae 7c3d 9118 b63b
000000b0: e33f c73d a4d2 143d 2823 c33c 2fc7 d23d
000000c0: 4cd8 303d 81aa 503c ace4 9c3b 9ec1 b9bd
000000d0: c749 c2bc be13 53bd 4c8a d2bd 0246 bb3d
000000e0: 574e 69bc 830f b13d d78a e73d a4e0 a43d
000000f0: ca0f e53d 0114 38bd c028 563d 8a1f 88bc
00000100: afc3 50bd 378a f1bc 38ef 9cbd d820 d53d
00000110: 65a2 e53d 5057 5b3d 9fd6 403d 43bc 6fbd
00000120: bba5 83bd 7921 34bd 61eb b6bc 6a4d fb3d
00000130: 7956 a6bc 8015 abbd 0547 71bd ff65 1dbd
00000140: 865f b2bd 3c51 b3bd cdfc 193d feea f33d
00000150: 68e3 543c b6e4 6dbd e4c3 d9bd 7d11 f0bd
00000160: 1602 3cbc cc7d ecbd c867 013d be3f 17bd
00000170: eaf6 b53d b309 d9bd 56ad e2bd 8393 5b3b
00000180: 1dc9 bb3d 3e35 c0bd 7180 4fbd 2528 8cbd
00000190: 8d02 c8bc 10f6 b2bc a0a5 86bc 4fc8 48bd
000001a0: eae3 143c edf0 e6bc 9773 b33d de9b cabd
000001b0: 37b5 40bb bf23 2fbc a4ee ee3d 1830 273c
000001c0: 10eb 58bc 117d 6abd a617 943d 253b b3bd
000001d0: 3f48 4f3c 1c0a c03d c3a6 bbbd e22f e13c
000001e0: 53c8 c93d 79b2 f8bc e22f 833d 0dc1 623d
000001f0: 3530 d93c 616f 80bd ef7f 94bd 78a1 7f3d
00000200: 9a2f 4e3d ad2b d2bc 6d5c 703b 3ff9 893c
00000210: 2864 cd3d 0e60 c8bd 5000 6cbd fcec 5fbd
00000220: 7205 ea3c f56f ca3c 3bb6 a93d 2966 bdbd
00000230: 4d96 dabd 2765 4fbd 0b74 09bd ec60 cd3d
00000240: c4c9 0f3d 0785 b43d f037 a0bd cf56 0dbd
00000250: 06d1 33bd 958f 683d 3a8c fbbc 69eb eebd
00000260: 7eda c93d a459 73bd ddc6 65b8 3829 df3c
00000270: 5c6f e13d 57d5 39bd a420 a0bc 4ecf 54bd
00000280: 9b30 b63d db5f 9cbd 6d57 eb3d f4a1 cc3d
00000290: ccd2 bdbd 81d3 df3d 4fd5 d33d 7837 e539
000002a0: 8209 96bb b1e6 e33d e9b9 b53d 2fc8 56bd
000002b0: f23b bbbd fde0 c8bc cbe0 a5bd fce7 863c
000002c0: c8aa e03d 88cf fb3d dca0 d53c 3351 b8bd
000002d0: 6971 063d 7c23 a03d 289b 56bd 6bec 483d
000002e0: c659 2f3c b27c c0bb 041f 313c 5ede 9f3d
000002f0: afa3 a1bd de75 213d e88c 97bd e70e 82bd
00000300: 1020 b0bd 6617 31bd 8247 8d3d e495 e63b
00000310: a022 82bd abd1 c23c 7bc3 963c 190e ed3d
00000320: 0f7f e1bd d7dd 773d 9bbc 5abd 55d5 78bd
00000330: 8f0d c23d 8869 dcbd b60c 523d 87a6 92bd
00000340: 7065 c53d 09b6 9fbc 74dd 42bb ebfc d03d
00000350: 7e7f e23c 2bb7 de3d 5f12 a5bd 9594 d03d
00000360: 09ac 4fbc 477c d93d c696 d53d f8e7 f93b
00000370: 525c af3d 675d b23d 5711 753d 69a5 d63d
00000380: b1c1 c63d 224a 9c3d df8e 563d be65 b23d
00000390: 820d e63d 4578 a73d 0327 6c3d c0a8 d0bd
000003a0: 96d8 e53d 8832 16bd b524 01bd 3a81 163d
000003b0: 3143 1ebc 41fe e13d f092 8fbd 1d71 e23d
000003c0: e313 04bd b628 ce3d 6a7b ca3d 3f22 bebd
000003d0: 377c 87bd b706 e5bd a6b4 f7bd 523c 9b3d
000003e0: fdf1 463d 70fa 7a3d b9cb 803b 1545 e03d
000003f0: d4fc d8bd 506c a6bd 3cff 673c 9ed7 fb3c

fc4.bias f4 [128]
0.017170107 -0.049485143 -0.022549393 0.08608187 0.061713673 0.1114236 0.0037018654 -0.00034031045
0.00910211 0.118877605 -0.06650719 0.02284542 -0.07207192 -0.07186095 -0.044371415 -0.013201223
0.066628575 -0.01895913 -0.123290084 0.040675975 -0.05995956 -0.087707706 0.08989734 -0.05487694
-0.07682134 -0.059657633 0.03897591 0.018774647 -0.029913144 -0.0994403 0.041663814 0.0034924143
0.025498038 -0.06052764 -0.017178714 -0.080414936 0.119868845 0.032114886 -0.006643753 0.09180844
0.120378554 -0.008146964 0.02039086 0.11684423 0.11032355 0.018624436 -0.04918245 0.071923316
-0.01136275 -0.0040806825 0.09874072 0.079077214 0.042652737 0.021969175 -0.08988161 -0.026669051
0.03329386 -0.018593946 0.06671088 -0.08132665 -0.035159335 0.087372676 -0.109207824 0.0035972747
0.06655044 0.12203078 -0.053065136 0.07437721 -0.011734794 0.1248518 -0.09911994 0.10158837
-0.03769365 -0.11575689 0.003418738 -0.0021666852 0.038131844 -0.070864655 -0.061272036 -0.0025979653
-0.029781556 0.06428548 -0.0975842 -0.042105854 -0.11568141 0.09474107 -0.10446595 -0.09533759
-0.0015529499 0.04176473 -0.1063331 -0.0011517018 -0.039131206 0.015946921 0.08745752 0.055263612
-0.0020475204 -0.118426986 -0.11842902 -0.03151207 0.047635116 0.074536 -0.07401611 -0.094718516
0.043636292 0.006111386 0.007592351 -0.12359176 -0.112616144 0.00551942 0.10636988 0.025847103
0.05411278 -0.045661796 -0.07766386 0.04485621 0.08269935 -0.0017244883 0.09375681 -0.10222423
-0.056127172 0.05140688 -0.076608986 0.1242978 0.08024257 -0.06043291 -0.038286872 -0.05043513
00000000: 53a8 8c3c efb0 4abd 81b9 b8bc b14b b03d
00000010: 7ac7 7c3d 0e32 e43d ff9a 723b b26b b2b9
00000020: 0421 153c 1a76 f33d ec34 88bd 5126 bb3c
00000030: 719a 93bd d52b 93bd cdbe 35bd f149 58bc
00000040: 9074 883d 2d50 9bbc 837f fcbd da9b 263d
00000050: 2898 75bd 19a0 b3bd 191c b83d a4c6 60bd
00000060: 8254 9dbd 905b 74bd 34a5 1f3d 4acd 993c
00000070: 690c f5bc 5ba7 cbbd ada7 2a3d fde0 643b
00000080: 43e1 d03c d5eb 77bd 60ba 8cbc 96b0 a4bd
00000090: cc7d f53d e68a 033d d7b3 d9bb 1006 bc3d
000000a0: 0889 f63d d87a 05bc bc0a a73c 074c ef3d
000000b0: 50f1 e13d 4692 983c 8973 49bd 884c 933d
000000c0: d42a 3abc 3fb7 85bb 9338 ca3d 3cf3 a13d
000000d0: a3b4 2e3d b3f8 b33c d913 b8bd 0e79 dabc
000000e0: 245f 083d 5552 98bc b79f 883d 968e a6bd
000000f0: 3c03 10bd 72f0 b23d 5aa8 dfbd 41c0 6b3b
00000100: 994b 883d 46eb f93d d45a 59bd 1453 983d
00000110: 4b43 40bc 4db2 ff3d 65ff cabd 900d d03d
00000120: a864 1abd f311 edbd e80c 603b f2fe 0dbb
00000130: 2330 1c3d 7d21 91bd 63f8 7abd a042 2abb
00000140: 73f8 f3bc 1ba8 833d 3ada c7bd 3077 2cbd
00000150: 60ea ecbd 9b07 c23d 3ef2 d5bd 5b40 c3bd
00000160: 5a8c cbba 7e11 2b3d 2bc5 d9bd b3f4 96ba
00000170: 0b48 20bd 1ea3 823c ee1c b33d 195c 623d
00000180: b12f 06bb d989 f2bd ea8a f2bd cd12 01bd
00000190: 0a1d 433d 55a6 983d c295 97bd c8fb c1bd
000001a0: f8bb 323d 0642 c83b 42c9 f83b ad1d fdbd
000001b0: 4ba3 e6bd 40dc b43b 74d8 d93d 4ebd d33c
000001c0: 5da5 5d3d dd07 3bbd 3b0e 9fbd 25bb 373d
000001d0: 475e a93d 3a08 e2ba 9203 c03d f05a d1bd
000001e0: 9be5 65bd 0590 523d 2ce5 9cbd d88f fe3d
000001f0: 3756 a43d 8088 77bd b2d2 1cbd 1195 4ebd

fc5.weight f4 [64, 128]
0.07950566 0.06971189 -0.06969762 0.025183644 0.024280647 -0.08423432 0.021586534 -0.04261483
0.016205357 0.068168074 -0.07518106 -0.038697485 -0.034571584 -0.010745064 0.020525265 -0.07444173
-0.022916103 -0.017268013 -0.014855938 0.053151514 0.070697434 0.024805171 -0.07485619 -0.04684066
0.011977222 -0.051766872 0.06384822 -0.026956564 -0.015341155 0.085997134 -0.04278506 -0.02561982
-0.070374735 0.05062394 0.074758425 0.04103373 -0.007812899 0.03645498 -0.011994456 0.029162906
-0.018034918 -0.037477482 -0.059972696 0.028372312 -0.032748155 0.05043906 0.0725665 0.031926982
0.05500375 0.054860946 0.062539496 -0.019642893 -0.037597764 0.03799175 0.08317634 -0.03332763
0.023150275 0.010294939 -0.034630004 -0.04879391 -0.023040112 -0.01976822 -0.07560653 -0.046859417
-0.007637795 0.04470195 0.01758485 -0.07384749 0.064394414 -0.006017319 0.029117035 -0.07365211
-0.010469141 -0.025073886 0.04807535 -0.065227754 -0.06423073 -0.010140137 0.026082838 0.0017493147
0.017474404 0.026405046 -0.08696935 -0.059637975 0.03029711 -0.045488928 -0.008060686 -0.036611944
0.08610601 -0.0009875661 0.07539803 -0.046103306 -0.06478049 -0.032697007 0.056748755 0.01589293
-0.030586798 0.0044648275 0.019947283 0.026861873 -0.05837229 -0.065904565 0.014365831 0.040918443
-0.030806404 0.08109925 -0.023225967 -0.07625391 0.036064785 -0.020985674 -0.05793974 0.020835528
0.081412524 0.06412784 0.051896557 0.017751966 0.044468448 0.0023679456 -0.06749824 0.08629691
0.0768813 -0.064076416 -0.079755865 -0.0045137876 -0.024224382 -0.06713288 0.06869216 -0.00594264
-0.075907655 -0.02289314 0.017886015 0.07720354 -0.08536363 0.06848861 -0.06201005 -0.0489927
0.0154107325 -0.082821615 -0.018458921 -0.015399463 0.08038015 0.009873695 -0.081978574 0.03809759
0.079888 -0.048273843 -0.035238266 -0.046543065 -0.04877842 0.07316237 0.07525171 -0.004018623
-0.011159095 -0.012936878 -0.06471677 -0.05547769 -0.03922387 -0.041692786 -0.038240314 -0.010698537
-0.008721333 -0.03099927 -0.04944868 0.075245455 -0.07132618 0.0330783 0.02161347 -0.0813577
-0.051059864 -0.031368595 -0.07515497 -0.02293691 0.065321974 -0.03280521 0.052510206 -0.007334687
0.028577903 -0.021998819 -0.07800146 -0.026092201 0.044113982 -0.042015534 -0.070249125 0.06351559
0.0828889 -0.043990374 -0.016614305 0.08639278 -0.07384289 0.01187554 0.016039936 -0.017605895
-0.0638468 -0.046279244 -0.0081082 0.06983701 0.009228091 -0.079229765 0.066721745 -0.033449188
-0.036444694 -0.0613646 0.010968075 -0.057542704 0.0051971367 0.057357192 0.0052806623 -0.02099379
0.07528199 -0.07525809 -0.018665353 -0.06692692 -0.010703842 -0.05814934 -0.07870586 0.07627105
0.080241255 0.05322114 -0.056232795 -0.075187095 0.023502052 -0.05494838 0.032185264 -0.024614345
0.007364632 -0.07920095 -0.0464957 -0.017207012 0.07240921 -0.017969899 -0.08602493 -0.07915402
-0.07856829 -0.0062445705 -0.030545583 -0.030471494 -0.024611045 0.04232729 0.06825411 0.05885004
-0.0063756146 0.056907665 -0.08248443 0.014652768 -0.068199605 -0.04830986 0.080889374 0.04312388
0.020700095 0.07607937 -0.02572418 -0.0112311775 0.053023193 0.025542598 0.048416425 -0.07087962
00000000: ddd3 a23d 1bc5 8e3d a0bd 8ebd ee4d ce3c
00000010: 35e8 c63c 0b83 acbd 3ed6 b03c e38c 2ebd
00000020: 19c1 843c b49b 8b3d 87f8 99bd 4181 1ebd
00000030: ef9a 0dbd 110c 30bc 9a24 a83c e874 98bd
00000040: 8dba bbbc a675 8dbc 5266 73bc 67b5 593d
00000050: d1c9 903d 3734 cb3c 344e 99bd fedb 3fbd
00000060: 1c3c 443c 8009 54bd dbc2 823d 03d4 dcbc
00000070: 7859 7bbc 441f b03d 633f 2fbd a8e0 d1bc
00000080: a120 90bd 0c5b 4f3d f21a 993d fc12 283d
00000090: ac01 00bc d151 153d 6584 44bc 0ce7 ee3c
000000a0: f7bd 93bc fd81 19bd eea5 75bd 0d6d e83c
000000b0: ee22 06bd 3099 4e3d bf9d 943d dec5 023d
000000c0: 9d4b 613d dfb5 603d b514 803d 22ea a0bc
000000d0: 1d00 1abd 3d9d 1b3d 5b58 aa3d 8e82 08bd
000000e0: a5a5 bd3c 1bac 283c 31d8 0dbd 1fdc 47bd
000000f0: 9ebe bcbc f6f0 a1bc 99d7 9abd a9ef 3fbd
00000100: 7846 fabb 6419 373d 1a0e 903c 5a3d 97bd
00000110: 38e1 833d ee2c c5bb d986 ee3c ebd6 96bd
00000120: c386 2bbc c067 cdbc a8ea 443d 2196 85bd
00000130: 678b 83bd d122 26bc adab d53c 4349 e53a
00000140: 7b26 8f3c 654f d83c fd1c b2bd f346 74bd
00000150: a531 f83c 9952 3abd f810 04bc 68f6 15bd
00000160: 5958 b03d 3871 81ba 486a 9a3d d2d6 3cbd
00000170: a2ab 84bd 4ced 05bd 6271 683d e431 823c
00000180: 2a91 fabc b04d 923b 7c68 a33c 6e0d dc3c
00000190: c817 6fbd f9f8 86bd aa5e 6b3c 199a 273d
000001a0: b65d fcbc 5d17 a63d 6244 bebc 032b 9cbd
000001b0: abb8 133d 26ea abbc 3952 6dbd 45af aa3c
000001c0: 9cbb a63d 7555 833d 7c91 543d 926c 913c
000001d0: 8c24 363d 892f 1b3b 843c 8abd 6fbc b03d
000001e0: f173 9d3d 7f3a 83bd 0b57 a3bd 65e8 93bb
000001f0: 3672 c6bc f77c 89bd 7aae 8c3d 7aba c2bb
00000200: 7975 9bbd 658a bbbc b185 923c e41c 9e3d
00000210: 20d3 aebd c243 8c3d 40fe 7dbd 92ac 48bd
00000220: 4c7d 7c3c 619e a9bd 2a37 97bc 074e 7cbc
00000230: 599e a43d 47c5 213c 62e4 a7bd 380c 1c3d
00000240: 529c a33d cbba 45bd 0056 10bd f1a3 3ebd
00000250: e1cb 47bd 27d6 953d 921d 9a3d a7ae 83bb
00000260: a3d4 36bc 33f5 53bc 3a8a 84bd 933c 63bd
00000270: 35a9 20bd 0ec6 2abd e0a1 1cbd eb48 2fbc
00000280: ece3 0ebc 2ef2 fdbc b38a 4abd 4a1a 9a3d
00000290: 7613 92bd 1d7d 073d bb0e b13c de9e a6bd
000002a0: 2624 51bd 5b7c 00bd d9ea 99bd 30e6 bbbc
000002b0: 87c7 853d c25e 06bd f114 573d d057 f0bb
000002c0: 351c ea3c de36 b4bc 3bbf 9fbd 50bf d5bc
000002d0: ddb0 343d 7b18 2cbd c6de 8fbd 7614 823d
000002e0: a8c1 a93d 402f 34bd b91a 88bc b3ee b03d
000002f0: f13a 97bd a091 423c 2f66 833c 3d3a 90bc
00000300: 1cc2 82bd 4e8f 3dbd 41d8 04bc b506 8f3d
00000310: 6b31 173c 3743 a2bd 69a5 883d 0402 09bd
00000320: 0847 15bd 7259 7bbd 71b3 333c e6b1 6bbd
00000330: be4c aa3b 60ef 6a3d 6809 ad3b 2bfb abbc
00000340: 722d 9a3d ea20 9abd 15e8 98bc fb10 89bd
00000350: 2b5f 2fbc 012e 6ebd 8a30 a1bd ff33 9c3d
00000360: 8755 a43d 69fe 593d 5c54 66bd b1fb 99bd
00000370: 6087 c03c 8d11 61bd b2d4 033d 06a4 c9bc
00000380: 0353 f13b 1c34 a2bd 4672 3ebd b8f5 8cbc
00000390: 484b 943d 9c35 93bc d72d b0bd 811b a2bd
000003a0: 69e8 a0bd 419f ccbb bb3a fabc 5b9f f9bc
000003b0: 1a9d c9bc 615f 2d3d d0c8 8b3d bd0c 713d
000003c0: 88ea d0bb 0318 693d 99ed a8bd 2a12 703c
000003d0: 3cac 8bbd 8fe0 45bd 54a9 a53d aaa2 303d
000003e0: 3f93 a93c 80cf 9b3d 84bb d2bc f902 38bc
000003f0: d92e 593d b63e d13c 4d50 463d 5629 91bd

fc5.bias f4 [64]
-0.015145123 0.071296036 0.05699259 -0.049202804 -0.06903054 -0.048377033 -0.07860363 -0.0634628
-0.023467718 0.057555243 0.0740992 0.04966829 0.078941405 -0.059655797 0.08129013 -0.07517633
0.07854733 0.066288374 0.06898824 0.08297734 -0.07791742 0.078339025 -0.040735155 0.040663987
-0.0045441994 0.058555987 0.027351484 -0.053879134 0.07562613 0.023929823 -0.06751366 -0.048028957
-0.03172236 -0.032839276 -0.0288437 -0.03490987 0.019396653 0.06914028 -0.059382167 -0.021013191
-0.030424813 0.023330754 0.06600226 0.043222167 0.08766466 0.049982764 -0.00931938 0.064609975
0.04732732 -0.0831483 0.046949472 -0.010902952 0.040722057 0.005976415 0.08581565 -0.07701886
0.03857754 -0.05577409 -0.028190704 -0.055311456 0.012296713 0.018209692 -0.06142551 0.051903233
00000000: 4023 78bc a803 923d 1071 693d e188 49bd
00000010: e25f 8dbd ff26 46bd f1fa a0bd c9f8 81bd
00000020: 5f3f c0bc 0cbf 6b3d 52c1 973d fa70 4b3d
00000030: 08ac a13d a359 74bd 717b a63d 0cf6 99bd
00000040: 6cdd a03d 33c2 873d b549 8d3d 06f0 a93d
00000050: 2b93 9fbd 3670 a03d e8d9 26bd 488f 263d
00000060: 82e7 94bb 67d8 6f3d 3810 e03c 5eb0 5cbd
00000070: dfe1 9a3d 7a08 c43c 9a44 8abd 03ba 44bd
00000080: 4eef 01bd 7a82 06bd a049 ecbc a7fd 0ebd
00000090: bbe5 9e3c 6b99 8d3d b73a 73bd db23 acbc
000000a0: 753d f9bc 2320 bf3c 312c 873d ba09 313d
000000b0: 8789 b33d baba 4c3d 50b0 18bc 3c52 843d
000000c0: 4bda 413d a849 aabd 174e 403d 4ca2 32bc
000000d0: 2ccc 263d cdd5 c33b 1ec0 af3d 10bc 9dbd
000000e0: 7c03 1e3d 5f73 64bd 31f0 e6bc 448e 62bd
000000f0: 2778 493c 7e2c 953c 5199 7bbd 7c98 543d
