models_submitted/train_acc-CNN_2L_FC_R400.pt (torch, 160817 bytes, 22 tensors)

conv1.weight f4 [32, 1, 1]
000000 9e b7 25 bf 25 5a fe 3e 15 bb 71 3f fe d7 a9 be
       -0.647333 0.4967815 0.9442609 -0.331726
000010 97 c3 57 bf 19 1a cb 3c 5c 6e 3d bf 8b 8a 56 3f
       -0.8428282 0.024792718 -0.7399652 0.8380515
000020 d6 c1 48 3f 09 62 10 bf 41 4a 6a 3f 4b 8c 6e 3e
       0.7842077 -0.5639959 0.9151955 0.23295705
000030 7f 09 c3 3e 72 60 51 3f 47 48 2c 3f 90 2c d2 be
       0.38093182 0.8178779 0.67297786 -0.41049623
000040 6a ab 44 bf 25 c1 d8 be c4 d7 24 be 62 ba de bd
       -0.7682406 -0.42334858 -0.16097933 -0.108753935
000050 12 44 55 bf be d4 2a bd da a8 83 3e 27 af 57 bf
       -0.8330699 -0.041706793 0.2571476 -0.84251636
000060 4c a1 8a be 1a e4 56 bf ee 7f 4d bf 3a e4 4e 3c
       -0.27076185 -0.83941805 -0.8027333 0.012627656
000070 94 be 57 3e 9b 2e 40 3f dd 46 3c 3e 28 a1 70 3f
       0.21068794 0.75071114 0.18386407 0.93995905

conv1.bias f4 [32]
000000 3f 88 1e bf 10 c7 f2 be 18 d0 73 bf ea 60 67 3f
       -0.61926645 -0.47417498 -0.952394 0.90382254
000010 2f c3 0a bf 36 5a 44 bf 8c 7d 6e 3f 6a 9d 73 3f
       -0.54204077 -0.7670015 0.9316032 0.9516207
000020 43 64 71 bf 84 15 44 be d7 32 33 bf 49 1c 8d be
       -0.9429361 -0.19148833 -0.6999945 -0.27560642
000030 66 f2 30 bf 83 40 53 bf a6 7e a0 3e 1f f2 ab be
       -0.6911987 -0.8252031 0.31346625 -0.3358316
000040 10 ba 2d 3f 4e 3d b6 be 20 79 f1 3e 34 62 ef 3e
       0.67862034 -0.35593647 0.47162724 0.4675461
000050 c0 d3 c9 be 06 35 3e bf 91 13 58 3f f2 10 15 3f
       -0.39419365 -0.7429966 0.84404856 0.5822898
000060 09 36 0a 3e e2 17 ab be ef 54 74 bf 02 dd f8 be
       0.13497175 -0.3341666 -0.954421 -0.48606116
000070 26 b0 53 3f 22 c0 8a 3e 86 a5 cf 3e a9 35 73 bf
       0.82690656 0.2709971 0.40555972 -0.95003754

conv2.weight f4 [64, 32, 1]
000000 dc 69 01 3e 3a 9c dc bc 32 58 52 bd 82 28 95 bd
       0.12638038 -0.026929963 -0.05135364 -0.07283117
000010 cd b3 20 3d cf 88 81 3d 04 cb 35 bd f1 c5 e5 3d
       0.03923397 0.06324922 -0.044383064 0.11219395
000020 1a e2 16 3e c4 9a fa 39 05 6d b5 3c 28 a6 ed 3d
       0.14734688 0.00047799025 0.022146711 0.116039574
000030 47 3e c0 3c 20 e7 fe bc d6 3e 06 be d7 fb 1a be
       0.023467196 -0.031116068 -0.13109908 -0.15135132
000040 fd f5 82 bc cf 26 e2 3d 3a 69 8a 3d 57 ea c5 3d
       -0.015986437 0.110425584 0.067583516 0.096638374
000050 1b 89 58 bd c7 34 e4 3d 5e b6 2b 3e 73 ac 18 3d
       -0.05286513 0.11142879 0.16768786 0.037273835
000060 85 39 8f bd 5d f0 c9 bd 60 32 07 be 54 fa 8f 3d
       -0.06993393 -0.09860299 -0.1320281 0.07030168
000070 ec 9c aa bd f4 37 27 be f5 16 7f bc d7 3d 2c 3e
       -0.08330712 -0.16329938 -0.015569438 0.16820465
000080 05 0d 92 bb 14 d4 10 bd bc cd 40 3c 69 22 30 be
       -0.0044571185 -0.035358503 0.011767801 -0.17200626
000090 7f 08 e8 3c d7 63 d7 bd bc 2a 02 3e b9 f5 90 3d
       0.028324364 -0.1051709 0.12711614 0.07078118
0000a0 cf ed b0 bd 43 2c 2e 3e c6 3a 4e bc 99 05 f3 3d
       -0.086391084 0.17009072 -0.012587255 0.11866302
0000b0 27 f0 d5 3d 5a a0 14 be 75 7c 0b 3c 7a e2 99 3d
       0.10446196 -0.14514294 0.00851356 0.075139
0000c0 cd 23 66 3d c8 b8 e7 3d 56 07 e4 bc 0d 0c e2 bd
       0.056186486 0.11314541 -0.02783553 -0.11037455
0000d0 e5 3f 9c 3c a5 36 80 bd 55 b4 86 bd 09 ca a3 3d
       0.019073436 -0.062604226 -0.06577364 0.079975195
0000e0 c3 d2 fa bd 80 99 f6 3d 9d 21 cb 3d d7 d2 8a 3c
       -0.12247231 0.120409966 0.099185206 0.01694624
0000f0 6b 5d 05 3e be ab fc 3b 9e e8 e4 bd 2b d2 1f 3e
       0.13023917 0.007710903 -0.11177181 0.15607516
000100 e0 59 e3 3d a2 50 9f bd 35 b8 f8 bd ab c6 7b bd
       0.11101127 -0.07779051 -0.1214451 -0.06146876
000110 5c ac 42 bd 4c bb a3 3b 79 1e 05 be d7 1b 24 3e
       -0.047527656 0.0049966928 -0.12999906 0.16026245
000120 22 fd 25 be a2 8a 07 be 68 d1 53 3d 7f 18 0f be
       -0.16209844 -0.13236478 0.051713377 -0.13974188
000130 aa c7 d6 3d a8 b7 9b bd a8 bf 70 bd cc 39 1e be
       0.10487302 -0.07603389 -0.058776528 -0.15451735
000140 bc 81 15 3e 5e 32 c3 3d bf 77 b2 3d c4 eb ba 3d
       0.14600271 0.09531091 0.08714246 0.09127
000150 e5 20 f1 bb b5 7a 84 3c 69 c9 28 be 55 f4 2e 3e
       -0.0073586577 0.016171793 -0.16483082 0.17085393
000160 a6 41 f9 bd 2e 15 63 bc e7 ef ec 3d 96 98 1c bd
       -0.121707246 -0.01386003 0.11569195 -0.038231455
000170 9f f4 25 3e a4 17 29 3c 1d a3 30 3e 36 64 6d 3d
       0.16206597 0.010320578 0.17249723 0.057956897
000180 d5 5a 34 3e b8 dc aa 3d 4d e0 0a be 8a e5 2b be
       0.17612775 0.0834288 -0.13562126 -0.16786781
000190 74 cc 59 bd 94 e7 a2 3d 00 f6 1d bd c9 11 a0 3d
       -0.053173497 0.07954326 -0.038564682 0.07815892
0001a0 37 a8 74 3d ee 1c 04 3e e5 90 c3 bd ad a4 4a bd
       0.059730735 0.12901661 -0.09549121 -0.049473453
0001b0 19 6c 12 3e 1d 07 03 be a1 77 ea 3c ee 65 b1 bd
       0.14299048 -0.12795682 0.028621497 -0.0866202
0001c0 35 81 32 be 19 5f f5 bc a4 8f 1f 3e 8b 5e 16 3e
       -0.17432101 -0.029952573 0.15582138 0.14684503
0001d0 94 f9 50 3d 1c b5 d6 bd 85 c4 53 3d 67 94 b0 bd
       0.051019266 -0.104837626 0.051701088 -0.086220555
0001e0 63 9c a7 bd 61 18 06 be bc 04 1d 3e 63 e6 00 3c
       -0.08184125 -0.13095237 0.15333837 0.0078674285
0001f0 48 65 ee 3d 8a f2 0c be 80 1e 70 bb 14 ad 23 be
       0.116404116 -0.13764396 -0.0036639273 -0.15983993
000200 93 5b 10 3e 16 5c 0d 3e 75 b8 e7 3d b8 ec 90 bd
       0.14097433 0.13804659 0.11314479 -0.070764005
000210 ef 24 6a 3d 0e a3 31 3d bd f7 a3 3d ea 2d 1d be
       0.05716413 0.04336839 0.08006237 -0.15349546
000220 d0 1e fc 3d e9 04 bd 3d e3 5b 58 bd 63 c6 ac bd
       0.123105645 0.09229452 -0.052822005 -0.08436277
000230 48 c3 af 3d fe b7 31 bc c6 55 6d bd 7d 66 d2 bd
       0.08582169 -0.01084709 -0.057943128 -0.10273454
000240 41 56 0b be ba a6 88 bd 63 0b 1c 3e 45 b5 58 bc
       -0.13607122 -0.066724256 0.15238719 -0.013226812
000250 32 e6 14 3e d3 4e d6 bd 61 50 a0 3b 2e 7e 70 3d
       0.14540938 -0.10464253 0.0048923944 0.058714084
000260 74 2d db bd 47 a9 c3 3d 72 9e d8 3d d9 92 d0 3c
       -0.10702029 0.095537715 0.10577096 0.025460647
000270 51 ee 60 bd 26 c8 0a be 89 3e 2d bd 76 fb 87 bd
       -0.054914776 -0.13552913 -0.042295966 -0.06639759
000280 b2 ee af 3c 87 83 5a 3d e5 00 af 3b 8f ce ff 3d
       0.021476123 0.05334809 0.005340683 0.1249057
000290 5a 74 93 bd 87 26 28 be a2 80 f6 3d 6f 60 1a bc
       -0.07199927 -0.16420947 0.120362535 -0.009422406
0002a0 84 b4 ad 3d e6 96 8e bd e7 a8 28 be 0f 60 0d be
       0.08481696 -0.06962375 -0.16470681 -0.13806175
0002b0 54 bd 90 bd ce 20 92 3d 8d c4 b9 bd 6d c2 01 be
       -0.070673615 0.07135163 -0.09070692 -0.12671824
0002c0 96 d5 96 bd c8 f8 ba bd 6c 6e 60 3d 0d 90 85 3d
       -0.07364957 -0.091294825 0.054792807 0.06521616
0002d0 95 be 34 3b 2f 9e be 3d 5f cf d3 bd 5c 96 27 3e
       0.0027579416 0.09307515 -0.10342287 0.16365951
0002e0 d2 de d4 bd 86 71 be bd 4b a6 d3 3c 38 e3 1d be
       -0.10394062 -0.092989966 0.02583613 -0.15418708
0002f0 30 a6 f3 3d fd 9c 6e 3d d7 a4 26 3e ae 94 92 bd
       0.11896932 0.058255184 0.16273819 -0.07157265
000300 b4 12 93 3d c4 b8 6c bc c7 18 f7 bd 94 41 f8 bd
       0.07181302 -0.014448348 -0.12065273 -0.12121883
000310 a7 97 f9 3d 53 24 bc bd c3 3c 2c bd eb 94 53 3a
       0.121871285 -0.09186616 -0.042050134 0.0008071202
000320 bf b1 da 3c bd cf 0f 3d a7 5e 3e bc cb b8 31 be
       0.026696084 0.035110224 -0.011619247 -0.17355649
000330 ba 9e c9 3a 02 3e ac 3d db 42 0a 3e eb 2a 04 3e
       0.0015382387 0.084102646 0.13502066 0.12906997
000340 fc b6 5d 3c 1e 61 ec 3c 70 db 04 be 38 5b c9 3d
       0.013532396 0.028854903 -0.12974334 0.09831852
000350 d1 55 ec bd df dc c2 b9 35 5a b0 3d d1 44 76 3d
       -0.11539806 -0.00037167125 0.086109556 0.060124222
000360 ac 93 42 3d 1f bc 0c 3e 55 1f f2 bc 9e 58 1d be
       0.047504112 0.13743638 -0.029555956 -0.15365836
000370 31 0a 08 be 70 8f a9 bd fd f9 b3 3d 13 5f fd 3c
       -0.13285138 -0.08279312 0.08787916 0.030929124
000380 3d 22 f9 3d 88 80 95 bd ca f1 8d 3c 35 a4 08 be
       0.121647336 -0.07299906 0.017327208 -0.1334389
000390 bb 72 ec 3d f0 00 64 bd c2 d0 1e be ae fb d4 bc
       0.115453206 -0.055664957 -0.15509322 -0.025998916
0003a0 82 bd 2a 3e 1d d8 13 be f0 83 a8 bc ea 9f d6 bc
       0.16673854 -0.1443791 -0.020570725 -0.0261993
0003b0 52 14 94 bc 0a 29 a2 bd 10 2a 5d bd e8 83 1d bd
       -0.018076096 -0.07917984 -0.053995192 -0.038455874
0003c0 5c b3 db 3d 43 08 29 3e 3d 3c 3d bd 27 cf b2 3b
       0.107275695 0.16507058 -0.046200026 0.0054568234
0003d0 dc af 2b 3e 39 72 f1 bc 5e 17 ba 3d 3c c2 4f 3d
       0.16766304 -0.02947341 0.09086488 0.050722346
0003e0 ce 9a f4 3d 91 ac 70 3d 76 32 e2 3d 46 3f 93 3d
       0.11943589 0.058758322 0.11044781 0.07189803
0003f0 b8 29 40 3a 03 e1 65 bd 9b 2c 8c 3d b0 98 d0 bd
       0.00073304353 -0.05612279 0.06844445 -0.10185373

conv2.bias f4 [64]
000000 66 2c 21 be 7e d3 34 3d 10 1b 98 3c 80 a3 ca bd
       -0.15739593 0.044147007 0.018567592 -0.098944664
000010 a0 4f 98 bd de 14 7d bd 31 5c ec bc 0e f5 f8 bd
       -0.07437062 -0.06178748 -0.028852554 -0.121561155
000020 ff a6 19 3e 57 ad 11 be a4 b7 db bb e0 ef 4a bd
       0.1500511 -0.1422628 -0.0067052413 -0.04954517
000030 7a 2f ea bd 86 1e 3d bd e2 d9 12 3d 27 23 cf bd
       -0.11434837 -0.046171688 0.03585232 -0.10114127
000040 52 f0 9c bc d3 4d c8 bb 44 91 23 3e db 93 ac 3d
       -0.019157562 -0.006112793 0.15973383 0.08426639
000050 bd c5 2b be a4 79 b9 bb d6 16 81 3d 6a 08 9b 3d
       -0.1677465 -0.0056602526 0.06303184 0.07569964
000060 b0 c3 2a be 24 78 1e 3e 2b 29 b9 3d 15 7d a6 3c
       -0.16676211 0.15475518 0.09041055 0.020323316
000070 b6 4c 2a be 84 66 31 be 82 7b 2f 3e 17 87 99 bd
       -0.16630825 -0.17324263 0.17136958 -0.074964695
000080 27 77 4f 3d 9c 2b 04 be 2b 59 a2 3d 73 9d b0 3d
       0.050650742 -0.1290726 0.07927164 0.08623781
000090 ac 45 32 be 45 d0 d2 bd 9e d4 17 3e 01 3e d1 3c
       -0.1740939 -0.102936305 0.14827201 0.025542261
0000a0 a2 aa 31 be 43 bd fd bd e2 58 96 bd 98 8d 2c 3e
       -0.17350248 -0.123896144 -0.07341172 0.16850889
0000b0 55 1c 32 bd 04 1b a8 bb 3c 32 3e 3d 87 39 9a bc
       -0.04348405 -0.0051301736 0.046434626 -0.01882626
0000c0 10 bd c0 3c 62 60 98 3d 66 62 a8 bd 1e fd a5 3d
       0.023527652 0.074402586 -0.08221893 0.08104919
0000d0 66 6f c7 3c 37 b0 c6 3d 73 fc 0d 3e 84 d0 99 3d
       0.024345111 0.09701579 0.13865833 0.07510474
0000e0 17 4a 98 bd 01 83 12 be ec b0 8c bd 9b 9e 03 be
       -0.074360065 -0.14307787 -0.06869683 -0.12853472
0000f0 ea e5 9d bd ba 4b 1d be 49 2c 36 ba 77 da bc 3d
       -0.07709868 -0.15360919 -0.0006949348 0.09221356

fc1.weight f4 [16, 896]
000000 e1 80 01 bd a1 12 d5 3c 12 6d 8d 3c d8 da 7b bb
       -0.03161705 0.02600986 0.017263923 -0.0038430002
000010 75 a0 8f bb f8 6d f7 3c c0 e2 b3 3c 4d ce a2 bc
       -0.0043831416 0.030203804 0.021958709 -0.019873763
000020 f9 1a 53 3c c4 2f 13 3b 8b 0b 22 bc 40 12 da 3c
       0.012884849 0.002245889 -0.009890447 0.02662003
000030 3f 2f e9 bb 8a ff ef bc d2 b4 d9 3a 49 3c d8 bc
       -0.007116228 -0.029296655 0.0016609675 -0.026395934
000040 19 63 94 3c a3 44 83 3c 58 e3 8f bc 16 2c 48 3c
       0.01811366 0.01602394 -0.01756446 0.012217542
000050 5b 0a fc 3b 98 38 79 3c ba dc 02 3d 91 c5 3f 3c
       0.007691664 0.015211247 0.031948783 0.011704818
000060 ef dc f9 bc 9a 5c 44 3c c5 a0 7f 3b 25 4d b7 bb
       -0.030500857 0.011984969 0.0039005738 -0.005593913
000070 ec bf cd bb bb d6 da bc 0f 4a ba ba 57 91 5f bc
       -0.0062789824 -0.02671372 -0.0014212745 -0.013645492
000080 f8 f5 7a bc 26 26 00 3d 1d 91 ca b8 48 7a e0 bc
       -0.015317433 0.03128638 -9.65914e-05 -0.027402058
000090 37 1b 2c bc e2 00 fe 3b 46 5b 79 bc 32 4d 51 bc
       -0.010504535 0.00775157 -0.015219515 -0.012774752
0000a0 ac 37 b7 3c dd 8b 1c 3c 29 83 97 bc 8e 04 c8 3c
       0.022365414 0.00955483 -0.01849516 0.024416234
0000b0 3f d5 e1 bc c0 da bd bc a4 9d ac 3c 25 2c 8f 3c
       -0.027567504 -0.023175597 0.021071263 0.017477104
0000c0 e2 cd 07 3d ed 69 ac bc 7f 91 45 3c 5f 85 31 bc
       0.03315533 -0.021046603 0.012058615 -0.010835021
0000d0 96 60 8a 3c 63 cf 04 bd d8 a4 32 3b 9a 2c d0 bc
       0.016891759 -0.032424342 0.00272589 -0.025411893
0000e0 9b ea b3 3c 24 36 d3 3b a1 a8 af 3a 31 db dd bc
       0.021962455 0.006445663 0.0013401696 -0.027082058
0000f0 b8 da 91 3c 9b 01 a4 3c c5 11 29 3c 0a 11 85 bc
       0.017804489 0.020020297 0.010319178 -0.016243476
000100 9d 84 3a ba 1f 88 ba bc 58 77 8c bc ed 08 03 bd
       -0.0007115098 -0.022769986 -0.017146751 -0.031990934
000110 36 3e 9a bb c5 4f e7 3c 42 2e 43 bc 16 3e 02 3b
       -0.004707123 0.02823628 -0.011912884 0.0019873432
000120 10 0b 84 3c 71 b3 f5 bc 07 a4 fc bc 8e c2 a4 3c
       0.016118556 -0.02999279 -0.030839933 0.020112302
000130 82 eb 8c 3c 68 58 c8 3c c9 06 47 bc 1f b6 07 bd
       0.017202143 0.024456218 -0.012147614 -0.03313267
000140 23 1f a8 3b b8 94 52 bc 96 3c fa bb 79 8e a0 3c
       0.005130665 -0.01285284 -0.007636617 0.019599186
000150 dd 79 1d bd c9 40 85 bb ee a2 e7 bc 72 d4 2c 3c
       -0.038446296 -0.004066561 -0.028275933 0.010548698
000160 5e 43 b0 bb 9d cb b1 bb ed 31 ad ba c2 a1 9f 3c
       -0.0053791245 -0.005425884 -0.0013213732 0.019486312
000170 17 1b 44 bc e7 41 a9 bc 1e 20 90 3c 91 c8 9f 3c
       -0.011969349 -0.020661307 0.01759344 0.019504817
000180 53 de 49 39 7f 7f bd 3c 71 e3 95 bc 6e cc d8 ba
       0.00019251676 0.023132084 -0.01829693 -0.0016540417
000190 84 42 80 3c e0 ad 39 3c d8 9a e3 bc 93 0e 01 bd
       0.015656717 0.011332959 -0.027783796 -0.03150804
0001a0 f8 0f ad 3b c8 2c 73 3c 11 fa 04 bd e1 ec 72 3c
       0.0052814446 0.01484222 -0.032465044 0.014826984
0001b0 2c b9 9e 3c 6b 8b b6 3b ae 27 b4 bc 7b a1 73 bc
       0.019375406 0.005570819 -0.021991577 -0.014870043
0001c0 b1 b8 32 bd d1 c5 ec bc 32 08 d8 3c 75 ab a5 3c
       -0.043633167 -0.02890292 0.026371095 0.020223359
0001d0 16 40 d6 bc ec b6 02 bd 16 0b 95 bc bd e5 97 3c
       -0.026153605 -0.03191273 -0.018193763 0.018542165
0001e0 c4 03 c0 3c 3d c4 69 39 d2 87 8e 3c 37 f5 04 3d
       0.023439296 0.00022293716 0.017398749 0.032460418
0001f0 5e 1f c8 3c b3 e6 a8 bc 3c c1 b1 bb c5 3a 8c 3c
       0.02442902 -0.020617818 -0.0054246467 0.017117867
000200 73 f2 e5 bc 98 4a bd 3c 16 d9 8f bc 5a 75 01 3c
       -0.02806971 0.023106858 -0.01755957 0.007901514
000210 5a 49 c6 3b 9c fe e2 bc 48 67 03 3c b1 25 07 3d
       0.0060512247 -0.027709298 0.00802023 0.03299493
000220 be fc f2 bb f8 be 12 bc 5b 82 df bc c2 e7 33 3c
       -0.007415383 -0.008956663 -0.027283838 0.010980548
000230 34 d0 27 bd ca 48 9e bc 26 1f f1 3b cc 5a 81 3c
       -0.040970042 -0.019321818 0.0073584495 0.015790366
000240 71 0c 55 bc 52 ca 2e 3c f1 60 83 bc 0d 18 7a 3b
       -0.013003455 0.010668354 -0.016037436 0.0038161308
000250 f2 b5 9f 3c e3 29 d7 ba bb 19 93 3c 0e a5 2a 3c
       0.019495938 -0.0016415681 0.017956605 0.010415329
000260 c4 52 e7 3c b4 bf c2 3c 28 80 21 3c 2d da 7e bc
       0.028237708 0.023773052 0.009857215 -0.015554947
000270 33 1f 12 bc bc e8 02 bc ea e1 1f bc ba 1e 80 3b
       -0.008918571 -0.0079900585 -0.009758452 0.003909913
000280 c6 df cd 3c 56 cf 1b bc 94 df 6b 3c 92 dc b5 bb
       0.025131118 -0.009509882 0.014396567 -0.0055499757
000290 3e 5d 5f bc 53 a5 e1 3c 24 8e 8e bc 9c 52 5c bb
       -0.0136330705 0.027544653 -0.017401762 -0.0033618575
0002a0 48 75 57 bc e6 90 4e 3c 56 79 a4 bc 77 f8 bc bb
       -0.013150521 0.012607789 -0.020077389 -0.005766924
0002b0 8c 6b 59 3c 94 86 15 3a c1 1e 9c bb f5 a7 c0 3c
       0.01327027 0.00057039526 -0.0047644083 0.023517588
0002c0 19 e3 81 bc 1c 2b c0 3c 39 6f 81 bc ae dd 02 bd
       -0.015855359 0.023458056 -0.015800105 -0.03194969
0002d0 6f 9b d4 bc 4b 5e be bc 88 1a a3 bc eb 0d 46 bc
       -0.025953023 -0.023238322 -0.019910112 -0.012088279
0002e0 25 51 32 bc 02 31 0e bd 34 5a 9b bb 53 1a ac bb
       -0.010883604 -0.034714706 -0.0047409777 -0.0052521615
0002f0 b7 54 00 3d bf a4 32 bc 31 f4 a2 bc 17 d6 f7 3c
       0.03133079 -0.010903536 -0.01989183 0.030253453
000300 35 ea 03 3d 44 64 e7 bb a4 e2 f6 3b bb 3d 0c bd
       0.03220578 -0.007061513 0.007534342 -0.03423856
000310 9f 1c 1c 3b 19 05 ef bc 89 4e 9a 3c 3c 8d b4 bc
       0.002382077 -0.029177235 0.018836277 -0.022040002
000320 74 c8 07 3d 79 a1 d1 3c 80 c7 01 bc 56 de f8 bc
       0.03315015 0.025589691 -0.0079211 -0.030379456
000330 06 e2 c4 bc 3c d0 20 bb b9 70 08 3c 8c cc be 3c
       -0.024033558 -0.002453818 0.008327656 0.023290895
000340 7d 58 9a 3c 0d 59 aa bc 08 ee 5a bd 5c 36 c3 3c
       0.018841023 -0.020794416 -0.05344966 0.023829632
000350 d3 b1 5c 3c 82 fb 00 bc a9 53 37 bc 2f 2c f6 bc
       0.013470131 -0.007872464 -0.01118938 -0.030050365
000360 da 65 f9 b9 a2 74 19 bc 58 ba d9 bc 04 31 9e 3c
       -0.00047568866 -0.009366186 -0.026578113 0.019310482
000370 c8 4e 7e bc 2c bb ef 3b 98 c6 ac 3b fd 9a d9 3c
       -0.015521713 0.007316014 0.0052726977 0.026563162
000380 9d 27 23 bb f2 ef e0 3c 6d b3 d1 3b 11 34 93 bb
       -0.0024895438 0.027458165 0.006399563 -0.004492291
000390 55 69 78 3c d3 8c 65 bc f9 eb 04 3d e3 90 4f 3b
       0.015161832 -0.014010626 0.032451604 0.0031672053
0003a0 f5 0b e3 bc 00 a9 44 bb d9 0c 07 bd 20 f2 bb bc
       -0.027715662 -0.0030007958 -0.032971237 -0.022942603
0003b0 eb d2 ea 3c 73 0e 98 bc f7 d0 04 3d 6c 5d 0c bc
       0.028665027 -0.018561577 0.032425847 -0.008567195
0003c0 83 6a 8b 3b 97 22 2f 3b e4 f6 6d bc b5 71 bb 3c
       0.0042546405 0.0026723498 -0.014524195 0.022881368
0003d0 8a ce 04 bc b0 62 d2 3c 81 36 ce 3c d8 82 bf 3c
       -0.008105883 0.025681823 0.025172474 0.02337782
0003e0 06 18 de ba c3 72 c5 3c b3 a9 9f bc 06 47 df bc
       -0.0016944415 0.024102574 -0.019490099 -0.027255546
0003f0 5f 30 f1 bc 4e f9 ed 3b 44 9a af bb 54 54 74 bc
       -0.02944201 0.0072623855 -0.005358966 -0.0149126835

fc1.bias f4 [16]
000000 23 5d f4 bc 1c 90 e0 3c a4 f9 36 bc 01 cb a8 bc
       -0.029829567 0.027412467 -0.011167917 -0.020604612
000010 81 5c bd 3c 6f e6 e7 3b 51 db 9d 3c fe 46 a4 3b
       0.023115398 0.0070770304 0.019269617 0.0050133457
000020 1b 86 e8 3c 65 cb 9a 3c 45 e5 bf 3c 7f cb 02 3b
       0.028384259 0.018895814 0.023424754 0.001995772
000030 9d e2 fb 3c 24 de e6 3c 8a ca ca bc 51 99 84 3c
       0.030747706 0.028182097 -0.024754781 0.016186388

fc2.weight f4 [32, 16]
000000 40 2a 37 3d f6 68 41 be 28 d2 6a bd 78 78 1c be
       0.044718027 -0.18887696 -0.057329327 -0.1528033
000010 00 ad 80 bc 80 26 7e 3c 4a 50 7a 3e 10 14 fc bc
       -0.015707493 0.015512109 0.2444469 -0.030771285
000020 98 1b ca 3d 90 04 36 be f4 df 8a 3d c7 7a 04 be
       0.09868544 -0.17775178 0.06780997 -0.12937461
000030 50 b5 a7 bc 2a 24 b6 bd 08 49 00 3d a0 f2 5f be
       -0.020472199 -0.088936165 0.031319648 -0.21869898
000040 0b 86 37 be 59 b5 5a 3e 72 1b 01 3e 3c ea 97 bd
       -0.17922227 0.21358241 0.12608126 -0.074177235
000050 42 c1 4c 3e 18 a1 77 3e 4b 86 46 3e 80 68 df 3b
       0.19995597 0.24182546 0.19387166 0.0068178773
000060 77 a8 ec bc 82 df 79 3d 5b 7e 2e 3d 7f 71 1b 3e
       -0.028888924 0.06100417 0.04260097 0.15180014
000070 f8 c3 98 3d 9c ed c7 bd 00 69 51 be 42 44 91 bc
       0.07459253 -0.09762117 -0.2045021 -0.017732743
000080 07 37 7d 3d 6b ec 1b 3e 3a 39 22 3e 1c b6 21 be
       0.061820056 0.15226905 0.15842143 -0.15792125
000090 3c 85 c3 3d c8 24 b5 bd be ea 67 be 98 1f ce 3d
       0.09546897 -0.08844906 -0.22648141 0.1006462
0000a0 49 1e a8 3d 6b ea 2c 3e ec 68 20 be 1d 32 52 be
       0.082089014 0.16886298 -0.15665025 -0.20526929
0000b0 23 86 60 be 7a 23 98 bb e9 6d 3c be 08 46 62 3e
       -0.21926169 -0.004642901 -0.18401302 0.22097027
0000c0 06 b6 3b be aa b7 fa bd 36 36 56 3c 72 50 cc bc
       -0.18331155 -0.122420624 0.013074448 -0.024940703
0000d0 e9 39 25 be a1 fb 54 3c e6 34 7d 3e 14 f4 e4 bd
       -0.16135372 0.012999446 0.2472721 -0.11179367
0000e0 de 2c fa bd e9 3f 9f 3c 79 89 06 3c 66 d0 de 3d
       -0.12215589 0.019439654 0.008211487 0.108795926
0000f0 ad 1b 37 3e 0c df 61 bc 21 4b 38 3e ec 34 4e be
       0.17881651 -0.013786089 0.1799741 -0.20137376
000100 00 65 d8 bc 2f 70 08 3e 87 0e 8e 3d 14 4f 2f bb
       -0.026415348 0.13324045 0.069363646 -0.0026750015
000110 93 15 69 be 25 47 75 bd 5e 23 30 3d de 84 54 3e
       -0.22762136 -0.0598823 0.04300248 0.2075381
000120 67 60 b9 bc 27 2c 17 be 56 53 40 3e e6 b8 0c be
       -0.022628976 -0.14762937 0.1878179 -0.13742408
000130 de 1f 2f be 33 80 87 3e 60 af 4c 3e 74 24 78 be
       -0.17102 0.26464996 0.19988775 -0.24232656
000140 75 c3 72 3e eb 81 72 3e 06 c4 ca bc 38 cd 08 3e
       0.23707373 0.23682372 -0.024751674 0.13359535
000150 93 1d 23 be 41 7d 17 3e 35 cf bd bb a4 c7 40 be
       -0.1592925 0.14793874 -0.0057925233 -0.18826157
000160 fc 21 61 3d ed f1 32 be 2e 0d 17 3e be 7b 8f bd
       0.05496405 -0.174751 0.14751121 -0.07006024
000170 5f bd 20 be c7 88 15 be 30 c6 a4 3d ff a5 7a be
       -0.1569724 -0.14602958 0.08045614 -0.24477385
000180 1e 8a a1 bd 08 03 c8 3d 2a f8 3b 3e d2 ca 18 3e
       -0.07887672 0.09766203 0.18356386 0.1492112
000190 1e 80 8a bd ba dd 53 3e c5 b6 81 bd 70 17 d8 3d
       -0.06762718 0.2069005 -0.06333689 0.10551345
0001a0 63 60 eb 3d 1c 87 70 be 90 28 fb 3d d6 23 74 be
       0.11492994 -0.2348904 0.12263596 -0.23841795
0001b0 50 01 f3 bd e7 04 06 3e 8d 8e 36 be b5 f7 59 be
       -0.11865485 0.13087808 -0.17827816 -0.21285899
0001c0 24 9a 69 be 48 c6 62 3e 6e cf 57 bc 88 26 81 3e
       -0.22812706 0.22145951 -0.013172014 0.2522471
0001d0 87 42 2a be ad fe 0b be 65 83 09 3e 7c 4b 0d be
       -0.1662694 -0.1367137 0.1342903 -0.13798326
0001e0 4a 96 f3 3d 44 29 00 bd 8b 2e fb bd 3f c7 52 3e
       0.118939 -0.031289354 -0.12264737 0.20583819
0001f0 0c 71 a7 bb 11 e4 da 3d 92 33 bc bd a3 7a 1f 3e
       -0.005109912 0.106880315 -0.09189524 0.15574126
000200 ac 9c d4 3d 1d 26 9d bd 45 0f 06 3e 5f 6d 10 3d
       0.10381445 -0.07673285 0.13091762 0.035260554
000210 4c a0 11 bc dd 20 59 3d 9f 2b 21 bc 58 49 a6 3d
       -0.008888315 0.053009856 -0.00983706 0.08119458
000220 6a 8b f2 3b 2a c9 04 3e 2b 6e 12 3e a8 3b 1b 3e
       0.0074018734 0.12967363 0.14299838 0.15159476
000230 9e dc 28 bd 4e e6 0f 3e c1 1d 99 3d 4a 01 13 3e
       -0.041226022 0.14052698 0.07476378 0.1435596
000240 6e c8 51 bd 29 dd 1e 3e 30 d1 2f 3e ed 53 86 bb
       -0.051216535 0.15514053 0.17169642 -0.00409936
000250 6e f1 14 be 95 f9 f3 3d b6 e1 d4 bd 80 dd ba 3c
       -0.14545223 0.11912838 -0.103946134 0.022810698
000260 10 dd c5 3d c5 4b 63 be dc fc 56 3e e9 9c ea ba
       0.09661305 -0.22196873 0.20994896 -0.0017899546
000270 8f da 53 be 44 b6 20 be 63 e1 42 3d 24 e5 3d 3d
       -0.20688842 -0.15694529 0.047578227 0.046361104
000280 55 71 f0 bc 50 7c a9 bd 2b e5 f7 3d 6e 03 5d be
       -0.029350916 -0.08275664 0.12104257 -0.2158334
000290 f8 47 d1 bd 68 2e 60 3d 5c eb 51 bd aa 67 78 be
       -0.10218805 0.054731756 -0.051249847 -0.24258295
0002a0 d2 75 50 be 35 7f 35 3e 42 15 0c be 02 3d 7f be
       -0.20357445 0.17724307 -0.13679984 -0.24925616
0002b0 80 f0 66 be f3 e8 5e 3e 62 f0 cb 3d ce c4 56 be
       -0.22552681 0.2176855 0.09957959 -0.20973513
0002c0 3c 36 17 be e2 be 6c 3e 0d ae 56 3e 69 2a ab 3b
       -0.14766783 0.23119691 0.20964833 0.0052235615
0002d0 c7 a7 4b be 9c ca 63 3e b5 37 36 be 80 8f 5c be
       -0.1988822 0.22245258 -0.17794688 -0.21539116
0002e0 72 f1 d6 3c bf e9 92 3d 03 b4 f9 3c 23 e5 4e 3e
       0.026238177 0.0717349 0.030481344 0.20204596
0002f0 50 c2 ed bd 85 16 5e 3e da 54 6b bd 2a 21 fa 3d
       -0.11609328 0.21688278 -0.057453968 0.12213357
000300 73 44 3a be ec 8e 12 be e8 88 28 be 28 c5 6c be
       -0.18190174 -0.14312333 -0.16458476 -0.23122084
000310 16 49 d9 bc 80 4d c2 bd 64 92 f2 bd 04 28 7a be
       -0.026524108 -0.09487438 -0.11844328 -0.24429327
000320 b5 1e 72 3b fe 9d 8b 3b b8 53 cd 3d 82 3f 23 3d
       0.0036944572 0.0042607775 0.10025734 0.039855488
000330 c0 87 a7 bd f9 5f 27 be 44 e3 e1 bd 0f 27 c4 bc
       -0.08180189 -0.16345204 -0.110296756 -0.023944406
000340 f2 62 8e 3d 52 4c 14 be fe d2 fc bd d3 74 6a 3e
       0.06952466 -0.14482239 -0.12344931 0.22896127
000350 e9 9e 60 3e ce bb 31 be b7 e2 5b be fc 53 4f 3e
       0.2193562 -0.17356798 -0.21473204 0.20246881
000360 65 c1 d8 3d 9b 24 a6 bc 77 28 f4 3d c8 ad a7 bd
       0.10583762 -0.020281127 0.119217806 -0.08187443
000370 6e 57 6c be 57 93 c4 3b 44 fa 52 be c7 53 9a 3c
       -0.23080227 0.0059990096 -0.20603281 0.018838776
000380 ad 36 78 3e 40 b9 ea bc 8f 4f da 3c 1d 10 18 be
       0.24239607 -0.028652787 0.026649265 -0.14849897
000390 61 63 60 3e 54 98 ac bd 20 d4 fa bd 2e 49 3f 3e
       0.2191291 -0.08427492 -0.12247491 0.1868026
0003a0 eb 7a d0 3d 53 e8 eb 3d ef d9 5c be f6 0e 1b 3e
       0.10179695 0.11518922 -0.2156751 0.15142426
0003b0 c3 0f 8a 3c e2 9e 08 b8 9e 88 96 bd 1d b2 04 bd
       0.016853219 -3.2572898e-05 -0.073502764 -0.032396425
0003c0 5e 12 4c 3e 32 04 48 3d a0 23 5a be c9 14 5f 3c
       0.19928882 0.048832126 -0.21302652 0.013615795
0003d0 38 f5 3c 3e 35 23 24 be 20 e4 e0 bd c0 aa ed 3d
       0.18452919 -0.16029055 -0.109810114 0.116048336
0003e0 74 d0 79 3e 4f 12 78 be 19 c7 41 3d 17 16 57 3d
       0.24395925 -0.24225734 0.047309015 0.0525113
0003f0 86 c8 fe 3d bf 1f 06 3e de db 9e 3d 7f c6 68 be
       0.124405906 0.13098048 0.0775678 -0.2273197

fc2.bias f4 [32]
000000 88 bb 07 3e f1 5e 36 3e b3 88 6c 3d 03 be 7d 3e
       0.13255131 0.17809655 0.057747554 0.24779515
000010 47 39 dd bb 0c a8 19 3e a8 f7 2b 3d d8 ac 7d be
       -0.0067512128 0.15005511 0.04198423 -0.24772966
000020 d9 31 28 be 6f 2e 04 be 0c 6e 83 bd 1e 20 a8 3d
       -0.16425265 -0.12908338 -0.06417474 0.08209251
000030 8e 01 a9 bd 4e 3a 44 3e 59 e4 87 bd f1 43 8d bc
       -0.0825225 0.19162866 -0.06635351 -0.017244311
000040 a2 f6 54 bd 80 4d 94 3d a3 13 1f be 5f a6 1b be
       -0.05199302 0.072413445 -0.15534835 -0.15200184
000050 9f eb 30 3e 8b 6e df bd aa 0e 1a 3e c8 47 3c 3e
       0.17277382 -0.10909756 0.15044656 0.18386757
000060 a3 4b 0f bd dc 91 94 3d d0 1d cb 3c ab f3 3c 3d
       -0.034984242 0.07254383 0.02479449 0.046130817
000070 96 54 fc bd 41 76 7f 3e 30 29 19 be 25 bc 9f 3c
       -0.12320821 0.24947454 -0.14957118 0.019498894

fc3.weight f4 [64, 32]
000000 77 0f 98 bd 80 32 e2 bd b3 c2 cc 3d 9d 7a d4 3d
       -0.07424825 -0.11044788 0.099980734 0.10374949
000010 21 81 00 be 3e a3 e3 bc d4 5b da bc 51 5d 0b 3e
       -0.12549259 -0.0277878 -0.026655115 0.13609816
000020 77 0b 17 3e 97 02 36 3d 45 8d 18 bd 9b 9e 26 3d
       0.14750467 0.044436064 -0.0372441 0.0406786
000030 13 66 9f 3d 30 a0 26 be 60 42 c0 bc da f7 c1 3d
       0.07783141 -0.16272044 -0.02346915 0.09471102
000040 64 f1 27 be d7 ea cf 3d 9f cc d9 3d d0 35 16 3e
       -0.16400677 0.10152214 0.106347315 0.14668965
000050 ce 32 9a bd ee b6 e8 bd 97 05 1d 3e 05 4b 84 3c
       -0.075292215 -0.11363016 0.15334164 0.016149053
000060 44 eb e5 bc 7c bb c7 bd 62 6e d7 3c e5 8d 10 3e
       -0.028066285 -0.09752557 0.026297752 0.14116628
000070 04 db c1 3d 56 09 86 3d ba 71 80 3d fe 35 e6 3d
       0.09465602 0.065447494 0.062716916 0.11240767
000080 ca 86 9c 3d 66 59 32 3e 19 3a 28 be e5 f0 b4 bd
       0.076428965 0.17416915 -0.16428412 -0.088350095
000090 68 53 f6 3d 82 34 ea 3c 01 9c 1e 3e 5a a9 cb bd
       0.12027627 0.02858949 0.15489198 -0.099444106
0000a0 48 2f e0 3d 23 9f 65 3d 06 17 9a 3d a2 a7 ac bc
       0.10946518 0.056059968 0.075239226 -0.021076027
0000b0 e0 45 5a 3c 48 db 20 3e 2b e3 11 bd a8 81 ce bd
       0.013322324 0.15708649 -0.035617035 -0.10083324
0000c0 5a d6 59 3d a9 e9 de 3d 8e 71 73 bd 06 e7 9a bd
       0.053182937 0.10884411 -0.059434466 -0.075635955
0000d0 e2 76 d7 bd c4 a4 13 be a2 95 f4 bd 47 c9 73 bd
       -0.10520722 -0.14418322 -0.11942603 -0.059518125
0000e0 16 8a 3e 3d b9 e6 16 bd 2e a1 72 bd 7e ce 23 be
       0.046518408 -0.036841128 -0.059235744 -0.1599674
0000f0 41 29 02 be 47 6d 00 3e 92 4a 84 3c e4 2f 15 3e
       -0.1271105 0.12541686 0.01614884 0.1456905
000100 af 8f 28 3e 1f e9 99 3d 6e e3 07 3e 30 92 07 3e
       0.16461061 0.075151674 0.13270351 0.1323936
000110 f5 83 b6 bc 1e 9c 13 be 0f 17 28 be 48 48 bb 3d
       -0.022279719 -0.14415023 -0.16415046 0.09144646
000120 27 27 d6 3c e0 c3 21 bd 58 10 0f 3e 97 5a 11 be
       0.026141716 -0.03949344 0.13971078 -0.14194714
000130 9c 86 c5 bd 60 b0 9e bd d3 bb 88 bd db d8 a9 bd
       -0.09644815 -0.077484846 -0.066764496 -0.08293315
000140 9d e7 21 3d e0 ad 9e 3c 9b da 7a 3d 47 9d 75 3d
       0.039527524 0.01937002 0.061243635 0.059964444
000150 1f ab b4 bc 07 a5 28 be 15 e9 eb 3d fd e5 bb 3d
       -0.022054253 -0.16469203 0.11519066 0.09174726
000160 bf c5 d9 3d 90 0f ad 3d 8d 65 24 be d1 d4 26 3e
       0.1063342 0.08450234 -0.16054364 0.1629212
000170 61 25 18 be 73 32 d2 3d d3 62 c2 3d f5 10 2a 3e
       -0.14858009 0.10263529 0.094915055 0.16608031
000180 9d 35 a1 bd b7 c5 dd 3d 5f 95 15 3d 13 34 0d be
       -0.07871554 0.10828727 0.036519405 -0.13789396
000190 2d e0 4b 3d 1c ea 9c ba 3a 3b c0 bc 83 6d 88 bd
       0.049774338 -0.0011971625 -0.023465741 -0.06661513
0001a0 a9 7b 9d bd c0 d7 25 3e 01 89 bd bd 61 ca 1c 3e
       -0.07689602 0.16195583 -0.09254647 0.15311576
0001b0 c8 89 8c 3d 9f b0 82 bb a5 09 1e bd 5b cd 3d 3d
       0.06862217 -0.00398834 -0.038583416 0.04633842
0001c0 54 4a 90 bd 4c 53 10 3e 70 b1 c8 bd 0c 92 2b 3b
       -0.07045427 0.14094275 -0.097994685 0.002617958
0001d0 bf fb 0e be b9 10 06 3e 92 82 7a bc 6f f7 7c bd
       -0.13963221 0.13092317 -0.015289919 -0.06175941
0001e0 9e 6d 96 bc fd e0 26 be ee b6 8a bd 57 25 49 bd
       -0.018362816 -0.16296764 -0.06773172 -0.049107876
0001f0 53 f3 3e 3d 88 5b a3 3d 6e 6e 3b bc 4b d1 f9 bd
       0.04661877 0.079764426 -0.011439903 -0.121981226
000200 e5 0c 29 3e 7e fd d0 3d 79 fc 29 be 48 ab da 3d
       0.16508825 0.102046 -0.16600217 0.106772006
000210 0e 40 bc bd fd 4c 41 3d 04 10 54 3d ea 7c be bd
       -0.09191905 0.047192562 0.051773086 -0.09301169
000220 66 f3 38 3c 14 16 b4 bd 59 cf 02 bd 27 9c 10 be
       0.011288499 -0.087932736 -0.031936023 -0.14122067
000230 a2 d3 98 bd 6e 9c 97 bc 63 47 d7 bd d8 89 fb 3d
       -0.07462241 -0.018507209 -0.10511663 0.12282151
000240 8f ba 34 3d 1d b1 0c be 61 21 2b be da 74 83 bc
       0.04412323 -0.13739438 -0.16711952 -0.01604693
000250 33 3d 1b 3e ea 2f 45 bd 62 db 62 bc 3c 6c 6d bc
       0.15160064 -0.048141398 -0.01384625 -0.014491137
000260 1e 24 ce bb 79 10 03 bd ed 77 92 3d 99 ec fb b9
       -0.0062909266 -0.03199813 0.0715178 -0.0004805073
000270 bd a8 e4 3d 08 3c 53 3d a2 53 2f 3e b5 a0 a4 3c
       0.11164997 0.051570922 0.17121747 0.020096162
000280 b4 2f 5a 3c 0c 45 c7 3d 24 62 22 be 07 54 36 bb
       0.013317037 0.097299665 -0.1585775 -0.002782108
000290 65 42 ba 3a 02 fa fa bd b5 1e 30 be ac 89 16 be
       0.0014210461 -0.122547165 -0.17199214 -0.14700955
0002a0 c2 16 c8 bd 86 ee 05 3e 14 3f 9e bd 44 b1 11 bd
       -0.09769966 0.1307927 -0.07726875 -0.035569444
0002b0 15 8c 19 3e a8 47 4b 3c 69 96 06 3e bd f7 86 bd
       0.14994843 0.012407221 0.13143314 -0.06590221
0002c0 c3 4d 00 be 90 5b 2a be 44 ed 4b 3d 39 ae 07 3e
       -0.12529664 -0.16636491 0.04978682 0.13250054
0002d0 31 24 9c bc aa c2 26 be 7c 6f a6 3c bd ab 27 3e
       -0.019060226 -0.16285196 0.020316832 0.16374107
0002e0 ed b7 8e bd 2e e6 b8 bd 2b 42 2a be eb b8 ab 3d
       -0.06968675 -0.09028278 -0.16626804 0.0838488
0002f0 3b 37 21 3e 3b b6 f1 bd b4 92 aa 3d 79 77 10 be
       0.15743725 -0.11802336 0.08328763 -0.14108075
000300 25 58 20 3e e6 ab ee 3c fb 1d 48 3d de ad 21 3e
       0.15658624 0.029134702 0.048856717 0.15788981
000310 9d bc da bd 33 e5 b2 bc a4 77 0e bd 41 d1 60 3d
       -0.106805064 -0.021837806 -0.034782067 0.05488706
000320 12 32 d8 3d 8d b2 e1 bd 4c 93 00 3e 96 76 0a be
       0.10556425 -0.11020384 0.1255619 -0.135218
000330 6d 09 54 bd 8f 5d b1 bd c0 b0 13 be e4 9d b1 bd
       -0.0517668 -0.08660423 -0.14422894 -0.08672693
000340 e6 77 9b 3d 7f 14 6d bd 54 32 ad 3d e8 fe c9 3d
       0.07591228 -0.057880875 0.08456865 0.09863073
000350 20 fc 1e 3e a5 44 07 3e 8b 25 ab bd 99 1b 0f 3e
       0.15525866 0.1320978 -0.0835677 0.13975371
000360 8b af 0a 3e f8 37 de 3d fe c6 64 bd db 21 26 bd
       0.13543527 0.10850519 -0.055853836 -0.04055963
000370 c9 67 2f bd c5 d3 d2 bd b5 0f 12 3e 6e 6f a6 bd
       -0.042823587 -0.10294298 0.14263804 -0.08126722
000380 a9 37 b4 bc 46 78 0a 3d cd 58 be bd c7 58 2c 3e
       -0.021999197 0.033806108 -0.09294281 0.16830741
000390 e1 f3 f0 3b 1c 62 81 bd 67 f3 da 3d 62 aa 2a 3e
       0.0073532914 -0.06317541 0.106909566 0.16666558
0003a0 97 15 16 3e 69 d3 21 3e 3e b4 46 bd 1f d9 9e bd
       0.14656673 0.15803303 -0.048511736 -0.07756256
0003b0 d1 2a fb 3d 9d 81 20 3c cd 44 c9 bc 7f e9 c8 3d
       0.12264026 0.009796527 -0.02456894 0.09810161
0003c0 ff f4 83 3d 83 54 9f 3d a5 ff ba bd 2b 66 14 be
       0.06443214 0.07779791 -0.091307916 -0.14492099
0003d0 61 db e1 3d cd 5d 9f bc 50 56 32 be 5b b6 ff bc
       0.11028171 -0.019453907 -0.17415738 -0.031214884
0003e0 95 bc c7 3d bb c9 5c 3d 44 5a c1 bd 33 b6 15 be
       0.09752766 0.053903323 -0.09441045 -0.14620285
0003f0 88 0d 9d bb 94 74 31 be f1 a2 58 bc 7c a6 82 bd
       -0.004792873 -0.17329627 -0.013222442 -0.063794106

fc3.bias f4 [64]
000000 98 df 3a 3c c4 db 31 bd 70 4a ba bd 61 52 be 3d
       0.011405848 -0.043422475 -0.09096229 0.09293056
000010 c8 a1 c6 bd b0 3e 58 bc 6f 7c ff bd 83 76 ad 3d
       -0.09698826 -0.01319854 -0.12474906 0.0846987
000020 82 49 1d 3c 08 67 c9 3d 99 2b 02 3e c7 19 3b bd
       0.009600045 0.09834105 0.12711944 -0.04567888
000030 37 de ec 3c 90 47 eb 3c 4d 5a 86 bc 1c 0a b2 ba
       0.028914554 0.028720647 -0.01640048 -0.0013583335
000040 69 97 50 bc b2 ab 34 bd f7 c1 c7 bb f9 ce b2 bd
       -0.0127314115 -0.044109054 -0.0060961205 -0.08730883
000050 af 9c af 3d c7 2b c0 3d cb 5b 7e bd cf 13 ec bc
       0.08574807 0.0938335 -0.06209926 -0.02881804
000060 7f 41 b0 bd 36 82 47 3d 4e 5c fb bd bc 1a 86 3d
       -0.086062424 0.048708163 -0.12273465 0.06548068
000070 cd cd 1f be 04 ec 25 be 2c 53 9d bd 0f 34 13 3e
       -0.1560585 -0.16203314 -0.076818794 0.14375328
000080 f2 e5 0f 3e 0f 6d e2 3d 47 66 04 be 6f 08 7a bd
       0.14052561 0.110559575 -0.1292964 -0.0610432
000090 08 45 27 be 83 c1 b5 3d 2e e8 48 bc 05 69 3c bd
       -0.16334927 0.088748 -0.012262387 -0.045998592
0000a0 3d 92 12 be 5c c7 1f be c1 d6 7e 3b af eb 0f bd
       -0.14313598 -0.15603393 0.0038885328 -0.035136875
0000b0 12 4c ca 3d c4 28 b6 bd b0 5c f8 bd 1a 5a ea bb
       0.098777905 -0.08894494 -0.12127054 -0.007151854
0000c0 9c 51 02 be d8 48 25 be 18 46 27 be c4 08 82 bc
       -0.12726444 -0.16141069 -0.16335332 -0.01587332
0000d0 18 e0 e4 3d 68 d2 f4 bd 41 f7 f5 3c 47 1e 15 3e
       0.11175555 -0.11954194 0.030025126 0.14562331
0000e0 1f c6 19 3e 0d 28 15 3e 80 b0 0c 3e 21 59 ae bd
       0.15016983 0.1456606 0.13739204 -0.08513094
0000f0 41 7c af 3c f8 de 30 3e fa e0 e9 bd 71 64 7d 3d
       0.021421554 0.17272556 -0.11419864 0.061863367

fc4.weight f4 [128, 64]
000000 d8 9c a5 bd 82 45 83 3d e8 09 7d 3d 94 54 b6 bd
       -0.08086556 0.06409742 0.061777025 -0.08902851
000010 54 4a e4 bd 04 4b c0 bd 48 01 83 3d fc a4 aa bd
       -0.111469895 -0.09389308 0.06396729 -0.083322495
000020 f8 f6 ac 3c b4 51 16 3d 64 34 73 bd c4 e7 43 bd
       0.021113858 0.036699012 -0.059376135 -0.04782845
000030 8a 4a df bd 14 4c b5 bd 52 f0 d4 3d 30 29 04 bc
       -0.10902889 -0.088524014 0.103974 -0.0080664605
000040 ea 38 b2 3d 4c 19 e0 3d 74 5a ca 3d c0 d7 ca bd
       0.08702262 0.10942325 0.09880534 -0.09904432
000050 a4 80 b3 3d 88 09 c2 3d e6 8f f1 3d ee 2d ed bd
       0.087647706 0.09474474 0.117950246 -0.11581026
000060 10 2e d9 bd c6 c0 85 bd 40 5f 22 bb 98 08 c8 bc
       -0.10604489 -0.06530909 -0.0024776012 -0.02441816
000070 88 69 cc 3c c0 c4 92 bb ce 98 d9 bd cc fe 44 3d
       0.024952665 -0.004479021 -0.10624848 0.048094556
000080 34 ba 44 3d 7e 40 d0 bd fe aa a6 3d b8 ac bd bc
       0.04802914 -0.10168551 0.08138083 -0.023153648
000090 ee dc 9a 3d cc c1 b4 bd 00 0b ef 3d c6 75 93 3d
       0.0756167 -0.08826026 0.1167202 0.07200198
0000a0 90 f0 83 bd a6 30 c7 3d 54 18 e4 3d 30 a1 81 3d
       -0.06442368 0.09726076 0.11137453 0.06329572
0000b0 d4 94 a2 3d 5c 61 b0 bd 30 70 12 3c 80 77 bd 3b
       0.07938543 -0.0861232 0.00893788 0.005782068
0000c0 a0 23 10 3d 00 6f eb ba 8e 1e f9 bd 6c 6c ca bd
       0.035190225 -0.0017962158 -0.12164031 -0.09883961
0000d0 50 ff 74 bd 10 80 23 3d f8 27 c1 bd e0 04 33 3c
       -0.059813797 0.03991705 -0.094314516 0.010926455
0000e0 d8 bd de bd dc 1b 31 bd 98 cb a5 bd 8c 62 f4 3d
       -0.108760536 -0.04323946 -0.08095473 0.11932859
0000f0 9c 86 44 3d 68 e3 b5 bc 24 81 c7 bd 9e 66 9b bd
       0.047979936 -0.022203162 -0.097414285 -0.07587932
000100 fc 00 85 bd 0d cb 9c 3c a7 fe b7 3c da 34 89 bd
       -0.064943284 0.01913979 0.022460295 -0.06699534
000110 39 c2 93 3d a0 27 e8 bd 11 7c 89 bd 18 ce 19 bd
       0.072147794 -0.11335683 -0.06713117 -0.037550062
000120 fc ce 81 3d 40 4e 9a bd 0c 0e da bd 32 92 7d 3d
       0.06338307 -0.07534456 -0.106472105 0.061907
000130 28 fb db 3d 35 ea f4 bd af 9a 9c 3c d9 e2 9f bd
       0.10741264 -0.11958734 0.019116728 -0.0780694
000140 1a b0 ae 3d 44 74 eb ba 26 3c ea 3c f5 b3 52 bb
       0.085296825 -0.0017963727 0.028593134 -0.003215072
000150 7f c2 d4 bc 21 5f 91 bc 0a 82 5a 3d 3b 5b a5 bd
       -0.02597165 -0.017745556 0.05334667 -0.080740415
000160 9f 62 65 bc 7a 77 d0 bd ee 6b ed bd b4 5f a6 bd
       -0.014000564 -0.10179038 -0.115928516 -0.08123723
000170 da 89 39 3c f9 9b eb 3d bb e7 ee 3d 32 16 fb 3d
       0.01132437 0.11504359 0.11665293 0.12260093
000180 26 3d fe 3d 0b 50 b8 3c b7 9e ee bd 48 9c 01 bd
       0.12414007 0.022499105 -0.11651366 -0.031643182
000190 96 f3 f0 3d 06 53 7f bd 9f a0 c7 3d 4b 98 63 3d
       0.1176521 -0.062335037 0.09747433 0.05556516
0001a0 bc d8 c4 3d 85 3a 0b bd cd f2 f8 3d 6d b6 3e bd
       0.09611651 -0.033991355 0.121556856 -0.046560694
0001b0 7d 14 7a 3d 34 21 b1 3d 4d 55 ee 3d 40 bf 48 3d
       0.061054695 0.08648911 0.116373636 0.049010515
0001c0 bd fd f4 3d 21 0c b5 3d 7f ae cb bc e2 58 df 3d
       0.11962459 0.08840204 -0.02486348 0.10905625
0001d0 44 9a ac 3d 6c af a4 3d 9b 00 e4 3d ec 1f e7 3d
       0.08427861 0.080412716 0.11132928 0.112853855
0001e0 1d a3 c8 3d ce 14 08 3c 9e 4d b3 bd b5 3a c0 bd
       0.097967364 0.0083057415 -0.08755039 -0.093861975
0001f0 31 e0 4f bd 6e 92 43 bc 01 1c c4 3d f5 aa 30 bd
       -0.050750915 -0.011936767 0.09575654 -0.043131787
000200 fe 42 c9 bd 18 75 a3 bd 80 3f 77 bc 0e 57 fa 3d
       -0.09827231 -0.07981318 -0.015090823 0.122236356
000210 90 9e 22 3c 2c e5 2d bd 20 81 09 bd 88 0e 44 3d
       0.0099255 -0.042454883 -0.03357041 0.04786542
000220 48 69 9b 3c 46 9e fe bd a0 6a 42 bd 50 ed 5b 3d
       0.0189711 -0.12432532 -0.047464967 0.053693116
000230 86 a3 e8 3d 46 97 a6 3d 06 ef d3 bd 5c 90 10 bd
       0.113593146 0.08134322 -0.103483245 -0.03529392
000240 b8 8c 42 bd 8c cf 1c bd e0 7c 41 bc 80 cf 3e 3b
       -0.04749748 -0.03828387 -0.011809558 0.002911538
000250 9c b9 d8 bd 80 c1 c8 bb 5c 43 47 3d 54 94 a5 3d
       -0.10582277 -0.0061265826 0.048648223 0.08084932
000260 a0 d5 0e 3d 38 74 32 bd e0 34 8b bd c0 ba b5 bd
       0.034871697 -0.043567866 -0.067971945 -0.0887351
000270 52 9c e9 bd 44 a0 86 bd 80 27 05 3b c2 ee dc 3d
       -0.11406769 -0.06573537 0.0020317733 0.10787727
000280 d0 a5 67 3d be 39 fb bd b2 97 b4 bd a8 68 58 3d
       0.056554615 -0.12266873 -0.08817996 0.052834183
000290 72 39 ab bd 90 b1 e7 3c 10 9b c9 3d 00 bf c7 bd
       -0.08360566 0.02828291 0.09844029 -0.09753227
0002a0 9a 96 c0 3d 36 24 84 3d 90 07 78 bd f2 73 ed bd
       0.09403725 0.06452219 -0.060554087 -0.115943804
0002b0 70 8a 72 3d c0 43 4c bd c0 dd 40 bc 70 2f 67 bc
       0.059214056 -0.0498693 -0.011771619 -0.014110431
0002c0 0e c6 8b 3d 10 8b e2 3c 10 90 8c 3c d6 19 a5 bd
       0.06824885 0.0276542 0.017158538 -0.080615684
0002d0 68 34 db bc 60 c9 a6 3d 94 04 a2 bd f0 48 f2 bd
       -0.026758388 0.08143878 -0.079110295 -0.11830318
0002e0 08 92 44 3d 20 b3 a4 bd b6 2b ed bd 56 65 ff bd
       0.04799083 -0.08041978 -0.11580603 -0.124705
0002f0 10 e8 04 bd 48 dd 94 3d 0c 33 c5 3d a8 6e ef 3d
       -0.032447875 0.072687685 0.09628877 0.11691028
000300 59 a2 c9 bd 66 34 96 bd ec c3 51 bd 54 e2 b9 bd
       -0.098454185 -0.07334213 -0.051212236 -0.09076372
000310 4b aa 97 3c 90 70 97 3c 6e 60 4a bd 38 e3 2a 3d
       0.01851382 0.018486291 -0.04940837 0.0417206
000320 1e 18 af bd c8 78 ef bd 94 86 b9 bb e3 f3 e1 3d
       -0.08549522 -0.11692959 -0.005661795 0.11032846
000330 80 4b ea bc e2 12 6a bc 66 6f c7 bd b7 87 2c 3d
       -0.028600454 -0.014286729 -0.097380444 0.042121615
000340 36 e7 d4 bd d8 c4 e5 bc 09 77 f4 bd a8 a1 9e bd
       -0.103956625 -0.028047964 -0.11936767 -0.07745677
000350 38 88 db bc 6d 81 4c bd da ec 28 bd 7a 0a 88 bd
       -0.026798353 -0.049928118 -0.041241504 -0.06642623
000360 48 c1 a4 bd 45 3d 54 3d 62 09 8a 3d 6f 99 1f 3c
       -0.08044678 0.051816244 0.06740071 0.009741171
000370 f8 96 79 bd 20 1e ac 3c 39 db db 3d 59 5f 02 3c
       -0.06093499 0.021010458 0.10735173 0.007957303
000380 af 11 fa 3d 29 05 e4 bd 67 63 cc bd 4e f8 c6 bd
       0.12210404 -0.11133797 -0.09979897 -0.09715329
000390 80 d5 86 bc da 0b e4 bd 5e 59 a0 3d 2c 43 db bd
       -0.016459227 -0.11135073 0.078295454 -0.107061714
0003a0 b3 4b 6a 3d b3 05 c3 3d 6c b4 28 bd e2 39 ef 3b
       0.0572011 0.095225714 -0.04118769 0.0073006013
0003b0 89 c6 ea bc 7e 08 dd bd d8 dc e8 3d 25 ab ab bd
       -0.028659122 -0.107926354 0.113702476 -0.083822526
0003c0 5f 23 15 bc 77 26 ba bd 55 79 74 3d 16 cb 3f 3d
       -0.009102671 -0.09089368 0.059686024 0.046824537
0003d0 6f 94 e1 3b 66 17 ae bc 5b 3a 92 bd 88 f8 a1 bc
       0.0068841497 -0.021251392 -0.07140037 -0.01977183
0003e0 56 8f d8 3d 83 bb af bd 46 28 86 bd 0c bf d8 bd
       0.10574214 -0.08580687 -0.0655065 -0.10583314
0003f0 d5 c7 bf 3d 00 ac 20 3d 11 e7 66 bd 5c f9 f6 bd
       0.09364287 0.039226532 -0.056372706 -0.1205928

fc4.bias f4 [128]
000000 d6 0f f1 bd f6 fd 26 bd fc 7f 3d bd d4 fe a3 bd
       -0.117705986 -0.04076954 -0.046264634 -0.08007589
000010 63 b3 6b 3d 0e 16 50 bd 65 a0 c3 bd 69 36 55 3d
       0.057544123 -0.050802283 -0.09552077 0.052053843
000020 06 12 c9 bd 4d 6c f0 3d 1b b4 8e 3b 11 a9 6e bd
       -0.09817891 0.11739407 0.0043549663 -0.058266703
000030 74 e1 47 bc 8d 0a 63 bd 23 4c 60 bc b1 19 bf bd
       -0.012199748 -0.055429984 -0.013690027 -0.09331072
000040 55 24 85 3d 37 60 c3 bd 78 88 44 bd c9 16 ff 3c
       0.065010704 -0.09539836 -0.04798171 0.031138794
000050 e2 c3 ff bd 28 b3 c1 bd 0d 97 a6 bd ab 94 fc bd
       -0.124885336 -0.094579995 -0.081342794 -0.12333044
000060 19 be 0d 3d cf 7b d5 bd eb 00 94 3d 1a 0f 17 bc
       0.03460512 -0.10424005 0.072267376 -0.009219909
000070 7a 2e 30 3d 54 75 c0 bd b9 71 c0 bd e6 2c 4f bd
       0.043013074 -0.093973786 -0.09396691 -0.050579928
000080 e9 79 88 3d ed dd 9a bd 1a 50 fc 3d 43 c2 ce 3a
       0.066638775 -0.0756186 0.12319966 0.0015774447
000090 62 5a db 3c 3b 85 83 3c 61 bb cc bc 7c 82 d7 3d
       0.026776496 0.01605474 -0.024991693 0.10522935
0000a0 81 0e ef 3d da 75 95 bd 90 1f 24 bc d9 a3 2b bd
       0.11672688 -0.07297869 -0.010017291 -0.041904304
0000b0 1e 99 83 3c 44 17 18 3b ba 76 3e 3d 73 21 c4 bd
       0.016064223 0.0023207227 0.046499945 -0.095766924
0000c0 6e 3c 09 3d b5 68 ae bd 40 f6 8b bb 2d cd 82 3d
       0.033504896 -0.08516065 -0.0042712986 0.063867904
0000d0 b2 2e 98 3d 8e b3 51 bd 8d f3 85 bd d9 24 53 bb
       0.074307814 -0.051196627 -0.06540594 -0.0032218008
0000e0 2b 6e 67 bc b4 70 3c 3d 79 92 08 bd b8 10 22 bb
       -0.014125387 0.04600592 -0.033342812 -0.0024729203
0000f0 cf 7e ae bd 5f e7 db 3d 31 9e f4 bd 1e 39 ba bd
       -0.085202806 0.1073749 -0.11944235 -0.090929255
000100 78 dd 71 bd cf ee c6 bd a4 6b 99 3c 91 d8 bc bd
       -0.0590491 -0.09713518 0.018728085 -0.09220994
000110 5d 7f 1d 3c d4 29 55 bd 3e ed 6e bd 83 1b 9d bd
       0.009612885 -0.052041844 -0.05833172 -0.07671263
000120 cf 4b ec 3d 15 a8 27 3c 37 02 1b bb d2 b3 a6 3d
       0.11537897 0.010232945 -0.0023652443 0.08139767
000130 7d 82 d7 bb 3e 64 d6 bd d1 d9 f0 3d ad 60 ca 3d
       -0.0065768347 -0.104683384 0.11760295 0.09881721
000140 46 a2 e7 bc dd c2 a3 bd e8 09 cf bc 7c 89 8d bd
       -0.02827562 -0.079961516 -0.025273278 -0.06910989
000150 07 6f 71 3d 47 fd a8 bd 12 55 4a bc 99 42 90 3b
       0.058943775 -0.08251434 -0.012349384 0.0044024703
000160 0c a8 96 bc 8e b6 de bd 4e 6f e6 bd 34 df fe bc
       -0.018390678 -0.10874663 -0.112516984 -0.03111229
000170 66 e7 e9 bd 62 8f 73 3d 9b 5e cc bd 2c e4 d0 bc
       -0.11421089 0.059462912 -0.09978982 -0.025499426
000180 a7 c1 cf bd 4b 34 f2 bd 43 e4 4c bd f4 fe b5 bb
       -0.10144358 -0.1182638 -0.050022375 -0.0055540744
000190 09 03 df bc a0 cb 49 3c ae 06 da bd 7c 9c b7 bd
       -0.027223127 0.012316614 -0.10645805 -0.08965394
0001a0 47 75 34 3d 27 69 db 3d e4 d2 be 3d 64 e4 87 3d
       0.044057157 0.107134156 0.09317568 0.06635359
0001b0 b3 b6 d3 bd 17 ea 59 bd 29 89 24 3d 3a 2d 89 bd
       -0.103375815 -0.05320176 0.04016987 -0.066980794
0001c0 02 d8 3c bd e6 f7 d8 bd 1c 28 22 bb 8f d3 94 bd
       -0.04610444 -0.10594158 -0.0024743145 -0.07266914
0001d0 60 e3 7f 3d c5 84 dd 3c 7f 7c 6b bd 6e 0b 24 3d
       0.0624727 0.027040849 -0.057491776 0.040049963
0001e0 3c cd ed bd 9d 62 89 3d bf 9e 3c 3c ab e6 4f bd
       -0.11611411 0.06708262 0.011512457 -0.05075709
0001f0 af 5d 1c bd 0d cd 84 bd c7 8f 2b bd e4 f6 6d 3d
       -0.03817528 -0.06484423 -0.041885164 0.05809678
