models/less_loss-CNN_2L_FC_R400.pt (torch, 160099 bytes, 22 tensors)

conv1.weight f4 [32, 1, 1]
000000 e6 36 c5 be 40 96 0c bf 82 3f e2 3e ae 0f 34 3f
       -0.38518447 -0.54916763 0.44189078 0.70336425
000010 49 a4 fe be db 79 29 bf e8 f5 ad bd 6c 45 bc 3e
       -0.49734715 -0.6620156 -0.084941685 0.36771715
000020 aa 9a 57 be fa 24 8a be 86 23 05 3f 4a df 1e bd
       -0.21055093 -0.26981336 0.5200733 -0.038787164
000030 fd 6c 61 3e fd f3 59 bf 64 26 f8 3e 79 80 19 bf
       0.22014232 -0.8513792 0.4846679 -0.5996166
000040 d0 bc 4a bf f1 ff ca 3e 60 bf 94 be cc 08 14 bf
       -0.79194355 0.39648393 -0.29052258 -0.5782592
000050 0e f7 3c bd 36 a2 ed be dc a8 6f 3f 3f bc ef be
       -0.046134047 -0.4641282 0.93617034 -0.46823308
000060 b9 57 77 bf c9 8e 50 3e 71 39 58 be 58 02 23 bf
       -0.9661823 0.20366968 -0.21115662 -0.6367545
000070 e5 db e6 3e 32 c3 3b 3d 87 43 c6 3b 57 2b 95 be
       0.4508964 0.04584045 0.0060505304 -0.29134628

conv1.bias f4 [32]
000000 b0 1f 10 3e 33 cf 4d bf c7 b6 39 3f 02 37 c9 be
       0.14074588 -0.80394286 0.7254452 -0.3929978
000010 2d 35 26 3e 02 4a 7c 3f fc e3 b4 3e 8c dc fe 3e
       0.16231222 0.98550427 0.35330188 0.4977764
000020 8a 09 51 bf 3a a0 52 3f 17 a4 57 3f a2 c4 e5 3e
       -0.8165518 0.82275736 0.84234756 0.4487658
000030 9a 04 cc 3d 0e ae 06 bf c8 02 5f 3f 8b f0 64 3f
       0.09961815 -0.52609336 0.8711362 0.8942954
000040 4e f4 78 3f df ef 57 3f d7 79 67 bf 83 17 66 bf
       0.9724778 0.8435039 -0.9042029 -0.89879626
000050 e2 f7 46 bf d3 4f 2f be 72 82 fc 3d 75 6d 0d bf
       -0.7772199 -0.17120294 0.12329568 -0.55245143
000060 6c fb b4 3c c2 c9 26 3e 5a 4a 9c be 08 c5 9f 3e
       0.022092544 0.16287902 -0.30525476 0.3120501
000070 9d f3 a1 3e ea 4d 01 3e 44 ec 2c bf c2 18 63 3f
       0.31631175 0.12627378 -0.6754801 0.8870965

conv2.weight f4 [64, 32, 1]
000000 6f 19 ef bd 5c 44 44 3d 9d dc f6 3d 35 8b 98 3d
       -0.11674773 0.047916755 0.120537974 0.07448427
000010 de bf c8 bd 8c 47 28 bd 1f 08 8c bc 1d 53 26 3d
       -0.09802221 -0.041083857 -0.017093716 0.040606607
000020 4b 5b 0f 3e 9b 24 a2 3d ab a3 7f 3d 5c 8e db bd
       0.13999669 0.07917138 0.062411945 -0.10720512
000030 99 ac 35 3c e7 57 8a bd 6f 2a 27 bd ac b7 29 be
       0.011088514 -0.06755047 -0.040811952 -0.16573972
000040 62 d3 34 3c 1d e8 33 3d 30 e0 40 3d 11 c5 1e 3e
       0.011036726 0.043922532 0.0470888 0.15504862
000050 16 2f 0b 3e a9 44 f4 3d 7e 87 0d 3e 1b 37 fc 3d
       0.1359218 0.119271584 0.13821217 0.12315198
000060 03 a2 c1 3d f9 9e 19 be e2 2a e4 bd ff a6 0e 3e
       0.094547294 -0.1500205 -0.11140992 0.13930891
000070 5b 02 1b 3e ad 30 16 3e 60 cd 0b bd dc 61 12 3e
       0.15137617 0.14667006 -0.034131408 0.14295143
000080 54 69 0d be cc 88 a7 bd de 9d 1b 3e c8 51 fa 3c
       -0.1380971 -0.08180389 0.1519694 0.030556574
000090 1e 17 33 3d 97 fa 0c be c1 3a 1c 3e 21 a4 ba 3b
       0.04372322 -0.13767467 0.15256788 0.005695835
0000a0 cf 32 a5 3d 40 3a 21 3c 24 76 7a 3d 18 72 2b be
       0.080663316 0.009840548 0.061147824 -0.16742742
0000b0 9f 47 1e 3e db b2 24 3c 11 05 c1 bd 0a b3 83 bd
       0.15457009 0.010052408 -0.094247945 -0.06430633
0000c0 6e 5b ee 3d e3 67 d6 3d 3c 2b 07 3d 14 99 02 be
       0.116385326 0.104690336 0.033000216 -0.12753707
0000d0 52 58 c9 bd 52 9a 1d be d3 64 2b bd 15 85 ed bd
       -0.09831299 -0.153909 -0.0418442 -0.11597649
0000e0 0b 7c 03 bd bb aa cb bd ff cf 95 bd 6d 67 28 3e
       -0.03210072 -0.09944674 -0.07315063 0.16445704
0000f0 79 36 be bd 32 97 d3 3d c1 4d 1f be 04 55 df 3d
       -0.092877336 0.103315726 -0.15557005 0.10904887
000100 48 9c e0 bd d2 a8 c6 3d 63 dc ee 3c 4c 7a 40 bc
       -0.10967308 0.09700169 0.029157823 -0.011747908
000110 f6 da 3c 3d 4d c3 d6 3d 40 83 f8 3d 72 23 17 be
       0.046107255 0.104864694 0.12134409 -0.14759615
000120 d5 e9 22 3d 5d 6f 75 bd 5a 5c 15 be 1c 22 a4 bd
       0.03977378 -0.059920657 -0.1458601 -0.08014318
000130 ee 2a ba 3d 2a 4c 30 3e 3f 99 36 3e 4e 27 17 be
       0.090902194 0.17216554 0.17831896 -0.14761087
000140 30 42 8f bd 84 f6 aa 3c 3e ed 98 3d c8 ba 20 be
       -0.06995046 0.020869501 0.07467125 -0.15696251
000150 20 1e ba 3d 3c 96 1d bd d7 54 b7 bc ed 4f 0b 3e
       0.09087777 -0.038473353 -0.022379322 0.13604708
000160 5f 1f df 3c d0 3f 25 bd 5a 14 c3 3d e9 8d 6e 3d
       0.027236639 -0.04034406 0.09525366 0.058240805
000170 7d 26 ed bd 14 d6 cd bc 2b 28 01 be 28 8e 2a 3d
       -0.11579607 -0.025126494 -0.12612979 0.041639477
000180 c0 19 01 be 9e 6b 07 3e 00 ae 0c bd 98 4a 94 3c
       -0.12607479 0.13224646 -0.034345627 0.018101975
000190 22 6b 3e 3d c6 37 34 3e 97 53 c8 bd 6a 86 98 bd
       0.04648889 0.17599401 -0.097815685 -0.074475124
0001a0 2a 8b e3 3d 4d 19 82 bd 5f ce 34 3e b3 bc c6 bd
       0.11110528 -0.06352482 0.1765685 -0.0970396
0001b0 7e 49 8a bd 32 45 5d bc d4 b2 9b 3c 3e 06 2e 3e
       -0.06752299 -0.013505267 0.01900617 0.16994569
0001c0 97 10 a0 bd 1c 02 2d be 0f 96 ff 3d bf 07 7c bb
       -0.07815664 -0.16895336 0.12479793 -0.0038456765
0001d0 47 54 86 bd 9a f1 2e 3d d2 8a 86 3d f0 a6 2f 3e
       -0.065590434 0.042710878 0.065694466 0.17153525
0001e0 4b 45 1d 3e 7e f3 1e bd a2 cb f1 bb db 58 54 3d
       0.15358464 -0.03880643 -0.0073790113 0.05184255
0001f0 78 88 66 3d bc 4c 27 bd 9b 72 71 bd 30 4b 1a be
       0.05628249 -0.040844664 -0.058947187 -0.15067744
000200 fe 24 a4 3d 55 51 29 3e 03 f0 fd 3d ec 7e 00 3e
       0.08014868 0.16534932 0.12399294 0.12548417
000210 fc 53 0f 3e 03 55 40 3d 60 31 18 be 8c 62 1b be
       0.13996881 0.046956073 -0.14862585 -0.15174311
000220 09 40 d7 bd 9d d1 cb bd e7 2d cf bd f2 c6 a4 bb
       -0.105102606 -0.0995209 -0.10116177 -0.005028599
000230 2d 64 28 3e 5f e5 22 be 7c 2f 16 bc 5f 3e ac bd
       0.16444464 -0.1590781 -0.009166595 -0.08410334
000240 7b 83 5c bd ca 17 31 3e 77 a0 f7 bc b1 e0 00 3e
       -0.053836327 0.17294231 -0.030227883 0.12585713
000250 3d 0d 34 be 32 b2 02 3e 1a a2 00 3e 05 26 da 3c
       -0.17583175 0.12763289 0.12561837 0.026629457
000260 1a 22 31 3e cf 4e fe bd 35 1f 25 be 7c 8d 44 3c
       0.17298165 -0.12417375 -0.16125186 0.011996623
000270 58 85 25 3e 3f 4a de bc 57 16 ed 3d 37 3b 92 bc
       0.16164148 -0.027135013 0.115765266 -0.017850501
000280 0b e3 c3 3d 38 d5 9e 3d 46 e4 83 3c 05 90 7e 3b
       0.095647894 0.07755512 0.01610006 0.0038843167
000290 85 b3 22 3e cb 92 30 3e 76 a0 8f bc 27 90 15 3e
       0.15888794 0.17243497 -0.017532568 0.14605771
0002a0 bc 8f 4b bd 7c 24 2e 3e 18 9c 9a bd d5 5d f5 bd
       -0.049697623 0.17006105 -0.07549304 -0.11980788
0002b0 06 5d 13 be ab 42 37 3e e4 b7 8b 3c 50 97 03 be
       -0.14390954 0.17896526 0.01705546 -0.1285069
0002c0 9e a1 cd 3d 81 24 90 bd 3a 96 f6 3d 6a 61 0f be
       0.10040592 -0.070382126 0.12040372 -0.14002004
0002d0 ac ab 2a be 7a 77 17 be b6 b2 e7 bc 55 34 37 3d
       -0.1666705 -0.1479167 -0.028283458 0.044727642
0002e0 1a ed ae 3d 33 82 d8 bd ce 5f 20 3e d5 74 d2 3d
       0.08541317 -0.105717085 0.15661547 0.1027619
0002f0 ba be 0c be 85 4a 42 bd 68 23 ee 3d 06 e2 2c 3e
       -0.13744631 -0.04743435 0.11627847 0.16883096
000300 54 14 b3 3d 78 7b 5f 3c 2e b6 32 3e db ac c3 3d
       0.08744112 0.013640277 0.17452309 0.09554454
000310 f8 65 26 be 63 c1 87 3d 0f 75 98 bc c1 1a 22 be
       -0.16249835 0.066286825 -0.018610505 -0.15830518
000320 f5 92 44 bd ca dd f0 bc c0 ae d9 3c f8 3e 84 3d
       -0.04799171 -0.029402632 0.026572585 0.06457323
000330 99 b0 8f 3d 2a 6e 82 3d 16 46 9d 3d 32 5b 41 3d
       0.07016105 0.063686684 0.076793835 0.04720611
000340 76 f8 9b bc bc e1 34 bd bf 7e 63 3d 99 c6 ed 3c
       -0.019039374 -0.04416059 0.055540796 0.029025363
000350 5e fa 7b bc 04 82 85 3d 43 b3 0e be c0 ad 1c bd
       -0.015379516 0.06518939 -0.1393557 -0.03825164
000360 1b 3f 02 be 76 03 9f bd 6d ae 32 3d 0d a9 fa bc
       -0.12719385 -0.07764332 0.043623377 -0.030598188
000370 95 7e 50 bd b2 00 dd bd cf 01 11 3e 2a 5b 71 3d
       -0.050901968 -0.10791148 0.14160846 0.05892483
000380 71 7b bf bd bc 15 e7 3d 50 4d de bd cd 1c 15 3c
       -0.093497165 0.112834424 -0.1085459 0.009101105
000390 0f 02 86 3d 7a 99 6f 3c 07 64 89 bc 38 a5 ec bd
       0.065433614 0.014623994 -0.01677133 -0.115549505
0003a0 9f 58 1c be 84 72 e2 bd b1 85 80 bd 80 55 2f be
       -0.15268181 -0.11056998 -0.062754996 -0.1712246
0003b0 6f a4 07 bd bd 1c 28 be c8 e5 30 3e d3 af 0d 3e
       -0.0331158 -0.16417213 0.17275155 0.13836603
0003c0 0e 6f da 3d 18 67 13 3e ac 52 e9 bd 26 54 17 3e
       0.10665713 0.14394796 -0.113927215 0.14778194
0003d0 20 99 78 3d a9 69 75 bd 1a df 18 be 81 33 a3 3d
       0.060692906 -0.05991522 -0.14928856 0.07968808
0003e0 7b 28 44 3b 2d 53 cb 3d 6a e8 27 3e d0 37 2a 3e
       0.0029931355 0.09927974 0.16397253 0.16622853
0003f0 0e 3f 11 be 27 32 ad bd 02 81 19 be 1d 3f 8a bd
       -0.1418421 -0.084568314 -0.14990619 -0.06750319

conv2.bias f4 [64]
000000 e3 37 fa bd e1 37 13 be 1f aa 32 be 58 31 88 bc
       -0.12217691 -0.14376785 -0.17447709 -0.016625091
000010 a4 7f 2a 3e 65 f5 ca bd a7 a9 aa bd 27 1e ab bd
       0.16650254 -0.099100865 -0.0833314 -0.083553605
000020 40 86 1a be be 86 05 be c2 9d b3 bd cd 8d ed bd
       -0.15090275 -0.13039681 -0.08770324 -0.11599312
000030 d0 9c 9e 3d 29 92 ce bd 31 2b 09 bd 70 b8 00 3d
       0.07744753 -0.100864716 -0.033488456 0.031425893
000040 0b 1e 16 be 20 28 5a bd e9 24 2c 3e 1d 78 98 3c
       -0.14659898 -0.053260922 0.16810955 0.018611962
000050 97 f9 9c bc 06 4a 98 bb 8b 9e 33 3e 40 d7 1f be
       -0.019161982 -0.004647496 0.17540948 -0.15609455
000060 85 58 de bd 2e 42 51 3d 19 48 05 3e e5 03 e1 3b
       -0.108567275 0.051088504 0.13015784 0.0068669193
000070 82 c1 f9 bd 8e e7 a6 3d c9 5b e0 3c ce 23 1f 3e
       -0.12195112 0.08149634 0.027387517 0.15541002
000080 0c be 92 3d 35 7d 66 bc 55 e6 a8 bd 75 6d 9b 3d
       0.07165155 -0.014067938 -0.08247057 0.07589237
000090 7b 4e a2 bd 8d 7c 17 3e a0 e2 ae bd a2 ed 2a 3e
       -0.07925125 0.14793606 -0.08539319 0.16692212
0000a0 0d 55 2f bd ad 71 19 3d 3c b0 e7 bd ea 49 b2 bd
       -0.04280572 0.037461925 -0.11312911 -0.08705504
0000b0 7a 17 29 3e cb da eb 3d 53 41 38 bd d5 75 bc 3d
       0.16512862 0.11516341 -0.044984173 0.09202162
0000c0 20 55 3b 3c 7c b9 f2 3a 00 dc a9 3a a7 d5 2f 3d
       0.01143387 0.0018518413 0.0012959242 0.042928364
0000d0 8e fd be bd 96 ef 04 be d7 3b 2e bd d9 65 21 3e
       -0.093257055 -0.1298202 -0.042537536 0.15761508
0000e0 dd 9b f6 bc 7a b9 01 be 10 67 da 3d 3f 85 a7 bd
       -0.030103618 -0.1266841 0.10664189 -0.081797116
0000f0 6c 89 95 bc c3 1a 26 be 1b 40 06 3a 46 39 76 3d
       -0.018254004 -0.16221146 0.0005121247 0.060113214

fc1.weight f4 [16, 896]
000000 a7 e5 78 3c 89 d7 3b bc 02 e4 91 bc 09 0b b9 bb
       0.015191472 -0.011464962 -0.017808918 -0.0056470674
000010 ad 38 02 3d 1b 3e b3 bc ff a8 d2 bc ad 5b d3 3b
       0.03179233 -0.0218802 -0.02571535 0.0064501376
000020 dc 81 90 3b ee ca 36 bc 3d a1 f2 bc b4 e8 13 bc
       0.0044100117 -0.011156781 -0.0296179 -0.009027649
000030 3d 32 a2 bb 8e fa 1c bc 98 dd ac 3c 49 db 52 b9
       -0.0049498365 -0.009581221 0.021101758 -0.00020108851
000040 b4 0d 60 3c 49 61 c8 3c 7b f9 e3 ba b2 dd c1 bb
       0.013675142 0.024460452 -0.0017393077 -0.0059163207
000050 d5 c1 e2 bc bc f5 3f bc 6c 08 8f 3c 04 03 81 bc
       -0.027680317 -0.0117163025 0.01746007 -0.015748508
000060 96 ae 95 bc 63 25 2c 3c d7 90 8a 3c 53 3a 68 3c
       -0.018271726 0.010506961 0.016914768 0.014174062
000070 25 2f c2 3c a1 40 e5 bb 52 27 ed 3c 81 b7 52 3c
       0.02370412 -0.0069962298 0.028949413 0.012861134
000080 32 1b 01 3c 09 9e 9b 3c 6e 5b 3c bc d9 96 6f 3c
       0.007880019 0.018996255 -0.011496408 0.014623367
000090 77 67 06 3d a3 14 8f bc a3 89 bf bc 33 fc 03 3d
       0.032813516 -0.017465895 -0.02338106 0.032222938
0000a0 c0 d3 dd 3b 27 87 f0 bb e8 be 96 3c 19 d8 f7 3c
       0.0067696273 -0.00734033 0.018401578 0.03025441
0000b0 cc 9e d3 3a d7 a6 c0 3c 26 d3 c6 bc 6b e2 c7 bc
       0.0016145348 0.023517055 -0.024270605 -0.024399957
0000c0 ce 8a ee bc 2b 82 fc 3a 0a 54 ba 3c 0c 09 6a 3c
       -0.029118922 0.0019264867 0.022745151 0.0142843835
0000d0 ef 52 06 bd ec d3 83 3b 87 92 5a 3c 5e f0 ea bb
       -0.032793935 0.004023066 0.013340599 -0.0071697673
0000e0 6e 63 9b bb f1 3d 3b ba 84 52 94 3c da 63 26 bc
       -0.0047420776 -0.0007142714 0.018105753 -0.010155642
0000f0 47 b2 da 3c 95 15 06 bd ed 62 fe bc 0d ac 5f bb
       0.026696337 -0.032735426 -0.03105303 -0.003412965
000100 00 4b c2 3c 43 1b 14 3c 61 71 00 3b 0e 70 bb 3c
       0.023717403 0.009039703 0.001959883 0.02288058
000110 8d 7d a9 bb 8c 6e f8 3c fa c3 cf bc d9 8d 0a 3c
       -0.0051724375 0.03032615 -0.025362004 0.008456671
000120 de 31 01 3d ca ee bc bc b3 15 0a 3c ac 35 24 3c
       0.031541698 -0.023063082 0.008428025 0.010022562
000130 3f a5 ac 3c f0 12 9b bc 04 12 dd bb f8 85 93 bc
       0.02107489 -0.018929929 -0.0067465324 -0.018008217
000140 0c f8 b2 3b de 44 01 bd df 9a 07 3c c7 7e 81 3c
       0.0054616984 -0.031559817 0.00827667 0.015807522
000150 35 c3 db bc 14 f8 e9 3b 14 bb bc 3a ee 88 ba bc
       -0.02682648 0.007140169 0.0014399015 -0.022770371
000160 fc 8e e4 bb 27 25 65 3c 5b a5 91 3b 30 60 87 bc
       -0.006975053 0.013985909 0.0044447607 -0.016525358
000170 4b b9 8f bc 28 53 2c bc a5 dc 65 39 f9 c6 f0 3c
       -0.01754441 -0.010517873 0.00021921338 0.029391753
000180 1f 53 50 bc 11 97 69 3c 62 e2 df bc 83 33 e0 bc
       -0.01271513 0.014257208 -0.027329627 -0.027368313
000190 7a a5 30 bc bc 4f 08 3b f5 4d ef bb c2 57 66 3c
       -0.01078164 0.0020799479 -0.0073029944 0.014059009
0001a0 67 e4 69 3b 7f f9 dd 3b e7 b3 d5 3c b6 6d 61 3c
       0.0035689117 0.006774127 0.02608676 0.013759067
0001b0 5e b6 7e bc 1c 73 23 bc aa 71 e1 3c 33 60 90 bc
       -0.015546409 -0.009976175 0.02752002 -0.017623996
0001c0 71 a4 1a 3b 2c d1 89 3c d9 7a 8b 3c 9c ab bc bc
       0.002359655 0.016823374 0.017026352 -0.023031048
0001d0 a6 39 ea bc 54 fe d8 3b d1 40 85 3c 2e 5a bb 3b
       -0.028591942 0.006622115 0.016266258 0.0057175374
0001e0 6b c6 ae 3b 87 2d e5 bb 4e 7b 87 3c 6f 3d 78 3c
       0.005333712 -0.0069939527 0.016538288 0.015151366
0001f0 a7 0c bf bc 0e e5 e5 ba c9 9a f0 3c 38 ba a9 3c
       -0.023321463 -0.0017539577 0.029370682 0.020718679
000200 fb ea 1b bc a7 15 f3 bb 08 84 79 bc 0c 78 e1 ba
       -0.009516473 -0.0074183526 -0.015229233 -0.0017201914
000210 0a eb 2f 3b 5c 35 a0 bc c1 f0 67 3c db 16 ca 3c
       0.0026842975 -0.019556694 0.014156521 0.024669101
000220 81 b5 ba 3c eb 0e da bc f1 49 e6 3c cd 51 ce 3c
       0.022791626 -0.026618442 0.02811143 0.02518549
000230 2f ff f0 bb 2f 44 5b 3c a0 66 fd 3c 78 b2 e3 bc
       -0.007354639 0.013382955 0.030932724 -0.027795061
000240 cc 9e 9a bb f6 79 03 bd 79 f9 51 3c 0f 75 dd 3c
       -0.004718637 -0.032098733 0.012815827 0.027033357
000250 b0 dc 8a bc 39 27 d6 3b ee 8f 52 bc 3a 64 09 3c
       -0.016950935 0.0065354374 -0.012851698 0.008385712
000260 62 57 05 3b af ed a6 bc a2 0d 75 bc 66 c0 4e bc
       0.0020346274 -0.020377008 -0.014956864 -0.012619114
000270 18 1e 29 3c 3a 0a ab 3b 66 53 31 bb f9 d5 7c bc
       0.010322116 0.005219725 -0.0027057766 -0.015431874
000280 42 93 cd 3c 07 4c db 3c 26 63 04 3d c3 ae ac 3b
       0.025094632 0.026769651 0.032321118 0.0052698567
000290 ac e3 fa 3c 14 90 e7 3c 1f 5d e9 bc a3 b4 ff 3c
       0.03062614 0.028266944 -0.028486786 0.031214064
0002a0 da 90 eb 3c 71 1b c0 3c ba a4 ed 3c cd 44 08 3a
       0.028755594 0.023450585 0.029009212 0.00051982404
0002b0 a7 e0 92 bc 7c ab 8e bc 05 c3 82 bc 91 0f fc 3c
       -0.017929388 -0.017415754 -0.015962133 0.030769141
0002c0 36 43 93 bc 06 25 8c bc 16 c5 ce bc 5f 94 d4 3c
       -0.017976385 -0.017107498 -0.025240462 0.025949655
0002d0 5c bd ab bc 2d fe 36 3c 3c d8 7d 3b 38 b6 17 bc
       -0.020964317 0.011168999 0.0038733622 -0.009259753
0002e0 34 8c 06 bd 81 24 70 3c 8e f9 83 3c 2a e8 c2 bc
       -0.032848552 0.014657141 0.016110208 -0.023792345
0002f0 66 18 07 bc 8f 09 22 3c 73 6f e0 bc 6b 77 93 bc
       -0.008245563 0.009889974 -0.027396893 -0.018001279
000300 2a b2 34 3a 33 10 fc 3c e4 33 b4 bc 62 ff e4 3c
       0.00068930036 0.030769443 -0.0219974 0.027953807
000310 92 d1 da bc ff 14 c1 bc ab c3 63 3b ee 68 af 3c
       -0.026711259 -0.023569582 0.0034754078 0.021412339
000320 ba 8e dd 3c e7 69 89 bc 12 8c 58 3c 6c 73 cc 3b
       0.027045596 -0.016774131 0.013216989 0.0062393453
000330 d3 08 dc 3b 4a f6 fc 3c fb c9 b7 bc 20 8e 2a 3c
       0.006714919 0.030879159 -0.022435179 0.010409862
000340 5f e4 70 ba 58 d6 a8 3b 6e d8 cb bc f1 72 ab 3c
       -0.00091893034 0.005152505 -0.024883475 0.020928832
000350 5a c9 f2 bb 8d 23 56 3c 5b fe c2 3b 98 d3 c7 bc
       -0.007409257 0.013069999 0.0059507317 -0.024392888
000360 00 8c c5 3c eb 31 c2 bb 83 38 6c 3c 5b 35 cb 3c
       0.024114609 -0.005926361 0.01441777 0.024805715
000370 1a 3c 93 bb ac 5f d8 3b 48 a2 02 3d 26 91 39 bb
       -0.0044932486 0.006603202 0.031893045 -0.0028315275
000380 3b 5f 03 bd 21 e2 de 3c d6 f8 e4 3b 96 a4 36 bc
       -0.03207324 0.027207436 0.0069876714 -0.011147639
000390 70 97 12 bc ab a1 a1 bc 03 a4 cc ba 3e a8 c7 3b
       -0.008947238 -0.01973041 -0.0015612844 0.006093054
0003a0 a7 d5 b0 3c 78 02 1d bc f5 db 59 bc 17 32 16 bc
       0.021586252 -0.009583108 -0.013297071 -0.009167216
0003b0 4e fc b6 bc 90 72 03 3c ec f5 d3 3c 79 80 03 3c
       -0.022337105 0.008022919 0.0258741 0.008026236
0003c0 14 25 c3 3b ed 13 1d 3a 1e 77 e3 3c 21 6e 98 bc
       0.005955348 0.0005992044 0.02776676 -0.018607201
0003d0 5e 1b a0 bc 90 77 fa bb 98 3c f5 3c bc a2 e4 bb
       -0.0195443 -0.0076436475 0.02993612 -0.0069774073
0003e0 98 0d da 3b 10 75 80 3b e2 02 de bc 6e e3 ba 3c
       0.0066544525 0.003920205 -0.027100984 0.022813525
0003f0 0f 8c 08 3d cd a6 9c 3c 1f 6b aa 3a e7 31 30 bc
       0.033336695 0.019122506 0.0013001895 -0.010754085

fc1.bias f4 [16]
000000 0c e9 ab 3c b3 27 e0 bc 5a 84 04 bd f2 92 e7 bc
       0.020985149 -0.02736268 -0.032352783 -0.028268311
000010 0b ed a4 3b e0 29 00 3d 05 5a 32 3b 2f f5 eb bc
       0.0050331405 0.031289935 0.00272143 -0.028803436
000020 81 67 ba bc 23 5d c9 3c 7b 71 39 3c 21 6b 9a bb
       -0.022754433 0.024580544 0.01131856 -0.004712478
000030 ee b7 cc 3c 8c 64 95 bc 93 70 06 bd d4 b3 04 bd
       0.024990048 -0.018236421 -0.032822203 -0.03239806

fc2.weight f4 [32, 16]
000000 ba f1 53 be ae a6 1f 3e 1c bc 12 be 50 09 59 be
       -0.2069768 0.15590927 -0.1432957 -0.21194959
000010 98 fc 1e be ae ff 6a be 83 40 1d 3c 00 ce a7 bd
       -0.15526044 -0.22949097 0.0095979 -0.08193588
000020 ea 8a 56 be 68 3a 43 bd 56 e0 51 3e 61 30 3b bd
       -0.20951429 -0.047663122 0.20495734 -0.045700435
000030 14 82 d8 bc 94 f8 5c be 00 51 cc ba e8 b4 70 be
       -0.026429214 -0.215792 -0.0015588105 -0.2350651
000040 c5 d0 70 bd a4 5d 63 3e 8c 4e 74 3d 8c f8 0a 3e
       -0.05879285 0.2220369 0.05964522 0.13571376
000050 0d 9d fe bd 13 39 53 3c ef 79 bf 3d 54 9c 17 3e
       -0.12432299 0.0128920255 0.09349429 0.14805728
000060 80 3b f4 3d 04 b0 00 3e a0 fc 20 3c 46 71 6d bd
       0.11925411 0.12567145 0.0098258555 -0.057969354
000070 fa 99 62 3d 4a 2a 09 3e f2 fe 50 3e 32 2b 5b bd
       0.055322625 0.13395038 0.20409754 -0.05350799
000080 4f 04 8b bb bb c0 78 3e 01 c6 66 3e d6 5e 78 bd
       -0.004242457 0.24292271 0.2253647 -0.060637318
000090 22 f0 ec bd 39 33 6a be 2d 04 55 3e d0 c1 6b be
       -0.11569239 -0.22871102 0.20802374 -0.23023152
0000a0 46 04 72 3e 38 3a cd bd b0 a9 9f 3d 84 39 ed 3d
       0.23634443 -0.1002087 0.07796037 0.11583236
0000b0 83 f4 a5 bd 16 d6 71 3e ea 8e e9 bc 1b 20 a5 bd
       -0.081032775 0.23616824 -0.02851053 -0.08062764
0000c0 5d 30 9d 3a 7e 4d 55 be 7c 64 13 be c4 ea 2e bd
       0.0011992563 -0.20830342 -0.143938 -0.04270436
0000d0 e9 19 c2 bc 73 c3 00 be 2a 81 7d be c8 cf 44 3e
       -0.023693996 -0.12574558 -0.24756303 0.19219887
0000e0 64 16 e7 3d 40 8a 65 be c8 d9 04 bd ec c2 32 3e
       0.112835675 -0.2241602 -0.032434255 0.1745717
0000f0 88 79 7d 3e d0 00 49 bd 32 b0 6c 3e 88 d9 6d bd
       0.24753392 -0.04907304 0.23114088 -0.058068782
000100 35 af 44 3e 37 65 b3 3d f6 42 31 be e6 64 62 3c
       0.19207461 0.087595396 -0.173107 0.013818001
000110 35 ec c0 bd 9d 77 34 bc ef 3c c7 bc 1f c6 6a 3d
       -0.09420053 -0.011014846 -0.024321048 0.05731785
000120 56 64 6c 3e 00 1d d1 3b 10 d2 53 3e 06 20 5f 3e
       0.2308515 0.006381631 0.20685601 0.2178956
000130 84 d6 8e 3d 64 8d fa 3d 69 76 13 3e cd ad f6 bd
       0.06974509 0.12233999 0.14400639 -0.120448686
000140 70 bb 94 bc 97 18 b6 3d 27 8c 5c bc a1 0e 96 bd
       -0.018155783 0.08891409 -0.013461149 -0.07327009
000150 b3 f4 7a be c1 75 be bd 6a 89 a3 bc 60 ce 5e be
       -0.24507408 -0.092998035 -0.019962985 -0.21758413
000160 a4 f4 1f be 20 fd 66 bd 2e 4f 61 3e 5c f5 c1 bd
       -0.15620667 -0.056393743 0.22002861 -0.09470627
000170 f7 47 17 3e 88 c3 f4 3d 88 43 d4 bd 4c 19 25 be
       0.14773546 0.11951357 -0.10364443 -0.16122931
000180 09 5e 5d 3e 92 5c 30 be 26 da 59 3e 25 4d 17 bb
       0.21617903 -0.17222813 0.21274623 -0.0023086753
000190 3f e5 9d bd a8 b9 2b be c0 51 ea bd e0 a8 6e 3e
       -0.07709741 -0.16770041 -0.11441374 0.23306608
0001a0 70 8b 94 bc 30 0e 88 3c a0 6d b4 3c 66 84 2a 3e
       -0.018132895 0.016608328 0.02202493 0.16652068
0001b0 2c 6f 1b be 9c 48 4b 3e b0 89 3c 3e ec c9 8d bd
       -0.15179127 0.19851917 0.18411899 -0.06923279
0001c0 a9 64 83 3d 5e bc 08 3e 49 d6 5c 3d 55 ce 18 3e
       0.06415684 0.13353106 0.053915296 0.1492246
0001d0 60 0a 1d bd 1f 7a de bd 03 5e 8b bc 64 61 1b be
       -0.038339972 -0.108631365 -0.017012602 -0.1517387
0001e0 68 a7 9b bd 48 d6 a8 3d 50 0b ae 3d 32 8d 40 be
       -0.076002896 0.08243996 0.084982514 -0.18803862
0001f0 00 8a 3f 3e 18 94 a1 3d ce a6 6a 3e 9e 43 8e bd
       0.18704987 0.07889575 0.22915193 -0.06946491
000200 c4 a8 4c be 2a c6 1e be 35 26 b2 bd bf 8e e3 bd
       -0.19986254 -0.15505281 -0.08698694 -0.11111211
000210 4c 31 8d 3d 43 47 5e 3e d5 03 cd 3c b0 a0 a1 bc
       0.06894168 0.21706872 0.025026241 -0.019729942
000220 a4 37 a1 bd f4 05 d1 bd 00 66 e8 bd a1 74 0a be
       -0.07871941 -0.102062136 -0.1134758 -0.13521053
000230 42 50 66 be 0e 85 7e 3e 40 99 5a 3c a5 bc 61 3e
       -0.22491553 0.24855444 0.013342202 0.22044618
000240 28 b2 1a be dc a4 4d be 10 7d a9 bd fc 0c ae bd
       -0.15107024 -0.2008242 -0.08275807 -0.0849857
000250 40 15 34 3d 67 8e 3f bd 96 ef 9e 3d 2c 2a 09 3e
       0.043965578 -0.046766665 0.07760541 0.13394994
000260 16 41 14 3e f0 7b 6b 3e 06 34 7c be bc eb 4d 3e
       0.14477953 0.22996497 -0.2462922 0.20109457
000270 48 13 41 bd 1c 7e a1 bd 20 49 fd bd c0 f3 aa bd
       -0.04713753 -0.078853816 -0.12367463 -0.08347273
000280 e3 17 72 3e e6 3f ab bd 24 14 67 bd dd 43 ff 3d
       0.23641925 -0.08361797 -0.056415692 0.12464116
000290 bd b5 17 3e f6 93 6f be 81 18 29 3d b7 49 6f 3e
       0.14815421 -0.23396286 0.041283134 0.23367964
0002a0 a0 78 b3 bd cc 70 8c bd fe fc 0f be 62 39 41 be
       -0.08763242 -0.06857452 -0.14061353 -0.18869546
0002b0 80 7e 33 bd b8 aa a3 3d a8 b5 f1 3d 84 4d 66 be
       -0.04382181 0.079915464 0.11802226 -0.22490507
0002c0 9b 59 ae 3d 9c 08 87 3d 30 84 07 be 57 a6 8d 3c
       0.08513185 0.06593439 -0.1323402 0.017291231
0002d0 8a f8 44 3d b4 2e 9e bd 2d 18 4b 3e 4c f9 f1 3d
       0.048088588 -0.07723752 0.19833441 0.11815128
0002e0 dc b6 93 3d 20 14 c7 3c 8e 88 19 be 2c d7 4e 3e
       0.07212612 0.024301589 -0.14993498 0.20199269
0002f0 ed 9c b3 bd d0 e0 7d 3d b1 6a 56 be c6 4c 1f bd
       -0.087701656 0.061981976 -0.20939137 -0.038891576
000300 a3 ee 4c be 8c 8e bd 3d 8e 71 22 bc 23 8e e8 3d
       -0.20012908 0.09255704 -0.009914769 0.113552354
000310 d1 a1 ed 3c 44 92 4f be cf 4c 29 3e d9 f1 c8 bd
       0.029007824 -0.2027064 0.16533206 -0.09811754
000320 50 fd 53 bd 00 af 30 3e 10 8a e9 bc 5c 0a 40 3d
       -0.05175525 0.17254257 -0.028508216 0.04688488
000330 1d 86 22 3e fe ca 0d 3e ab 29 7f be 6c bd b5 3d
       0.15871473 0.13846967 -0.24918239 0.0887402
000340 5e 3c 5d be 58 45 0d be 17 70 09 be 9e 64 37 be
       -0.2160506 -0.13795984 -0.13421665 -0.17909476
000350 25 13 40 3e 52 b2 2b 3e df 5c 33 3e 1c a4 c3 3d
       0.18757303 0.16767243 0.17515896 0.09552786
000360 20 82 46 bd 50 a6 53 be 2c d2 8e bd bf 20 ca bd
       -0.04846394 -0.20668912 -0.06973681 -0.09869527
000370 0d ad 12 bd 20 ca f0 3d 54 6b a4 bd b0 4a 60 be
       -0.035809565 0.11757302 -0.08028284 -0.21903491
000380 e6 fc 06 3e c7 cc 2b be 62 c0 36 3e 22 65 83 bb
       0.1318241 -0.16777335 0.17846826 -0.0040098587
000390 ba a7 4d 3d 0f ea 76 be 7d 84 a7 3d 64 89 b7 3d
       0.050208785 -0.24112724 0.08179567 0.08961752
0003a0 20 e1 07 be 0e 83 75 be be 24 76 be d4 aa ca bd
       -0.13269472 -0.23975775 -0.24037454 -0.09895864
0003b0 fd db b0 3c ce 11 2d 3e cb 3c 62 3e 3a 8d 9e 3b
       0.021589274 0.16901323 0.22093503 0.004838613
0003c0 bc 97 9d 3d 46 15 3f be 2a c9 84 bc 77 05 d1 3d
       0.07694957 -0.18660459 -0.016209204 0.102061205
0003d0 13 e6 28 3e e9 3b 11 be d5 18 5b 3c e9 ca ab bc
       0.16494016 -0.1418301 0.01337262 -0.020970779
0003e0 54 57 14 3e 80 d3 dd 3c 40 51 d9 3d e2 09 34 3e
       0.14486438 0.02707839 0.106112 0.17581895
0003f0 b9 2a 8c 3c 00 df e5 bc 91 b7 40 3e 6d e2 47 3d
       0.017110215 -0.028060436 0.18820025 0.04879992

fc2.bias f4 [32]
000000 f9 fa 76 3e 2d 70 6a 3e 7a e4 7d 3e 48 bb 66 3e
       0.24119176 0.22894354 0.24794188 0.2253238
000010 79 5e 3f 3e 3b 3c 1e 3e 46 a6 48 3e 62 c9 4d 3e
       0.18688382 0.15452664 0.19594678 0.20096353
000020 04 99 c8 3d 02 b3 53 be 4a 0e 4b be ed c6 0f 3e
       0.097948104 -0.20673755 -0.1982967 0.14040728
000030 b3 58 59 3e f5 ba 81 3d 37 76 04 3e 6e ca 70 bd
       0.21225242 0.06334487 0.1293572 -0.058786802
000040 53 e3 18 3d dd 74 56 be 14 86 8e 3d b6 ec 9f bc
       0.03732617 -0.20943017 0.06959167 -0.019522052
000050 b8 02 12 3e 10 a2 12 3e 02 af 98 3d 6c 87 39 3e
       0.1425885 0.14319634 0.07455255 0.18118066
000060 ef b3 9b 3b 6e 70 2c 3e 5f 73 ef bd 4f f8 79 be
       0.0047516744 0.16839764 -0.11691927 -0.24411128
000070 a8 1a 8f 3c ce c5 65 be 8a e3 83 3d f2 9e b0 bd
       0.017468765 -0.22438738 0.06439884 -0.086240664

fc3.weight f4 [64, 32]
000000 c4 4e 13 3e 78 0c 9e bd 91 b3 0b 3e bf 0c 31 3e
       0.14385515 -0.07717222 0.13642718 0.17290018
000010 1e b9 9c bd e7 9d cb bd 11 f9 be bc 00 be 35 3d
       -0.07652496 -0.09942227 -0.023312123 0.04437065
000020 f2 8a 2a 3e 30 98 8c 3a 6d 1b 8b 3c 3e 88 b5 3d
       0.16654566 0.0010726508 0.016980851 0.08863877
000030 4e 31 2b 3e 6e 8f a2 3c df 36 e4 bd 8b 9a 5c bc
       0.16718027 0.019843783 -0.11143278 -0.01346458
000040 f5 e8 2f 3e e9 d2 93 3d fa 56 8a bd eb 35 b5 bd
       0.1717871 0.07217962 -0.06754871 -0.08848175
000050 67 6f 32 3e b3 1c 9d 3c f3 2f 1e 3e b2 e0 23 3e
       0.17425309 0.019178724 0.15447979 0.16003683
000060 ff 41 07 3e fb 58 a6 3c ce 45 33 be ce 6e 3c bd
       0.1320877 0.020306101 -0.17507097 -0.04600411
000070 a5 78 88 3d d9 c3 96 3d 8b 82 a5 3c b8 46 10 3e
       0.06663636 0.07361574 0.02020385 0.14089477
000080 75 ba 02 3e 66 5f a2 3c 70 a9 5e 3b 67 0c 9f bd
       0.1276644 0.01982088 0.0033975504 -0.077660374
000090 b2 f0 2d 3e 9f 54 07 3e 41 fb 1a be 63 c3 c1 bd
       0.16986349 0.13215874 -0.15134908 -0.09461095
0000a0 28 58 6b 3d 8c 47 8b bd 1a 67 2d 3d dd 75 96 bd
       0.05745712 -0.06800756 0.042334653 -0.073466994
0000b0 4c 46 b4 3d f0 e7 f6 3c c0 cf 3d 3d 1f 98 f6 bc
       0.088024706 0.030139893 0.046340704 -0.030101834
0000c0 d4 dc 21 3d 16 43 7a 3d ee e8 c9 3d af 6b 2b be
       0.03951724 0.061099134 0.09858881 -0.16740297
0000d0 c5 32 ff 3d cf a7 be bc f2 a3 13 3e c1 3f 27 3e
       0.124608554 -0.023273377 0.14418009 0.16332914
0000e0 2a f4 2d 3b a4 4c 0a 3e 2f f5 01 3d 68 67 31 3d
       0.0026543238 0.13505799 0.031727966 0.043311507
0000f0 3d e7 87 bc e3 36 19 3d da 1f ec bd 29 2a 6d 3c
       -0.016589755 0.03740586 -0.11529513 0.014475384
000100 26 ca 61 bd 7a 5c 24 3e 71 5c 44 3d 87 c2 07 be
       -0.055124424 0.16050902 0.04793972 -0.132578
000110 e4 12 4a bd 8c d4 5d 3d aa 6b 03 be 4b 5d 5b 3d
       -0.04933442 0.05415778 -0.1283404 0.053555768
000120 33 5f 0a be e7 fd 26 3d 34 9e 9b 3c b6 74 92 bd
       -0.13512878 0.040769484 0.018996336 -0.07151167
000130 47 23 34 bd 43 d7 1d 3e ad 5c 52 3c 78 8f 14 3e
       -0.043978956 0.15414147 0.012839478 0.14507854
000140 90 51 a6 3c 06 24 8c bd c3 8f a7 bc f5 30 0d 3e
       0.020302564 -0.068428084 -0.020454293 0.13788207
000150 a7 29 7d bd f6 8b 12 be 21 f5 30 be 34 05 1b 3e
       -0.0618073 -0.14311203 -0.1728101 0.15138704
000160 94 91 34 be fb c7 13 3e fa 2e 2f be d5 19 2e be
       -0.17633659 0.14431755 -0.17107764 -0.17002042
000170 27 57 9a 3d 73 09 ff bd a2 af 08 be 53 61 c1 3d
       0.07536154 -0.12452974 -0.13348249 0.09442391
000180 89 da 34 3d 5f d7 dc 3c 0d 5f 6e 3d 88 14 51 bd
       0.044153724 0.026958166 0.058196116 -0.05104497
000190 12 83 23 be ce fc 64 3d 2f e9 db 3c df cc 7e ba
       -0.15967968 0.055905156 0.026844589 -0.0009719859
0001a0 67 5c 04 be 64 ea 64 3d da a2 06 be 5b de 2d 3e
       -0.12925874 0.055887595 -0.1314806 0.16979353
0001b0 41 65 c7 3d fa 1e 00 bd b6 dd bc bd 86 af 54 3c
       0.097361095 -0.03127954 -0.092219755 0.012981301
0001c0 23 9e c5 3d 42 25 26 3e 71 3c 25 bb 96 c3 24 be
       0.09649303 0.1622515 -0.0025213028 -0.16090235
0001d0 19 f5 74 bd 26 c6 ad bd fa 4a 41 bc 14 15 13 3e
       -0.059804056 -0.084850594 -0.011797661 0.1436351
0001e0 90 9a 8b 3c 93 19 98 3c 3f d0 a7 3d a8 e0 ae 3c
       0.017041475 0.018566882 0.08194017 0.021347359
0001f0 3f 06 2a 3e af eb 29 bd 61 a4 28 be f6 26 c9 bd
       0.16603945 -0.04148453 -0.16468956 -0.09821884
000200 74 71 1e 3e f0 87 7a 3d 55 ac dc bd 3a e6 32 3e
       0.15472966 0.061164796 -0.10775057 0.17470637
000210 79 4a 0f bd 19 53 5f bd 04 e2 20 3e 92 32 84 3c
       -0.034983132 -0.054522607 0.15711218 0.016137395
000220 44 d2 d3 3d 7f 68 8b bb de dc 29 3e 77 06 20 3e
       0.10342839 -0.0042544003 0.1658816 0.15627466
000230 d0 f8 25 3e ae 50 7b 3c ea 8d 18 be c8 b4 2b 3e
       0.16208196 0.01533906 -0.14897886 0.16768181
000240 04 cc 40 bd 30 82 c2 bd 43 56 34 bd 83 b4 f0 bd
       -0.047069564 -0.094974875 -0.044027578 -0.1175318
000250 dd c1 0a bd 71 67 c8 bd a5 c9 99 3c dc 2e 26 be
       -0.03387629 -0.09785355 0.01877291 -0.16228813
000260 d8 1e d8 3d 6b db 00 3e c1 51 0d 3d c3 10 1f be
       0.10552758 0.12583701 0.034501795 -0.15533738
000270 1f 4a a2 3d 51 4f 25 bd 39 38 2f 3e 19 0c 7d 3d
       0.07924294 -0.040358845 0.17111291 0.061779115
000280 3e 62 95 3c cb 98 d5 bc 35 35 c0 3d a9 f5 05 be
       0.018235322 -0.026073834 0.093851484 -0.13081993
000290 1d f1 95 bd ec 50 18 3e fd 39 a8 3d 63 5e e2 bb
       -0.07321379 0.14874619 0.082141854 -0.0069082244
0002a0 4a af e0 bd 75 80 85 bc 95 9d b6 bc e5 cb ba bd
       -0.10970934 -0.016296605 -0.022291938 -0.09120921
0002b0 46 80 76 bd 56 cb 22 be 4c f6 04 3e 1b 02 08 3e
       -0.060180925 -0.15897879 0.1298458 0.13282053
0002c0 59 6f 0a 3e e2 58 15 3e 54 f1 22 be dd e7 0c 3e
       0.13519038 0.14584687 -0.15912372 0.13760324
0002d0 29 c3 9c 3d a6 35 6a 3d 33 34 84 bc f7 15 b2 3d
       0.07654411 0.05718007 -0.016138172 0.08695596
0002e0 15 00 1c 3e 11 10 8c bd 4a fd 17 3d 18 e3 90 bd
       0.15234406 -0.06839002 0.03710679 -0.07074565
0002f0 76 48 a0 bd 9c 17 05 3e ab c7 34 be ac 42 0a 3c
       -0.07826321 0.12997288 -0.17654292 0.008438747
000300 c4 6c 1d bd eb 2c 0e 3e 1e 84 03 3e 41 99 08 be
       -0.038433805 0.13884322 0.12843367 -0.13339712
000310 c1 e1 bb bc 71 14 39 3c de 41 6f 3d 65 dc 24 3e
       -0.022934796 0.0112963775 0.058412425 0.16099699
000320 c8 00 14 be 21 d6 00 3e e6 a1 a3 bd c3 86 b2 bd
       -0.14453423 0.12581684 -0.07989864 -0.0871711
000330 53 4f 00 bd ed c9 7e bd 5e 95 2b be 02 31 27 3e
       -0.03132565 -0.06220429 -0.16756198 0.16327289
000340 47 dd 16 3d f3 78 c2 3d d9 74 4f bd 2a 44 a7 bd
       0.03683212 0.094957255 -0.050648544 -0.08167298
000350 a7 f5 0c 3e 6a 3a 0c 3d 16 b3 84 bd f3 45 1f be
       0.13765584 0.034235395 -0.064794704 -0.15554027
000360 f3 8b c9 3d f7 88 02 be 9b 15 4a 3d b5 ce d2 bb
       0.09841146 -0.1274756 0.04933701 -0.006433333
000370 3b 60 5f 3d f4 3f ad bd 10 95 23 be 56 de 98 3c
       0.054535132 -0.08459464 -0.15974832 0.018660706
000380 29 c9 b8 bd 15 7d 1b be 4f b9 05 3e 26 ed cc bd
       -0.09022743 -0.15184434 0.13058971 -0.1000617
000390 2b c1 9e bd 8a b4 3f bd 41 cf 4a bd 93 cd dd bd
       -0.077516876 -0.046803035 -0.04951406 -0.10830226
0003a0 21 fb 22 3e 47 14 12 3e 59 d0 8d 3d 6d be a0 3d
       0.1591611 0.14265548 0.06924505 0.07848821
0003b0 ac 85 3a 3c 98 68 a9 3d ee 29 93 bd 29 e3 a0 3d
       0.011384409 0.08271903 -0.07185732 0.07855827
0003c0 90 fe 2b 3e ec 65 29 bd 28 af 0a be ed 70 c9 bd
       0.16796327 -0.041356966 -0.1354338 -0.09835992
0003d0 5d 8c fd bd ce ea 2b be 33 3e 8a 3d 06 00 23 3e
       -0.12380288 -0.1678879 0.06750145 0.15917978
0003e0 63 b2 12 3e 6d 99 66 3d a9 40 a0 bc f9 a8 2c 3e
       0.14325862 0.056298662 -0.019562082 0.16861333
0003f0 4d df 92 bd b0 20 c0 3d 84 78 30 3e 3f d4 9d 3c
       -0.071714975 0.09381235 0.17233473 0.019266246

fc3.bias f4 [64]
000000 f5 e2 0e 3c 17 95 e8 3d 3c 67 e9 3d 22 9a d3 bd
       0.008721103 0.11356562 0.113966435 -0.10332133
000010 c5 4f 33 bd 93 f1 c4 3c d1 6c cc 3d a3 89 0b 3e
       -0.043777246 0.024040973 0.099816926 0.13626723
000020 70 ff fc bd 25 3f 8d bd fd 58 a6 3d 3b 43 51 3d
       -0.12353408 -0.068968095 0.08122442 0.051089507
000030 66 3b 1f bd 28 05 4a bd 6c 3e dc 3d a3 cf fb 3c
       -0.038875006 -0.049321324 0.107540935 0.030738657
000040 29 40 2f be 5a 1e 8b bd 89 48 01 bd d4 4f 76 3d
       -0.17114319 -0.067928985 -0.031563316 0.060134724
000050 a9 cc 0d be a1 58 84 bd 3b 43 e3 3d 92 e2 60 3b
       -0.13847603 -0.06462217 0.110968076 0.0034314734
000060 b7 c3 26 be 0b 85 68 3d f1 f2 49 3d de 03 dc 3c
       -0.16285597 0.056767505 0.049303953 0.026857313
000070 d6 19 05 be 5e d2 1f bd 03 aa 13 3e 7f 55 ed bd
       -0.12998137 -0.03901898 0.14420323 -0.11588573
000080 bf 36 12 be 6c 6a 60 bc 72 b9 d1 bd 85 9c 16 be
       -0.14278696 -0.013697248 -0.10240449 -0.14708145
000090 ed 9f 65 bd 03 bf dd 3d fd 4f 67 bd f6 4e 93 bd
       -0.05606072 0.10827448 -0.056472767 -0.07192795
0000a0 05 a1 80 bd 25 7e c4 3d 2c f6 de 3c 34 7e 22 3d
       -0.06280712 0.09594373 0.027216993 0.039671138
0000b0 03 e3 c1 3d b7 0e f4 3d a8 fd bd bc 9e 4d 75 3d
       0.09467127 0.11916869 -0.023192242 0.059888475
0000c0 79 d9 de 3d 55 08 bb 3d 99 3f c6 3d b7 e6 24 be
       0.10881323 0.091324486 0.09680099 -0.16103636
0000d0 0c 79 ac 3d b6 fa 93 bd 4c c0 09 be 2e 23 c5 bd
       0.08421525 -0.07225554 -0.13452262 -0.096258506
0000e0 0b cf f0 bc 92 fc 18 bd 4b 86 6c bd 9c 58 b1 bb
       -0.0293956 -0.037350245 -0.05774526 -0.0054121744
0000f0 ba 19 dc 3d 24 6e bb bd c7 22 27 be 98 f4 2c be
       0.107470945 -0.09151867 -0.1632186 -0.1689018

fc4.weight f4 [128, 64]
000000 36 66 ee 3d f4 9c 09 3d 44 54 6b bd 59 89 da bd
       0.11640589 0.033596948 -0.05745341 -0.10670728
000010 64 b2 87 3d 5a 6a 45 3d 8a 4a ec 3c b4 44 da 3d
       0.06625822 0.048197128 0.028844137 0.10657635
000020 e0 a2 ff 3d 61 8f 2f bd 4f e7 9e bd 57 c1 ae bd
       0.12482238 -0.042861346 -0.07758962 -0.085329704
000030 cf ef 09 bd da ab 92 3d ee 21 64 3d 4a 6d fb bd
       -0.033675965 0.07161684 0.05569642 -0.122767046
000040 48 c3 fc 3b d8 56 88 3d 6f 5e b7 3d 5d 78 df 3d
       0.007713709 0.06657189 0.08953559 0.10911629
000050 80 4e bc 3d 00 0d b5 bc 23 97 ca 3c 0d 99 d2 bd
       0.0919466 -0.022100925 0.02473027 -0.10283098
000060 be 5e 2d 3d f4 06 ab bd 2b 83 28 3d d5 f7 dd 3d
       0.04232668 -0.083509356 0.041140717 0.10838286
000070 57 98 a0 3c 4f d6 b8 bc 20 22 1a bc 64 14 98 bc
       0.019603891 -0.022563128 -0.00940755 -0.01856441
000080 6b a4 5a bd 4e 20 c6 bc 4e 60 74 bc fe 6c cb bc
       -0.053379457 -0.024185326 -0.014915539 -0.024832245
000090 e0 c6 0f bc 53 89 24 3d 90 b4 a4 3d 73 5d 80 bd
       -0.008775443 0.040170025 0.08042252 -0.06267824
0000a0 3f e0 80 bd d3 fc d4 bd 6a e4 42 bc 33 e5 de bd
       -0.062927715 -0.10399785 -0.0118952785 -0.1088356
0000b0 79 c8 dc 3c 6d 98 86 3c ba 0d fe 3c d1 5c 45 3d
       0.026951062 0.016430104 0.031012405 0.04818422
0000c0 09 6f 4b 3d cb 8a 17 bd 6a 8d a3 3c b5 b4 91 b7
       0.04966644 -0.036997598 0.019964892 -1.7369495e-05
0000d0 1d 4e f6 3b 28 68 3a bc 5d ee 7d 3d e5 05 22 bd
       0.007516636 -0.011377372 0.0619949 -0.039556403
0000e0 02 60 34 bd e1 4d 95 3d bb a0 f4 bc 31 bf aa bd
       -0.044036873 0.07290245 -0.029861799 -0.08337248
0000f0 2f 9f e4 bc 85 04 6b bd f6 e4 dc bd f6 ee a8 3d
       -0.027907936 -0.057377357 -0.10785858 0.08248703
000100 00 22 e0 b9 6a c4 9f bd 58 35 f6 3c 36 23 f2 bd
       -0.0004274994 -0.07801135 0.030054733 -0.11823122
000110 60 f4 e6 bc b8 9e bb 3c 88 68 a0 bd 58 01 c8 3c
       -0.028192699 0.022902831 -0.07832438 0.024414703
000120 48 65 32 bd a0 be 35 bd 0a bb a8 bd 20 4a 88 bc
       -0.04355362 -0.044371247 -0.082388 -0.016636908
000130 48 94 d6 3c 18 7a 8f 3c 0c 2b a0 3d b0 d1 e4 bc
       0.026193753 0.017514274 0.078207105 -0.027932018
000140 88 12 cf 3d 68 42 c9 bd ac d5 2e 3d 5e e0 84 3d
       0.101109564 -0.09827119 0.042684242 0.06488107
000150 38 5a 3f bd 7c c4 69 bd 08 69 03 3d f0 6f bf bc
       -0.0467169 -0.057072148 0.032082587 -0.023368806
000160 a6 70 8a bd 2c 73 d2 3d 00 46 fa bb 20 d6 40 bd
       -0.06759767 0.102758735 -0.007637739 -0.047079206
000170 80 c1 e7 3c cc 85 84 bd 26 cc ba bd a0 08 3d 3d
       0.02829051 -0.06470832 -0.091209695 0.046150804
000180 78 27 3a bd d6 bf d7 bd 30 ed 88 3c 78 93 b7 bd
       -0.045447797 -0.10534637 0.016714662 -0.08963674
000190 08 2f f9 bd 2a 4f 93 bd e6 e4 a5 bd 30 30 44 3d
       -0.121671736 -0.07192834 -0.081002995 0.047897518
0001a0 00 3d b7 ba e0 8a 27 bd a0 50 c2 3c dc f3 d0 3d
       -0.0013979971 -0.040903926 0.023720086 0.102027625
0001b0 10 8c 97 bc fc 61 74 bd 40 13 52 3b ec 97 d8 bd
       -0.018499404 -0.059663758 0.003205493 -0.10575852
0001c0 f8 4c 26 bd 5c 88 33 bd d8 38 78 3d 20 26 cc bc
       -0.040600747 -0.043831214 0.060601085 -0.024920523
0001d0 80 35 88 bd 58 5f c2 3d de 32 d2 3d 00 7a 91 ba
       -0.06650829 0.094908416 0.102636084 -0.0011098981
0001e0 40 ca 55 3b be 59 ad bd 2c e7 49 3d 30 25 04 bd
       0.003262177 -0.084643826 0.04929273 -0.032262027
0001f0 d4 c2 a1 bd ba 80 d7 bd 56 19 cf 3d cc f3 ec 3d
       -0.07898489 -0.105225995 0.10112254 0.11569938
000200 f3 74 39 bc d9 e7 b3 bd c2 39 d0 bd 6b 2f c6 3c
       -0.011319387 -0.08784456 -0.101672664 0.024192533
000210 78 13 c2 3c d1 bb 3f bd 1d 4c b9 3d 28 eb b7 3d
       0.023690924 -0.046809975 0.090477206 0.08980399
000220 52 9f f1 3d d8 9f c3 3d 92 1e de 3d 0b 7f f2 3c
       0.11797966 0.09551972 0.108456746 0.029601594
000230 b2 88 9b 3d c1 b9 b8 bd 7d 43 90 bd f3 7b fe 3d
       0.07594432 -0.09019805 -0.07044122 0.12425985
000240 94 9c a5 3d d1 e2 42 3d 41 78 73 bd 3d df b3 bd
       0.080865055 0.04757959 -0.059440855 -0.08782814
000250 f6 62 1f 3d d0 eb 0b bd 0f c4 8f 3d 24 86 e1 3d
       0.038912736 -0.034160435 0.07019817 0.110119134
000260 92 13 fb 3a a8 8a 75 3d 69 18 4d 3b 44 3b 77 3d
       0.0019155613 0.059946686 0.0031295067 0.060359254
000270 d8 1b 61 3d a2 c8 88 bc 31 33 d6 bd 03 27 92 ba
       0.054958194 -0.016697232 -0.10458983 -0.0011150542
000280 64 ba 21 bd a3 2b 4f 3d f7 0d 1b bd 26 58 81 3b
       -0.039484397 0.050578725 -0.037855115 0.0039472757
000290 cc 98 39 bd 32 98 fa bd 7e 87 47 3d 86 29 42 3d
       -0.045311734 -0.1223606 0.0487132 0.04740288
0002a0 54 f1 ae 3d 4c 07 95 bd c6 32 e3 3d 9c 96 b6 bc
       0.085421234 -0.072767824 0.11093669 -0.022288613
0002b0 cb 2f 94 3d 67 24 8f 3c 57 4a 18 3d b9 a0 cc 3d
       0.07235678 0.017473413 0.03718027 0.09991593
0002c0 1d b5 ed bd bb 64 32 bc 67 94 fd 3d 25 32 e0 bd
       -0.1160681 -0.010888274 0.12381821 -0.10947064
0002d0 35 17 18 bd 15 8d 58 3d c4 77 82 bc 0a 98 13 3d
       -0.037131507 0.05286892 -0.01592625 0.036033668
0002e0 80 b2 cc 3c 4c 1a a1 3d c9 df a0 3d 8c db 38 bd
       0.02498746 0.07866344 0.07855184 -0.04513125
0002f0 df 3b 85 bd f8 b0 9b bd 22 e4 48 3d 5e c3 e5 3d
       -0.0650556 -0.076021135 0.04904569 0.11218904
000300 d8 25 8d 3d c0 65 bf 3d 5f 08 dc bd b7 f5 fa 3d
       0.06891984 0.09345579 -0.10743784 0.12253898
000310 66 85 81 bd ce 5e 1d 3c 43 f1 98 bd dd 1f f9 3b
       -0.06324272 0.009605123 -0.07467892 0.0076026754
000320 09 ea db bb 75 f7 69 bb a0 be 86 3d ba cb 34 bd
       -0.006711249 -0.0035700474 0.065793276 -0.0441396
000330 77 68 b9 3d ea d1 5a bd 24 57 a6 3d 8f e0 f6 3d
       0.09053128 -0.053422846 0.081220895 0.1205455
000340 33 43 92 bd bc 6e ad bd a1 0d b1 3d f4 14 93 bd
       -0.071417235 -0.084683865 0.08645178 -0.07181731
000350 29 1d b1 bd 34 b5 5d 3d cb b5 53 bc 2f 40 6c bc
       -0.0864814 0.054127887 -0.012921761 -0.014419599
000360 21 c0 b4 bd 40 ae 55 bb a4 38 b9 3c c1 76 dd 3c
       -0.08825708 -0.0032605082 0.022610016 0.027034165
000370 47 e7 e0 bd 3a d6 e6 bc 32 83 ce bd 35 4f 8f 3d
       -0.10981613 -0.028178323 -0.10083617 0.069975294
000380 88 88 34 bd 5e 7d d7 bc 8e da e8 3d 26 ca c0 3d
       -0.04407552 -0.026304897 0.11369811 0.09413557
000390 2f 28 c9 3d fb 71 6a bc 4f 46 86 3d 32 34 0b bd
       0.098221175 -0.014309402 0.06556379 -0.033985324
0003a0 66 32 f2 3d 79 7d 1d bd 2b 9c eb 3d 42 97 f8 ba
       0.11826019 -0.03844974 0.11504396 -0.0018965977
0003b0 a1 8f 07 3c c5 1f aa 3d 7f 6b e5 3d ca 78 86 bc
       0.00827399 0.08306841 0.11202144 -0.016415019
0003c0 fc 2a c2 3d 42 b2 6b 3c 94 f3 f1 3d a8 d6 6c 3d
       0.09480855 0.014385762 0.11814037 0.0578219
0003d0 70 20 a9 bd 08 79 8e 3c 54 e5 96 bd 83 50 db 3c
       -0.0825814 0.017391697 -0.073679596 0.02677179
0003e0 c3 05 86 bd 28 48 f4 3d f4 76 35 3d cb c1 a5 bd
       -0.06544068 0.11927825 0.044302896 -0.08093604
0003f0 d6 c9 c6 3c c9 ec f6 3d 11 cf 48 bd a3 9a df bc
       0.024266165 0.12056882 -0.0490256 -0.027295416

fc4.bias f4 [128]
000000 f8 3b 1c 3d f2 39 c3 3d ab 23 20 3c 4c 47 d2 3d
       0.03814313 0.095325366 0.009774129 0.10267505
000010 9f 70 4d bd af 5a e6 3d ea ef 6e 3d 1a 1b d5 3c
       -0.050156232 0.11247765 0.05833427 0.0260139
000020 87 92 c1 3d 0e ef e9 bd 02 f6 d2 3d c2 54 55 bc
       0.09451776 -0.11422549 0.103008285 -0.013020696
000030 35 a7 86 bd 30 20 30 3d 00 d8 00 bb 0a 22 a4 3d
       -0.06574861 0.042999446 -0.0019659996 0.08014305
000040 fb e7 a2 3d 86 13 e2 3d d9 04 35 bc ac 5b 87 bc
       0.07954403 0.1103888 -0.011048519 -0.016523205
000050 76 27 ff 3d 05 16 9f 3d d1 58 21 3d 4e dd 27 3c
       0.124586985 0.07767872 0.039391343 0.010245634
000060 46 5b ff bd df e9 da bd 9f 02 c1 3d 68 27 6f bd
       -0.12468581 -0.106891386 0.09424328 -0.05838719
000070 0b dc f3 bd fa 16 4c bd e3 53 98 3b c3 f5 63 3c
       -0.11907204 -0.0498266 0.004648672 0.013913575
000080 bf bf a5 bd 5e 7a fd bd 54 7e 85 bd 3c f3 b5 bc
       -0.08093213 -0.12376855 -0.06518236 -0.02221071
000090 a8 1f ed bd 96 b4 cb bd 3f 56 e6 bd 6b 72 81 bd
       -0.115783036 -0.099465534 -0.11246919 -0.063206516
0000a0 b4 b7 00 3c c4 31 e0 3d 3c 7a 20 3d b9 5d aa 3d
       0.007856298 0.10946992 0.03917907 0.083186574
0000b0 19 32 a3 bd c5 a2 dc bd 23 f6 9a 3d db f8 4f bd
       -0.0796854 -0.10773233 0.07566478 -0.050774436
0000c0 9b 88 9a bd 50 4b 35 3d 58 c5 22 bb b5 22 9e 3d
       -0.07545587 0.044261277 -0.0024836864 0.077214636
0000d0 c0 0e 12 3d 95 02 07 bd 0e 98 4f bd fd 98 70 bd
       0.035658598 -0.032961447 -0.05068212 -0.05873965
0000e0 9d c3 15 bd 33 5f 70 3c 21 e8 76 3d 39 41 0d 3d
       -0.036563504 0.014671135 0.06027997 0.03448603
0000f0 67 b1 e5 3c 22 b8 a7 3d 81 44 ce bd bf c4 ac 3d
       0.028038694 0.081894174 -0.1007166 0.08435964
000100 9f 86 11 bd 20 5d 13 3d c5 1c 3f 3d f4 9d 13 3c
       -0.035528775 0.035977483 0.046658296 0.009009827
000110 ac ee 40 bd 29 dc 82 bc 6e 88 fd 3c 0e e4 97 3c
       -0.047102615 -0.015974121 0.030948844 0.018541362
000120 45 ac 49 bd 91 52 0a 3d ae 48 20 3d 63 47 f4 bc
       -0.049236555 0.033770148 0.039131813 -0.029819196
000130 a7 32 1a bd 67 5b 43 bd 54 95 ec 3c a3 81 e6 3d
       -0.037645962 -0.04769459 0.028879799 0.11255195
000140 5d da d9 3d d2 0e e8 3d 20 a4 86 3c 31 3c 1f bc
       0.106373526 0.11330952 0.016435683 -0.009718941
000150 57 de b5 bd c2 1d a4 bd f7 46 d6 3d 38 85 ca 3d
       -0.088802986 -0.08013488 0.10462754 0.09888691
000160 ee 57 bf bd 5d 95 b4 3d 37 bf e9 bc 48 0c 02 bd
       -0.09342943 0.08817551 -0.028533561 -0.031749994
000170 b9 c5 1b bd 4b 5b 00 3d 5e d6 f3 3d 9d 47 74 3d
       -0.03803036 0.031337064 0.11906122 0.05963861
000180 55 fd e3 3d 8b 1a d8 3d d9 f2 e5 3d 87 89 a5 3d
       0.111323036 0.10551938 0.1122796 0.08082872
000190 94 38 9c 3d c5 ac a2 bd 3e 8c 27 bd 9e 47 0f bd
       0.07627979 -0.079431094 -0.04090523 -0.03498041
0001a0 5f ab e5 3d b5 89 bb 3d 97 a7 d8 3d e3 32 b4 3d
       0.11214327 0.09157125 0.1057884 0.08798768
0001b0 72 22 3c 3d 89 4d 22 bd 4b be b7 3c c1 4a 9c 3c
       0.045931287 -0.039624725 0.022429606 0.019078614
0001c0 bd c4 c6 3d 40 17 68 bd 37 fa f8 bb c3 42 b7 3c
       0.097054936 -0.056662798 -0.0075981873 0.022370702
0001d0 eb e0 63 3d ae a1 de bd cc 74 33 3d 26 31 63 bb
       0.05563442 -0.10870682 0.043812558 -0.0034666746
0001e0 19 05 d9 3d a3 49 d0 bd 33 f9 9b bd dd 19 5d bd
       0.105966754 -0.10170295 -0.0761589 -0.053979743
0001f0 31 2f 08 bd 70 c7 d6 3d 0b 94 f2 bc 23 17 7e 3d
       -0.03324813 0.104872584 -0.029611608 0.062033784
