models/test_acc-CNN_2L_Drop_R400.pt (torch, 160099 bytes, 22 tensors)

conv1.weight f4 [32, 1, 1]
00000000: 1bb0 743f 35f3 8ebe 3de1 05bf 2fa5 47bf
00000010: b62d cc3e 1980 6f3e dcca af3d 526c d6be
00000020: d51c 9dbe 6dbf 39bf 6b8c 5dbf e5c1 293f
00000030: 79d8 583f c3f5 973e 5b95 4c3f 6f07 7b3f
00000040: cd64 76bf 1f6b ef3e 5436 6b3f 9eea 4abe
00000050: f36b dabe a71a 073f 6321 563f c6ff 533f
00000060: 447a c3be 0680 38bf fe2a 183e 6af2 5dbf
00000070: d845 6cbc 3567 20bf 8e1f 51bf 84b1 703f
0.95581216 -0.27919927 -0.5229681 -0.77986425 0.39878625 0.23388709 0.08583614 -0.41879517
-0.3068606 -0.7255772 -0.86542386 0.66311485 0.8470531 0.2967969 0.799154 0.9805822
-0.9624756 0.46761414 0.91879773 -0.19816062 -0.42660484 0.52775043 0.83644694 0.82812154
-0.3817922 -0.7207035 0.1486015 -0.8669802 -0.014420949 -0.6265748 -0.81688774 0.9402087

conv1.bias f4 [32]
00000000: 1259 233d 565c 0f3e 2983 15be 20f3 eb3e
00000010: a626 53bf caf9 4b3f debb 5e3c 6def 45be
00000020: fdfa 29bf f3e2 6cbf 2658 f23e af93 4b3f
00000030: d888 91be 7d26 5dbf 963f 65bf cef5 dc3e
00000040: a832 c53d 290a 263f 7f95 373c 061a b93e
00000050: 36b8 79be 90a0 a8be 6b2c fa3e 70f1 123f
00000060: 2991 e03e 4180 4b3f 9156 70be b7b2 72bf
00000070: a578 103f 6afd eabe d8ca 493e c3f8 3bbe
0.039879866 0.14000067 -0.14600815 0.46083927 -0.8248085 0.7967802 0.013594596 -0.19329615
-0.663986 -0.925338 0.47332877 0.7952222 -0.28424716 -0.86386853 -0.8955015 0.43156284
0.096288025 0.64859253 0.011205076 0.36152667 -0.24386677 -0.32935 0.48862013 0.57399654
0.43860748 0.79492575 -0.23470522 -0.9480395 0.5643409 -0.45896465 0.19706285 -0.18356614

conv2.weight f4 [64, 32, 1]
00000000: 90d6 4d3d aa2d 373d 5da8 b43c c6ae 0cbe
00000010: b77b 1a3e cc0c 53bc f614 a1bd 2d01 ba3a
00000020: 0cca d3bc 0cae f3bd 4a7b fbbd f5bd 93bc
00000030: b93f 1f3e 794b 2d3e 3ede edbc 8782 86bd
00000040: 08d2 0e3e 50df 11be 87b4 f0bc 16a3 81bd
00000050: a8d6 e4bd 900e 0bbe 0847 4b3d b7f6 e43d
00000060: 5a3a ea3d c667 91bd dcc1 e4b9 dab4 fd3d
00000070: 351c b3bd eba8 863b d91c b23c 7033 97bd
00000080: 55a5 663d a31b 04be 1ca7 753d d770 e73c
00000090: 67d7 38bd 1068 2f3e 4b57 af3a c511 023d
000000a0: e5ae 0bbd ce4f 20be 7407 05be 7d3b a5bd
000000b0: dd63 a43d a51e a5bd d7ac ff3d 4017 c93d
000000c0: c7dc 53bd cd78 16be 34f3 c9bd 8d5b d03d
000000d0: 5c0a c73d f98f d93d a099 803c f562 3f3d
000000e0: d1b5 de3d c893 f53d 0b59 d53b a657 3bbd
000000f0: 90c8 c5bd 7130 dc3c 5ad9 c8bb 9cf3 af3d
00000100: 5c97 98bd 57fb e1bd 7727 bbbd 3857 073e
00000110: 677d d2bd a1e5 c0bd ba69 543d 8ad1 cdbd
00000120: c1a4 103e 67fb 01be ea15 0dbe 9902 8e3d
00000130: 8d14 ec3d 8a95 26be d819 db3d aba4 d73d
00000140: 347a d23d 05db 9fbd 6d6f 823d 3f30 0cbe
00000150: 2319 debd 8870 df3d 4e36 8f3d 79f2 743d
00000160: 2e4e f8ba c82d bebd 89e9 1f3e 57b2 1c3a
00000170: 47b7 debb 06b3 9dbd 858e 21be 9244 28be
00000180: 362a 193d 8d14 023e 7a9b 133e 15ee a43d
00000190: 6c20 fdbc f7dc 29be 6d1c 33be a063 313e
000001a0: ec40 6e3d 4692 e8bd 27dc 253e fd9c e13c
000001b0: e90b b1bd 3df6 de3d 6ec2 403c b386 e1bd
000001c0: b820 c03c 552e 393d 079b 9fbd 6a87 e6bd
000001d0: 7462 e53d d321 f23a 8df7 9d3a 6e7b a63d
000001e0: d349 a23d 8c25 213e b9fd 23be cc3d 303d
000001f0: 4017 27be 796f 583d 9dd4 c1bc 2db0 eabc
00000200: 3965 01be 7053 68bd f318 ec3d 4741 14bd
00000210: b839 0ebe b3a1 b83d 92a3 e7bd dd43 13bd
00000220: 0212 2e3e 5cc6 05be fc73 c9bd f1ca 2cbb
00000230: 6dc8 b3bd 4e0a 8fbd f0fd 03be d84b dbbd
00000240: 02f6 1e3e 117b 253e 4aa2 f83c 1ed3 29be
00000250: 67f8 3d3d 4619 1ebe da14 9fbc ad00 75bd
00000260: c2fe 863d 10ce 193e 91a7 263d 3bc7 8cbd
00000270: 4558 b43d 72f2 17bd 33e4 0d3e 367d b63d
00000280: 4094 1bbc 066f a5bd 609f 563d c992 a4bd
00000290: d561 2abd 65cc b1bc 6e7f 9bbc 0406 29be
000002a0: 124b 57bd ed15 0bbe 2764 ccbb 3779 70bd
000002b0: 6834 fdbc d454 17be 5578 313e 3a42 f23c
000002c0: 9a1b 86bd f659 873c 4650 04be c38b 8dbb
000002d0: d303 80bd 6742 c0bc b78c ce3c 4f9a 31bd
000002e0: 0658 043d 00a3 103e e2be 063d 63a1 133e
000002f0: 8e61 a43d ff0e ebbd f921 f23d b3d9 273e
00000300: 9590 bf3d b095 873d 19ba dabd 7972 0bbd
00000310: 1e30 c83d 51c4 d6bd 63a3 22be 8e0d ffbd
00000320: a212 9c3d 5cd5 cebd 4b4d 7bbd 0056 b4bd
00000330: 3baa b6bd 95bd 95bd d426 0f3e 2a27 7d3c
00000340: 537f 34bd de3f 163e 77c6 29bc d6db dfbd
00000350: 06b6 07be 0709 2a3e ae94 ecbd c6ed 07b9
00000360: dd96 0d3e 2a6b 043e ca7c 023e 9502 8ebd
00000370: 2448 32be 2183 b83d a3a8 a4bd 61ff 2fbe
00000380: 88e4 75bd 6298 0c3c 295c 19be 68fd 16be
00000390: 8396 9f3d 1c67 1fbd 268b 12bd 775e fd3d
000003a0: fe79 cbbd dcc9 973d 368f 813d 7289 6abd
000003b0: 17fa 0cbe 837c 223c 040d 45bc cbbe 95bd
000003c0: 96bd fcbc 45e0 4fbd 571b 6dbc 2642 213c
000003d0: e3c6 09bd 13cd dbbd 93c7 233e 9a35 f63d
000003e0: 216d 283e 4f9c 133e 582e d0bd 20ef fb3c
000003f0: c6c9 d83d f178 ff3d dd8f 313e 7ded 18be
0.05025345 0.044721283 0.022052938 -0.13738546 0.15086256 -0.012881469 -0.07865326 0.0014191024
-0.02585318 -0.11898431 -0.12279375 -0.018034915 0.15551652 0.16923322 -0.029036637 -0.06567865
0.13947308 -0.14245343 -0.029382957 -0.06329934 -0.11173755 -0.13579774 0.049628288 0.111798696
0.11436911 -0.07099871 -0.00043631985 0.1238801 -0.087456144 0.004109492 0.021742271 -0.07382858
0.056310017 -0.12901168 0.05997382 0.028252048 -0.0451273 0.1712954 0.0013377456 0.031755228
-0.03410234 -0.15655443 -0.12991124 -0.08067987 0.0802686 -0.080624856 0.124841385 0.09818888
-0.05172422 -0.1469452 -0.098608404 0.10173712 0.09718773 0.10623164 0.015698254 0.046725232
0.108745225 0.11991078 0.006510859 -0.045737885 -0.09657395 0.026878567 -0.006129426 0.08591387
-0.074507445 -0.110342674 -0.09138387 0.13216865 -0.10277825 -0.09418798 0.05185864 -0.10049732
0.14125349 -0.12693559 -0.13777891 0.06934089 0.11527357 -0.16267982 0.10698289 0.10529455
0.10277215 -0.078054465 0.06368909 -0.1369028 -0.10844638 0.109101355 0.0699278 0.059801552
-0.0018944198 -0.09286076 0.1561643 0.00059775024 -0.0067967507 -0.07700162 -0.15777023 -0.16432407
0.03739377 0.12703152 0.14414778 0.08053223 -0.030899249 -0.16588198 -0.17491312 0.1732316
0.058167383 -0.113560244 0.16197263 0.027540678 -0.0864485 0.1088681 0.011765106 -0.1101202
0.023453102 0.0452102 -0.07793241 -0.11256297 0.11200419 0.0018473215 0.0012051925 0.08129011
0.07924237 0.15736979 -0.16014756 0.043027684 -0.16317463 0.052840684 -0.023660952 -0.02864846
-0.1263627 -0.056720197 0.11528196 -0.036195066 -0.13889205 0.09015217 -0.113104954 -0.03595339
0.16999057 -0.1306395 -0.098365754 -0.002636608 -0.087784626 -0.06984387 -0.12889838 -0.107078254
0.15523532 0.16160227 0.030350823 -0.16584441 0.046379473 -0.15439329 -0.019419122 -0.059815098
0.0659156 0.15020013 0.040687148 -0.06873938 0.088058986 -0.03709645 0.13856582 0.08910601
-0.009495795 -0.08077817 0.052398086 -0.080358095 -0.041597206 -0.021703908 -0.018981662 -0.16506201
-0.052561827 -0.13582583 -0.006237525 -0.05870935 -0.030908778 -0.14778453 0.1733106 0.029572595
-0.06548233 0.016522389 -0.12921247 -0.0043196394 -0.062507294 -0.023469163 0.025213582 -0.04336005
0.03231051 0.1412468 0.032896884 0.14417033 0.080264196 -0.1147747 0.11822886 0.1639164
0.09353749 0.066203475 -0.106800266 -0.034044717 0.097748026 -0.10486663 -0.1588264 -0.12453757
0.076207414 -0.10099289 -0.06135301 -0.08805466 -0.08919188 -0.073115505 0.13979656 0.015451232
-0.04406674 0.14672801 -0.010362259 -0.10930602 -0.1325303 0.16605006 -0.11551796 -0.00012963181
0.13827081 0.12931505 0.12742916 -0.06934086 -0.17410332 0.09009386 -0.080399774 -0.17187263
-0.060032398 0.008581253 -0.14976563 -0.14745104 0.0779238 -0.038916692 -0.035777234 0.12371533
-0.099353775 0.074115485 0.063261434 -0.057259984 -0.13767277 0.009917381 -0.012027029 -0.073117815
-0.03085212 -0.05075099 -0.01447185 0.009842431 -0.03363694 -0.10732474 0.159941 0.120219424
0.1644788 0.14415096 -0.10165089 0.030753672 0.1058536 0.124742396 0.17340036 -0.14934345

conv2.bias f4 [64]
00000000: 9c92 cd3d bf9e 513c 4048 7dbd 8f09 40bd
00000010: b643 42bd 81ab 2abe ad59 763d 8ee7 8abd
00000020: 9575 b8bd 2c00 703d 0cf9 143d ef74 363b
00000030: 85b6 5b3d 13cf babd d382 cc3d 16f8 1d3e
00000040: b698 33bd e9b9 f03d b61d 19bc eb36 063e
00000050: 6dfa 1d3e 9630 b4bd e96b edbd 916f 9abd
00000060: a318 14bd 093d ccbd a0c7 223e 2b17 08be
00000070: 0616 1c3c b0ba d83d bf54 033e 6fab 163d
00000080: 01da babd b8ef 16be ec39 f3bd cf4a e3bc
00000090: 3af3 d8bd c1ff a53d 7a6a e53d 2a0d 113e
000000a0: e91c 1a3e 2e6f 25be 0dcc a23d f3b9 33be
000000b0: 0430 8b3c 874c 30bd e88d a7bd 62f5 60bd
000000c0: b4c0 96bd 7f5e f93d 2059 64bd 25a9 ccbd
000000d0: 7c40 063e a957 d9bd b763 303e ac79 dc3b
000000e0: 9fc5 013e 16f5 ab3c 472d bfbd 8b6d 48bd
000000f0: 2e2e 1bbe 127e 1d3e a0cf 7b3d 5e58 e03c
0.10037729 0.012794196 -0.06183648 -0.046884116 -0.047427855 -0.16666986 0.060144115 -0.06782447
-0.09006802 0.058593914 0.036370322 0.0027840694 0.05364086 -0.091215275 0.0998589 0.15426669
-0.04384681 0.117542095 -0.009345463 0.13106887 0.15427561 -0.087983295 -0.11592848 -0.07540811
-0.036156308 -0.09972579 0.15896463 -0.13290088 0.009526735 0.10582483 0.12825297 0.036784586
-0.09123612 -0.14739883 -0.11876282 -0.027745632 -0.10593267 0.08105422 0.112019494 0.14165178
0.15050091 -0.16155693 0.07949076 -0.17551403 0.01699067 -0.043041732 -0.08181363 -0.054921515
-0.07360974 0.12176227 -0.05574906 -0.09993199 0.13110536 -0.10612423 0.17225538 0.0067283716
0.12673043 0.02099089 -0.09334808 -0.048932593 -0.15154335 0.15380123 0.061477304 0.027385887

fc1.weight f4 [16, 896]
00000000: 66b6 94bc 3081 883c a338 92bc 2ba1 81bc
00000010: 86a5 9b3c 12ac 353c 584e c73c 4343 a83c
00000020: 8c78 8e3c 6785 debc 6519 02bd 566e 0a3b
00000030: 84dc 483c 4435 053d 9e6d 943c 7baf cabb
00000040: 377a 00bd da43 1e3c e81d b03c b23e 07bc
00000050: 8c7a 563c 40c8 fa3c c6e3 93bb ca64 e6bb
00000060: a68f 99bc fd1e bfbc 611b 01bc b0ae 843c
00000070: 70c0 30ba 40f2 fcbc b644 d0bc 4363 583c
00000080: 8def 173b c7e5 48bc 2fc6 34bc ac85 27bb
00000090: 4c01 b1bb 2c3c 7c3c ad62 d23c 14ae dabb
000000a0: 65d6 42bc fe3c 66bc 2ec5 2f3c 4d7a ac3b
000000b0: 518c a33a e6b7 99bb a2b2 ecbc a404 a73c
000000c0: 4e1b 16bc 452f db3b 65cb 5bbc 73a3 94bc
000000d0: c94b 213c e4e5 c13c 65e6 d2bc 7250 ebbb
000000e0: 9c48 95bc 8e29 1abc d4a2 91bc b121 fcbc
000000f0: f60e ab3c e661 f9bc 42ba e1bc 7863 ea38
00000100: 55ef e8bc 4b75 c13b ed90 d33b bf22 ac3c
00000110: 8018 ffbc 2e24 b63c e4d1 39ba 001e d7bc
00000120: 2c96 08bd 01b0 fd3c a4b8 be3c 165e a13c
00000130: ae82 023d 2467 023c 3e79 f1bb 28d9 813c
00000140: 1ab5 9f3c 8c3e 8fbc bdc9 fabc 3ee7 57bc
00000150: cfbd 0c3c e3a9 21bc a548 983c 5861 5fbc
00000160: fa3b c2ba 2c8b 4f39 5b1d 853c 948c fa3b
00000170: 63ad 17bc 072f 1abc 94c0 9a3c db46 f43c
00000180: 1814 723c 13bf 233c 71a1 84bc 9d2d b83c
00000190: ebc7 b23c e294 c73c c381 b7bc d439 583c
000001a0: dd36 e4bb 6c24 edbc 1a79 e83c 6249 74bb
000001b0: 684a bc3c c015 83bc c55e aa3c e24f d93c
000001c0: 3c16 ea3c ed9e f4bc ba70 82bc e574 973b
000001d0: c933 a03c b43d cc3c 763d d83c 4b6d fcbc
000001e0: 008a 1b3c a0e1 7ebc b347 a6bc a4af fdbc
000001f0: 85cb fd3c 39af 8c3c e31c f73c 11dc 8bbc
00000200: 513b ad3c 2ed5 8d3c f711 b43a db62 873c
00000210: cf2a c13c aee4 413c ba77 92bc 7137 e93c
00000220: 7c06 fabc 0d36 c43b 1939 f8bc 29c9 06bd
00000230: d74e 07bd cf36 4cbc 7c23 973c 097d 03bd
00000240: c3eb 673c 7633 08bc 8f6f 003d cb16 b83c
00000250: 6760 4f3c 1562 153c 9915 c9bc a2d8 03bb
00000260: 6fed 0c3c e509 8c3c 10b3 23bc eabd c63c
00000270: fcde d0bc cb75 c6bc 1e32 1dbc 220f 6d3c
00000280: dc69 823c ab12 febc b250 d7bc 1a79 a3bc
00000290: 402d d1bc e938 223c d3ed 5d3c a78f d03c
000002a0: b897 d7bb 0262 e3bb 37f4 f1bc 5a9a 803a
000002b0: df7b cfbc 3565 3d3b c111 60bc 8f17 a73c
000002c0: 1064 733c 2772 bbbc c43d d03b bb90 dbbc
000002d0: 3c4b e5bb cf39 dfbc 3792 e9bc 6b6d 26bc
000002e0: 9e86 b3bc 05de 443c b107 4abc b7cf 3fbc
000002f0: 8977 823c da67 c5bc d2e9 663c 6caa 3dbc
00000300: ea07 6fbc e77d 44bc 096e d4bc 7583 a23c
00000310: c682 e43c f1cb 943c 777b d23c 41b2 6b3c
00000320: 4516 89bb 2dd6 003d fe15 03bd b440 f93b
00000330: de5d 003d 0d35 95bc 6d8e 50bc c976 76bc
00000340: 462c a0bc 03ff 883c f5bb 8b3b d692 0abc
00000350: a5fc 63bc 33de bdb9 8a9a 6f3b 00eb 05bd
00000360: d3f1 f33c c087 b6bc 7a3c 91bc e6dc 02bd
00000370: 8dcf 6cbc 6bbd a53c 5f34 b83c e2f7 923c
00000380: 93e2 43ba ab13 b13c c555 e8bc 0015 c13c
00000390: bb64 ca3c 6920 98bb dbef 883c 706c dc3c
000003a0: 5073 f1ba a7b7 adbb e9dc ffbb 9836 dc3c
000003b0: 784b f83c ff3f 973c 8ca2 95bc c583 f6bb
000003c0: 9196 253b 4d70 e73c 0549 2c3c 0082 c53b
000003d0: 77ca fa3b 5252 023d 81c5 45bb 9b85 e1bc
000003e0: e96a 9ebc 00dd 0339 e314 9d3c 84bd adbc
000003f0: 32ea 4f3c 084b 4d3c 3f60 c13c 931c adbc
-0.01815338 0.016663164 -0.017849272 -0.015823921 0.018999826 0.011088388 0.02432935 0.020539885
0.017391466 -0.02716322 -0.0317625 0.0021122894 0.012259606 0.0325215 0.018118676 -0.0061854697
-0.031366553 0.009659732 0.021498635 -0.008254694 0.013090741 0.030613065 -0.0045132367 -0.007031058
-0.018745255 -0.023330206 -0.007880063 0.016196579 -0.00067425426 -0.030877233 -0.025423389 0.01320726
0.0023183555 -0.012261814 -0.011033579 -0.0025561852 -0.005401766 0.0153952055 0.025681818 -0.0066735838
-0.011891936 -0.014052628 0.010728164 0.005263603 0.0012477731 -0.004691112 -0.028893773 0.020387955
-0.009161783 0.0066889846 -0.013415192 -0.018144345 0.009844729 0.02366919 -0.025744626 -0.0071812207
-0.0182231 -0.0094093215 -0.017777838 -0.030777784 0.020881157 -0.03044219 -0.027554635 0.00011176517
-0.028434435 0.005903875 0.0064564855 0.021012662 -0.031139612 0.022234049 -0.0007088466 -0.026259422
-0.03334634 0.030967714 0.023281403 0.019698184 0.031862907 0.007959161 -0.0073691895 0.015850618
0.019495536 -0.01748588 -0.030613774 -0.013177691 0.008590176 -0.009867164 0.018589327 -0.013634048
-0.00148189 0.00019792904 0.01624935 0.0076461527 -0.009257647 -0.009410626 0.018890657 0.029818943
0.014775299 0.009994286 -0.016190263 0.022482688 0.021823844 0.024362985 -0.022400742 0.013197381
-0.006964548 -0.028948031 0.028378058 -0.0037275185 0.022984698 -0.016001582 0.020797143 0.026527349
0.028575055 -0.029860938 -0.015922893 0.004622089 0.019555943 0.024931766 0.026396494 -0.030813834
0.009493351 -0.015556723 -0.02029786 -0.030967541 0.030980835 0.017173396 0.030165141 -0.01707271
0.021146448 0.017313566 0.0013738264 0.01652663 0.023579983 0.011834307 -0.017879356 0.02846882
-0.03052067 0.0059878887 -0.030300664 -0.032906685 -0.033034172 -0.012464239 0.018449537 -0.032101665
0.014155331 -0.0083130505 0.03135639 0.022471806 0.012657261 0.009117623 -0.024546431 -0.0020118137
0.00860153 0.017094562 -0.009991422 0.02426048 -0.025496952 -0.02422609 -0.009594468 0.01446894
0.015919618 -0.031014761 -0.026283596 -0.019955207 -0.025534272 0.009901264 0.013545471 0.025459124
-0.0065793656 -0.0069391737 -0.029535396 0.0009811625 -0.025327621 0.0028899435 -0.013676108 0.020396976
0.0148554 -0.02288158 0.0063550193 -0.026802411 -0.006997494 -0.027249245 -0.028512103 -0.010157923
-0.021914776 0.012015824 -0.012330935 -0.011707238 0.01592614 -0.024097372 0.014093833 -0.011576276
-0.014589289 -0.011992908 -0.025931375 0.019838074 0.027894389 0.018163653 0.025693638 0.014385761
-0.004183563 0.031454254 -0.032003395 0.00760659 0.03133952 -0.018213773 -0.012729269 -0.015042969
-0.019552361 0.016723162 0.0042643496 -0.00845786 -0.013915216 -0.0003621444 0.0036560618 -0.032694817
0.029778397 -0.022281528 -0.017729033 -0.031948946 -0.014453781 0.020231923 0.02248591 0.017940465
-0.0007472422 0.021615824 -0.02836121 0.023569584 0.024706235 -0.0046425355 0.016715935 0.026907176
-0.0018421207 -0.005301434 -0.007808317 0.026881501 0.030309424 0.018463133 -0.018265985 -0.0075230324
0.0025266747 0.028251791 0.010515456 0.00602746 0.00765353 0.031816788 -0.0030177536 -0.027529528
-0.019338088 0.00012575462 0.019174999 -0.021208532 0.012690114 0.012530096 0.023605464 -0.02113179

fc1.bias f4 [16]
00000000: ea59 c73c f8eb 793c e790 3dbc cbe1 d6bc
00000010: 2108 df3c 3987 8fbc 22dd 893c 7fe4 cdbc
00000020: 66a0 95bc 3182 e7ba 13da 953c 79c3 0bbc
00000030: 27a4 eebc c3e9 023d e293 d43c 3858 a4bc
0.024334867 0.015254013 -0.011570192 -0.026230713 0.027225556 -0.017520534 0.016829077 -0.02513337
-0.01826496 -0.0017662701 0.018292462 -0.008530491 -0.029131008 0.031961214 0.025949422 -0.020061597

fc2.weight f4 [32, 16]
00000000: 0f3b 8d3d 063d fe3d 56dd b0bc c7fe f33d
00000010: 48de 03be 9c37 743e 8a0d e23d 859c 21be
00000020: da60 943b 402d 7d3e e491 743e ce98 a5bc
00000030: fa59 5e3d 369a f43d 0af1 8d3d a03f c3bd
00000040: 6600 a33d 8719 593e 4e27 163e ebb4 39bd
00000050: 2cef 0fbe 8c9a 5e3e 1b92 35be 9f69 643b
00000060: d340 33bd 5405 8b3c f8d6 49be b015 3c3e
00000070: 6fb2 be3d e627 19be 3954 653e aa4d 0dbe
00000080: 2f13 5c3d 6d88 11be 4cb9 aa3b aa26 093e
00000090: 96b1 033e 7fff c43d c837 a1bd 1ccb b9bd
000000a0: 7ae9 8f3d 213f 263e ac89 9abd 4be4 68be
000000b0: 9200 1fbe 34f8 1d3e b9bc a7bd 518b 143e
000000c0: ef34 713e 53d0 9c3c 50c8 8fbd 3ae0 673d
000000d0: 549b 7ebe 928d 363e b77f 003c 1f82 57bd
000000e0: a2a4 3ebe c843 403e 864a 4c3d 362f 123e
000000f0: 4e6a e93d 3cbf 7d3d 24e5 3b3e c18a a9bd
00000100: 0b2e 3d3e 9c85 923b 57a9 d23d b896 633c
00000110: ef26 b8bd 7818 18be 2b1c 2e3e 8218 223e
00000120: 9ff5 0ebe 3629 a5bd f945 823d 893e 37be
00000130: c7fd 1c3e a62b 1b3e 2eb8 a3bc 8616 543e
00000140: 493f 4ebe fea9 2dbc a5d1 70be d3c0 44be
00000150: 7de2 47be b921 31be d622 44be 642c 4c3e
00000160: 5cb5 a4bd 7452 9ebd 8c85 68be a7e0 4c3e
00000170: 0a2a 5ebe 817b 243e d1f9 203e 5475 543e
00000180: 53d2 8cbd 85d4 063e 07a6 a43d a04a 08be
00000190: 4b4b 26bd 31f9 493d ba40 32be 492b 0cbe
000001a0: 6b0d 5e3e ec84 d2bd 58d2 68bd b46b 033d
000001b0: 4b50 bd3d de09 fdbd c2d3 ea3d ec18 a33d
000001c0: fb14 603e 2507 4d3c 7107 a5bd 0a0d e5bd
000001d0: 0e41 033e f565 333e 16eb 9ebd e1f7 60bd
000001e0: 286b c03d b6e4 3bbe e71b 943d 7785 c4bd
000001f0: c1d9 01be 0f3e a4bd 0f71 7fbe 6350 10be
00000200: 39ad 383d 2565 043e d251 503d efde 223d
00000210: 6c7b 713e f060 ecbd 0515 78be ec01 f2bd
00000220: 1de9 44bd 26f0 e9ba 8a28 70be 6681 4d3e
00000230: 2ce8 7d3e 235f aabd 4783 d6bd ad97 cd3d
00000240: 9c3a 3fbe 2848 afbd 65c4 3cbe 37a1 e73c
00000250: 1b08 033e 92df 793e 4ffc d0bd 7c52 0f3e
00000260: 8908 aabd c880 52be 4896 ac3d cbe5 4cbe
00000270: 00ea 9b3d 3f4c 0dbe ba33 403e 5ace c6bd
00000280: d797 0abe f2be 8cbd ecf9 7d3e 6f4b 45be
00000290: 17cf 4c3e cf84 29bd ba04 55be b35e de3a
000002a0: 8abf dcbd bd40 eb3d 4147 3a3e 3d5d 223e
000002b0: 5f86 5fbe a71d 983d 1834 0d3e 16f8 6abd
000002c0: 14c0 f9bd 53db 10bd 398d cbbd 71e5 003e
000002d0: 151a 0b3d 07b0 bf3c 2a87 c43b a1f8 863d
000002e0: 2e63 de3d 3f1c fbbd 64bd 403e d079 2cbe
000002f0: a4b5 1b3e 5db2 5f3e fb6f 77be d15a 3cbc
00000300: af34 0fbe d382 673c 9e9d f4bc 6650 363e
00000310: a814 0ebe b855 c73c 354e bdbc 4f11 613e
00000320: e222 4ebe cd3a 04be 3ae6 13be 12ad 2b3c
00000330: b397 e33d edb9 423e f6ad 0c3e 6fee 72be
00000340: f56e 48be e1b1 533e 4653 66be 1b50 d4bd
00000350: c382 c93d 9cc5 a4bc ee4a 403e 66f6 70bd
00000360: dd24 03be 4299 693e 798a 1ebe 75e6 91bd
00000370: bfcb fdbc a8a6 1ebe 55e7 b43d 072b 71be
00000380: a8cb 193e ad6b 013d 6018 5f3e f1cc cebc
00000390: 7775 22be b078 42be 9221 8f3b f0bd 613e
000003a0: 9beb 663c 52c4 0bbe 76ad 0b3e 8e42 03bd
000003b0: ec43 173e b069 a7bd 5164 3f3d 42f6 1e3e
000003c0: 7f16 343d 1864 67be 390d 623e 6577 103d
000003d0: 31b5 533e 43eb 96bc f34b de3d ffe7 4c3c
000003e0: bcef adbd 11a0 7fbe e0ec edbd 0521 243d
000003f0: 2c59 143e d3e9 15be 22b9 163e 0d5d 72be
0.0689603 0.12413983 -0.021589916 0.11913829 -0.12877762 0.23849338 0.110377386 -0.15782364
0.004528147 0.24724293 0.23883778 -0.020214465 0.054285027 0.11943476 0.0693074 -0.0953362
0.0795906 0.21201144 0.14663431 -0.045338552 -0.1405608 0.21738642 -0.17731516 0.0034852994
-0.043762993 0.016970314 -0.1971091 0.18367648 0.09311377 -0.14956626 0.2239541 -0.13799158
0.053729232 -0.14212199 0.0052100774 0.13393655 0.12860712 0.096190445 -0.078719676 -0.09071943
0.07026954 0.1623502 -0.0754579 -0.22743337 -0.15527561 0.15426713 -0.08190293 0.1450627
0.23555349 0.019142305 -0.070206285 0.056610323 -0.2486394 0.17827442 0.00784295 -0.052614328
-0.1861749 0.18775856 0.04987576 0.14275822 0.11397229 0.061949953 0.18349129 -0.08278418
0.18474595 0.004471494 0.10286205 0.013890915 -0.08991801 -0.14853084 0.17002933 0.15829661
-0.13960885 -0.08064501 0.063610025 -0.17894949 0.15331183 0.1515337 -0.019985285 0.20711717
-0.20141329 -0.010599611 -0.23517473 -0.19214182 -0.19519992 -0.1729802 -0.19153914 0.19938809
-0.08042404 -0.077305704 -0.22707194 0.20007573 -0.21695724 0.16062738 0.15720297 0.20747882
-0.06876054 0.13167007 0.0803948 -0.13309717 -0.04059915 0.049309913 -0.17407504 -0.13688387
0.21684806 -0.10279259 -0.056841224 0.032085136 0.0924383 -0.12355398 0.11466171 0.07963738
0.21883003 0.01251391 -0.0805806 -0.11184128 0.12817785 0.17519362 -0.07759683 -0.054923896
0.093954384 -0.18348965 0.072318844 -0.09595769 -0.12680723 -0.08019649 -0.24945472 -0.14093165
0.045087073 0.12929209 0.05085928 0.039763387 0.23582238 -0.11541927 -0.24226768 -0.11816773
-0.048073877 -0.0017848059 -0.23452964 0.20068893 0.24795598 -0.08318927 -0.10474258 0.100386955
-0.18674701 -0.085586846 -0.18434294 0.028275115 0.1279606 0.24401692 -0.10204374 0.13996309
-0.08302409 -0.20556939 0.084271014 -0.20009534 0.07612991 -0.13798617 0.18769732 -0.09707327
-0.13534485 -0.068723574 0.24802369 -0.19267057 0.20000874 -0.04138642 -0.20802584 0.0016965478
-0.10778721 0.11486957 0.18191244 0.1585588 -0.21828602 0.07427531 0.13789403 -0.0573655
-0.12194839 -0.035365414 -0.099390455 0.12587525 0.03396042 0.023399366 0.005997558 0.06590391
0.10858761 -0.12261247 0.18822247 -0.16843343 0.15206009 0.21845384 -0.24163811 -0.011496262
-0.13984941 0.014130312 -0.029860314 0.17804107 -0.13875067 0.024332866 -0.023108581 0.21979259
-0.20130494 -0.12913056 -0.14443293 0.010478275 0.11112919 0.19016238 0.13738236 -0.23723768
-0.19573577 0.20673324 -0.22492704 -0.103668414 0.09839394 -0.020113759 0.18778583 -0.058828734
-0.12807031 0.2281237 -0.1548251 -0.07124034 -0.030980943 -0.15493262 0.088331856 -0.2355157
0.15019095 0.03159683 0.21786642 -0.025244208 -0.15865122 -0.18991351 0.0043680156 0.22045112
0.014094259 -0.13649109 0.13640389 -0.032045893 0.14772004 -0.08174455 0.04672653 0.15523627
0.043966766 -0.22596776 0.22075357 0.035270113 0.20674588 -0.018422728 0.1085433 0.012506484
-0.08492991 -0.24963404 -0.11617446 0.040070552 0.14487141 -0.14639978 0.1471906 -0.23668309

fc2.bias f4 [32]
00000000: 2723 d73c 922a 0dbe 2b6d da3d a543 84bd
00000010: 2dca 0fbe c71f 60be 13e8 df3d 7264 a13d
00000020: 7bf2 abbd ad46 1c3e e2f7 95bd 3985 d6bd
00000030: bafc b6bd 19d6 143e 2419 79be bbd0 72be
00000040: 2e8c 35be 87e9 553e 831b 693e 79f4 8c3d
00000050: b185 513e e648 8cbd c6f3 2f3e 5dd1 cdbd
00000060: 9e21 58be 5591 57be 6e82 56be d13f 553e
00000070: c952 c53d 8b2e bfbd d078 083e 1c10 263e
0.02626188 -0.1378577 0.106653534 -0.06458215 -0.14041968 -0.21887122 0.109329365 0.078804865
-0.08395859 0.15261336 -0.073226705 -0.10474629 -0.089349225 0.14534797 -0.24325997 -0.23712437
-0.17729256 0.20889865 0.22764401 0.06882567 0.20461155 -0.06849842 0.17182836 -0.100496985
-0.21106574 -0.21051534 -0.20948192 0.20825125 0.09634931 -0.09335049 0.13327336 0.16217083

fc3.weight f4 [64, 32]
00000000: 719b 303e 3c3d 173e 0bda 213e 1e85 fa3d
00000010: 68cd a0bd aa40 bbbb 059a cfbd 6403 013d
00000020: ab13 aebd 1e9e 16be a401 083d c085 fbbc
00000030: 77a9 0bbe c562 1a3e a33c 14be 5b09 933c
00000040: 752d b3bd e8aa 2abe f456 f93c 8fa1 ce3d
00000050: 8e5c 3e3d 2d99 743d d3ff f33d 67b8 33be
00000060: 5119 9f3d 076c c0bd 8853 8ebd cd4d ba3d
00000070: b99f f6bd 7443 cabb 652f 06bd 1b31 d9bd
00000080: b6d2 00be bb77 05bd 5ee8 8dbc d901 2cbd
00000090: 3235 59bd 8ad7 ec3d b9cf 61bd 9dec 293d
000000a0: 081d 9d3d 1792 26be 802f 053e 5dbd efbc
000000b0: 2c63 c13d 7053 ae3d 6536 063e 738c d5bd
000000c0: 730e 40bd b4ab 01be de44 d83d 5ff1 26bd
000000d0: 81e6 17be 1480 22be ee18 69bd 3cab 2c3e
000000e0: 253b 1d3e c0c6 263e aa31 26be 6f68 123d
000000f0: 242d 0dbe a565 b9bd 588a db3d af2f 343e
00000100: 575e afbd 6e61 19be 0bb9 6ebd 102d 68bd
00000110: 21c9 b83d 9ff7 a4bd 4f0f 963c a86c 283e
00000120: ecba 9bbd 3f84 0ebe 968a ae3d af34 093e
00000130: 29b9 f13d f69b 693d 44ad a83d 155b b13d
00000140: 69e3 24be e001 283c 23fd 263d 77ac 7f3d
00000150: 4fe8 f63c ef30 b13d 02f5 73b9 1e8d a83d
00000160: 3c04 c23c 728a b4bd 37f5 21bd 321c d53d
00000170: 8b14 b9bd 09ae 183e 44cc 9e3d f6cf ba3d
00000180: 4f08 c9bd 1489 053e 47ca 213e 56b0 3d3d
00000190: a5be a4bb 1bf5 f53c e7f9 893c 44bd 2cbe
000001a0: 8207 0ebe a8f2 1dbe e911 dd3d 341b bdbc
000001b0: 631f 7dbd aab1 493d 7b08 edbc ddf6 94bd
000001c0: 6539 003e 1a99 213d fb68 1e3e bc25 df3d
000001d0: 3e80 e43d 110e 2e3e 50da ad3d cb34 c4bd
000001e0: 4372 bfbc d571 12bd 042c 1a3e 0f9c b63c
000001f0: 6402 f13d 4aa8 cd3d 9e42 4cbc 79f7 b3bd
00000200: c7cc a6bd 2d60 01bb c5ca 383d 34da 0cbe
00000210: f1ec 2abe 3f4e 113e d1ee 25be 2cd7 34bc
00000220: 03a5 8d3d 8e4f 6b3c 733d 8e3d c6c7 87bd
00000230: 6f36 bdbd ddca f23d 2692 94bd 7616 afbc
00000240: 758b d83d 4337 4a3d 9f3a 5ebd a158 32be
00000250: a821 01be e055 b73d 2297 be3c 8373 d63d
00000260: 7791 d53d 2224 033e 27de 1bbe ec63 953c
00000270: e354 64bc 06ce cb3c 1203 853c b659 e4bd
00000280: 58e5 de3d aa48 303e db5c 2b3e 2b86 31be
00000290: b200 2e3d afd9 c03a f6b3 ae3d 57a4 0abd
000002a0: 18eb e53c f675 02bd c688 2ebe fe8e 9bbc
000002b0: 8008 303e 749f e6bb 0651 5cbd fbee 2b3e
000002c0: 1729 67bd 9895 863c a443 2b3e 2929 6dbd
000002d0: 0dad f8bd 2a4a 303e f71f 683d 0dbc 063e
000002e0: 0a7f d2bd 816d 233e 3ed1 653c 25db 03bd
000002f0: a162 f73d b02d e83c bf80 b1bc e570 aabd
00000300: cb1d b1bd c8ae 62bd fac1 8a3c 90fc f33d
00000310: 94af 55bd 6e08 163e 88ab 87bd 68cd 003e
00000320: ee0d acbd d8cc 5d3c 1fad 733d 1789 f43d
00000330: 6237 8abd c3a4 1d3d 9727 a2bd 35a7 113e
00000340: 51cc 1fbe 18a1 d33d acff 14be a327 17be
00000350: 7d42 e5bc 6a96 adbc 8c12 353e 3180 af3d
00000360: cebc ed3d 5edf dbbd 8ea8 313e aaeb 873d
00000370: b26f 1f3e 6674 74bd b2e7 073e 4870 2f3d
00000380: 7dad 14be 8b13 fdbd 7f12 34be 3755 2c3d
00000390: 5164 c1bd 9b7e 9dbd 1491 e3bd 9376 19bd
000003a0: 268d aa3b da41 223e 7e10 e0bd 8e98 b23d
000003b0: f45a c53d bb2c 1e3d 8677 dc3d d67e 68bd
000003c0: ceee b63d 35a8 25be c3b9 ae3d 89d5 32be
000003d0: 0e75 11be 9d3e 19bd c0ae e8bb 0c73 e63d
000003e0: ae73 e0bd 59ad 5fbd 08c2 2d3e a97b 8b3d
000003f0: d9a0 623b 1df1 c43d b468 c3bc d9e9 983d
0.17246796 0.14769453 0.15805833 0.12232421 -0.07851678 -0.0057144957 -0.10136799 0.031497374
-0.08499845 -0.14708754 0.03320469 -0.030703425 -0.13638864 0.1507674 -0.14476256 0.017948797
-0.087489046 -0.16666758 0.03043697 0.100894086 0.046474986 0.059716392 0.11914029 -0.17550813
0.077685006 -0.093956046 -0.06949526 0.090968706 -0.120421834 -0.006172592 -0.032760043 -0.10605069
-0.1258038 -0.032584887 -0.017322715 -0.04199395 -0.053029247 0.11564548 -0.05512974 0.041485418
0.07671553 -0.16266666 0.13006401 -0.0292651 0.09442744 0.08512008 0.13106687 -0.10427179
-0.04688878 -0.12663156 0.105600104 -0.040757533 -0.14834024 -0.1586917 -0.05690854 0.16862196
0.15354593 0.16286755 -0.16229883 0.035744127 -0.13786751 -0.0905259 0.10719746 0.17596315
-0.08562916 -0.14978573 -0.05828194 -0.0566836 0.09022737 -0.080550425 0.018317847 0.16447699
-0.07604012 -0.13917635 0.08522527 0.13399003 0.118028946 0.0570335 0.08236173 0.08659951
-0.16102375 0.010254353 0.040768754 0.062420335 0.03014007 0.086519115 -0.00023265558 0.08230041
0.02368366 -0.08815469 -0.039540496 0.104057685 -0.090371214 0.14910139 0.07753804 0.09121697
-0.09816038 0.13040572 0.15799819 0.046310745 -0.0050276094 0.030024102 0.016842796 -0.16869074
-0.13870052 -0.15424597 0.10794432 -0.02308426 -0.06179751 0.0492417 -0.028934708 -0.07273648
0.12521894 0.03945265 0.15469734 0.10895869 0.11157273 0.16997553 0.084889054 -0.09580382
-0.023369914 -0.03575309 0.15055853 0.022291211 0.11768034 0.10041864 -0.012467055 -0.08787436
-0.08144527 -0.0019741163 0.04511525 -0.13755113 -0.16691948 0.14190005 -0.16204382 -0.011037629
0.06916239 0.014362229 0.06945314 -0.06629901 -0.09238898 0.11855099 -0.07254438 -0.021373015
0.10573474 0.049369108 -0.054255124 -0.17416622 -0.12610495 0.08951926 0.023265425 0.10471251
0.10428136 0.12806752 -0.15221463 0.018236123 -0.013936254 0.024878513 0.016236816 -0.111499235
0.108835876 0.17215219 0.1673464 -0.17336337 0.04248113 0.0014713312 0.085304186 -0.033848133
0.028066203 -0.031850778 -0.17044362 -0.018989082 0.17190742 -0.0070380513 -0.053788207 0.16790383
-0.05643567 0.016428754 0.16725022 -0.05790058 -0.12142382 0.17215791 0.05667111 0.13157673
-0.10278137 0.15959741 0.014026938 -0.032191414 0.12079359 0.028342098 -0.021667836 -0.08322314
-0.08648261 -0.055342466 0.016938198 0.11913407 -0.052169397 0.14651653 -0.06624514 0.12578356
-0.084010944 0.013537608 0.059491273 0.1194021 -0.06748845 0.038487207 -0.079177074 0.1422394
-0.15605284 0.103334606 -0.14550656 -0.14761214 -0.027985806 -0.021189887 0.17682856 0.085693724
0.11608277 -0.10735963 0.17349455 0.06636746 0.15569952 -0.05968132 0.13271978 0.04283169
-0.14519306 -0.12357243 -0.1758518 0.042073455 -0.09442962 -0.07690164 -0.11111656 -0.037466597
0.0052048145 0.15845433 -0.10940646 0.08720504 0.096364886 0.038616877 0.10764985 -0.056761585
0.08932267 -0.16177447 0.08531525 -0.1746427 -0.14204809 -0.03741323 -0.00710091 0.11252412
-0.10959564 -0.054608677 0.16968548 0.06810696 0.0034580736 0.09616301 -0.023853637 0.07466478

fc3.bias f4 [64]
00000000: 1965 59bd 9d2e fcbd aed6 753c 9808 dc3d
00000010: 7258 28bc 1ac6 b1bd e407 123e 71cd 2d3e
00000020: 4d54 9bbc 4296 313e 4230 34be 8693 f3bd
00000030: 21d7 25be 9418 a83d 5ec7 203e 8ef3 db3d
00000040: d5a7 073e 99db 05bd eb79 d8bd a565 2d3e
00000050: d355 7d3d 048c 723c 774c 053a 8be5 9fbd
00000060: 2c3e 26be 7e7f fd3d e721 8d3d 913b b4bc
00000070: f770 a5bc e92a ca3d 5f7e 0e3e 29eb 28be
00000080: 7a86 2dbe 0960 83bd f00c 32be 7779 5ebd
00000090: b8c7 893d 1654 203e 95e2 053e 7c53 04be
000000a0: 07c3 34be e2b0 0dbe ca42 163d f4c6 86bd
000000b0: 97e8 cb3a 8370 123e df3a 16be 00da 29be
000000c0: ef9a 8c3d 676e f23d 4de2 05be dbe3 a13d
000000d0: 57fa 523d 74e6 b8bd 56e1 aabd 7242 7cbd
000000e0: 5382 17bd 10e3 2f3e 643f 25bb 589d 1dbe
000000f0: 2ae5 ffbc b45b 72bc 9ca4 8c3d f191 303e
-0.05307493 -0.12313578 0.015004797 0.10743827 -0.010274993 -0.08680363 0.14260823 0.16972901
-0.018961096 0.17342475 -0.17596534 -0.11893372 -0.16195346 0.08207813 0.15701053 0.10739814
0.13247617 -0.032680128 -0.10570129 0.16933306 0.061849426 0.01480389 0.00050849415 -0.07807454
-0.16234654 0.12377833 0.06891232 -0.02200106 -0.020195467 0.09871466 0.13915394 -0.16495956
-0.1694583 -0.064148016 -0.17387748 -0.054315057 0.067275465 0.15657076 0.13074715 -0.12922472
-0.17652522 -0.13837007 0.03668479 -0.06580916 0.0015556988 0.14300732 -0.14670895 -0.16587067
0.06865489 0.11837464 -0.13074608 0.07904788 0.051508274 -0.090283304 -0.08343761 -0.061586805
-0.03698952 0.17176461 -0.0025214786 -0.15392053 -0.031237204 -0.014792372 0.06867334 0.17243172

fc4.weight f4 [128, 64]
00000000: 28ac b1bd 049d c4bc ee81 40bd 7660 c1bd
00000010: 3d48 f43d 90f3 73bd 02f6 e7bd c776 be3b
00000020: 9d36 c83c 41ec 3cbc b362 0fbd 88f6 de3d
00000030: 5276 f1bc a2cd 093d 8853 043d ce20 27bd
00000040: 2e4c 81bd dcaf 0ebd f645 54bd 5e9e 2d3b
00000050: 5043 773c 7052 d53d 7127 103c ce49 b9bd
00000060: 9d23 f03d 349c f83d d911 cbbd cb40 ccbd
00000070: b496 a4bc 2c79 423c ad27 c1bd d066 593c
00000080: 280d 81bd 8c03 d5bd a48a 4dbd 1465 c6bc
00000090: e1a4 16bd 20ab 02ba b45a 8a3d 6bdf acbd
000000a0: 7d96 fd3d ab57 a6bd 3046 ea3d f703 fc3d
000000b0: 9c96 bd3d 28e9 ca3c 534a 14bd aa1e babc
000000c0: 8d6e c63d 9303 d7bd dc50 84bd 3c4f 333d
000000d0: fe90 a63b 3a85 d6bd 3a7d ebbd 46ec 0abc
000000e0: 2dcf a53d 59b4 6cbc b786 a7bd a88a 993d
000000f0: 2d6f bebd d0d0 883d e162 9d3d fd88 943d
00000100: e447 9f3b 093e 93bd 1c31 8dbd af42 043c
00000110: 6f08 3d3d c2d2 a23d 861b 82bc 4513 ee3d
00000120: 71e4 de3d 4a9b f1bd 22a2 f43d 26fc d3bd
00000130: 0924 713d 5a5f fa3d 2d45 2bbd 1ba7 a13d
00000140: d22e b73d 94e8 f3bd d935 f3bc 82d7 ddbc
00000150: 5961 bb3d 645b 293d 2554 cabc 294f acbd
00000160: 81b8 1f3d 93d5 06bd 1746 043d 6678 533d
00000170: b5a9 b9bd 1a31 003d 7587 763b 132e fa3d
00000180: a857 88bd 2569 923d 4c38 fbbd 6bc0 f33c
00000190: aafe 7d3a 6f2b 123d 1a34 b0bd 64d4 af3d
000001a0: 55ad 7a3c 6a1c cd3d dcfd e1bd d003 4bbc
000001b0: 5d55 0bbc 54d9 fd3d 98b9 4b3c d963 30bd
000001c0: 407b d3bd 2302 fa3d a999 96bd c932 d73c
000001d0: 6225 b5bd 5266 ebbd 41a6 0d3d c378 e1bd
000001e0: c0f1 903d 72f6 44bd 7ba2 72bc 7e36 933d
000001f0: 8ea1 bc3d 7856 37bd a7e4 29bc c792 d93d
00000200: 5279 0dbd 134d 4abd ddae fcbd 163f a53d
00000210: 3903 b03c 21ff 9abd f194 b13d afb6 633d
00000220: cc23 ae3d daec 50bd e555 123d cb64 f739
00000230: 8d93 1c3c 07a8 843d 8130 d03b bedd 7abd
00000240: 25e1 f63d ef94 bb3c db8c 9a3c 5241 34bd
00000250: d6d4 a93d e5e6 833d d4aa f53d 0a03 64bd
00000260: 02c0 a03d 9945 17bd 094c 783d d1e6 843d
00000270: e226 62bd b34d d0bd 1a29 a23d 7cdb 28bd
00000280: 1559 5c3d bb20 a43d 7941 8fbd 65b0 a53d
00000290: f28d b73d afdf ee3c 5b92 f83d e044 433d
000002a0: 058a 553d 04ce ae3d fd1d 633d 1158 803d
000002b0: 3523 f4bd 0b10 a33d bf30 f9bc 35ce f93d
000002c0: 90b9 89bc db4c e13d a610 b53d 9754 5c3d
000002d0: 4c33 51bd bfaa ec3d 99e1 b2bd 8212 d23d
000002e0: a1c0 e3bd 69fc 883d 53a1 6b3d 5ee1 e83d
000002f0: ca49 c83d 6059 81bd be47 6e3d dbbf fc3d
00000300: f4c9 c53d c894 e4bd d782 ee3b 3a11 8a3c
00000310: 7ce9 bbbd b272 0c3d 96ef d43d 5fe1 3c3d
00000320: 8fd2 c53d 784f be3d 514b c9bd 582d a53d
00000330: 8cd8 b73d 03d7 c1bd 57cd 28bd ef9d ac3c
00000340: 9f6c f93d 4402 36bd a224 293c b006 55bc
00000350: 1325 393d 8b00 893c f3ba 8d3d 8c2b 8bbd
00000360: ce9b 243d bbc5 8a3d de1f 80bd eae5 4fbd
00000370: 9dfc 14bd ccc7 08bc fba8 dd3d 3dbb a0bb
00000380: de32 ec3c 7db6 80bc 7af6 d6bc 11cf e93d
00000390: 0f29 a03d 92e7 893a f5f8 08bd afd1 c4bc
000003a0: 1aa4 debd a707 fb3d 623c a7bd 4846 dcbd
000003b0: d80b dcbd 0344 58bd 7125 943d 557b 803d
000003c0: 2a73 1cbd 009b bfbd b2ce 833c 64cd 8abd
000003d0: 9664 113d cfba 803d 044f 863d e411 c1bd
000003e0: 65f8 fbbd d2e2 9a3d b5bf 823d 3651 403d
000003f0: 6b06 063c 5e43 97bd e905 863d 680f 573d
-0.08675414 -0.024000652 -0.04699891 -0.094422266 0.11927841 -0.05955845 -0.11326219 0.005812499
0.024440104 -0.011530937 -0.035006236 0.10886866 -0.029475365 0.033643372 0.032306224 -0.04080277
-0.06313358 -0.03483568 -0.051824532 0.00264921 0.015091732 0.10416114 0.008798466 -0.0904728
0.11725543 0.121391684 -0.099155135 -0.09973296 -0.020091392 0.01186971 -0.09431396 0.013269141
-0.063013375 -0.10401067 -0.050181046 -0.02421812 -0.036778335 -0.0004984606 0.067555815 -0.08441051
0.12382219 -0.0812219 0.114391685 0.12305444 0.09257242 0.02476938 -0.036203694 -0.0227197
0.09689055 -0.104987286 -0.06460735 0.043776736 0.0050832024 -0.1047463 -0.114984944 -0.008479184
0.08096156 -0.014447295 -0.08179992 0.0749715 -0.09298549 0.06680453 0.07684875 0.07252691
0.004860865 -0.07189567 -0.068941325 0.008072539 0.04615062 0.07950355 -0.015882265 0.11624769
0.108834155 -0.11797197 0.11944987 -0.10350828 0.058872256 0.12225218 -0.041814018 0.07893201
0.08944477 -0.11909595 -0.029688763 -0.027080301 0.09149427 0.041346923 -0.024698326 -0.08413536
0.038994316 -0.032918524 0.032293405 0.051628493 -0.09065572 0.031296827 0.003761736 0.12215819
-0.06657344 0.07148961 -0.12266597 0.029754838 0.0009689132 0.035685953 -0.086036876 0.08585432
0.015300115 0.10015185 -0.11034748 -0.012391046 -0.008504239 0.12394968 0.012434386 -0.043063972
-0.103262424 0.12207439 -0.07353527 0.026269333 -0.08845021 -0.114941254 0.03458238 -0.110093616
0.0707736 -0.04808659 -0.014809246 0.07188128 0.092105016 -0.044760197 -0.010369456 0.10623699
-0.03453953 -0.04938991 -0.1233804 0.08068673 0.021485912 -0.07568193 0.086709864 0.055594143
0.085029215 -0.05100713 0.035726447 0.00047186608 0.009556663 0.06477361 0.0063534384 -0.061246626
0.12054662 0.022898166 0.018865993 -0.044007607 0.08292548 0.06440524 0.119954735 -0.05566696
0.078491226 -0.036931608 0.060619388 0.06489337 -0.055212863 -0.1017107 0.07917996 -0.04122494
0.053795893 0.08014055 -0.0699491 0.08090285 0.08962621 0.029159395 0.1213729 0.047673106
0.05213358 0.08535388 0.05544852 0.06266797 -0.11920778 0.07962044 -0.030418752 0.12197534
-0.016812116 0.11000987 0.08841066 0.05379161 -0.05107431 0.11556005 -0.087344356 0.10257436
-0.111207254 0.066887684 0.057526898 0.113711104 0.09779699 -0.06315875 0.058173887 0.12341281
0.0965766 -0.1116119 0.007278781 0.016853917 -0.09175393 0.03428907 0.1039726 0.046113368
0.096593015 0.09292501 -0.098288186 0.08065289 0.0897685 -0.09464838 -0.041211452 0.021071402
0.12178921 -0.044435754 0.010323675 -0.013002083 0.045201372 0.016723892 0.06920423 -0.06795415
0.04018765 0.06775995 -0.06256078 -0.050756373 -0.036373723 -0.008348417 0.10823246 -0.004905133
0.02883285 -0.015712017 -0.026240576 0.11416448 0.07820331 0.0010521284 -0.03344055 -0.024025766
-0.10871144 0.12257319 -0.08165814 -0.107555926 -0.107444465 -0.052799236 0.07233704 0.06273524
-0.038195767 -0.09355736 0.016089771 -0.067774564 0.035496317 0.06285631 0.0655804 -0.094272405
-0.12303237 0.07562794 0.063842215 0.04695245 0.008180241 -0.07385896 0.06544096 0.052504927

fc4.bias f4 [128]
00000000: d29d c53d c05b 76bd 1ee5 5d3c eff1 af3d
00000010: 4fe1 863c c01f df3c 4dd4 f8bd 9384 323d
00000020: 4003 bd3d cf37 a33d bd8d 853d 975c 59bc
00000030: 192f 613d 94b0 a33c 7418 753d 9192 3d3d
00000040: 699c dd3c 6d48 f7bc 0968 b5bd 66ac 8fbd
00000050: fbbd 6b3d ab70 1fbd 6b1b c43d e199 9c3d
00000060: bc12 8dbd a564 d8bb ee72 2a3d dd09 fa3d
00000070: d81d 8ebc c2aa 87bd 3c83 94bb 5556 86bb
00000080: 68b5 b43c 1ed5 903d d3d7 e3bd 2aac 1b3d
00000090: 313f 6b3d 2744 e53b b414 063d 0f12 3ebb
000000a0: c04b 87bd a47f 9e3d ab15 23bd d48e db3d
000000b0: fe8e f2bd 383f 9a3d e591 d43d 2bd9 7f3d
000000c0: 6922 443d 4f16 4bbd 2560 7abd a6e4 d83c
000000d0: f5d6 aebc 21e0 c13d 0ff9 c5bd f1f7 01bd
000000e0: a5ac f83d 06c0 a73d e5d7 2cbd f4f6 fe3d
000000f0: 437e a6bd b35c 0a3d 6550 f0bc f7ea d63d
00000100: 52c7 aaba 1d79 3a3d 2e67 89bd a8d6 f3bc
00000110: 7bcb b53c 5f35 76bd 97b8 e3bd 31df 52bc
00000120: 43e7 633d 673d 7c3d b98b afbd 2ac2 cebc
00000130: f18c 55bd dc48 45bd af70 963c bb25 ecbd
00000140: 78d8 f53b 977b e6bc 0e1b c8bc 1280 c5bd
00000150: 5b95 afbc c568 db3d 3f98 283d d79c fbbd
00000160: 4f15 55bd 1312 793d 8d4a 993d a7a2 91bd
00000170: 6123 aa3d bfa2 82bd ab59 cebd a942 92bc
00000180: ef31 d03c f584 043c fa29 d43d cbea b8bd
00000190: 2fc8 9a3d 8388 c63d 2a92 a5bd 4711 253c
000001a0: b23e 993d 5085 d33d 0b76 1abd b7bc b3bd
000001b0: d82d f5bd b4ab cd3d a30e 5a3d 07e7 99bd
000001c0: 7c40 c9b7 93c4 47bb 3a57 f53d c10d f13d
000001d0: ba50 98bd 7eb0 4fbc 7100 fe3b a00b fd3d
000001e0: 1556 fcbc 3732 223d 8c0f adbd 694c 0cbd
000001f0: 339f aabd 9604 da3d c1d6 31bd 82f5 ad3d
0.096492425 -0.060146093 0.013543395 0.08591067 0.016464857 0.02723682 -0.12149868 0.043583464
0.092291355 0.07969629 0.06521175 -0.013266704 0.054976556 0.01998166 0.059837773 0.046282355
0.027052121 -0.030185902 -0.08857734 -0.07015304 0.057554226 -0.038925808 0.09575542 0.076465376
-0.06888339 -0.0066037946 0.04161351 0.122089125 -0.017348215 -0.06624366 -0.004532246 -0.004099647
0.022059157 0.07071899 -0.111251496 0.038005985 0.05743331 0.00699665 0.032734588 -0.0029002463
-0.06606245 0.07739189 -0.039815586 0.10720602 -0.1184368 0.07531589 0.1037939 0.062462967
0.04788438 -0.049581822 -0.061126847 0.026476216 -0.021342734 0.09466577 -0.09666645 -0.031730596
0.12142304 0.081909224 -0.04219808 0.12449446 -0.08129551 0.03377981 -0.02933521 0.10494035
-0.0013029373 0.04552566 -0.06709133 -0.029765442 0.022191754 -0.060109492 -0.11119192 -0.012870596
0.05564047 0.061581995 -0.08571572 -0.025239069 -0.052136365 -0.048165187 0.018364279 -0.11530634
0.0075026117 -0.028135104 -0.024426963 -0.09643568 -0.021433523 0.107133426 0.04116082 -0.12285774
-0.052022275 0.060808253 0.074849226 -0.071111016 0.08307529 -0.063786976 -0.100756966 -0.017854052
0.025414435 0.00808834 0.10359569 -0.09029158 0.07557713 0.09694006 -0.08084519 0.01007492
0.07482661 0.10328162 -0.03771023 -0.08776229 -0.119716346 0.100425154 0.053236615 -0.07514768
-2.3991095e-05 -0.0030482158 0.11979528 0.117702015 -0.07437272 -0.012676356 0.0077515175 0.12355733
-0.030802766 0.03959867 -0.08450231 -0.034252558 -0.08331146 0.10645406 -0.043417696 0.084940925

fc5.weight f4 [64, 128]
00000000: 8a47 e9bc 2d45 00bd 312c a43c de4e 81bd
00000010: 763e 613c 2e76 a13d 3e09 09bc 84aa 1fbc
00000020: f74a 0bbd 2278 88bd 2eec 543d 345f 333d
00000030: 0dba 523b 9128 91bd 7a19 a93d d22a cb39
00000040: 170c 753c 833f 0a3d 8941 403d 8f4d 71bd
00000050: 4995 91bd 60fc a5bd bad3 98bd 9d5b 883c
00000060: 42e3 b3bd e8ff 8e3d 3704 03bd c11a 843d
00000070: c1ac 4fbc 1213 ccbc 5857 4ebc 1a2f 4abd
00000080: b40f b03d d6ac a13a a8e0 033d 4cd2 94bd
00000090: 1728 12bc e8ea a238 ae1f 47bd 2dd8 a03d
000000a0: 6ea4 683d 022d a0bd 348e 9c3d 5e69 923b
000000b0: d904 97bd fa53 59bd d122 043d c810 d7ba
000000c0: 803b 6a3c 4dd5 fa3c 872d 2cbd 26a1 adbc
000000d0: 3de1 dbbc 9c4b 3d3c dc1c c33c 408f 4bbc
000000e0: 8069 30bb d17b 9abd b19b a23d 9008 aa3a
000000f0: a877 f1bc daba 59bb c345 343d 1bed 8f3d
00000100: cab6 41bd 4746 5b3d 7a2d 223d 3cd7 1bbd
00000110: 7e41 523d 2b96 97bb 5d08 35bd 0082 83bc
00000120: ad74 843c b8d0 80bd 4603 65bd 4d41 26bd
00000130: 2e2c 323d b6f4 1cbd 4def 183d 8d9e c0bb
00000140: 1537 883c 79c8 0cbd cc8a 1abd 8a44 f13b
00000150: 0a4e 243d 8973 6ebd 6cda 0f3a 3f5f 37bd
00000160: 2cec 983d c697 913d 8c6f 8abd 1c65 df3c
00000170: 3e39 2c3d 5f7c d1bc 59e9 0e3d 0832 49bc
00000180: 4062 b3bd 51b1 14bc adc2 32bd 0b0f 6fbc
00000190: d073 b0bd b6fb b53c cb7b 38bd be49 8cbd
000001a0: 0b3c 57bd bea3 4bbc 6470 8ebc cc3b 1bbc
000001b0: a673 1cbd 1025 093d 514c b8bb 3734 e23c
000001c0: e459 723d 1234 e9ba 6162 41bb 88a7 03bd
000001d0: b7f2 6e3d b0ec 3ebc 8a40 84bd 08ad 26bd
000001e0: 9c51 a3bc 282a b0bd b0e2 abbd 43e5 8a3c
000001f0: 19ac b93c d7a7 2f3d 4eb6 a6bd 10be a0bd
00000200: cdf0 3ebd f65b 743d 2b0c aebd 67e3 143d
00000210: f13c a03d a823 89bd 67fe 67bd 2922 07bd
00000220: 654a a13d 45da d5bb 49a4 333c 586e 27bc
00000230: 243a 97bd 365f f13c 4778 f03c 4a9b 4dbc
00000240: 950b 07bd e214 533d c797 993d 0c1d d43c
00000250: 1a78 463d daa6 32bb 302e 1bbd 5280 623d
00000260: 598a f23c 7bfe c3bc 23b6 bc3c 65cb 98bd
00000270: 80c0 913d ecfc a53d 4058 6a3c ad26 25bd
00000280: 6eac 5c3c cc11 3bbd ab17 273d 49c7 a3bc
00000290: d0f6 743d 3bc7 843c efc6 f0bc e5f2 7d3d
000002a0: 8498 3d3c 3e2f 723d 527a aebc 9c71 713c
000002b0: cdbc b13d a147 eabc 75d5 e2bc eac3 393d
000002c0: 8cc8 b0bd 3466 ac3d 470a a5bd c00f b13c
000002d0: 075b 5e3d 3248 a6bd 7080 15bd 77b6 a0bd
000002e0: 049c 07bd 28d8 38bd 1d88 253d d98a b43d
000002f0: 8d56 1abd fee7 63bd 1157 b03d dc52 543d
00000300: 5d6d 9dbd 1c01 b03d 55d0 2b3b 2f59 403d
00000310: 174b 7c3c c0a6 a33d 53d4 76bd c0fe 4f3d
00000320: 1dbe febc 8181 313d b4d1 1dbd 5fc8 99bc
00000330: 3bc3 6e3d 7837 99bd 3de4 aa3a 11cb ab39
00000340: 25c4 333d a2ce 233d 0d37 5fbd 115f fbbb
00000350: efbe a3bc 268e 5f3c b848 16bd e6c6 243c
00000360: cbb4 713d 9e89 a0bd d7b8 96bd a41b 4cbd
00000370: 07d5 4ebd 57c5 b2bc e9ed 903d d35c 693d
00000380: 5985 b23d adea 833c c27d ac3c 8489 223d
00000390: e44d 923b 8ddd a6bc e9ab bf3c 01f6 243d
000003a0: 3d0e 0a3d 4be4 6fbc 304d 293d b064 d73c
000003b0: dd65 0c3c 9513 8cbd 4d32 38bd 377a 62bd
000003c0: 67c3 813d 4929 373d 200c ad3d e1fd ad3d
000003d0: 184b b0bd cd08 a7bd f39b a4bc 049a c73c
000003e0: 0520 153d 025d 6cbd 1353 8fbd 739f 42bd
000003f0: 142c 9ebd 567f a23c 8a16 883d fada 6cbd
-0.028476495 -0.03131597 0.020040603 -0.06313871 0.013747802 0.07883869 -0.00836402 -0.009745244
-0.03400704 -0.066635385 0.05198305 0.043791965 0.0032154352 -0.070878156 0.082568124 0.0003875108
0.014956496 0.033751976 0.0469375 -0.058911856 -0.07108552 -0.08104777 -0.07462259 0.016645247
-0.0878358 0.06982404 -0.03198644 0.064504154 -0.012675465 -0.024911437 -0.012594067 -0.049361326
0.08596745 0.0012334834 0.03219667 -0.072666734 -0.008920691 7.768517e-05 -0.048614196 0.07853732
0.056797437 -0.078210846 0.076443106 0.004468127 -0.073739715 -0.053058602 0.032259766 -0.00164082
0.0142964125 0.030619288 -0.042035606 -0.021195006 -0.0268408 0.011553671 0.023817472 -0.01242429
-0.0026918352 -0.07543147 0.07939852 0.0012972523 -0.029476002 -0.0033222944 0.044011842 0.07027646
-0.04729346 0.05353382 0.03959415 -0.03804706 0.05133199 -0.0046260557 -0.04419743 -0.0160532
0.016168917 -0.0628981 -0.055911325 -0.04058962 0.043499164 -0.038319312 0.03733759 -0.0058782757
0.016627828 -0.034370873 -0.037730023 0.007362907 0.040113486 -0.05821565 0.00054875645 -0.044768568
0.07466921 0.071090266 -0.06759557 0.027269892 0.042046778 -0.025572 0.034890506 -0.012279995
-0.08758974 -0.009075479 -0.04364269 -0.014590989 -0.086158395 0.022214752 -0.045039933 -0.06850003
-0.052547496 -0.012429176 -0.017387576 -0.009474706 -0.03819623 0.03348261 -0.005624332 0.027612789
0.059167758 -0.0017792007 -0.0029508101 -0.032142192 0.05833694 -0.01165311 -0.06457622 -0.04069236
-0.019936375 -0.08601791 -0.083928466 0.016955024 0.02266507 0.042884674 -0.081402406 -0.078487515
-0.046616364 0.059658013 -0.084984146 0.03634968 0.07824124 -0.06696254 -0.0566391 -0.032991562
0.07875518 -0.006526264 0.010964462 -0.010219179 -0.07384136 0.029464345 0.029354228 -0.012549231
-0.03297003 0.051533587 0.07499652 0.025892757 0.04845438 -0.0027260096 -0.037885845 0.055298157
0.029606985 -0.023925057 0.023036068 -0.074606694 0.071167946 0.08104882 0.014303267 -0.040320087
0.013468845 -0.04567127 0.040794056 -0.019992488 0.05980569 0.016208282 -0.029391734 0.06199922
0.011572007 0.059127085 -0.021298561 0.014736559 0.08678589 -0.028598608 -0.027689675 0.045352854
-0.08632001 0.08417931 -0.08058601 0.021613955 0.05428603 -0.08119239 -0.03649944 -0.078473024
-0.033107772 -0.045128018 0.04041301 0.088155456 -0.037680198 -0.055641167 0.086103566 0.051836833
-0.07686875 0.085939616 0.0026216705 0.046960052 0.015398762 0.079907894 -0.060261082 0.050780058
-0.031096512 0.043336395 -0.038530067 -0.018772302 0.058291655 -0.07481283 0.0013037991 0.00032766958
0.04388823 0.039991982 -0.05449586 -0.007671245 -0.019988505 0.013644731 -0.036690444 0.010057187
0.05901031 -0.078387484 -0.07359474 -0.049831048 -0.050496127 -0.021822615 0.07076628 0.05697329
0.0871684 0.016103113 0.02105606 0.039681926 0.0044648517 -0.020369316 0.023397403 0.04027367
0.033704985 -0.014641832 0.041333377 0.026293129 0.008569208 -0.068396725 -0.044969846 -0.055292334
0.06336098 0.044717107 0.08449578 0.08495689 -0.08608073 -0.081559755 -0.020093894 0.024365433
0.03640749 -0.057705887 -0.06998267 -0.047515344 -0.07723251 0.01983611 0.06644924 -0.05782602

fc5.bias f4 [64]
00000000: 9a67 6abd 1ca7 e9bc f9f6 6a3d e043 853c
00000010: c21e efbc a9ce 553c 10a9 123d a112 94bd
00000020: 2bc7 a83c e9ab 9d3d fb8a aabd 6af9 973d
00000030: ad20 fabc 8edf 0b3d a0ac 72bd 441b 9f3c
00000040: fa85 a5bb 84fd 9a3c 2fe2 473d bcf4 aebc
00000050: cb57 55bc 31f6 a93d a527 6ebc c252 a53a
00000060: 6e2e 80bd 8ec9 7a3d 2930 e2bc fc75 43bd
00000070: b6cc a2bc bc0b 9abd 2954 8f3d 2784 0c3c
00000080: 128c aa3d 9f37 b13d 3e04 623b cb73 aa3d
00000090: 1a5c 67bd 1312 ebbc 18cf b03d 8548 60bd
000000a0: 2ed8 e5bc cfe8 99bd 005c c2bc 28a3 9d3d
000000b0: bb0a 8bbd 7cd2 68bd 0b93 efbc 5cff 5abc
000000c0: 9927 2abd d3ff 6fbd 862b 2ebd 6c41 7f3d
000000d0: 71d1 203d 2311 213d 16e8 423d 9662 2bbd
000000e0: 3c5a 7d3d c7bd 793d 17ab 633c 9a1f 87bd
000000f0: 07f5 793d 42eb 1d3d 4eeb 113d ee9a 85bd
-0.05722771 -0.028522067 0.057364438 0.016267717 -0.029189471 0.01304976 0.03580576 -0.07230116
0.020602783 0.07698805 -0.0832729 0.07420619 -0.03053316 0.034148745 -0.05924666 0.019422181
-0.0050513716 0.018919714 0.04879969 -0.021356933 -0.01302142 0.082989104 -0.014535819 0.0012613165
-0.06258856 0.061227374 -0.027610855 -0.04771994 -0.019873004 -0.075217694 0.06998474 0.008576429
0.083274975 0.08653187 0.0034487392 0.08322867 -0.05648432 -0.028695142 0.0863325 -0.05475666
-0.028057184 -0.07515108 -0.02372551 0.07697135 -0.06789156 -0.05684136 -0.02924492 -0.0133665465
-0.04154167 -0.058593582 -0.042521976 0.06231825 0.03926224 0.039322983 0.047584616 -0.041842066
0.061853632 0.060972 0.0138957715 -0.065978244 0.061024692 0.038554437 0.035624795 -0.06523691
