models/test_acc-CNN_2L_FC_R400.pt (torch, 160099 bytes, 22 tensors)

conv1.weight f4 [32, 1, 1]
-0.38518098 -0.5491975 0.44193485 0.70349205 -0.49725956 -0.6620005 -0.084877394 0.367629
-0.21060456 -0.26981848 0.52016497 -0.038841583 0.22017051 -0.8512995 0.48464 -0.5997236
-0.7919292 0.39651024 -0.29044887 -0.5781839 -0.046262085 -0.464125 0.9362209 -0.46819052
-0.96611565 0.20372029 -0.21120685 -0.63649696 0.45092073 0.045807365 0.0061326507 -0.29120892
00000000: 7136 c5be 3598 0cbf 4945 e23e 0e18 343f
00000010: ce98 febe dd78 29bf 33d4 adbd de39 bc3e
00000020: b9a8 57be a625 8abe 8829 053f 5a18 1fbd
00000030: 6174 613e c4ee 59bf bc22 f83e 7c87 19bf
00000040: dfbb 4abf 6403 cb3e b7b5 94be dc03 14bf
00000050: 507d 3dbd cba1 edbe 2cac 6f3f abb6 efbe
00000060: 5b53 77bf 0d9c 503e 9c46 58be 77f1 22bf
00000070: 15df e63e 81a0 3b3d 67f4 c83b 5619 95be

conv1.bias f4 [32]
0.14074573 -0.80394363 0.7254462 -0.39299655 0.16231231 0.98550355 0.35330367 0.4977765
-0.8165514 0.82275945 0.8423495 0.44876552 0.09961799 -0.5260937 0.87113607 0.89429516
0.9724793 0.8435052 -0.90420264 -0.8987964 -0.77721983 -0.17120302 0.12329789 -0.5524529
0.022092061 0.16287811 -0.30525586 0.31204942 0.31631193 0.12627696 -0.6754799 0.88709724
00000000: a61f 103e 40cf 4dbf d8b6 393f d836 c9be
00000010: 3335 263e f649 7c3f 38e4 b43e 90dc fe3e
00000020: 8309 51bf 5da0 523f 38a4 573f 98c4 e53e
00000030: 8404 cc3d 14ae 06bf c602 5f3f 87f0 643f
00000040: 67f4 783f f5ef 573f d379 67bf 8517 66bf
00000050: e1f7 46bf d84f 2fbe 9b83 fc3d 8e6d 0dbf
00000060: 69fa b43c 85c9 263e 7f4a 9cbe f1c4 9f3e
00000070: a3f3 a13e bf4e 013e 40ec 2cbf ce18 633f

conv2.weight f4 [64, 32, 1]
-0.116835944 0.047828414 0.12041342 0.07433275 -0.0981104 -0.04117016 -0.017180715 0.040487725
0.13990833 0.079085626 0.06228095 -0.107290484 0.010981113 -0.06763882 -0.040939726 -0.16582622
0.010950188 0.043802448 0.04700046 0.15496026 0.13583344 0.119183235 0.13804163 0.12306363
0.09445898 -0.15012619 -0.11149827 0.13922092 0.15124924 0.14657821 -0.03421882 0.14286585
-0.13802324 -0.081749626 0.15209013 0.03067722 0.043784045 -0.13763416 0.15267836 0.0058165253
0.0807583 0.009928397 0.061268542 -0.16731158 0.15469073 0.010070643 -0.09412723 -0.06425837
0.11641056 0.10481105 0.033086054 -0.12748592 -0.098198265 -0.1538443 -0.041723542 -0.11591222
-0.03209643 -0.09932608 -0.07305567 0.16450149 -0.09275665 0.10343639 -0.1554494 0.10913465
-0.10970121 0.096961 0.029126687 -0.011799189 0.046070278 0.104813546 0.12134038 -0.14762141
0.039760496 -0.059939876 -0.1458974 -0.08014332 0.09088845 0.17210037 0.17828451 -0.14765698
-0.070011936 0.020841876 0.07465179 -0.15700528 0.0908777 -0.038507454 -0.022448756 0.13601294
0.027161745 -0.040356558 0.09524002 0.058192644 -0.1158278 -0.025126703 -0.12612675 0.04161874
-0.12600844 0.13230188 -0.034240354 0.018211666 0.04654752 0.17604032 -0.09772737 -0.07437187
0.11118484 -0.06345003 0.1766757 -0.09694759 -0.06742362 -0.013471408 0.019112604 0.16999649
-0.07811942 -0.16884896 0.12487213 -0.0037920275 -0.06549948 0.042772062 0.0658101 0.17159642
0.15360984 -0.038707346 -0.007299802 0.051891383 0.056387387 -0.040749215 -0.058852557 -0.15060388
0.08026951 0.1654701 0.12416797 0.12568976 0.14008963 0.047077358 -0.1485047 -0.15157743
-0.104981795 -0.09939942 -0.1009771 -0.0049068634 0.16459216 -0.15895733 -0.008986321 -0.08398212
-0.053715125 0.17311199 -0.030107092 0.1259779 -0.17571098 0.12775366 0.12585245 0.026750248
0.17310242 -0.12402814 -0.16113108 0.012117495 0.16181709 -0.027008517 0.1158873 -0.017728988
0.09559859 0.07749195 0.01604217 0.0037956403 0.15882817 0.17235883 -0.017552758 0.14600722
-0.049728673 0.1700229 -0.07555904 -0.11982305 -0.14394522 0.17887302 0.01699335 -0.1285771
0.10031743 -0.07043485 0.12036547 -0.14008562 -0.16668645 -0.1479728 -0.028396053 0.044671837
0.085308924 -0.10575082 0.15658359 0.10268888 -0.13750622 -0.04745119 0.1162663 0.16879098
0.0875063 0.013705387 0.17461821 0.09565516 -0.16243315 0.066352956 -0.018544795 -0.15821533
-0.047926594 -0.029336313 0.026673054 0.06463942 0.070240684 0.06375179 0.07689193 0.047272135
-0.018973354 -0.044068247 0.055605914 0.029090473 -0.015314407 0.065254495 -0.13922939 -0.03818652
-0.1271287 -0.07756465 0.043688495 -0.030532889 -0.050806973 -0.10784315 0.14167412 0.058991242
-0.09335535 0.11294013 -0.10831351 0.009333317 0.065550484 0.014700345 -0.016559187 -0.11531717
-0.15249771 -0.110402286 -0.06252257 -0.17100243 -0.032883577 -0.16413613 0.17298399 0.13845682
0.106704235 0.14418042 -0.11376045 0.14788195 0.06091448 -0.059790347 -0.14905635 0.07981265
0.0030014222 0.09951199 0.16415572 0.16631381 -0.14160986 -0.084336065 -0.14967397 -0.067339405
00000000: af47 efbd bae7 433d 509b f63d c53b 983d
00000010: 1bee c8bd 0ba2 28bd 92be 8cbc 75d6 253d
00000020: 2144 0f3e a5f7 a13d 4f1a 7f3d 1dbb dbbd
00000030: 20ea 333c 3986 8abd 6ab0 27bd 59ce 29be
00000040: 6b68 333c 326a 333d 8e83 403d e7ad 1e3e
00000050: ec17 0b3e 5716 f43d c95a 0d3e c908 fc3d
00000060: b673 c13d aeba 19be 3459 e4bd ee8f 0e3e
00000070: 15e1 1a3e 9918 163e 0929 0cbd 6d4b 123e
00000080: f755 0dbe 596c a7bd 84bd 1b3e cb4e fb3c
00000090: e656 333d f8ef 0cbe b757 1c3e 8d98 be3b
000000a0: 9c64 a53d b7aa 223c b9f4 7a3d ba53 2bbe
000000b0: 3f67 1e3e 57ff 243c c7c5 c0bd e499 83bd
000000c0: a968 ee3d 2da7 d63d 3e85 073d ab8b 02be
000000d0: 2c1c c9bd 5c89 1dbe 4ee6 2abd 6363 edbd
000000e0: 8c77 03bd 796b cbbd 369e 95bd 1473 283e
000000f0: 33f7 bdbd 75d6 d33d 212e 1fbe fd81 df3d
00000100: 07ab e0bd 7d93 c63d 179b ee3c 6351 41bc
00000110: 30b4 3c3d 7ca8 d63d 4e81 f83d 112a 17be
00000120: e7db 223d 8483 75bd 2166 15be 2e22 a4bd
00000130: b923 ba3d 143b 303e 3790 363e 6433 17be
00000140: 6b62 8fbd 95bc aa3c 0ae3 983d fec5 20be
00000150: 161e ba3d feb9 1dbd 74e6 b7bc fa46 0b3e
00000160: 4f82 de3c eb4c 25bd 330d c33d 695b 6e3d
00000170: 2037 edbd 84d6 cdbc 5f27 01be 6978 2a3d
00000180: 5b08 01be 257a 073e 9d3f 0cbd a230 953c
00000190: 9da8 3e3d ea43 343e 4a25 c8bd 4750 98bd
000001a0: e1b4 e33d 17f2 81bd 7aea 343e 758c c6bd
000001b0: 6515 8abd 2eb7 5cbc 0992 9c3c 8f13 2e3e
000001c0: 13fd 9fbd bee6 2cbe f6bc ff3d aa83 78bb
000001d0: 9724 86bd c231 2f3d 72c7 863d f9b6 2f3e
000001e0: e64b 1d3e 988b 1ebd 2d33 efbb 0f8c 543d
000001f0: 76f6 663d a6e8 26bd 610f 71bd e737 1abe
00000200: 5764 a43d fe70 293e c74b fe3d d1b4 003e
00000210: a873 0f3e 30d4 403d 9e11 18be 1d37 1bbe
00000220: b200 d7bd ec91 cbbd 15cd cebd c1c9 a0bb
00000230: d98a 283e b6c5 22be 5d3b 13bc d1fe abbd
00000240: 6404 5cbd 4544 313e 26a3 f6bc 5a00 013e
00000250: 94ed 33be dbd1 023e 77df 003e 5623 db3c
00000260: c341 313e 7702 febd 8cff 24be 7588 463c
00000270: 61b3 253e f740 ddbc 5256 ed3d 623c 91bc
00000280: 32c9 c33d 19b4 9e3d de6a 833c 47c0 783b
00000290: daa3 223e d57e 303e cdca 8fbc eb82 153e
000002a0: 4bb0 4bbd 7c1a 2e3e b3be 9abd ca65 f5bd
000002b0: 6066 13be 7d2a 373e a335 8b3c b7a9 03be
000002c0: 3a73 cd3d 2640 90bd 2c82 f63d 9b72 0fbe
000002d0: daaf 2abe 2f86 17be d79e e8bc d1f9 363d
000002e0: 72b6 ae3d e393 d8bd 7357 203e 8c4e d23d
000002f0: 6ece 0cbe 2e5c 42bd 071d ee3d 8bd7 2c3e
00000300: 8136 b33d 8f8c 603c 1ecf 323e dae6 c33d
00000310: e054 26be 0fe4 873d 41eb 97bc 3303 22be
00000320: ad4e 44bd b552 f0bc 7381 da3c ac61 843d
00000330: 59da 8f3d 4c90 823d 8479 9d3d 6da0 413d
00000340: 026e 9bbc e880 34bd 07c3 633d 254f ee3c
00000350: 47e9 7abc 26a4 853d 2692 0ebe 7869 1cbd
00000360: 072e 02be 37da 9ebd b5f2 323d 1c20 fabc
00000370: f91a 50bd dfdc dcbd 0513 113e cda0 713d
00000380: 1731 bfbd 284d e73d 79d3 ddbd c5ea 183c
00000390: 553f 863d b7d9 703c 22a7 87bc 692b ecbd
000003a0: 5c28 1cbe 981a e2bd d50b 80bd 431b 2fbe
000003b0: eeb0 06bd 4d13 28be b722 313e a0c7 0d3e
000003c0: c087 da3d 08a4 133e 3dfb e8bd 5e6e 173e
000003d0: 7681 793d b9e6 74bd 3aa2 18be d174 a33d
000003e0: 82b3 443b f1cc cb3d 7018 283e 2b4e 2a3e
000003f0: 2d02 11be 63b8 acbd 2244 19be 3ee9 89bd

conv2.bias f4 [64]
-0.12217301 -0.1437678 -0.17447798 -0.016624438 0.16650364 -0.09910014 -0.08332972 -0.083555155
-0.15090016 -0.13039659 -0.08769863 -0.11599445 0.07744764 -0.10086416 -0.033486128 0.03142468
-0.14659898 -0.05326176 0.16811073 0.0186135 -0.019162849 -0.004648646 0.1754096 -0.1560946
-0.108564876 0.051090043 0.13015641 0.006867168 -0.12194813 0.0814962 0.027387947 0.15540937
0.07165127 -0.014067416 -0.082469605 0.07589302 -0.07925157 0.14793459 -0.08539253 0.16691944
-0.042807434 0.03746088 -0.113127075 -0.087054536 0.16513287 0.11516338 -0.04498395 0.09202035
0.011430514 0.0018518413 0.0012945383 0.042928178 -0.093256146 -0.12982093 -0.04253717 0.1576181
-0.030103618 -0.12668389 0.10664234 -0.0817951 -0.018252186 -0.16221122 0.0005146489 0.060112804
00000000: d835 fabd de37 13be 5baa 32be f92f 88bc
00000010: ee7f 2a3e 04f5 cabd c6a8 aabd f71e abbd
00000020: 9285 1abe af86 05be 579b b3bd 808e edbd
00000030: de9c 9e3d de91 cebd c028 09bd 2ab7 003d
00000040: 0b1e 16be 0129 5abd 3825 2c3e 577b 983c
00000050: 68fb 9cbc ab53 98bb 939e 333e 43d7 1fbe
00000060: 4357 debd cb43 513d b947 053e fb05 e13b
00000070: f1bf f9bd 7be7 a63d b05c e03c a223 1f3e
00000080: e7bd 923d 057b 66bc d3e5 a8bd cd6d 9b3d
00000090: a64e a2bd 2a7c 173e 47e2 aebd eeec 2a3e
000000a0: d956 2fbd 9470 193d 2baf e7bd a649 b2bd
000000b0: 9718 293e c7da eb3d 1741 38bd 2a75 bc3d
000000c0: 0d47 3b3c 7cb9 f23a 7fad a93a 75d5 2f3d
000000d0: 14fd bebd c7ef 04be 753b 2ebd a466 213e
000000e0: dd9b f6bc 6cb9 01be 4d67 da3d 3084 a7bd
000000f0: 9c85 95bc b31a 26be 81e9 063a d838 763d

fc1.weight f4 [16, 896]
0.015191472 -0.011464962 -0.017808918 -0.0056470674 0.03179233 -0.0218802 -0.02571535 0.0064501376
0.0044100117 -0.011156781 -0.0296179 -0.009027649 -0.0049498365 -0.009581221 0.021101758 -0.00020108851
0.013675142 0.024460452 -0.0017393077 -0.0059163207 -0.027680317 -0.0117163025 0.01746007 -0.015748508
-0.018271726 0.010506961 0.016914768 0.014174062 0.02370412 -0.0069962298 0.028949413 0.012861134
0.007880019 0.018996255 -0.011496408 0.014623367 0.032813516 -0.017465895 -0.02338106 0.032222938
0.0067696273 -0.00734033 0.018401578 0.03025441 0.0016145348 0.023517055 -0.024270605 -0.024399957
-0.029118922 0.0019264867 0.022745151 0.0142843835 -0.032793935 0.004023066 0.013340599 -0.0071697673
-0.0047420776 -0.0007142714 0.018105753 -0.010155642 0.026696337 -0.032735426 -0.03105303 -0.003412965
0.023717403 0.009039703 0.001959883 0.02288058 -0.0051724375 0.03032615 -0.025362004 0.008456671
0.031541698 -0.023063082 0.008428025 0.010022562 0.02107489 -0.018929929 -0.0067465324 -0.018008217
0.0054616984 -0.031559817 0.00827667 0.015807522 -0.02682648 0.007140169 0.0014399015 -0.022770371
-0.006975053 0.013985909 0.0044447607 -0.016525358 -0.01754441 -0.010517873 0.00021921338 0.029391753
-0.01271513 0.014257208 -0.027329627 -0.027368313 -0.01078164 0.0020799479 -0.0073029944 0.014059009
0.0035689117 0.006774127 0.02608676 0.013759067 -0.015546409 -0.009976175 0.02752002 -0.017623996
0.002359655 0.016823374 0.017026352 -0.023031048 -0.028591942 0.006622115 0.016266258 0.0057175374
0.005333712 -0.0069939527 0.016538288 0.015151366 -0.023321463 -0.0017539577 0.029370682 0.020718679
-0.009516473 -0.0074183526 -0.015229233 -0.0017201914 0.0026842975 -0.019556694 0.014156521 0.024669101
0.022791626 -0.026618442 0.02811143 0.02518549 -0.007354639 0.013382955 0.030932724 -0.027795061
-0.004718637 -0.032098733 0.012815827 0.027033357 -0.016950935 0.0065354374 -0.012851698 0.008385712
0.0020346274 -0.020377008 -0.014956864 -0.012619114 0.010322116 0.005219725 -0.0027057766 -0.015431874
0.025094632 0.026769651 0.032321118 0.0052698567 0.03062614 0.028266944 -0.028486786 0.031214064
0.028755594 0.023450585 0.029009212 0.00051982404 -0.017929388 -0.017415754 -0.015962133 0.030769141
-0.017976385 -0.017107498 -0.025240462 0.025949655 -0.020964317 0.011168999 0.0038733622 -0.009259753
-0.032848552 0.014657141 0.016110208 -0.023792345 -0.008245563 0.009889974 -0.027396893 -0.018001279
0.00068930036 0.030769443 -0.0219974 0.027953807 -0.026711259 -0.023569582 0.0034754078 0.021412339
0.027045596 -0.016774131 0.013216989 0.0062393453 0.006714919 0.030879159 -0.022435179 0.010409862
-0.00091893034 0.005152505 -0.024883475 0.020928832 -0.007409257 0.013069999 0.0059507317 -0.024392888
0.024114609 -0.005926361 0.01441777 0.024805715 -0.0044932486 0.006603202 0.031893045 -0.0028315275
-0.03207324 0.027207436 0.0069876714 -0.011147639 -0.008947238 -0.01973041 -0.0015612844 0.006093054
0.021586252 -0.009583108 -0.013297071 -0.009167216 -0.022337105 0.008022919 0.0258741 0.008026236
0.005955348 0.0005992044 0.02776676 -0.018607201 -0.0195443 -0.0076436475 0.02993612 -0.0069774073
0.0066544525 0.003920205 -0.027100984 0.022813525 0.033336695 0.019122506 0.0013001895 -0.010754085
00000000: a7e5 783c 89d7 3bbc 02e4 91bc 090b b9bb
00000010: ad38 023d 1b3e b3bc ffa8 d2bc ad5b d33b
00000020: dc81 903b eeca 36bc 3da1 f2bc b4e8 13bc
00000030: 3d32 a2bb 8efa 1cbc 98dd ac3c 49db 52b9
00000040: b40d 603c 4961 c83c 7bf9 e3ba b2dd c1bb
00000050: d5c1 e2bc bcf5 3fbc 6c08 8f3c 0403 81bc
00000060: 96ae 95bc 6325 2c3c d790 8a3c 533a 683c
00000070: 252f c23c a140 e5bb 5227 ed3c 81b7 523c
00000080: 321b 013c 099e 9b3c 6e5b 3cbc d996 6f3c
00000090: 7767 063d a314 8fbc a389 bfbc 33fc 033d
000000a0: c0d3 dd3b 2787 f0bb e8be 963c 19d8 f73c
000000b0: cc9e d33a d7a6 c03c 26d3 c6bc 6be2 c7bc
000000c0: ce8a eebc 2b82 fc3a 0a54 ba3c 0c09 6a3c
000000d0: ef52 06bd ecd3 833b 8792 5a3c 5ef0 eabb
000000e0: 6e63 9bbb f13d 3bba 8452 943c da63 26bc
000000f0: 47b2 da3c 9515 06bd ed62 febc 0dac 5fbb
00000100: 004b c23c 431b 143c 6171 003b 0e70 bb3c
00000110: 8d7d a9bb 8c6e f83c fac3 cfbc d98d 0a3c
00000120: de31 013d caee bcbc b315 0a3c ac35 243c
00000130: 3fa5 ac3c f012 9bbc 0412 ddbb f885 93bc
00000140: 0cf8 b23b de44 01bd df9a 073c c77e 813c
00000150: 35c3 dbbc 14f8 e93b 14bb bc3a ee88 babc
00000160: fc8e e4bb 2725 653c 5ba5 913b 3060 87bc
00000170: 4bb9 8fbc 2853 2cbc a5dc 6539 f9c6 f03c
00000180: 1f53 50bc 1197 693c 62e2 dfbc 8333 e0bc
00000190: 7aa5 30bc bc4f 083b f54d efbb c257 663c
000001a0: 67e4 693b 7ff9 dd3b e7b3 d53c b66d 613c
000001b0: 5eb6 7ebc 1c73 23bc aa71 e13c 3360 90bc
000001c0: 71a4 1a3b 2cd1 893c d97a 8b3c 9cab bcbc
000001d0: a639 eabc 54fe d83b d140 853c 2e5a bb3b
000001e0: 6bc6 ae3b 872d e5bb 4e7b 873c 6f3d 783c
000001f0: a70c bfbc 0ee5 e5ba c99a f03c 38ba a93c
00000200: fbea 1bbc a715 f3bb 0884 79bc 0c78 e1ba
00000210: 0aeb 2f3b 5c35 a0bc c1f0 673c db16 ca3c
00000220: 81b5 ba3c eb0e dabc f149 e63c cd51 ce3c
00000230: 2fff f0bb 2f44 5b3c a066 fd3c 78b2 e3bc
00000240: cc9e 9abb f679 03bd 79f9 513c 0f75 dd3c
00000250: b0dc 8abc 3927 d63b ee8f 52bc 3a64 093c
00000260: 6257 053b afed a6bc a20d 75bc 66c0 4ebc
00000270: 181e 293c 3a0a ab3b 6653 31bb f9d5 7cbc
00000280: 4293 cd3c 074c db3c 2663 043d c3ae ac3b
00000290: ace3 fa3c 1490 e73c 1f5d e9bc a3b4 ff3c
000002a0: da90 eb3c 711b c03c baa4 ed3c cd44 083a
000002b0: a7e0 92bc 7cab 8ebc 05c3 82bc 910f fc3c
000002c0: 3643 93bc 0625 8cbc 16c5 cebc 5f94 d43c
000002d0: 5cbd abbc 2dfe 363c 3cd8 7d3b 38b6 17bc
000002e0: 348c 06bd 8124 703c 8ef9 833c 2ae8 c2bc
000002f0: 6618 07bc 8f09 223c 736f e0bc 6b77 93bc
00000300: 2ab2 343a 3310 fc3c e433 b4bc 62ff e43c
00000310: 92d1 dabc ff14 c1bc abc3 633b ee68 af3c
00000320: ba8e dd3c e769 89bc 128c 583c 6c73 cc3b
00000330: d308 dc3b 4af6 fc3c fbc9 b7bc 208e 2a3c
00000340: 5fe4 70ba 58d6 a83b 6ed8 cbbc f172 ab3c
00000350: 5ac9 f2bb 8d23 563c 5bfe c23b 98d3 c7bc
00000360: 008c c53c eb31 c2bb 8338 6c3c 5b35 cb3c
00000370: 1a3c 93bb ac5f d83b 48a2 023d 2691 39bb
00000380: 3b5f 03bd 21e2 de3c d6f8 e43b 96a4 36bc
00000390: 7097 12bc aba1 a1bc 03a4 ccba 3ea8 c73b
000003a0: a7d5 b03c 7802 1dbc f5db 59bc 1732 16bc
000003b0: 4efc b6bc 9072 033c ecf5 d33c 7980 033c
000003c0: 1425 c33b ed13 1d3a 1e77 e33c 216e 98bc
000003d0: 5e1b a0bc 9077 fabb 983c f53c bca2 e4bb
000003e0: 980d da3b 1075 803b e202 debc 6ee3 ba3c
000003f0: 0f8c 083d cda6 9c3c 1f6b aa3a e731 30bc

fc1.bias f4 [16]
0.020985149 -0.02736268 -0.03235264 -0.028268311 0.005033157 0.031286724 0.0027217502 -0.028803436
-0.022754433 0.024580544 0.01131856 -0.004712404 0.024990048 -0.018236421 -0.032822203 -0.03239806
00000000: 0ce9 ab3c b327 e0bc 3484 04bd f292 e7bc
00000010: 2eed a43b 8226 003d 645f 323b 2ff5 ebbc
00000020: 8167 babc 235d c93c 7b71 393c 836a 9abb
00000030: eeb7 cc3c 8c64 95bc 9370 06bd d4b3 04bd

fc2.weight f4 [32, 16]
-0.2069768 0.15590927 -0.1432957 -0.21194959 -0.15526053 -0.229489 0.009601237 -0.08193588
-0.20951429 -0.047663122 0.20495734 -0.045700442 -0.026429214 -0.215792 -0.0015588105 -0.2350651
-0.05879285 0.2220369 0.059646495 0.13571376 -0.12432307 0.013426717 0.09330488 0.14805728
0.11925411 0.12567145 0.0098258555 -0.05796942 0.055322625 0.13395038 0.20409754 -0.05350799
-0.004242457 0.24292271 0.22536463 -0.060637318 -0.115692265 -0.22872362 0.20797963 -0.23023152
0.23634443 -0.1002087 0.07796037 0.11583236 -0.081032775 0.23616824 -0.02851053 -0.08062764
0.0011992563 -0.20830342 -0.143938 -0.04270436 -0.023694111 -0.12574077 -0.24756303 0.19219887
0.112835675 -0.2241602 -0.032434255 0.1745717 0.24753392 -0.04907304 0.23114088 -0.058068782
0.19207461 0.087595396 -0.173107 0.013818001 -0.09420043 -0.011572744 -0.024321048 0.05731785
0.2308515 0.006381631 0.20685601 0.2178956 0.06974509 0.12233999 0.14400639 -0.120448686
-0.018155783 0.08891409 -0.013461149 -0.07327009 -0.24507408 -0.0929957 -0.019962985 -0.21758413
-0.15620667 -0.056393743 0.22002861 -0.09470627 0.14773546 0.11951357 -0.10364443 -0.16122931
0.21617903 -0.17222813 0.21274623 -0.0023086753 -0.07709741 -0.1677035 -0.11441374 0.23306608
-0.018132895 0.016608328 0.02202493 0.16652068 -0.15179127 0.19851917 0.18411899 -0.06923279
0.06415684 0.13353106 0.053915296 0.1492246 -0.03834007 -0.108622566 -0.01701232 -0.1517387
-0.076002896 0.08243996 0.084982514 -0.18803862 0.18704987 0.07889575 0.22915193 -0.06946491
-0.19986254 -0.15505281 -0.08698641 -0.11111211 0.06894189 0.21730259 0.025236761 -0.019729942
-0.07871941 -0.102062136 -0.1134758 -0.13521053 -0.22491553 0.24855444 0.013342202 0.22044618
-0.15107024 -0.2008242 -0.0827575 -0.0849857 0.043965578 -0.0467319 0.077679776 0.13394994
0.14477953 0.22996497 -0.2462922 0.20109457 -0.04713753 -0.078853816 -0.12367463 -0.08347273
0.23641925 -0.08361797 -0.056415696 0.12464116 0.14815435 -0.23396355 0.04118798 0.23367964
-0.08763242 -0.06857452 -0.14061353 -0.18869546 -0.04382181 0.079915464 0.11802226 -0.22490507
0.08513185 0.06593449 -0.13234168 0.017291231 0.048088588 -0.077270195 0.19849494 0.11815128
0.07212612 0.024301589 -0.14993498 0.20199269 -0.087701656 0.061981976 -0.20939137 -0.038891576
-0.20012908 0.09255704 -0.009914667 0.113552354 0.02900797 -0.2027003 0.16543518 -0.09811754
-0.05175525 0.17254257 -0.028508216 0.046884917 0.15871473 0.13846967 -0.24918239 0.0887402
-0.2160506 -0.13795984 -0.13421687 -0.17909476 0.18757308 0.16739173 0.17473617 0.09552786
-0.04846394 -0.20668912 -0.06973681 -0.098695174 -0.035809565 0.11757302 -0.08028284 -0.21903491
0.1318241 -0.16777335 0.17846833 -0.0040098587 0.05020869 -0.24112004 0.08202725 0.08961752
-0.13269472 -0.23975775 -0.24037454 -0.09895864 0.021589274 0.16901323 0.22093503 0.004838613
0.07694957 -0.1866044 -0.016209163 0.102061205 0.16494003 -0.14182949 0.013682869 -0.020970779
0.14486438 0.02707839 0.106112 0.17581895 0.017110215 -0.028060436 0.18820025 0.04879992
00000000: baf1 53be aea6 1f3e 1cbc 12be 5009 59be
00000010: 9efc 1ebe 2aff 6abe 824e 1d3c 00ce a7bd
00000020: ea8a 56be 683a 43bd 56e0 513e 6330 3bbd
00000030: 1482 d8bc 94f8 5cbe 0051 ccba e8b4 70be
00000040: c5d0 70bd a45d 633e e24f 743d 8cf8 0a3e
00000050: 189d febd bcfb 5b3c a116 bf3d 549c 173e
00000060: 803b f43d 04b0 003e a0fc 203c 5871 6dbd
00000070: fa99 623d 4a2a 093e f2fe 503e 322b 5bbd
00000080: 4f04 8bbb bbc0 783e fcc5 663e d65e 78bd
00000090: 11f0 ecbd 8636 6abe 9df8 543e d0c1 6bbe
000000a0: 4604 723e 383a cdbd b0a9 9f3d 8439 ed3d
000000b0: 83f4 a5bd 16d6 713e ea8e e9bc 1b20 a5bd
000000c0: 5d30 9d3a 7e4d 55be 7c64 13be c4ea 2ebd
000000d0: 271a c2bc 30c2 00be 2a81 7dbe c8cf 443e
000000e0: 6416 e73d 408a 65be c8d9 04bd ecc2 323e
000000f0: 8879 7d3e d000 49bd 32b0 6c3e 88d9 6dbd
00000100: 35af 443e 3765 b33d f642 31be e664 623c
00000110: 28ec c0bd 9b9b 3dbc ef3c c7bc 1fc6 6a3d
00000120: 5664 6c3e 001d d13b 10d2 533e 0620 5f3e
00000130: 84d6 8e3d 648d fa3d 6976 133e cdad f6bd
00000140: 70bb 94bc 9718 b63d 278c 5cbc a10e 96bd
00000150: b3f4 7abe 8874 bebd 6a89 a3bc 60ce 5ebe
00000160: a4f4 1fbe 20fd 66bd 2e4f 613e 5cf5 c1bd
00000170: f747 173e 88c3 f43d 8843 d4bd 4c19 25be
00000180: 095e 5d3e 925c 30be 26da 593e 254d 17bb
00000190: 3fe5 9dbd 77ba 2bbe c051 eabd e0a8 6e3e
000001a0: 708b 94bc 300e 883c a06d b43c 6684 2a3e
000001b0: 2c6f 1bbe 9c48 4b3e b089 3c3e ecc9 8dbd
000001c0: a964 833d 5ebc 083e 49d6 5c3d 55ce 183e
000001d0: 7a0a 1dbd 8275 debd 6c5d 8bbc 6461 1bbe
000001e0: 68a7 9bbd 48d6 a83d 500b ae3d 328d 40be
000001f0: 008a 3f3e 1894 a13d cea6 6a3e 9e43 8ebd
00000200: c4a8 4cbe 2ac6 1ebe ee25 b2bd bf8e e3bd
00000210: 6831 8d3d 9284 5e3e 53bd ce3c b0a0 a1bc
00000220: a437 a1bd f405 d1bd 0066 e8bd a174 0abe
00000230: 4250 66be 0e85 7e3e 4099 5a3c a5bc 613e
00000240: 28b2 1abe dca4 4dbe c47c a9bd fc0c aebd
00000250: 4015 343d f369 3fbd 9316 9f3d 2c2a 093e
00000260: 1641 143e f07b 6b3e 0634 7cbe bceb 4d3e
00000270: 4813 41bd 1c7e a1bd 2049 fdbd c0f3 aabd
00000280: e317 723e e63f abbd 2514 67bd dd43 ff3d
00000290: c6b5 173e 2494 6fbe bab4 283d b749 6f3e
000002a0: a078 b3bd cc70 8cbd fefc 0fbe 6239 41be
000002b0: 807e 33bd b8aa a33d a8b5 f13d 844d 66be
000002c0: 9b59 ae3d a908 873d 9484 07be 57a6 8d3c
000002d0: 8af8 443d d63f 9ebd 4242 4b3e 4cf9 f13d
000002e0: dcb6 933d 2014 c73c 8e88 19be 2cd7 4e3e
000002f0: ed9c b3bd d0e0 7d3d b16a 56be c64c 1fbd
00000300: a3ee 4cbe 8c8e bd3d 2171 22bc 238e e83d
00000310: 1fa2 ed3c ab90 4fbe d767 293e d9f1 c8bd
00000320: 50fd 53bd 00af 303e 108a e9bc 660a 403d
00000330: 1d86 223e feca 0d3e ab29 7fbe 6cbd b53d
00000340: 5e3c 5dbe 5845 0dbe 2670 09be 9e64 37be
00000350: 2813 403e bd68 2b3e 0aee 323e 1ca4 c33d
00000360: 2082 46bd 50a6 53be 2cd2 8ebd b220 cabd
00000370: 0dad 12bd 20ca f03d 546b a4bd b04a 60be
00000380: e6fc 063e c7cc 2bbe 67c0 363e 2265 83bb
00000390: a1a7 4d3d 2ce8 76be e7fd a73d 6489 b73d
000003a0: 20e1 07be 0e83 75be be24 76be d4aa cabd
000003b0: fddb b03c ce11 2d3e cb3c 623e 3a8d 9e3b
000003c0: bc97 9d3d 3915 3fbe 14c9 84bc 7705 d13d
000003d0: 0ae6 283e c03b 11be 1d2e 603c e9ca abbc
000003e0: 5457 143e 80d3 dd3c 4051 d93d e209 343e
000003f0: b92a 8c3c 00df e5bc 91b7 403e 6de2 473d

fc2.bias f4 [32]
0.24153192 0.22893837 0.24743651 0.22589897 0.18654597 0.15442814 0.19573247 0.2014148
0.097775094 -0.20673512 -0.19829962 0.14063658 0.212115 0.062663645 0.12958759 -0.058776855
0.036914654 -0.20942104 0.06958019 -0.019522052 0.14227714 0.1434472 0.07442265 0.18148717
0.005068349 0.16920902 -0.11691927 -0.24415073 0.017206935 -0.22438587 0.06431337 -0.08624727
00000000: 2554 773e d26e 6a3e ff5f 7d3e 0f52 673e
00000010: e805 3f3e 6922 1e3e 186e 483e ae3f 4e3e
00000020: 4f3e c83d 5fb2 53be 0e0f 4bbe 0903 103e
00000030: ad34 593e cc55 803d 9cb2 043e 00c0 70bd
00000040: d233 173d 7872 56be 0f80 8e3d b6ec 9fbc
00000050: 19b1 113e d3e3 123e e76a 983d c6d7 393e
00000060: 6514 a63b 2145 2d3e 5f73 efbd a602 7abe
00000070: 8ff5 8c3c 69c5 65be bab6 833d 69a2 b0bd

fc3.weight f4 [64, 32]
0.14385588 -0.07717319 0.13642842 0.17290089 -0.07652453 -0.09942181 -0.023311537 0.044371262
0.16652946 0.0010728457 0.016980903 0.08863988 0.16718125 0.01983162 -0.11143226 -0.013464565
0.17177442 0.07217987 -0.06755984 -0.08848175 0.17425352 0.019165797 0.15448001 0.160038
0.13208777 0.020306583 -0.17507097 -0.046007082 0.06663318 0.07361611 0.020204652 0.1408887
0.12766531 0.019823253 0.003396623 -0.0776594 0.16986471 0.13215941 -0.15134825 -0.094610065
0.057477638 -0.06800826 0.042334404 -0.07346832 0.08802405 0.030153915 0.046340566 -0.030101918
0.03953208 0.061098017 0.09860256 -0.16740297 0.12460915 -0.023256198 0.14418042 0.16332781
0.002654016 0.13505886 0.031727966 0.043313656 -0.016587319 0.037404418 -0.1152972 0.014481755
-0.055122666 0.16051072 0.047940757 -0.13257629 -0.04933286 0.054158933 -0.12833892 0.053557266
-0.13512662 0.040769212 0.018996255 -0.07151137 -0.04397801 0.15414251 0.012840194 0.14507854
0.020303875 -0.06842852 -0.020452783 0.13788207 -0.061806235 -0.14311016 -0.1728095 0.15138754
-0.17633666 0.14431894 -0.17107764 -0.17002042 0.07536118 -0.12453032 -0.13348298 0.0944243
0.044153724 0.026958313 0.058196187 -0.05104497 -0.15967968 0.055905156 0.026844589 -0.0009719859
-0.12925845 0.05588765 -0.1314806 0.16979374 0.097361125 -0.031279135 -0.092219755 0.012981299
0.09649303 0.1622515 -0.0025212986 -0.16090235 -0.059804056 -0.08485021 -0.011797661 0.14363527
0.017041484 0.018566882 0.08194017 0.021347359 0.16603984 -0.04148446 -0.16468944 -0.09821884
0.15473118 0.061166342 -0.107750036 0.17470784 -0.03498189 -0.054521576 0.15711349 0.016138732
0.10343029 -0.0042547197 0.16588141 0.15627496 0.16208246 0.015340441 -0.14897844 0.16768181
-0.04706945 -0.09497556 -0.04402704 -0.1175318 -0.03387535 -0.09785156 0.018773403 -0.16228777
0.10552744 0.12583812 0.034501795 -0.15533745 0.07924338 -0.040359598 0.17111218 0.061778944
0.018230503 -0.026078405 0.09384654 -0.13082446 -0.07321753 0.1487431 0.08213795 -0.006912242
-0.10971129 -0.016296605 -0.022291938 -0.09121202 -0.06018516 -0.15898004 0.1298432 0.13282053
0.13518965 0.14584687 -0.15912512 0.13760324 0.076541275 0.05717721 -0.016139654 0.08695233
0.15234396 -0.068393394 0.03710679 -0.07074565 -0.07826355 0.12997288 -0.1765442 0.008438747
-0.03843137 0.13884561 0.12843618 -0.13339481 -0.022932857 0.011297941 0.058414403 0.160999
-0.14453307 0.12581684 -0.07989864 -0.08716967 -0.031323507 -0.062203538 -0.16756067 0.16327289
0.0368326 0.094957255 -0.05064773 -0.08167298 0.13765728 0.034236986 -0.06479397 -0.15553841
0.098411515 -0.12747388 0.04933701 -0.006433333 0.054535344 -0.08459464 -0.15974768 0.018660724
-0.09022476 -0.15184212 0.13059108 -0.10005913 -0.07751506 -0.046801277 -0.049511835 -0.10829996
0.15917388 0.14265494 0.06924486 0.0784882 0.0113856895 0.08272772 -0.07185632 0.0785582
0.16797328 -0.041357763 -0.1354248 -0.09835992 -0.12380126 -0.16787831 0.06750228 0.15918025
0.14325842 0.056300364 -0.019562082 0.16861714 -0.07171369 0.093811266 0.17233373 0.019271435
00000000: f54e 133e fa0c 9ebd e4b3 0b3e ee0c 313e
00000010: e5b8 9cbd a99d cbbd d6f7 bebc a4be 353d
00000020: b386 2a3e ba9e 8c3a 891b 8b3c d388 b53d
00000030: 9031 2b3e ec75 a23c 9936 e4bd 7b9a 5cbc
00000040: a2e5 2f3e 0ad3 933d d05c 8abd eb35 b5bd
00000050: 846f 323e 9701 9d3c 0230 1e3e 00e1 233e
00000060: 0442 073e fe59 a63c ce45 33be ec71 3cbd
00000070: fa76 883d 0bc4 963d 3a84 a53c 2145 103e
00000080: b2ba 023e 6064 a23c e199 5e3b e40b 9fbd
00000090: 04f1 2d3e cc54 073e 09fb 1abe ecc2 c1bd
000000a0: ac6d 6b3d ea47 8bbd d766 2d3d 8f76 96bd
000000b0: f445 b43d 5805 f73c 9bcf 3d3d 4c98 f6bc
000000c0: 64ec 213d ea41 7a3d 24f0 c93d af6b 2bbe
000000d0: 1533 ff3d c883 bebc 08a4 133e 683f 273e
000000e0: 00ef 2d3b df4c 0a3e 2ff5 013d a969 313d
000000f0: 21e2 87bc 6035 193d f020 ecbd e244 6d3c
00000100: 4ec8 61bd ec5c 243e 875d 443d 14c2 07be
00000110: 4111 4abd c2d5 5d3d 476b 03be dd5e 5b3d
00000120: a25e 0abe 9efd 263d 099e 9b3c 8e74 92bd
00000130: 4922 34bd 89d7 1d3e ad5f 523c 788f 143e
00000140: 5054 a63c 4024 8cbd 988c a7bc f530 0d3e
00000150: 8928 7dbd 788b 12be f9f4 30be 5605 1b3e
00000160: 9991 34be 58c8 133e fa2e 2fbe d519 2ebe
00000170: f656 9a3d c109 ffbd c3af 08be 8761 c13d
00000180: 89da 343d aed7 dc3c 205f 6e3d 8814 51bd
00000190: 1283 23be cefc 643d 2fe9 db3c dfcc 7eba
000001a0: 545c 04be 73ea 643d daa2 06be 69de 2d3e
000001b0: 4565 c73d 8d1e 00bd b6dd bcbd 84af 543c
000001c0: 239e c53d 4225 263e 5f3c 25bb 96c3 24be
000001d0: 19f5 74bd f2c5 adbd fa4a 41bc 2015 133e
000001e0: 959a 8b3c 9319 983c 3fd0 a73d a8e0 ae3c
000001f0: 5906 2a3e 9ceb 29bd 59a4 28be f626 c9bd
00000200: da71 1e3e 8f89 7a3d 0dac dcbd 9de6 323e
00000210: 2c49 0fbd 0452 5fbd 5ce2 203e 6035 843c
00000220: 43d3 d33d 2d6b 8bbb d1dc 293e 8b06 203e
00000230: f2f8 253e 7956 7b3c ce8d 18be c8b4 2b3e
00000240: e5cb 40bd 8c82 c2bd b355 34bd 83b4 f0bd
00000250: e1c0 0abd 6666 c8bd aeca 993c c42e 26be
00000260: c51e d83d b5db 003e c151 0d3d c810 1fbe
00000270: 5a4a a23d 1b50 25bd 0838 2f3e eb0b 7d3d
00000280: 2358 953c 61a2 d5bc 9d32 c03d d9f6 05be
00000290: 13f3 95bd 1c50 183e f137 a83d 1780 e2bb
000002a0: 50b0 e0bd 7580 85bc 959d b6bc 5ecd babd
000002b0: b784 76bd aacb 22be 9ef5 043e 1b02 083e
000002c0: 286f 0a3e e258 153e b2f1 22be dde7 0c3e
000002d0: acc1 9c3d a632 6a3d 4f37 84bc 1014 b23d
000002e0: 0e00 1c3e d611 8cbd 4afd 173d 18e3 90bd
000002f0: a448 a0bd 9c17 053e 01c8 34be ac42 0a3c
00000300: 366a 1dbd 8b2d 0e3e c684 033e a698 08be
00000310: b0dd bbbc 001b 393c f143 6f3d ecdc 243e
00000320: 7a00 14be 21d6 003e e6a1 a3bd 0386 b2bd
00000330: 144d 00bd 23c9 7ebd 0695 2bbe 0231 273e
00000340: c8dd 163d f378 c23d fe73 4fbd 2a44 a7bd
00000350: 08f6 0c3e 153c 0c3d b3b2 84bd 7645 1fbe
00000360: fa8b c93d 8388 02be 9b15 4a3d b5ce d2bb
00000370: 7460 5f3d f43f adbd e594 23be 60de 983c
00000380: c2c7 b8bd 807c 1bbe abb9 053e cdeb ccbd
00000390: 37c0 9ebd b2b2 3fbd eccc 4abd 5fcc ddbd
000003a0: 7afe 223e 2314 123e 40d0 8d3d 6cbe a03d
000003b0: 0b8b 3a3c 276d a93d 6829 93bd 1fe3 a03d
000003c0: 3001 2c3e c266 29bd ccac 0abe ed70 c9bd
000003d0: 848b fdbd 4be8 2bbe a33e 8a3d 2600 233e
000003e0: 56b2 123e 369b 663d a940 a0bc f9a9 2c3e
000003f0: a1de 92bd 1f20 c03d 4178 303e 21df 9d3c

fc3.bias f4 [64]
0.008720148 0.11357877 0.11397501 -0.1033213 -0.043770663 0.024021003 0.09982734 0.13627492
-0.12353408 -0.06897345 0.081240185 0.051090896 -0.038878415 -0.049321704 0.10753091 0.030733375
-0.17114271 -0.06793141 -0.031564012 0.06011177 -0.13848108 -0.06462217 0.110998 0.0034341642
-0.1628557 0.056767505 0.04929282 0.026857292 -0.12998137 -0.039023664 0.14420956 -0.11588573
-0.1427866 -0.013728933 -0.1024037 -0.1470774 -0.05606898 0.1082568 -0.05647354 -0.07192795
-0.06281016 0.095952384 0.02720072 0.039672486 0.09465179 0.11917679 -0.023201346 0.059875175
0.10880922 0.091325134 0.09680095 -0.161032 0.08421347 -0.07225877 -0.13452052 -0.096260644
-0.029387964 -0.037360273 -0.057746746 -0.0054121744 0.10746319 -0.09151442 -0.16321856 -0.16891128
00000000: f4de 0e3c fc9b e83d bb6b e93d 1e9a d3bd
00000010: de48 33bd b2c7 c43c 4772 cc3d a78b 0b3e
00000020: 70ff fcbd f441 8dbd 4161 a63d b044 513d
00000030: f93e 1fbd 8e05 4abd 2a39 dc3d 8fc4 fb3c
00000040: 0940 2fbe a01f 8bbd 4449 01bd c237 763d
00000050: fccd 0dbe a158 84bd eb52 e33d b70f 613b
00000060: a5c3 26be 0b85 683d 45e7 493d d303 dc3c
00000070: d619 05be 47d7 1fbd acab 133e 7f55 edbd
00000080: a736 12be 52ef 60bc 08b9 d1bd 759b 16be
00000090: 96a8 65bd beb5 dd3d cc50 67bd f64e 93bd
000000a0: 9da2 80bd af82 c43d 0bd4 de3c 9e7f 223d
000000b0: ccd8 c13d f612 f43d c010 bebc ac3f 753d
000000c0: 5ed7 de3d ac08 bb3d 943f c63d 93e5 24be
000000d0: 1d78 ac3d 68fc 93bd bfbf 09be 4d24 c5bd
000000e0: 07bf f0bc 1607 19bd da87 6cbd 9c58 b1bb
000000f0: a915 dc3d ea6b bbbd c422 27be 14f7 2cbe

fc4.weight f4 [128, 64]
0.11638604 0.033582475 -0.057455618 -0.10670759 0.06625598 0.048196774 0.028842522 0.10656823
0.12482238 -0.042863067 -0.07759602 -0.08533154 -0.033683587 0.0716166 0.05569421 -0.12277494
0.0077137267 0.066571064 0.08952207 0.10910613 0.091944225 -0.022100925 0.024726426 -0.102838926
0.042312063 -0.083509356 0.041129697 0.10838286 0.019603891 -0.022571145 -0.009420182 -0.01856441
-0.053379785 -0.024186112 -0.014923036 -0.024839258 -0.008776826 0.04015417 0.08042238 -0.06267824
-0.06293038 -0.10400133 -0.011900192 -0.10884122 0.026941456 0.016410295 0.031006137 0.048167676
0.04964558 -0.03700457 0.01996487 -2.3613959e-05 0.0075035966 -0.01138013 0.0619939 -0.0395649
-0.04404061 0.07289924 -0.029878542 -0.08337248 -0.027916174 -0.05737768 -0.10785994 0.08247956
-0.0004274994 -0.07801135 0.030054733 -0.11823122 -0.028192699 0.022902831 -0.07832438 0.024414703
-0.04355362 -0.044371247 -0.082388 -0.016636908 0.026193753 0.017514274 0.078207105 -0.027932018
0.101109564 -0.09827119 0.042684242 0.06488107 -0.0467169 -0.057072148 0.032082587 -0.023368806
-0.06759767 0.102758735 -0.007637739 -0.047079206 0.02829051 -0.06470832 -0.091209695 0.046150804
-0.045447797 -0.10534637 0.016714662 -0.08963674 -0.121671736 -0.07192834 -0.081002995 0.047897518
-0.0013979971 -0.040903926 0.023720086 0.102027625 -0.018499404 -0.059663758 0.003205493 -0.10575852
-0.040600747 -0.043831214 0.060601085 -0.024920523 -0.06650829 0.094908416 0.102636084 -0.0011098981
0.003262177 -0.084643826 0.04929273 -0.032262027 -0.07898489 -0.105225995 0.10112254 0.11569938
-0.011299677 -0.08783501 -0.101672664 0.024192344 0.023690607 -0.046809975 0.090477206 0.08981211
0.11797966 0.0955237 0.10846196 0.029601594 0.07595435 -0.090198144 -0.07044122 0.124263994
0.0808667 0.047581833 -0.059423435 -0.08781742 0.038917378 -0.034160435 0.070198126 0.11013016
0.0019370348 0.059946686 0.0031357075 0.060359254 0.054958194 -0.016687594 -0.10458615 -0.0011150542
-0.03948302 0.050578725 -0.037842985 0.003958886 -0.045311913 -0.12235151 0.048713174 0.04740288
0.08542539 -0.072767824 0.11094239 -0.02228084 0.07236898 0.017490998 0.03718813 0.0999298
-0.11604799 -0.010886749 0.12381821 -0.10945792 -0.037124235 0.052875422 -0.015922926 0.036046248
0.024989346 0.078668 0.07857596 -0.04513125 -0.06505392 -0.07601964 0.04904833 0.11220196
0.06892548 0.093457706 -0.107438214 0.122539595 -0.06324304 0.009605054 -0.07467922 0.0076058214
-0.006711249 -0.003568841 0.06579445 -0.04413996 0.09053383 -0.05342276 0.08122047 0.12054634
-0.07141652 -0.08468321 0.08645703 -0.07181409 -0.08648004 0.054127887 -0.01292231 -0.014416334
-0.0882514 -0.0032605082 0.022610875 0.027034165 -0.10981613 -0.028175928 -0.10083559 0.069975294
-0.044075295 -0.026305046 0.113702066 0.09413864 0.098221555 -0.014307814 0.06556422 -0.033985324
0.11826158 -0.038450368 0.11504556 -0.0018941789 0.00827744 0.083072916 0.112024106 -0.016411286
0.09481302 0.01438552 0.11814037 0.057825666 -0.082580805 0.01739376 -0.07367794 0.026775172
-0.06543948 0.119279824 0.04430936 -0.08093604 0.024265835 0.12056928 -0.049024466 -0.027291866
00000000: ce5b ee3d c78d 093d 9556 6bbd 8289 dabd
00000010: 37b1 873d fb69 453d 2747 ec3c 7240 da3d
00000020: e0a2 ff3d 2f91 2fbd aaea 9ebd 4dc2 aebd
00000030: cdf7 09bd b9ab 923d 9d1f 643d 6e71 fbbd
00000040: 6ec3 fc3b 6956 883d 5957 b73d 0973 df3d
00000050: 414d bc3d 000d b5bc 138f ca3c 379d d2bd
00000060: 6a4f 2d3d f406 abbd 9d77 283d d5f7 dd3d
00000070: 5798 a03c 1fe7 b8bc 1b57 1abc 6414 98bc
00000080: c3a4 5abd f421 c6bc c07f 74bc b37b cbbc
00000090: adcc 0fbc b378 243d 7db4 a43d 735d 80bd
000000a0: a5e1 80bd a6fe d4bd 06f9 42bc 25e8 debd
000000b0: 54b4 dc3c e26e 863c 9500 fe3c 784b 453d
000000c0: 2a59 4b3d 1b92 17bd 5e8d a33c 9716 c6b7
000000d0: bbe0 f53b ba73 3abc 51ed 7d3d ce0e 22bd
000000e0: ed63 34bd 324c 953d d8c3 f4bc 31bf aabd
000000f0: 76b0 e4bc dc04 6bbd ace5 dcbd 0beb a83d
00000100: 0022 e0b9 6ac4 9fbd 5835 f63c 3623 f2bd
00000110: 60f4 e6bc b89e bb3c 8868 a0bd 5801 c83c
00000120: 4865 32bd a0be 35bd 0abb a8bd 204a 88bc
00000130: 4894 d63c 187a 8f3c 0c2b a03d b0d1 e4bc
00000140: 8812 cf3d 6842 c9bd acd5 2e3d 5ee0 843d
00000150: 385a 3fbd 7cc4 69bd 0869 033d f06f bfbc
00000160: a670 8abd 2c73 d23d 0046 fabb 20d6 40bd
00000170: 80c1 e73c cc85 84bd 26cc babd a008 3d3d
00000180: 7827 3abd d6bf d7bd 30ed 883c 7893 b7bd
00000190: 082f f9bd 2a4f 93bd e6e4 a5bd 3030 443d
000001a0: 003d b7ba e08a 27bd a050 c23c dcf3 d03d
000001b0: 108c 97bc fc61 74bd 4013 523b ec97 d8bd
000001c0: f84c 26bd 5c88 33bd d838 783d 2026 ccbc
000001d0: 8035 88bd 585f c23d de32 d23d 007a 91ba
000001e0: 40ca 553b be59 adbd 2ce7 493d 3025 04bd
000001f0: d4c2 a1bd ba80 d7bd 5619 cf3d ccf3 ec3d
00000200: 4822 39bc d7e2 b3bd c239 d0bd 062f c63c
00000210: ce12 c23c d1bb 3fbd 1d4c b93d 69ef b73d
00000220: 529f f13d eea1 c33d 4e21 de3d 0b7f f23c
00000230: f48d 9b3d ceb9 b8bd 7d43 90bd 1f7e fe3d
00000240: 719d a53d 2be5 423d fd65 73bd 9fd9 b3bd
00000250: d467 1f3d d0eb 0bbd 09c4 8f3d ec8b e13d
00000260: 1ae4 fd3a a88a 753d 7180 4d3b 443b 773d
00000270: d81b 613d 6cb4 88bc 4331 d6bd 0327 92ba
00000280: f2b8 21bd a32b 4f3d 3f01 1bbd 8bb9 813b
00000290: fc98 39bd 6e93 fabd 7787 473d 8629 423d
000002a0: 82f3 ae3d 4c07 95bd c435 e33d 4f86 b6bc
000002b0: 3036 943d 4849 8f3c 9552 183d ffa7 cc3d
000002c0: 92aa edbd 565e 32bc 6794 fd3d 792b e0bd
000002d0: 950f 18bd e693 583d cc70 82bc 3ba5 133d
000002e0: 75b6 cc3c b01c a13d 6fec a03d 8cdb 38bd
000002f0: fd3a 85bd 2fb0 9bbd e7e6 483d 24ca e53d
00000300: cd28 8d3d c166 bf3d 9108 dcbd 0af6 fa3d
00000310: 9185 81bd 845e 1d3c 6bf1 98bd 413a f93b
00000320: 09ea dbbb 37e3 69bb 3ebf 863d 1acc 34bd
00000330: cd69 b93d d3d1 5abd eb56 a63d 00e1 f63d
00000340: d342 92bd 646e adbd 6210 b13d 4413 93bd
00000350: 721c b1bd 34b5 5d3d 19b8 53bc 7d32 6cbc
00000360: 26bd b4bd 40ae 55bb 713a b93c c176 dd3c
00000370: 47e7 e0bd 34d1 e6bc e482 cebd 354f 8f3d
00000380: 4c88 34bd ae7d d7bc a1dc e83d c2cb c03d
00000390: 6228 c93d 526b 6abc 8946 863d 3234 0bbd
000003a0: 2133 f23d 227e 1dbd 029d eb3d 1946 f8ba
000003b0: 1a9e 073c 2222 aa3d e56c e53d f670 86bc
000003c0: 542d c23d 3eb1 6b3c 94f3 f13d 9bda 6c3d
000003d0: 2020 a9bd 5c7d 8e3c 76e4 96bd 9b57 db3c
000003e0: 2205 86bd fb48 f43d bb7d 353d cbc1 a5bd
000003f0: 25c9 c63c 07ed f63d e1cd 48bd 3193 dfbc

fc4.bias f4 [128]
0.038105544 0.095325366 0.009768782 0.10266892 -0.050156012 0.11243773 0.05834389 0.026024716
0.09454622 -0.11422006 0.10299813 -0.013020696 -0.06574861 0.04302326 -0.0019659996 0.080137625
0.07953723 0.11038853 -0.011050257 -0.016566252 0.12459399 0.07765755 0.03942073 0.010223544
-0.12468581 -0.10689556 0.09426215 -0.05838719 -0.11907168 -0.0498266 0.004648672 0.013939477
-0.08093194 -0.12376855 -0.06518236 -0.022206996 -0.115780994 -0.09946052 -0.11247258 -0.06317904
0.00789352 0.10945534 0.03915875 0.083181545 -0.0796854 -0.10773258 0.07566525 -0.05077434
-0.075445324 0.044251185 -0.0024528205 0.077181116 0.035658576 -0.032961447 -0.050691415 -0.05873965
-0.03655744 0.014654041 0.060242902 0.034464158 0.028017767 0.08191214 -0.10072933 0.084383674
-0.0355789 0.035995368 0.046661314 0.009009827 -0.047102615 -0.01597397 0.030935023 0.018557856
-0.049225993 0.033799063 0.039160807 -0.029819112 -0.03766601 -0.047690365 0.028879577 0.11255577
0.10635673 0.11329277 0.016402967 -0.009746766 -0.08880319 -0.08013485 0.10461751 0.09888192
-0.09342949 0.08817981 -0.028529286 -0.031750415 -0.038050998 0.031336717 0.119060226 0.059631128
0.1113188 0.105520025 0.112275355 0.080846965 0.076280996 -0.079431094 -0.04090523 -0.034980275
0.112139635 0.09157309 0.10580414 0.08798888 0.04589974 -0.039624725 0.022418277 0.019088684
0.097055055 -0.056662798 -0.0076216348 0.022400323 0.055621818 -0.10870863 0.04381958 -0.0034318012
0.10600972 -0.101720534 -0.07615829 -0.053969402 -0.03324821 0.104840696 -0.029611608 0.062050965
00000000: 8f14 1c3d f239 c33d 3e0d 203c 1544 d23d
00000010: 6470 4dbd c145 e63d 01fa 6e3d c931 d53c
00000020: 73a1 c13d 35ec e9bd aff0 d23d c254 55bc
00000030: 35a7 86bd 2839 303d 00d8 00bb 321f a43d
00000040: 6ae4 a23d 6213 e23d 230c 35bc f3b5 87bc
00000050: 222b ff3d ec0a 9f3d a277 213d a780 273c
00000060: 465b ffbd 0fec dabd 840c c13d 6827 6fbd
00000070: dadb f3bd fa16 4cbd e353 983b 6762 643c
00000080: a5bf a5bd 5e7a fdbd 547e 85bd 72eb b5bc
00000090: 961e edbd f5b1 cbbd 0658 e6bd 0364 81bd
000000a0: d353 013c 1f2a e03d ed64 203d 165b aa3d
000000b0: 1932 a3bd e6a2 dcbd 62f6 9a3d c1f8 4fbd
000000c0: 1483 9abd bb40 353d 80bf 20bb 2211 9e3d
000000d0: ba0e 123d 9502 07bd cda1 4fbd fd98 70bd
000000e0: 41bd 15bd 8117 703c 43c1 763d 4a2a 0d3d
000000f0: 8485 e53c 8dc1 a73d 2e4b cebd 59d1 ac3d
00000100: 2ebb 11bd e16f 133d ef1f 3f3d f49d 133c
00000110: acee 40bd d8db 82bc 726b fd3c a506 983c
00000120: 32a1 49bd e370 0a3d 1567 203d 3647 f4bc
00000130: ad47 1abd f956 43bd dd94 ec3c a483 e63d
00000140: 8fd1 d93d 0a06 e83d 845f 863c e6b0 1fbc
00000150: 72de b5bd be1d a4bd b541 d63d 9b82 ca3d
00000160: f657 bfbd 9e97 b43d 40b6 e9bc b90c 02bd
00000170: 5ddb 1bbd ee5a 003d d9d5 f33d c53f 743d
00000180: 1cfb e33d e21a d83d 9ff0 e53d 1893 a53d
00000190: 3639 9c3d c5ac a2bd 3e8c 27bd 7a47 0fbd
000001a0: 77a9 e53d ac8a bb3d d7af d83d 8433 b43d
000001b0: 5e01 3c3d 894d 22bd 89a6 b73c df5f 9c3c
000001c0: cdc4 c63d 4017 68bd e8be f9bb e280 b73c
000001d0: b4d3 633d a1a2 debd 297c 333d 12e8 60bb
000001e0: a01b d93d db52 d0bd e1f8 9bbd 050f 5dbd
000001f0: 462f 08bd b8b6 d63d 0b94 f2bc 2729 7e3d

fc5.weight f4 [64, 128]
-0.0113686845 0.08478626 0.08084432 -0.03071461 0.053761527 -0.003308494 0.010880086 0.03967442
0.066766575 -0.037253883 -0.019595243 0.0822605 -0.06084941 0.040796604 0.063591465 0.08502003
0.020677948 0.06960657 0.003991845 -0.01515282 0.012769324 -0.01139492 0.07733804 0.08761991
-0.018866679 0.065390825 0.0728532 0.034204524 -0.061911333 0.068932004 0.010686669 -0.017171621
-0.060891394 -0.007806622 -0.035139337 -0.0015873028 -0.060696736 -0.031183485 0.040566713 0.047588024
-0.085958354 0.033015206 0.08260669 0.03121618 0.0152940955 -0.07626434 0.01113315 0.022996603
-0.083290875 0.064915776 -0.05778155 -0.059979618 0.0762731 -0.08022007 0.011880241 -1.737701e-05
0.046810836 0.011274905 0.041209545 0.085628346 -0.05402545 -0.0076179816 0.056484655 -0.03272656
-0.06352087 0.0842544 0.029597647 0.055773698 -0.07662177 0.031251844 0.07760291 0.078177355
0.036944866 -0.045599513 -0.07791169 -0.087758735 0.07420334 -0.05926073 -0.056294274 -0.012214764
0.057248306 0.05116986 0.024605982 0.02804616 -0.08544637 -0.033851825 0.059274916 -0.008928841
0.012435646 0.08152231 -0.01913632 -0.015910348 -0.07675714 -0.06011264 -0.036359116 -0.0013819663
0.04625191 -0.0027758337 -0.026905628 -0.07921208 0.08370261 0.052904196 -0.0015648776 0.06719072
0.028882224 -0.038541168 -0.022982294 0.08356102 -0.054822616 -0.05208128 -0.01186641 0.06296246
0.076704934 0.06312454 -0.0386291 0.06719604 0.0050031557 -0.045526326 -0.024104029 -0.07722868
-0.048409145 0.04582758 -0.0073919278 -0.08721654 0.0775128 -0.050040454 0.006270347 0.021349916
0.041430935 0.083280146 -0.013411227 0.044797435 0.07244452 -0.056913856 0.053545773 -0.031848818
-0.08842633 0.026524767 -0.07136843 -0.05333897 -0.020135378 0.04700068 -0.019715313 0.04030789
0.06561778 -0.084313415 -0.036766376 -0.052822504 -0.03499952 0.030936994 0.045896392 -0.07631214
0.032061327 -0.068524964 -0.0069838446 0.054219015 0.063344344 -0.061128385 -0.0756512 -0.0630018
0.033233676 -0.06173078 -0.030971296 0.01041609 0.08068975 0.08732768 -0.058426246 0.06242308
-0.061543718 0.040678192 0.08472855 -0.059886925 -0.049495496 -0.05164375 -0.07571485 -0.076390624
0.037359778 -0.010050036 -0.062897384 -0.024944577 0.06954763 -0.060832694 0.023824595 -0.04069145
0.02777853 -0.039082464 0.023147427 -0.03045186 0.016405614 0.0824427 0.0024306297 -0.050672423
0.070147194 -0.05564999 0.06892931 0.069279306 -0.048969813 -0.032849688 -0.064197525 0.0007768274
0.076595314 -0.0864281 -0.03603479 0.00032392965 0.023886718 0.040145583 -0.07151742 -0.011608063
-0.04289498 -0.0556349 0.035048794 -0.08127939 -0.019298632 0.032312773 0.039052702 0.056333676
-0.08159922 0.0036419136 0.055263866 -0.011469733 0.082555845 0.009391222 0.012561799 -0.056320857
-0.023341497 -0.023324829 0.05234282 -0.07023859 0.078419946 0.04197103 -0.06336298 0.05330408
0.025556277 0.07386977 -0.011944675 0.0010111706 -0.001209162 -0.014921575 0.08197496 0.051166162
-0.02289964 0.05802822 -0.043172147 -0.0041174097 0.041301433 -0.03590004 -0.058894116 -0.06281996
0.06703815 0.08162269 -0.07117591 0.0016297017 0.0070230677 0.04262307 -0.038274325 0.06521526
00000000: b843 3abc 6ba4 ad3d b591 a53d 359d fbbc
00000010: 0c35 5c3d 52d3 58bb 6342 323c a581 223d
00000020: eabc 883d 8797 18bd 3486 a0bc 3178 a83d
00000030: 3b3d 79bd 571a 273d 3e3c 823d fb1e ae3d
00000040: cd64 a93c e48d 8e3d 06ce 823b 8943 78bc
00000050: 6d36 513c c2b1 3abc 6863 9e3d 1172 b33d
00000060: 4b8e 9abc a0eb 853d 0f34 953d 0b1a 0c3d
00000070: bd96 7dbd 392c 8d3d 2317 2f3c 80ab 8cbc
00000080: 4169 79bd b1ce ffbb 44ee 0fbd 0b0d d0ba
00000090: 249d 78bd 8274 ffbc 4829 263d a9eb 423d
000000a0: ef0a b0bd f43a 073d b22d a93d 13b9 ff3c
000000b0: 1694 7a3c 7a30 9cbd d167 363c 5f63 bc3c
000000c0: 6894 aabd 90f2 843d 59ac 6cbd 30ad 75bd
000000d0: 1235 9c3d 6c4a a4bd 58a5 423c d8c4 91b7
000000e0: b8bc 3f3d 61ba 383c 57cb 283d ea5d af3d
000000f0: ca49 5dbd 43a0 f9bb 745c 673d 490c 06bd
00000100: 3b17 82bd 928d ac3d c476 f23c f672 643d
00000110: e0eb 9cbd ef01 003d 46ee 9e3d 731b a03d
00000120: 8053 173d 8ec6 3abd 2a90 9fbd daba b3bd
00000130: ecf7 973d 61bb 72bd d394 66bd 6f20 48bc
00000140: 337d 6a3d 7d97 513d 7c92 c93c 0fc1 e53c
00000150: 82fe aebd 36a8 0abd 41ca 723d 464a 12bc
00000160: e1be 4b3c 2bf5 a63d c6c3 9cbc 6b56 82bc
00000170: d932 9dbd ac38 76bd 4ced 14bd 1823 b5ba
00000180: a572 3d3d c3ea 35bb 3169 dcbc f139 a2bd
00000190: 466c ab3d 12b2 583d 941c cdba 4a9b 893d
000001a0: 6a9a ec3c 58dd 1dbd 5d45 bcbc 0a22 ab3d
000001b0: ae8d 60bd 2e53 55bd 556b 42bc 76f2 803d
000001c0: 7a17 9d3d 7047 813d 8c39 1ebd 149e 893d
000001d0: 83f1 a33b d079 3abd d075 c5bc 122a 9ebd
000001e0: ab48 46bd b3b5 3b3d fc37 f2bb 969e b2bd
000001f0: 08bf 9e3d 38f7 4cbd 7c77 cd3b 05e6 ae3c
00000200: 7cb3 293d c88e aa3d c3ba 5bbc 847d 373d
00000210: cb5d 943d 811e 69bd d052 5b3d e873 02bd
00000220: dd18 b5bd 784a d93c 9d29 92bd f779 5abd
00000230: f3f2 a4bc c983 403d 0282 a1bc e319 253d
00000240: 9d62 863d 83ac acbd 5798 16bd 695c 58bd
00000250: a85b 0fbd 946f fd3c dbfd 3b3d 8a49 9cbd
00000260: bd52 033d d156 8cbd bcd8 e4bb c214 5e3d
00000270: aeba 813d c261 7abd 04ef 9abd 1607 81bd
00000280: 0920 083d 6ad9 7cbd 84b7 fdbc 3fa8 2a3c
00000290: ab40 a53d dbd8 b23d 5c50 6fbd 58af 7f3d
000002a0: 4415 7cbd 2d9e 263d 2986 ad3d fe4b 75bd
000002b0: cabb 4abd 6688 53bd 6310 9bbd b072 9cbd
000002c0: 9106 193d e8a8 24bc 58d0 80bd 9258 ccbc
000002d0: fd6e 8e3d b42b 79bd cc2b c33c 14ac 26bd
000002e0: cd8f e33c ef14 20bd ac9f bd3c 2e76 f9bc
000002f0: 1165 863c b8d7 a83d 334b 1f3b e38d 4fbd
00000300: 55a9 8f3d 3ef1 63bd cf2a 8d3d 4fe2 8d3d
00000310: 9294 48bd 658d 06bd fe79 83bd 01a4 4b3a
00000320: 01de 9c3d 3701 b1bd 3799 13bd 1ad5 a939
00000330: 14ae c33c b26f 243d ba77 92bd bf2f 3ebc
00000340: a6b2 2fbd 6ce1 63bd 538f 0f3d cf75 a6bd
00000350: 2a18 9ebc 665a 043d baf5 1f3d 24be 663d
00000360: 7e1d a7bd 2cad 6e3b 5d5c 623d 8ceb 3bbc
00000370: 0a13 a93d a4dd 193c 01d0 4d3c b3b0 66bd
00000380: ab36 bfbc b613 bfbc 6d65 563d 40d9 8fbd
00000390: a39a a03d d1e9 2b3d 73c4 81bd 6155 5a3d
000003a0: 665b d13c 0949 973d 99b3 43bc 4189 843a
000003b0: be7c 9eba 9f79 74bc 7de2 a73d 9c93 513d
000003c0: 0798 bbbc 00af 6d3d 47d5 30bd 56eb 86bb
000003d0: b12b 293d ec0b 13bd f53a 71bd c0a7 80bd
000003e0: 4c4b 893d cc29 a73d adc4 91bd b79b d53a
000003f0: c321 e63b 8795 2e3d 8ac5 1cbd 948f 853d

fc5.bias f4 [64]
-0.033350646 0.044427834 0.025445031 -0.02335386 0.053931862 -0.08307791 0.08786367 -0.014039717
-0.05634173 0.06287198 0.03256155 -0.057381947 -0.023538806 0.001126227 0.043956805 -0.046635482
0.04130352 0.086091325 -0.073234916 -0.06689333 -0.04668817 -0.028240504 -0.012804847 -0.06088245
0.02223628 0.043834463 -0.03164815 -0.014379587 0.0046838894 0.0015001652 -0.07068445 0.00369179
0.011516022 0.0052997903 0.001490825 -0.073200494 0.07794769 -0.006725163 0.031360198 0.028090637
0.00557705 0.038824514 -0.033194683 0.06810925 -0.086688586 -0.045715883 0.07662263 -0.08732311
0.06135387 -0.05931338 -0.0077248006 0.06328942 -0.020661732 -0.049882654 -0.004593616 0.07279449
-0.055128027 0.05482469 0.02653109 -0.062749006 -0.058845088 0.055129986 0.068893075 -0.05662065
00000000: b09a 08bd f6f9 353d 1972 d03c 9850 bfbc
00000010: a8e7 5c3d c024 aabd def1 b33d d706 66bc
00000020: 96c6 66bd 06c3 803d 435f 053d 5509 6bbd
00000030: 74d4 c0bc e89d 933a 0d0c 343d d904 3fbd
00000040: e12d 293d a650 b03d 30fc 95bd 5fff 88bd
00000050: 183c 3fbd a158 e7bc 6ccb 51bc e05f 79bd
00000060: dc28 b63c c48b 333d 7ea1 01bd 5c98 6bbc
00000070: 507b 993b 31a1 c43a 02c3 90bd f5f1 713b
00000080: b2ad 3c3c dda9 ad3b c967 c33a 24ea 95bd
00000090: 0aa3 9f3d c25e dcbb 8d73 003d 561e e63c
000000a0: b0bf b63b 7406 1f3d 26f7 07bd dd7c 8b3d
000000b0: c989 b1bd 9440 3bbd 53ec 9c3d 75d6 b2bd
000000c0: 324e 7b3d 96f2 72bd 5320 fdbb e29d 813d
000000d0: cb42 a9bc c151 4cbd 0b86 96bb 4715 953d
000000e0: edcd 61bd db8f 603d ba57 d93c 8d82 80bd
000000f0: 8c07 71bd fbcf 613d d017 8d3d 0eeb 67bd
