models/train_acc-CNN_2L_Drop_R400.pt (torch, 160099 bytes, 22 tensors)

conv1.weight f4 [32, 1, 1]
000000 8a af 74 3f 5c 07 8f be b2 fb 05 bf 39 a6 47 bf
       0.9558035 -0.27935302 -0.5233718 -0.7798801
000010 ad 4e cc 3e 31 a9 6f 3e ec 5e af 3d a0 8a d6 be
       0.39903775 0.23404385 0.08563027 -0.41902637
000020 57 37 9d be 23 b4 39 bf 98 7d 5d bf 2a b7 29 3f
       -0.30706283 -0.7254049 -0.86519766 0.6629511
000030 a9 bd 58 3f 0f 0b 98 3e 06 ad 4c 3f 3e 00 7b 3f
       0.846644 0.29695937 0.7995151 0.98047245
000040 e9 81 76 bf 77 83 ef 3e 03 3e 6b 3f 23 88 4a be
       -0.9629198 0.46779987 0.918915 -0.19778495
000050 8d 89 da be eb 13 07 3f 9a 1b 56 3f c2 04 54 3f
       -0.42683068 0.5276477 0.83635867 0.8281976
000060 ae 54 c3 be 4f 43 38 bf e4 31 18 3e c8 13 5e bf
       -0.38150543 -0.71977705 0.14862782 -0.86748934
000070 2f a2 6f bc ab 82 20 bf f8 22 51 bf 84 be 70 3f
       -0.01462607 -0.62699383 -0.81693983 0.94040704

conv1.bias f4 [32]
000000 d0 5e 23 3d 8e 5c 0f 3e 27 83 15 be a9 f2 eb 3e
       0.039885342 0.1400015 -0.14600812 0.46083573
000010 9a 26 53 bf bf f9 4b 3f a5 c8 5e 3c 3e f0 45 be
       -0.82480776 0.7967796 0.013597642 -0.19329926
000020 e1 fa 29 bf df e2 6c bf 85 58 f2 3e d9 93 4b 3f
       -0.66398436 -0.9253368 0.4733316 0.7952247
000030 66 88 91 be 3e 26 5d bf 91 3f 65 bf b0 f5 dc 3e
       -0.28424376 -0.8638648 -0.8955012 0.43156195
000040 c1 34 c5 3d a5 09 26 3f 8d 95 37 3c 44 1a b9 3e
       0.09629203 0.64858466 0.011205089 0.36152852
000050 1d b7 79 be d1 9f a8 be 95 2c fa 3e 96 f1 12 3f
       -0.24386258 -0.3293443 0.48862138 0.5739988
000060 6b 91 e0 3e 07 80 4b 3f e6 56 70 be b4 b2 72 bf
       0.43860945 0.7949223 -0.23470649 -0.9480393
000070 bc 78 10 3f d0 fc ea be 3a cb 49 3e 43 f8 3b be
       0.56434226 -0.45896006 0.19706431 -0.18356423

conv2.weight f4 [64, 32, 1]
000000 cd 0a 4e 3d 68 53 37 3d bf d9 b4 3c bc ab 0c be
       0.05030327 0.044757277 0.022076486 -0.13737386
000010 c4 88 1a 3e d9 3c 52 bc da fa a0 bd ac b8 bd 3a
       0.15091234 -0.01283189 -0.07860346 0.0014474592
000020 55 84 d3 bc b0 a7 f3 bd 4e 77 fb bd 82 55 93 bc
       -0.025819937 -0.11897218 -0.12278615 -0.01798511
000030 c6 4c 1f 3e 86 58 2d 3e ca 75 ed bc 6b 68 86 bd
       0.1555663 0.169283 -0.02898683 -0.06562885
000040 84 d2 0e 3e 42 d2 11 be 13 4c f0 bc f3 8d 81 bd
       0.13947493 -0.14240363 -0.02933315 -0.06325903
000050 fa c7 e4 bd 83 01 0b be 45 7b 4b 3d d3 10 e5 3d
       -0.11170955 -0.13574795 0.049678106 0.111848496
000060 d5 4a ea 3d b8 5f 91 bd e3 a4 ca b9 68 b7 fd 3d
       0.11440054 -0.07098335 -0.00038651293 0.123884976
000070 06 02 b3 bd 86 3d 87 3b 97 30 b2 3c 54 19 97 bd
       -0.0874062 0.004127207 0.021751685 -0.07377878
000080 36 40 62 3d 76 ab 04 be b8 67 73 3d f5 f2 e2 3c
       0.055237018 -0.12956032 0.059425086 0.027703742
000090 80 fe 3b bd 62 b7 2e 3e da 8c 42 3a c0 a4 ff 3c
       -0.045897007 0.17062142 0.0007421501 0.031206489
0000a0 4a ee 0d bd a6 df 20 be 35 97 05 be 45 18 a7 bd
       -0.03465108 -0.15710315 -0.13045962 -0.08158926
0000b0 2c 50 a2 3d aa 94 a6 bd d5 a5 fd 3d 5e de c6 3d
       0.07925448 -0.08133824 0.123851456 0.09710382
0000c0 13 1c 56 bd 3f 4b 17 be 34 1b cc bd 25 3c cf 3d
       -0.052272867 -0.14774798 -0.09966126 0.101188935
0000d0 ad ea c5 3d f9 d7 d7 3d dc b8 70 3c 4e 49 3b 3d
       0.096639015 0.105392404 0.014692511 0.045724206
0000e0 64 96 dd 3d 96 74 f4 3d 57 ad c0 3b 0b 97 3d bd
       0.108197 0.119362995 0.0058800387 -0.046286624
0000f0 f2 e6 c6 bd ad b1 d7 3c 0a d3 da bb 10 c5 ad 3d
       -0.09712018 0.02632984 -0.00667799 0.08484852
000100 93 32 9a bd 6d 24 e3 bd b7 ea bb bd cc 28 07 3e
       -0.075291775 -0.11090932 -0.09175628 0.13199157
000110 9e 18 d4 bd c1 80 c2 bd 49 33 51 3d 97 bf ce bd
       -0.10356258 -0.09497214 0.0510743 -0.100951366
000120 e8 17 10 3e 91 31 02 be c6 32 0d be 61 67 8c 3d
       0.1407162 -0.1271422 -0.137889 0.068556555
000130 56 79 ea 3d 24 63 27 be a1 7e d9 3d 74 09 d6 3d
       0.11448924 -0.16346413 0.10619856 0.10451022
000140 72 6a d2 3d 3a 76 a1 bd 36 d4 80 3d 1f d6 0c be
       0.10274209 -0.07883878 0.06290476 -0.13753556
000150 ab 03 df bd 51 d5 dd 3d 17 9b 8d 3d 08 bc 71 3d
       -0.108893715 0.108317025 0.06914347 0.05901721
000160 9b 39 1c bb ee a4 be bd ef 1b 1f 3e 3d c5 03 3a
       -0.0023838046 -0.093088016 0.15538 0.0005026644
000170 2f 37 f8 bb 25 4a 9e bd aa b4 21 be 2c 12 29 be
       -0.007574938 -0.07728986 -0.15791574 -0.16510838
000180 68 4f 1b 3d 71 5a 02 3e e8 e1 13 3e 58 79 a5 3d
       0.037917525 0.12729813 0.14441645 0.08079785
000190 01 14 fa bc 02 86 29 be 6f d0 32 be 15 aa 31 3e
       -0.030527117 -0.16555026 -0.17462324 0.17350037
0001a0 88 5d 6f 3d e4 02 e8 bd c3 21 26 3e 50 46 e5 3c
       0.058438808 -0.11328676 0.16223817 0.02798763
0001b0 13 09 b0 bd dc aa df 3d 98 9d 48 3c 1f 70 e0 bd
       -0.08595481 0.10921261 0.0122446045 -0.109588854
0001c0 c9 52 c2 3c 61 cb 3a 3d ab 8d 9e bd 55 fc e5 bd
       0.023721116 0.045604113 -0.07741865 -0.11229769
0001d0 88 ef e5 3d 76 cb 13 3b 36 8d de 3a cb 7c a7 3d
       0.112273276 0.0022551692 0.001697934 0.08178099
0001e0 eb d4 a2 3d b2 6a 21 3e 73 ad 23 be f5 5c 31 3d
       0.07950767 0.15763357 -0.15984134 0.04330154
0001f0 23 d2 26 be 17 8b 59 3d 25 a4 bf bc 8c 6f e6 bc
       -0.16291098 0.053111162 -0.0233937 -0.028129362
000200 a7 fa 01 be 94 01 6a bd 17 8a eb 3d 67 c2 14 bd
       -0.12693273 -0.05713041 0.11500948 -0.03631821
000210 24 cf 0e be 6a 76 b7 3d 6e ce e8 bd 8a a0 14 bd
       -0.13946205 0.089581326 -0.11367498 -0.036285914
000220 69 a9 2d 3e bd f0 05 be f8 9a c9 bd 5b 2c 52 bb
       0.16959156 -0.13080116 -0.09844011 -0.0032069895
000230 48 f3 b4 bd 29 35 90 bd 5c 93 04 be c5 76 dc bd
       -0.08835465 -0.070413895 -0.12946838 -0.10764841
000240 85 f0 1e 3e 8d e5 24 3e df f6 f3 3c 82 4a 2a be
       0.15521438 0.16103192 0.029780803 -0.16629985
000250 2e a0 3c 3d b2 ae 1e be 9a c0 a3 bc 99 56 77 bd
       0.046051197 -0.15496328 -0.0199893 -0.06038532
000260 35 47 86 3d 69 a5 19 3e e0 51 24 3d c2 f1 8c bd
       0.065565504 0.15004505 0.040117145 -0.06882049
000270 20 33 b3 3d 67 d4 18 bd 1d c9 0d 3e 5b 52 b5 3d
       0.08749986 -0.037311938 0.1384625 0.08853599
000280 e2 f7 1a bc cb 60 a5 bd 65 b1 56 3d d1 8d a4 bd
       -0.009458514 -0.080751024 0.05241527 -0.08034862
000290 bf 3a 2a bd 11 7e b1 bc 41 31 9b bc 87 00 29 be
       -0.04155993 -0.021666558 -0.018944385 -0.16504107
0002a0 42 32 57 bd f1 13 0b be 1e 2c cc bb 16 52 70 bd
       -0.052538164 -0.13581826 -0.006230845 -0.058672033
0002b0 3b e6 fc bc 11 4b 17 be 18 82 31 3e 66 90 f2 3c
       -0.030871501 -0.1477473 0.17334783 0.02960987
0002c0 c6 1a 86 bd 3d a8 87 3c 83 46 04 be 61 89 8c bb
       -0.065480754 0.016559714 -0.12917523 -0.004288838
0002d0 2d f2 7f bd 3a f4 bf bc e3 da ce 3c 39 73 31 bd
       -0.062486816 -0.023431886 0.025250858 -0.043322776
0002e0 38 71 04 3d 57 a6 10 3e f8 e5 06 3d eb a1 13 3e
       0.032334536 0.14125954 0.03293416 0.14417236
0002f0 e4 75 a4 3d 65 08 eb bd d2 25 f2 3d 76 e3 27 3e
       0.08030298 -0.114762105 0.1182362 0.16395363
000300 b0 b9 bf 3d e0 b2 87 3d 0c a6 da bd e0 62 0b bd
       0.09361589 0.066259146 -0.10676202 -0.03402984
000310 39 59 c8 3d 37 9b d6 bd d5 8e 22 be 64 f5 fe bd
       0.09782643 -0.10478824 -0.15874799 -0.12449148
000320 bc 30 9c 3d b0 c7 ce bd 98 44 7b bd e2 2c b4 bd
       0.07626483 -0.10096681 -0.061344713 -0.08797623
000330 20 81 b6 bd 7a 94 95 bd 62 3b 0f 3e 02 70 7e 3c
       -0.089113474 -0.0730371 0.13987496 0.015529634
000340 f4 7c 34 bd 6b 54 16 3e a6 7d 28 bc f1 bb df bd
       -0.044064477 0.1468064 -0.010283863 -0.10924519
000350 fb a9 07 be 95 1d 2a 3e 92 6b ec bd 5c d3 56 b8
       -0.13248436 0.16612847 -0.11543955 -5.121842e-05
000360 04 a3 0d 3e fe 6f 04 3e 58 91 02 3e cf fa 8d bd
       0.13831717 0.12933347 0.12750757 -0.069326036
000370 b6 34 32 be 82 93 b8 3d 9e a1 a4 bd d3 ea 2f be
       -0.1740292 0.0901251 -0.080386385 -0.17179422
000380 88 0b 77 bd 3b 45 09 3c 5b 7f 19 be c5 0d 17 be
       -0.06031373 0.008378322 -0.14989989 -0.14751346
000390 08 03 9f 3d 1e 8e 20 bd 1b b2 13 bd f1 08 fd 3d
       0.0776425 -0.039198034 -0.036058526 0.12355221
0003a0 e8 df cb bd ec a1 97 3d 31 7b 81 3d 5f b0 6b bd
       -0.09954816 0.07403931 0.06322325 -0.057541247
0003b0 d5 43 0d be b6 e0 1d 3c d1 a8 49 bc 4d 52 96 bd
       -0.13795407 0.009636095 -0.012308315 -0.073399164
0003c0 da d3 fc bc 32 07 51 bd 4e b7 71 bc 57 8e 1d 3c
       -0.030862737 -0.051032253 -0.014753176 0.009616456
0003d0 bb 6f 0a bd 8d 60 dc bd d4 7d 23 3e 1c a2 f5 3d
       -0.03379796 -0.10760603 0.15965968 0.119938105
0003e0 55 3f 28 3e 5e 87 13 3e d3 c1 d0 bd 1a a3 fb 3c
       0.16430409 0.14407107 -0.10193219 0.030717421
0003f0 75 38 d8 3d 4d 42 ff 3d 46 82 31 3e 3b 37 19 be
       0.10557643 0.12463818 0.17334852 -0.14962475

conv2.bias f4 [64]
000000 7f 93 cd 3d 56 af 51 3c 28 52 7d bd 31 0d 40 bd
       0.10037898 0.012798151 -0.06184593 -0.04688758
000010 53 3e 42 bd b2 aa 2a be 87 54 76 3d 0d e8 8a bd
       -0.04742272 -0.16666678 0.060139205 -0.067825414
000020 24 78 b8 bd ab 09 70 3d f6 f7 14 3d a2 2f 36 3b
       -0.0900729 0.05860297 0.036369286 0.0027799387
000030 92 b7 5b 3d 9f cc ba bd 3e 86 cc 3d 66 f7 1d 3e
       0.053641863 -0.091210596 0.09986542 0.15426406
000040 bf 9a 33 bd 0c b6 f0 3d f6 d9 18 bc 57 36 06 3e
       -0.04384875 0.11753473 -0.00932931 0.13106667
000050 44 f9 1d 3e 63 2d b4 bd e4 6a ed bd 88 70 9a bd
       0.15427119 -0.08797719 -0.115926534 -0.07540995
000060 3d 21 14 bd dc 42 cc bd 1a c7 22 3e 8d 15 08 be
       -0.03616451 -0.0997369 0.15896264 -0.13289471
000070 82 0b 1c 3c 8a ba d8 3d d2 57 03 3e b8 a7 16 3d
       0.009524228 0.105824545 0.1282647 0.036781043
000080 fe da ba bd d8 ee 16 be 0c 37 f3 bd 4d 4f e3 bc
       -0.09123801 -0.14739549 -0.11875734 -0.027747774
000090 3a f3 d8 bd 8b 03 a6 3d a7 68 e5 3d a6 0a 11 3e
       -0.10593267 0.081061445 0.112016015 0.14164218
0000a0 f1 1c 1a 3e fc 6e 25 be cf c8 a2 3d 57 b9 33 be
       0.15050103 -0.16155618 0.079484574 -0.1755117
0000b0 8e 39 8b 3c 5e 52 30 bd 25 8a a7 bd 6a f1 60 bd
       0.016995218 -0.0430473 -0.08180646 -0.05491773
0000c0 5c c0 96 bd 0c 60 f9 3d ad 57 64 bd c9 a7 cc bd
       -0.073609084 0.121765226 -0.055747677 -0.0999294
0000d0 22 40 06 3e b0 58 d9 bd 90 62 30 3e 86 2c dc 3b
       0.13110402 -0.10612619 0.17225099 0.006719175
0000e0 af c4 01 3e 64 f0 ab 3c 2b 2c bf bd c5 6a 48 bd
       0.12672685 0.02098865 -0.09334596 -0.04892995
0000f0 70 2c 1b be 83 7e 1d 3e 10 cf 7b 3d 4c 4c e0 3c
       -0.1515367 0.15380292 0.061476767 0.027380131

fc1.weight f4 [16, 896]
000000 66 b6 94 bc 30 81 88 3c a3 38 92 bc 2b a1 81 bc
       -0.01815338 0.016663164 -0.017849272 -0.015823921
000010 86 a5 9b 3c 12 ac 35 3c 58 4e c7 3c 43 43 a8 3c
       0.018999826 0.011088388 0.02432935 0.020539885
000020 8c 78 8e 3c 67 85 de bc 65 19 02 bd 56 6e 0a 3b
       0.017391466 -0.02716322 -0.0317625 0.0021122894
000030 84 dc 48 3c 44 35 05 3d 9e 6d 94 3c 7b af ca bb
       0.012259606 0.0325215 0.018118676 -0.0061854697
000040 37 7a 00 bd da 43 1e 3c e8 1d b0 3c b2 3e 07 bc
       -0.031366553 0.009659732 0.021498635 -0.008254694
000050 8c 7a 56 3c 40 c8 fa 3c c6 e3 93 bb ca 64 e6 bb
       0.013090741 0.030613065 -0.0045132367 -0.007031058
000060 a6 8f 99 bc fd 1e bf bc 61 1b 01 bc b0 ae 84 3c
       -0.018745255 -0.023330206 -0.007880063 0.016196579
000070 70 c0 30 ba 40 f2 fc bc b6 44 d0 bc 43 63 58 3c
       -0.00067425426 -0.030877233 -0.025423389 0.01320726
000080 8d ef 17 3b c7 e5 48 bc 2f c6 34 bc ac 85 27 bb
       0.0023183555 -0.012261814 -0.011033579 -0.0025561852
000090 4c 01 b1 bb 2c 3c 7c 3c ad 62 d2 3c 14 ae da bb
       -0.005401766 0.0153952055 0.025681818 -0.0066735838
0000a0 65 d6 42 bc fe 3c 66 bc 2e c5 2f 3c 4d 7a ac 3b
       -0.011891936 -0.014052628 0.010728164 0.005263603
0000b0 51 8c a3 3a e6 b7 99 bb a2 b2 ec bc a4 04 a7 3c
       0.0012477731 -0.004691112 -0.028893773 0.020387955
0000c0 4e 1b 16 bc 45 2f db 3b 65 cb 5b bc 73 a3 94 bc
       -0.009161783 0.0066889846 -0.013415192 -0.018144345
0000d0 c9 4b 21 3c e4 e5 c1 3c 65 e6 d2 bc 72 50 eb bb
       0.009844729 0.02366919 -0.025744626 -0.0071812207
0000e0 9c 48 95 bc 8e 29 1a bc d4 a2 91 bc b1 21 fc bc
       -0.0182231 -0.0094093215 -0.017777838 -0.030777784
0000f0 f6 0e ab 3c e6 61 f9 bc 42 ba e1 bc 78 63 ea 38
       0.020881157 -0.03044219 -0.027554635 0.00011176517
000100 55 ef e8 bc 4b 75 c1 3b ed 90 d3 3b bf 22 ac 3c
       -0.028434435 0.005903875 0.0064564855 0.021012662
000110 80 18 ff bc 2e 24 b6 3c e4 d1 39 ba 00 1e d7 bc
       -0.031139612 0.022234049 -0.0007088466 -0.026259422
000120 2c 96 08 bd 01 b0 fd 3c a4 b8 be 3c 16 5e a1 3c
       -0.03334634 0.030967714 0.023281403 0.019698184
000130 ae 82 02 3d 24 67 02 3c 3e 79 f1 bb 28 d9 81 3c
       0.031862907 0.007959161 -0.0073691895 0.015850618
000140 1a b5 9f 3c 8c 3e 8f bc bd c9 fa bc 3e e7 57 bc
       0.019495536 -0.01748588 -0.030613774 -0.013177691
000150 cf bd 0c 3c e3 a9 21 bc a5 48 98 3c 58 61 5f bc
       0.008590176 -0.009867164 0.018589327 -0.013634048
000160 fa 3b c2 ba 2c 8b 4f 39 5b 1d 85 3c 94 8c fa 3b
       -0.00148189 0.00019792904 0.01624935 0.0076461527
000170 63 ad 17 bc 07 2f 1a bc 94 c0 9a 3c db 46 f4 3c
       -0.009257647 -0.009410626 0.018890657 0.029818943
000180 18 14 72 3c 13 bf 23 3c 71 a1 84 bc 9d 2d b8 3c
       0.014775299 0.009994286 -0.016190263 0.022482688
000190 eb c7 b2 3c e2 94 c7 3c c3 81 b7 bc d4 39 58 3c
       0.021823844 0.024362985 -0.022400742 0.013197381
0001a0 dd 36 e4 bb 6c 24 ed bc 1a 79 e8 3c 62 49 74 bb
       -0.006964548 -0.028948031 0.028378058 -0.0037275185
0001b0 68 4a bc 3c c0 15 83 bc c5 5e aa 3c e2 4f d9 3c
       0.022984698 -0.016001582 0.020797143 0.026527349
0001c0 3c 16 ea 3c ed 9e f4 bc ba 70 82 bc e5 74 97 3b
       0.028575055 -0.029860938 -0.015922893 0.004622089
0001d0 c9 33 a0 3c b4 3d cc 3c 76 3d d8 3c 4b 6d fc bc
       0.019555943 0.024931766 0.026396494 -0.030813834
0001e0 00 8a 1b 3c a0 e1 7e bc b3 47 a6 bc a4 af fd bc
       0.009493351 -0.015556723 -0.02029786 -0.030967541
0001f0 85 cb fd 3c 39 af 8c 3c e3 1c f7 3c 11 dc 8b bc
       0.030980835 0.017173396 0.030165141 -0.01707271
000200 51 3b ad 3c 2e d5 8d 3c f7 11 b4 3a db 62 87 3c
       0.021146448 0.017313566 0.0013738264 0.01652663
000210 cf 2a c1 3c ae e4 41 3c ba 77 92 bc 71 37 e9 3c
       0.023579983 0.011834307 -0.017879356 0.02846882
000220 7c 06 fa bc 0d 36 c4 3b 19 39 f8 bc 29 c9 06 bd
       -0.03052067 0.0059878887 -0.030300664 -0.032906685
000230 d7 4e 07 bd cf 36 4c bc 7c 23 97 3c 09 7d 03 bd
       -0.033034172 -0.012464239 0.018449537 -0.032101665
000240 c3 eb 67 3c 76 33 08 bc 8f 6f 00 3d cb 16 b8 3c
       0.014155331 -0.0083130505 0.03135639 0.022471806
000250 67 60 4f 3c 15 62 15 3c 99 15 c9 bc a2 d8 03 bb
       0.012657261 0.009117623 -0.024546431 -0.0020118137
000260 6f ed 0c 3c e5 09 8c 3c 10 b3 23 bc ea bd c6 3c
       0.00860153 0.017094562 -0.009991422 0.02426048
000270 fc de d0 bc cb 75 c6 bc 1e 32 1d bc 22 0f 6d 3c
       -0.025496952 -0.02422609 -0.009594468 0.01446894
000280 dc 69 82 3c ab 12 fe bc b2 50 d7 bc 1a 79 a3 bc
       0.015919618 -0.031014761 -0.026283596 -0.019955207
000290 40 2d d1 bc e9 38 22 3c d3 ed 5d 3c a7 8f d0 3c
       -0.025534272 0.009901264 0.013545471 0.025459124
0002a0 b8 97 d7 bb 02 62 e3 bb 37 f4 f1 bc 5a 9a 80 3a
       -0.0065793656 -0.0069391737 -0.029535396 0.0009811625
0002b0 df 7b cf bc 35 65 3d 3b c1 11 60 bc 8f 17 a7 3c
       -0.025327621 0.0028899435 -0.013676108 0.020396976
0002c0 10 64 73 3c 27 72 bb bc c4 3d d0 3b bb 90 db bc
       0.0148554 -0.02288158 0.0063550193 -0.026802411
0002d0 3c 4b e5 bb cf 39 df bc 37 92 e9 bc 6b 6d 26 bc
       -0.006997494 -0.027249245 -0.028512103 -0.010157923
0002e0 9e 86 b3 bc 05 de 44 3c b1 07 4a bc b7 cf 3f bc
       -0.021914776 0.012015824 -0.012330935 -0.011707238
0002f0 89 77 82 3c da 67 c5 bc d2 e9 66 3c 6c aa 3d bc
       0.01592614 -0.024097372 0.014093833 -0.011576276
000300 ea 07 6f bc e7 7d 44 bc 09 6e d4 bc 75 83 a2 3c
       -0.014589289 -0.011992908 -0.025931375 0.019838074
000310 c6 82 e4 3c f1 cb 94 3c 77 7b d2 3c 41 b2 6b 3c
       0.027894389 0.018163653 0.025693638 0.014385761
000320 45 16 89 bb 2d d6 00 3d fe 15 03 bd b4 40 f9 3b
       -0.004183563 0.031454254 -0.032003395 0.00760659
000330 de 5d 00 3d 0d 35 95 bc 6d 8e 50 bc c9 76 76 bc
       0.03133952 -0.018213773 -0.012729269 -0.015042969
000340 46 2c a0 bc 03 ff 88 3c f5 bb 8b 3b d6 92 0a bc
       -0.019552361 0.016723162 0.0042643496 -0.00845786
000350 a5 fc 63 bc 33 de bd b9 8a 9a 6f 3b 00 eb 05 bd
       -0.013915216 -0.0003621444 0.0036560618 -0.032694817
000360 d3 f1 f3 3c c0 87 b6 bc 7a 3c 91 bc e6 dc 02 bd
       0.029778397 -0.022281528 -0.017729033 -0.031948946
000370 8d cf 6c bc 6b bd a5 3c 5f 34 b8 3c e2 f7 92 3c
       -0.014453781 0.020231923 0.02248591 0.017940465
000380 93 e2 43 ba ab 13 b1 3c c5 55 e8 bc 00 15 c1 3c
       -0.0007472422 0.021615824 -0.02836121 0.023569584
000390 bb 64 ca 3c 69 20 98 bb db ef 88 3c 70 6c dc 3c
       0.024706235 -0.0046425355 0.016715935 0.026907176
0003a0 50 73 f1 ba a7 b7 ad bb e9 dc ff bb 98 36 dc 3c
       -0.0018421207 -0.005301434 -0.007808317 0.026881501
0003b0 78 4b f8 3c ff 3f 97 3c 8c a2 95 bc c5 83 f6 bb
       0.030309424 0.018463133 -0.018265985 -0.0075230324
0003c0 91 96 25 3b 4d 70 e7 3c 05 49 2c 3c 00 82 c5 3b
       0.0025266747 0.028251791 0.010515456 0.00602746
0003d0 77 ca fa 3b 52 52 02 3d 81 c5 45 bb 9b 85 e1 bc
       0.00765353 0.031816788 -0.0030177536 -0.027529528
0003e0 e9 6a 9e bc 00 dd 03 39 e3 14 9d 3c 84 bd ad bc
       -0.019338088 0.00012575462 0.019174999 -0.021208532
0003f0 32 ea 4f 3c 08 4b 4d 3c 3f 60 c1 3c 93 1c ad bc
       0.012690114 0.012530096 0.023605464 -0.02113179

fc1.bias f4 [16]
000000 ea 59 c7 3c f8 eb 79 3c 66 90 3d bc cb e1 d6 bc
       0.024334867 0.015254013 -0.011570072 -0.026230713
000010 1d 53 df 3c 39 87 8f bc 98 c0 89 3c 7f e4 cd bc
       0.027261311 -0.017520534 0.016815469 -0.02513337
000020 66 a0 95 bc 6c fd e7 ba 21 da 95 3c b2 c6 0b bc
       -0.01826496 -0.0017699427 0.018292489 -0.008531259
000030 27 a4 ee bc c3 e9 02 3d e2 93 d4 3c c3 21 a4 bc
       -0.029131008 0.031961214 0.025949422 -0.02003563

fc2.weight f4 [32, 16]
000000 0f 3b 8d 3d 06 3d fe 3d 2a dd b0 bc c7 fe f3 3d
       0.0689603 0.12413983 -0.021589834 0.11913829
000010 d9 e9 03 be 9c 37 74 3e 99 37 db 3d 85 9c 21 be
       -0.12882175 0.23849338 0.10703964 -0.15782364
000020 da 60 94 3b 7a 72 7d 3e e2 91 74 3e aa a5 a5 bc
       0.004528147 0.247507 0.23883775 -0.020220596
000030 fa 59 5e 3d 36 9a f4 3d 0a f1 8d 3d bd c0 c3 bd
       0.054285027 0.11943476 0.0693074 -0.09558246
000040 66 00 a3 3d 87 19 59 3e 5c 27 16 3e eb b4 39 bd
       0.0795906 0.21201144 0.14663452 -0.045338552
000050 1f ef 0f be 8c 9a 5e 3e 78 92 35 be 9f 69 64 3b
       -0.14056061 0.21738642 -0.17731655 0.0034852994
000060 d3 40 33 bd 6e 2f 8b 3c f8 d6 49 be d7 0e 3c 3e
       -0.043762993 0.01699039 -0.1971091 0.18365036
000070 6f b2 be 3d e6 27 19 be 39 54 65 3e b9 4d 0d be
       0.09311377 -0.14956626 0.2239541 -0.1379918
000080 2f 13 5c 3d 6d 88 11 be 54 b8 aa 3b aa 26 09 3e
       0.053729232 -0.14212199 0.005209962 0.13393655
000090 5a 52 03 3e 7f ff c4 3d d2 c3 a0 bd 1c cb b9 bd
       0.12824383 0.096190445 -0.0784985 -0.09071943
0000a0 7a e9 8f 3d bd d4 25 3e b0 89 9a bd fb e7 68 be
       0.07026954 0.16194434 -0.07545793 -0.22744744
0000b0 92 00 1f be 34 f8 1d 3e b9 bc a7 bd 50 87 14 3e
       -0.15527561 0.15426713 -0.08190293 0.14504743
0000c0 ef 34 71 3e 53 d0 9c 3c 56 c8 8f bd 3a e0 67 3d
       0.23555349 0.019142305 -0.07020633 0.056610323
0000d0 58 9b 7e be 92 8d 36 3e 3a 1b 6b 3c 1f 82 57 bd
       -0.24863946 0.17827442 0.014349753 -0.052614328
0000e0 a2 a4 3e be 4d 76 40 3e 88 4a 4c 3d 79 2f 12 3e
       -0.1861749 0.18795128 0.049875766 0.14275922
0000f0 4e 6a e9 3d 3c bf 7d 3d 24 e5 3b 3e 79 87 a9 bd
       0.11397229 0.061949953 0.18349129 -0.082777925
000100 0b 2e 3d 3e 9c 85 92 3b 53 a9 d2 3d b8 96 63 3c
       0.18474595 0.004471494 0.10286202 0.013890915
000110 63 07 b8 bd 78 18 18 be 2b ca 2d 3e 82 18 22 3e
       -0.08985784 -0.14853084 0.16971652 0.15829661
000120 9f f5 0e be 78 42 a5 bd f8 45 82 3d 07 42 37 be
       -0.13960885 -0.080693185 0.06361002 -0.17896281
000130 c7 fd 1c 3e a6 2b 1b 3e 2e b8 a3 bc 0a cf 54 3e
       0.15331183 0.1515337 -0.019985285 0.20782104
000140 49 3f 4e be fe a9 2d bc a7 d1 70 be d3 c0 44 be
       -0.20141329 -0.010599611 -0.23517476 -0.19214182
000150 84 e8 47 be b9 21 31 be 53 28 44 be 64 2c 4c 3e
       -0.19522291 -0.1729802 -0.19156007 0.19938809
000160 5c b5 a4 bd a9 5b 9e bd 8c 85 68 be 31 d6 4c 3e
       -0.08042404 -0.077323265 -0.22707194 0.20003583
000170 0a 2a 5e be 81 7b 24 3e d1 f9 20 3e 77 c2 54 3e
       -0.21695724 0.16062738 0.15720297 0.20777307
000180 53 d2 8c bd 85 d4 06 3e 03 a6 a4 3d a0 4a 08 be
       -0.06876054 0.13167007 0.08039477 -0.13309717
000190 aa c1 26 bd 31 f9 49 3d 8a 3e 32 be 49 2b 0c be
       -0.040712036 0.049309913 -0.1740667 -0.13688387
0001a0 6b 0d 5e 3e 44 86 d2 bd 60 d2 68 bd 60 2c 03 3d
       0.21684806 -0.102795154 -0.056841254 0.03202474
0001b0 4b 50 bd 3d de 09 fd bd c2 d3 ea 3d 6e 86 a3 3d
       0.0924383 -0.12355398 0.11466171 0.07984625
0001c0 fb 14 60 3e 25 07 4d 3c 72 07 a5 bd 0a 0d e5 bd
       0.21883003 0.01251391 -0.08058061 -0.11184128
0001d0 4f 97 03 3e f5 65 33 3e c3 b5 9e bd e1 f7 60 bd
       0.12850688 0.17519362 -0.07749512 -0.054923896
0001e0 28 6b c0 3d 30 e5 3b be e8 1b 94 3d 1f 85 c4 bd
       0.093954384 -0.18349147 0.07231885 -0.09595703
0001f0 c1 d9 01 be 0f 3e a4 bd 0f 71 7f be f6 3c 10 be
       -0.12680723 -0.08019649 -0.24945472 -0.14085755
000200 39 ad 38 3d 25 65 04 3e c5 51 50 3d ef de 22 3d
       0.045087073 0.12929209 0.05085923 0.039763387
000210 a4 e6 71 3e f0 60 ec bd b5 05 78 be ec 01 f2 bd
       0.23623139 -0.11541927 -0.24220927 -0.11816773
000220 1d e9 44 bd a4 e0 e6 ba 8a 28 70 be 5c 7c 4d 3e
       -0.048073877 -0.0017614556 -0.23452964 0.2006697
000230 2c e8 7d 3e 23 5f aa bd 47 83 d6 bd 92 df cd 3d
       0.24795598 -0.08318927 -0.10474258 0.10052408
000240 9c 3a 3f be 28 48 af bd 67 c4 3c be 37 a1 e7 3c
       -0.18674701 -0.085586846 -0.18434297 0.028275115
000250 ba ae 02 3e 92 df 79 3e a1 05 d1 bd 7c 52 0f 3e
       0.12761965 0.24401692 -0.10206152 0.13996309
000260 89 08 aa bd 7f 81 52 be 48 96 ac 3d bc e5 4c be
       -0.08302409 -0.20557211 0.084271014 -0.20009512
000270 00 ea 9b 3d 3f 4c 0d be ba 33 40 3e 54 b5 c6 bd
       0.07612991 -0.13798617 0.18769732 -0.09702554
000280 d7 97 0a be f2 be 8c bd e9 f9 7d 3e 6f 4b 45 be
       -0.13534485 -0.068723574 0.24802364 -0.19267057
000290 ca bd 4c 3e cf 84 29 bd 48 0b 55 be b3 5e de 3a
       0.19994274 -0.04138642 -0.20805085 0.0016965478
0002a0 8a bf dc bd 43 0c eb 3d 42 47 3a 3e 59 60 22 3e
       -0.10778721 0.11476948 0.18191245 0.15857066
0002b0 5f 86 5f be a7 1d 98 3d 18 34 0d 3e e4 da 6a bd
       -0.21828602 0.07427531 0.13789403 -0.057337657
0002c0 14 c0 f9 bd 53 db 10 bd 39 8d cb bd 71 e5 00 3e
       -0.12194839 -0.035365414 -0.099390455 0.12587525
0002d0 02 20 0c 3d 07 b0 bf 3c 3f 9b 0e 3c a1 f8 86 3d
       0.034210213 0.023399366 0.008704006 0.06590391
0002e0 2e 63 de 3d 5b 1d fb bd 64 bd 40 3e d0 79 2c be
       0.10858761 -0.122614585 0.18822247 -0.16843343
0002f0 a4 b5 1b 3e 5d b2 5f 3e fb 6f 77 be 5f ac 3a bc
       0.15206009 0.21845384 -0.24163811 -0.0113936355
000300 af 34 0f be d3 82 67 3c 9e 9d f4 bc 66 50 36 3e
       -0.13984941 0.014130312 -0.029860314 0.17804107
000310 a8 14 0e be b8 55 c7 3c 3e 4e bd bc 4f 11 61 3e
       -0.13875067 0.024332866 -0.023108598 0.21979259
000320 e2 22 4e be cd 3a 04 be 3a e6 13 be a7 87 2b 3c
       -0.20130494 -0.12913056 -0.14443293 0.010469354
000330 b3 97 e3 3d ed b9 42 3e f6 ad 0c 3e 6f ee 72 be
       0.11112919 0.19016238 0.13738236 -0.23723768
000340 f5 6e 48 be e1 b1 53 3e 47 53 66 be 1b 50 d4 bd
       -0.19573577 0.20673324 -0.22492705 -0.103668414
000350 02 86 ca 3d 9c c5 a4 bc f4 9f 42 3e 66 f6 70 bd
       0.09888841 -0.020113759 0.1900633 -0.058828734
000360 dd 24 03 be 4c 61 69 3e 7a 8a 1e be 61 fa 91 bd
       -0.12807031 0.22791022 -0.15482512 -0.07127834
000370 bf cb fd bc a8 a6 1e be 55 e7 b4 3d 67 22 71 be
       -0.030980943 -0.15493262 0.088331856 -0.2354828
000380 a8 cb 19 3e ad 6b 01 3d 5b 18 5f 3e f1 cc ce bc
       0.15019095 0.03159683 0.21786635 -0.025244208
000390 3a 74 22 be b0 78 42 be 03 fe 05 3c f0 bd 61 3e
       -0.1586465 -0.18991351 0.008178237 0.22045112
0003a0 9b eb 66 3c 2f c5 0b be 76 ad 0b 3e 12 44 03 bd
       0.014094259 -0.13649438 0.13640389 -0.03204734
0003b0 ec 43 17 3e b0 69 a7 bd 51 64 3f 3d 6c 2e 1f 3e
       0.14772004 -0.08174455 0.04672653 0.15545052
0003c0 7f 16 34 3d 18 64 67 be 35 0d 62 3e 65 77 10 3d
       0.043966766 -0.22596776 0.2207535 0.035270113
0003d0 e3 d7 53 3e 43 eb 96 bc ab f2 e1 3d ff e7 4c 3c
       0.20687823 -0.018422728 0.11032613 0.012506484
0003e0 bc ef ad bd 90 9e 7f be e0 ec ed bd 0c 24 24 3d
       -0.08492991 -0.2496283 -0.11617446 0.04007344
0003f0 2c 59 14 3e d3 e9 15 be 22 b9 16 3e 62 5f 72 be
       0.14487141 -0.14639978 0.1471906 -0.23669198

fc2.bias f4 [32]
000000 5e 60 da 3c 72 29 0d be bd b0 d7 3d a4 29 84 bd
       0.02665728 -0.13785341 0.10531757 -0.06453255
000010 fb d3 0f be b5 1d 60 be 2b 80 de 3d c6 4e a1 3d
       -0.14045708 -0.21886332 0.1086429 0.07876353
000020 e3 e1 ab bd 3c db 1a 3e e9 f7 95 bd e4 50 d6 bd
       -0.08392694 0.15122694 -0.07322676 -0.104646474
000030 1c fd b6 bd f0 44 14 3e 39 15 79 be d4 d3 72 be
       -0.089349955 0.14479423 -0.24324502 -0.23713619
000040 fc 8d 35 be 1f 41 56 3e 19 2d 68 3e f0 c4 8a 3d
       -0.17729944 0.20923279 0.22673453 0.06775844
000050 76 8e 51 3e 64 58 8c bd 7a e7 2f 3e 00 cf cd bd
       0.20464501 -0.06852797 0.17178145 -0.10049248
000060 86 22 58 be 44 7f 57 be ea 7e 56 be cc 6b 55 3e
       -0.2110692 -0.21044642 -0.20946851 0.20841902
000070 d4 79 c4 3d ef 28 bf bd 3a 05 07 3e 30 22 27 3e
       0.09593549 -0.09333979 0.13185588 0.16321635

fc3.weight f4 [64, 32]
000000 88 9c 30 3e 23 3d 17 3e b0 d9 21 3e b7 84 fa 3d
       0.17247212 0.14769416 0.15805697 0.122323446
000010 d0 c9 a0 bd c2 3f bb bb e2 99 cf bd a2 02 01 3d
       -0.07850993 -0.0057143876 -0.10136773 0.03149665
000020 17 14 ae bd 18 9e 16 be 6f 00 08 3d 2a 86 fb bc
       -0.084999256 -0.14708745 0.03320354 -0.030703623
000030 77 a9 0b be c3 69 1a 3e b9 3c 14 be 0a 0d 93 3c
       -0.13638864 0.15079407 -0.14476289 0.017950553
000040 7e 2d b3 bd 01 ab 2a be 34 57 f9 3c b9 a4 ce 3d
       -0.08748911 -0.16666795 0.03043709 0.10090012
000050 4a 5b 3e 3d 90 9a 74 3d 29 fe f3 3d 8f b8 33 be
       0.04647378 0.059717715 0.119137116 -0.17550872
000060 0e 19 9f 3d b5 66 c0 bd f3 4c 8e bd 1a 4d ba 3d
       0.07768451 -0.0939459 -0.06948271 0.09096737
000070 a1 9f f6 bd ca 50 ca bb 1a 18 06 bd e9 30 d9 bd
       -0.120421655 -0.0061741816 -0.03273783 -0.10605032
000080 ac d2 00 be cd 77 05 bd 30 e7 8d bc 2e 03 2c bd
       -0.12580365 -0.032584954 -0.017322153 -0.04199522
000090 54 33 59 bd c2 d8 ec 3d 9d cf 61 bd c2 eb 29 3d
       -0.053027466 0.11564781 -0.055129636 0.0414846
0000a0 a8 1d 9d 3d 36 92 26 be 25 2f 05 3e 44 be ef bc
       0.07671672 -0.16266713 0.13006265 -0.02926553
0000b0 2c 63 c1 3d 59 54 ae 3d 9a 35 06 3e f0 8c d5 bd
       0.09442744 0.08512182 0.13106385 -0.10427272
0000c0 9a 0e 40 bd d1 ab 01 be 5d 44 d8 3d 51 ee 26 bd
       -0.046888925 -0.12663199 0.10559914 -0.04075462
0000d0 7e e6 17 be c9 7f 22 be ff 24 69 bd c2 ab 2c 3e
       -0.1483402 -0.15869059 -0.056920048 0.16862395
0000e0 f3 3a 1d 3e 05 c4 26 3e 41 30 26 be c6 66 12 3d
       0.15354519 0.16285713 -0.16229345 0.035742544
0000f0 28 2d 0d be 65 66 b9 bd 4e 8b db 3d ae 2f 34 3e
       -0.13786757 -0.09052733 0.1071993 0.17596313
000100 ea 63 af bd 6a 61 19 be 87 bf 6e bd f6 2d 68 bd
       -0.08563979 -0.14978567 -0.058288123 -0.056684457
000110 77 d2 b8 3d a1 f9 a4 bd 8a 01 96 3c 7d 6b 28 3e
       0.09024518 -0.080554254 0.01831128 0.16447254
000120 54 bc 9b bd ba 85 0e be 7f 8a ae 3d b6 34 09 3e
       -0.0760428 -0.139182 0.0852251 0.13399014
000130 29 b9 f1 3d 35 9f 69 3d 76 ad a8 3d 8d 57 b1 3d
       0.118028946 0.057036597 0.0823621 0.08659277
000140 71 e3 24 be 5a d4 27 3c f5 f0 26 3d 1f ae 7f 3d
       -0.16102387 0.0102435 0.04075714 0.062421914
000150 b0 d1 f6 3c a3 2e b1 3d ac a9 81 b9 57 8a a8 3d
       0.030129284 0.086514734 -0.00024731213 0.08229511
000160 8b 02 c2 3c 96 92 b4 bd 48 e7 21 bd da 15 d5 3d
       0.023682853 -0.088170215 -0.039527208 0.104045585
000170 0a 17 b9 bd 0f ad 18 3e fe cb 9e 3d 70 cb ba 3d
       -0.090375975 0.14909767 0.07753752 0.09120834
000180 bc 02 c9 bd 0d 89 05 3e f3 cc 21 3e a3 b1 3d 3d
       -0.09814975 0.13040562 0.15800838 0.046311986
000190 77 cf a3 bb 5d f2 f5 3c 71 0a 8a 3c a7 bb 2c be
       -0.004999097 0.030022794 0.016850682 -0.16868459
0001a0 b4 06 0e be b9 ef 1d be 60 12 dd 3d 5d 18 bd bc
       -0.13869745 -0.15423478 0.107945204 -0.023082906
0001b0 63 1f 7d bd 28 d5 49 3d cc 04 ed bc 2b f1 94 bd
       -0.06179751 0.049275547 -0.028932951 -0.07272562
0001c0 61 39 00 3e 8c a7 21 3d 27 6d 1e 3e 38 33 df 3d
       0.12521888 0.039466426 0.15471326 0.10898441
0001d0 c7 86 e4 3d 3f 12 2e 3e 15 01 ae 3d f9 33 c4 bd
       0.11158519 0.16999148 0.084963 -0.095802255
0001e0 79 73 bf bc d1 4c 12 bd 79 35 1a 3e e8 c2 b6 3c
       -0.023370491 -0.03571779 0.1505946 0.022309735
0001f0 f6 05 f1 3d f7 a8 cd 3d b8 85 4b bc 4e f1 b3 bd
       0.11768715 0.10041993 -0.012422018 -0.087862596
000200 43 cd a6 bd 41 5d 01 bb f8 cc 38 3d 13 da 0c be
       -0.08144619 -0.0019739422 0.04511735 -0.13755064
000210 9c ec 2a be 7e 4f 11 3e ef ee 25 be 66 ce 34 bc
       -0.16691822 0.1419048 -0.16204427 -0.011035537
000220 de a4 8d 3d e3 52 6b 3c 9a 3d 8e 3d 7e c7 87 bd
       0.069162115 0.014363023 0.06945343 -0.06629847
000230 6f 36 bd bd f4 ca f2 3d 89 91 94 bd 69 17 af bc
       -0.09238898 0.118551165 -0.07254321 -0.021373468
000240 80 8b d8 3d d3 37 4a 3d ed 39 5e bd 39 57 32 be
       0.105734825 0.049369644 -0.05425446 -0.17416085
000250 93 21 01 be 79 58 b7 3d 9f a3 be 3c 4a 74 d6 3d
       -0.12610464 0.08952422 0.02327138 0.10471399
000260 b9 91 d5 3d d2 25 03 3e 48 dd 1b be e1 6a 95 3c
       0.10428185 0.12807396 -0.15221131 0.01823944
000270 fb 53 64 bc df d2 cb 3c bb 0a 85 3c ae 59 e4 bd
       -0.013936038 0.024880825 0.016240468 -0.111499175
000280 a2 ed de 3d a1 48 30 3e ed 5c 2b 3e 18 86 31 be
       0.108851686 0.17215206 0.16734667 -0.17336309
000290 a2 2f 2e 3d 81 c5 c0 3a f9 b3 ae 3d 1f a8 0a bd
       0.042525895 0.0014707298 0.08530421 -0.03385174
0002a0 1d e5 e5 3c 75 78 02 bd de 88 2e be cc 8d 9b bc
       0.028063351 -0.031853158 -0.17044398 -0.018988512
0002b0 80 08 30 3e 1f 39 e5 bb b3 50 5c bd ed f5 2b 3e
       0.17190742 -0.0069953348 -0.0537879 0.16793032
0002c0 37 29 67 bd dd 8e 86 3c 8d 42 2b 3e 07 16 6d bd
       -0.05643579 0.016425544 0.16724606 -0.057882335
0002d0 ec ad f8 bd 4b 4e 30 3e 23 50 68 3d c7 bb 06 3e
       -0.12142548 0.17217366 0.05671705 0.13157569
0002e0 61 7e d2 bd 3f 75 23 3e ca 84 66 3c e6 df 03 bd
       -0.10278011 0.15962695 0.014069745 -0.032195948
0002f0 03 62 f7 3d c0 1f e8 3c 2d f9 b0 bc 68 71 aa bd
       0.12079241 0.028335452 -0.021603191 -0.08322412
000300 bf 1d b1 bd 0e af 62 bd 4e bd 8a 3c cb fb f3 3d
       -0.08648252 -0.055342726 0.01693597 0.1191326
000310 f1 a9 55 bd e0 07 16 3e de ac 87 bd a1 cc 00 3e
       -0.052164022 0.14651442 -0.06624769 0.1257806
000320 f7 0e ac bd 4c ba 5d 3c 05 ac 73 3d d9 88 f4 3d
       -0.08401292 0.013533186 0.059490222 0.11940164
000330 62 37 8a bd 8f a9 1d 3d c5 27 a2 bd ba a7 11 3e
       -0.06748845 0.03849178 -0.07917742 0.14224139
000340 59 cc 1f be 37 9e d3 3d 37 01 15 be a3 28 17 be
       -0.15605296 0.103329115 -0.14551245 -0.14761595
000350 77 50 e5 bc 57 87 ad bc 54 13 35 3e 50 80 af 3d
       -0.02799247 -0.0211827 0.17683154 0.085693955
000360 f9 bc ed 3d 0b e5 db bd da a9 31 3e 81 e7 87 3d
       0.11608309 -0.10737046 0.1734995 0.06635953
000370 05 6f 1f 3e 53 76 74 bd ae e9 07 3e 43 6c 2f 3d
       0.15569694 -0.059683155 0.13272735 0.042827856
000380 be ad 14 be 8e 13 fd bd b4 12 34 be 3c 55 2c 3d
       -0.14519402 -0.123572454 -0.1758526 0.042073473
000390 79 65 c1 bd f5 7d 9d bd 55 92 e3 bd 0a 79 19 bd
       -0.094431825 -0.0769004 -0.11111895 -0.037468947
0003a0 61 90 aa 3b b9 40 22 3e b5 10 e0 bd 7d 98 b2 3d
       0.0052051996 0.15845002 -0.109406866 0.08720491
0003b0 f4 5a c5 3d dc 2b 1e 3d 8e 78 dc 3d ec 7f 68 bd
       0.096364886 0.038616046 0.107651815 -0.05676262
0003c0 c4 ee b6 3d 3b a9 25 be e8 b6 ae 3d b8 d5 32 be
       0.0893226 -0.16177838 0.0853098 -0.1746434
0003d0 d4 76 11 be ac 3b 19 bd 6f cb e8 bb 96 74 e6 3d
       -0.14205486 -0.037410423 -0.0071043293 0.11252706
0003e0 c3 73 e0 bd 00 aa 5f bd 79 c3 2d 3e 64 78 8b 3d
       -0.1095958 -0.054605484 0.16969098 0.06810072
0003f0 c8 80 62 3b 3a f0 c4 3d 11 6e c3 bc d0 e7 98 3d
       0.0034561623 0.09616132 -0.023856195 0.0746609

fc3.bias f4 [64]
000000 b3 63 59 bd 40 2f fc bd bf fb 74 3c 87 2f dc 3d
       -0.053073596 -0.123137 0.014952599 0.107512526
000010 b6 4d 28 bc aa cb b1 bd 69 01 12 3e 13 c7 2d 3e
       -0.010272434 -0.08681424 0.1425835 0.16970472
000020 6e 52 9b bc 23 8b 31 3e 39 30 34 be 08 99 f3 bd
       -0.018960204 0.17338233 -0.1759652 -0.11894423
000030 18 d7 25 be 09 1f a8 3d 50 d7 20 3e af df db 3d
       -0.16195333 0.082090445 0.15707135 0.10736024
000040 e5 a3 07 3e a9 ea 05 bd 4b 7c d8 bd 13 66 2d 3e
       0.13246115 -0.032694492 -0.10570582 0.1693347
000050 9c 42 7d 3d 9f 74 71 3c 9d e2 05 3a 79 e5 9f bd
       0.0618311 0.014737277 0.00051073154 -0.0780744
000060 6b 40 26 be c9 7f fd 3d d0 34 8d 3d 89 3d b4 bc
       -0.16235511 0.12377889 0.06894839 -0.022001998
000070 47 6c a5 bc 8d 0b ca 3d 94 81 0e 3e 4a eb 28 be
       -0.020193232 0.098654844 0.13916618 -0.16496006
000080 85 86 2d be b2 5f 83 bd 1d 0d 32 be 01 7c 5e bd
       -0.16945846 -0.06414737 -0.17387815 -0.054317478
000090 23 d6 89 3d 40 5e 20 3e 5e ed 05 3e be 54 04 be
       0.067302965 0.15660954 0.1307883 -0.12922952
0000a0 d4 c2 34 be ea b0 0d be a9 38 16 3d 25 c8 86 bd
       -0.17652446 -0.13837019 0.03667513 -0.06581143
0000b0 b4 e4 ce 3a 0a 72 12 3e d7 3a 16 be 95 d9 29 be
       0.0015784712 0.14301315 -0.14670883 -0.16586907
0000c0 31 7a 8c 3d 95 73 f2 3d 3b e2 05 be a1 e1 a1 3d
       0.06859244 0.11838452 -0.13074581 0.079043634
0000d0 89 fb 52 3d 44 e4 b8 bd 3e e1 aa bd e9 2a 7c bd
       0.051509414 -0.09027913 -0.08343743 -0.06156436
0000e0 5e c5 17 bd bb f5 2f 3e ec 66 22 bb 70 9c 1d be
       -0.03705346 0.17183582 -0.0024780584 -0.15391707
0000f0 ee e5 ff bc bb 49 73 bc 41 ab 8c 3d d0 98 30 3e
       -0.031237569 -0.014849122 0.068686016 0.17245793

fc4.weight f4 [128, 64]
000000 65 ad b1 bd 2a 9f c4 bc 90 81 40 bd b7 61 c1 bd
       -0.086756505 -0.024001677 -0.04699856 -0.09442466
000010 68 47 f4 3d 78 f7 73 bd eb f7 e7 bd 7b 6d be 3b
       0.11927682 -0.059562176 -0.113265835 0.005811391
000020 e5 32 c8 3c a6 fc 3c bc 56 63 0f bd ef f5 de 3d
       0.02443833 -0.011534845 -0.035006844 0.10886752
000030 73 78 f1 bc da cb 09 3d 39 4b 04 3d 3a 22 27 bd
       -0.02947638 0.033641674 0.0322983 -0.040804125
000040 72 4c 81 bd 33 ad 0e bd 34 47 54 bd c1 97 2d 3b
       -0.06313409 -0.034833144 -0.051825717 0.0026488157
000050 36 35 77 3c b9 4e d5 3d e0 1f 10 3c 10 4a b9 bd
       0.01508837 0.10415406 0.008796662 -0.090473294
000060 33 23 f0 3d d8 9b f8 3d da 12 cb bd 33 43 cc bd
       0.11725464 0.121391 -0.09915705 -0.09973755
000070 de 96 a4 bc 44 72 42 3c 71 29 c1 bd e5 62 59 3c
       -0.02009147 0.011868063 -0.094317324 0.013268207
000080 8f 0c 81 bd 46 04 d5 bd e6 8a 4d bd f5 68 c6 bc
       -0.063012235 -0.10401206 -0.050181292 -0.02421997
000090 be a8 16 bd 5b ae 02 ba d0 59 8a 3d 3e e4 ac bd
       -0.03678202 -0.00049850874 0.067554116 -0.08441971
0000a0 dc 94 fd 3d c1 57 a6 bd 1c 46 ea 3d 8b 03 fc 3d
       0.12381908 -0.081222065 0.114391536 0.12305363
0000b0 a2 94 bd 3d f1 e3 ca 3c 72 4a 14 bd 3b 1e ba bc
       0.09256865 0.024766894 -0.03620381 -0.022719493
0000c0 24 6e c6 3d 00 04 d7 bd c3 50 84 bd 6e 4c 33 3d
       0.096889764 -0.1049881 -0.064607166 0.04377406
0000d0 e7 74 a6 3b 76 85 d6 bd ed 7d eb bd 5e ec 0a bc
       0.005079854 -0.104746744 -0.11498628 -0.008479206
0000e0 9b cd a5 3d f4 bc 6c bc 79 87 a7 bd 11 89 99 3d
       0.08095857 -0.014449347 -0.08180136 0.074968465
0000f0 34 6f be bd 2c cd 88 3d d4 60 9d 3d a2 88 94 3d
       -0.09298554 0.066797584 0.07684484 0.07252623
000100 e2 df 9f 3b 44 3a 93 bd 9e 2a 8d bd 7f 9d 04 3c
       0.004878984 -0.07188848 -0.06892894 0.008094191
000110 6f 12 3d 3d 7e e6 a2 3d c8 ed 81 bc 6a 14 ee 3d
       0.046160158 0.07954119 -0.015860453 0.116249874
000120 8c e8 de 3d 1f 8e f1 bd eb ac f4 3d 72 f2 d3 bd
       0.108841985 -0.117946856 0.11947044 -0.10348977
000130 ba 27 71 3d 46 77 fa 3d b3 29 2b bd 8c b7 a1 3d
       0.058875777 0.12229781 -0.041787814 0.07896337
000140 90 38 b7 3d 72 e3 f3 bd 55 e8 f2 bc 95 bc dd bc
       0.08946335 -0.11908616 -0.0296518 -0.027067462
000150 7e 64 bb 3d 2c 82 29 3d bf 41 ca bc 8c 4e ac bd
       0.09150027 0.041383907 -0.024689553 -0.08413419
000160 8f c4 1f 3d c4 d3 06 bd 50 4d 04 3d ff 9e 53 3d
       0.039005812 -0.0329168 0.032300293 0.051665302
000170 68 9c b9 bd 88 35 00 3d 9f a8 79 3b ec 31 fa 3d
       -0.09063035 0.03130105 0.003809489 0.12216553
000180 4a 4b 88 bd 9c 70 92 3d 2f 36 fb bd a5 eb f3 3c
       -0.06654985 0.07150385 -0.12266194 0.02977545
000190 3b 61 80 3a 01 2f 12 3d 9c 2e b0 bd 8a f7 af 3d
       0.0009794602 0.035689358 -0.0860264 0.08592136
0001a0 6c e6 7a 3c bb 20 cd 3d 01 fe e1 bd ee cc 4a bc
       0.015313726 0.100160085 -0.110347755 -0.012377961
0001b0 c4 d4 0a bc 19 dd fd 3d 56 c1 4b 3c df 5e 30 bd
       -0.008473579 0.12395687 0.012436232 -0.043059226
0001c0 2a 7b d3 bd 47 10 fa 3d f4 96 96 bd 91 3b d7 3c
       -0.10326226 0.12210136 -0.07353011 0.02627352
0001d0 b1 20 b5 bd 45 61 eb bd 80 b4 0d 3d 63 77 e1 bd
       -0.08844126 -0.11493162 0.034595966 -0.11009099
0001e0 ef fb 90 3d 1a f2 44 bd 64 94 72 bc 88 3b 93 3d
       0.070793025 -0.04808245 -0.014805887 0.07189089
0001f0 ef a2 bc 3d 0e 29 37 bd 62 c4 29 bc a7 a0 d9 3d
       0.092107646 -0.044716887 -0.010361763 0.10626345
000200 2b 66 0d bd 18 49 4a bd 64 a8 fc bd 40 52 a5 3d
       -0.034521263 -0.049386114 -0.123368055 0.080723286
000210 22 16 b0 3c db f2 9a bd 33 a7 b1 3d 80 c2 63 3d
       0.021494929 -0.07565852 0.08674469 0.05560541
000220 b2 27 ae 3d 2a cc 50 bd c1 66 12 3d 0d b7 ff 39
       0.08503665 -0.050975956 0.035742525 0.00048773774
000230 46 a2 1c 3c 03 b7 84 3d 33 92 d1 3b 0d bc 7a bd
       0.009560173 0.06480219 0.006395602 -0.061214495
000240 f4 ed f6 3d 85 c2 bb 3c 40 b1 9a 3c c5 36 34 bd
       0.12057105 0.022919903 0.018883348 -0.043997545
000250 eb d8 a9 3d 2b f4 83 3d 5c b1 f5 3d f8 03 64 bd
       0.08293327 0.06443056 0.11996719 -0.055667847
000260 c6 c2 a0 3d 02 3f 17 bd e8 62 78 3d 8d f3 84 3d
       0.0784965 -0.036925323 0.0606412 0.06491766
000270 75 0e 62 bd a2 49 d0 bd 4f 44 a2 3d fd d7 28 bd
       -0.05518957 -0.10170294 0.07923185 -0.041221607
000280 68 64 5c 3d 79 24 a4 3d 8b 3f 8f bd e8 b6 a5 3d
       0.053806692 0.08014769 -0.06994542 0.08091527
000290 03 98 b7 3d 0d fa ee 3c da 99 f8 3d 3a 70 43 3d
       0.08964541 0.029171968 0.1213872 0.04771445
0002a0 d4 94 55 3d 68 d3 ae 3d c4 20 63 3d ef 60 80 3d
       0.052143887 0.08536416 0.05545117 0.062684886
0002b0 e6 16 f4 bd db 16 a3 3d 2b 2f f9 bc 01 d0 f9 3d
       -0.1191843 0.07963344 -0.030418 0.12197877
0002c0 e0 aa 89 bc 25 58 e1 3d 87 12 b5 3d 0d 62 5c 3d
       -0.016805112 0.1100314 0.088414244 0.053804446
0002d0 83 29 51 bd 25 b1 ec 3d 39 df b2 bd ad 15 d2 3d
       -0.05106498 0.11557225 -0.087339826 0.102580406
0002e0 be ba e3 bd b6 02 89 3d e4 a7 6b 3d 65 e6 e8 3d
       -0.111196026 0.0668997 0.05753316 0.11372069
0002f0 23 4b c8 3d fd 49 81 bd 80 58 6e 3d ce ce fc 3d
       0.09779956 -0.0631294 0.05818987 0.12344132
000300 93 c8 c5 3d 8c 93 e4 bd 6c 90 ee 3b 03 34 8a 3c
       0.09657397 -0.11160955 0.0072804 0.016870504
000310 53 e7 bb bd 4f 78 0c 3d 0e f7 d4 3d 33 ee 3c 3d
       -0.09174981 0.034294423 0.103986844 0.046125602
000320 6f d3 c5 3d 2c 58 be 3d f1 4b c9 bd 5b 2e a5 3d
       0.096594684 0.09294161 -0.09828938 0.08065482
000330 46 d9 b7 3d fb d2 c1 bd 6b b3 28 bd 77 ba ac 3c
       0.089769885 -0.094640695 -0.04118673 0.021085007
000340 95 71 f9 3d 6c f7 35 bd 77 02 29 3c 2c 02 55 bc
       0.12179867 -0.044425413 0.010315529 -0.013001006
000350 b8 2b 39 3d bc 05 89 3c 9b bb 8d 3d 18 2b 8b bd
       0.04520771 0.016726367 0.069205485 -0.06795329
000360 5a 9b 24 3d b1 c8 8a 3d 28 18 80 bd 4c e1 4f bd
       0.040187217 0.0677656 -0.062546074 -0.05075197
000370 9b fb 14 bd c5 a7 08 bc dd b0 dd 3d e9 c2 a0 bb
       -0.036372762 -0.008340781 0.108247496 -0.0049060476
000380 81 2c ec 3c d7 b4 80 bc 4a f6 d6 bc aa cf e9 3d
       0.028829815 -0.015711231 -0.026240487 0.11416562
000390 33 35 a0 3d 06 05 8c 3a fa f0 08 bd 8d d6 c4 bc
       0.07822647 0.001068265 -0.03343294 -0.024028087
0003a0 55 a4 de bd e8 08 fb 3d ae 3a a7 bd 51 44 dc bd
       -0.108711876 0.12257558 -0.08165489 -0.10755218
0003b0 cc 05 dc bd c7 36 58 bd d2 25 94 3d dc 7b 80 3d
       -0.10743293 -0.052786615 0.07233776 0.06273624
0003c0 05 6a 1c bd b2 99 bf bd 9a ce 83 3c a5 c6 8a bd
       -0.038187046 -0.09355487 0.016089726 -0.0677617
0003d0 a9 70 11 3d 35 b8 80 3d d9 4d 86 3d c8 0f c1 bd
       0.03550783 0.06285135 0.06557817 -0.09426838
0003e0 e0 f7 fb bd 8c ea 9a 3d 59 c1 82 3d 4a 53 40 3d
       -0.12303138 0.075642675 0.063845344 0.04695443
0003f0 41 05 06 3c 27 3f 97 bd 4e 0d 86 3d f0 23 57 3d
       0.008179964 -0.07385092 0.065455064 0.052524507

fc4.bias f4 [128]
000000 04 99 c5 3d 5c 5a 76 bd 85 23 5f 3c d8 22 b0 3d
       0.09648326 -0.060144767 0.013619308 0.08600396
000010 22 06 87 3c be 33 df 3c 32 d7 f8 bd d4 1d 32 3d
       0.016482417 0.027246352 -0.1215042 0.043485478
000020 b5 f5 bc 3d a1 4d a3 3d 78 7e 85 3d 94 13 58 bc
       0.092265524 0.07973791 0.065182626 -0.013188262
000030 f7 17 61 3d b6 82 a5 3c ff 09 75 3d 43 a6 3d 3d
       0.054954495 0.02020393 0.059823986 0.046301138
000040 4e 6d dd 3c c3 47 f7 bc e3 66 b5 bd ba ac 8f bd
       0.02702966 -0.030185586 -0.08857515 -0.07015367
000050 09 98 6b 3d d7 35 1f bd f3 5c c4 3d d4 a3 9c 3d
       0.05751804 -0.038869705 0.09588041 0.07648435
000060 c4 12 8d bd bc d7 d6 bb 08 48 2a 3d 8b 31 fa 3d
       -0.06888345 -0.0065564793 0.0415726 0.12216481
000070 d1 03 8e bc 8f a8 87 bd f5 8b 96 bb f4 d9 81 bb
       -0.017335804 -0.06623947 -0.004594321 -0.0039627496
000080 f3 dd b4 3c 89 df 90 3d 88 d8 e3 bd b5 b3 1b 3d
       0.02207849 0.07073886 -0.111252844 0.03801318
000090 06 db 6a 3d 69 3d e5 3b 22 cc 05 3d 16 5e 3f bb
       0.057337783 0.006995846 0.03266538 -0.0029200367
0000a0 bf 4e 87 bd 07 8d 9e 3d 4e 6d 23 bd d4 32 db 3d
       -0.066068165 0.077417426 -0.039899163 0.10703054
0000b0 a1 97 f2 bd 65 03 9a 3d 14 d4 d4 3d 39 af 7f 3d
       -0.11845327 0.07520179 0.10392013 0.062422965
0000c0 e3 ec 43 3d 86 19 4b bd af 59 7a bd b7 64 d8 3c
       0.047833335 -0.049584888 -0.061120685 0.026415212
0000d0 ab d3 ae bc 3e ee c1 3d 30 f9 c5 bd 3f f8 01 bd
       -0.021341166 0.09469269 -0.09666669 -0.031730887
0000e0 7e ad f8 3d 0b a1 a7 3d 6b d2 2c bd ad c9 fe 3d
       0.12142466 0.081850134 -0.042192858 0.1244081
0000f0 47 81 a6 bd b9 5d 0a 3d eb 1c f0 bc 96 14 d7 3d
       -0.081301264 0.033780787 -0.029310664 0.10501973
000100 f7 8d b4 ba f9 a8 3a 3d a9 65 89 bd b9 d4 f3 bc
       -0.0013775219 0.0455713 -0.06708843 -0.02976452
000110 da 73 b5 3c d5 34 76 bd cb b8 e3 bd e8 d8 54 bc
       0.022149969 -0.06010898 -0.11119231 -0.012991168
000120 15 e9 63 3d ec fa 7b 3d fe 8b af bd 5a b0 ce bc
       0.055642206 0.061518595 -0.08571623 -0.025230575
000130 f5 8b 55 bd 04 45 45 bd c1 3f 96 3c c0 20 ec bd
       -0.052135427 -0.04816152 0.018340947 -0.11529684
000140 68 d3 f5 3b 83 6c e6 bc ef 0d c8 bc 7f 7f c5 bd
       0.007502008 -0.028127914 -0.024420707 -0.096434586
000150 9c cf af bc 60 67 db 3d 06 80 28 3d 3a 9e fb bd
       -0.0214613 0.107130766 0.041137718 -0.12286039
000160 7f 11 55 bd e9 fd 78 3d f3 4b 99 3d 36 a5 91 bd
       -0.05201864 0.060789023 0.07485189 -0.071115896
000170 31 1e aa 3d 1e b6 82 bd 0b 68 ce bd b5 32 92 bc
       0.0830654 -0.06382392 -0.10078438 -0.017846445
000180 5c 0d d0 3c 17 bb 05 3c b3 01 d4 3d c6 e9 b8 bd
       0.025396995 0.0081622815 0.103518866 -0.09028964
000190 39 cc 9a 3d 71 51 c6 3d bf 93 a5 bd 92 0d 24 3c
       0.07558484 0.096835025 -0.08084821 0.010013001
0001a0 5a 31 99 3d be 8b d3 3d 82 57 1a bd 07 bd b3 bd
       0.07480116 0.10329388 -0.03768111 -0.087762885
0001b0 28 34 f5 bd 52 75 cd 3d 2a eb 59 3d 8f e2 99 bd
       -0.11972839 0.10032143 0.053202786 -0.07513916
0001c0 a5 e9 7b b8 68 bc 4e bb c9 3f f5 3d 31 e7 f0 3d
       -6.006066e-05 -0.0031545404 0.11975057 0.11762846
0001d0 f2 53 98 bd 54 0b 50 bc 25 87 fe 3b f4 1f fd 3d
       -0.07437886 -0.012698013 0.0077675753 0.1235961
0001e0 6c 52 fc bc f7 35 22 3d ea 0a ad bd b2 37 0c bd
       -0.03080102 0.039602246 -0.08449347 -0.034232803
0001f0 70 9e aa bd c1 f7 d9 3d 4f dd 31 bd 7d 07 ae 3d
       -0.08331001 0.106429584 -0.043423947 0.08497522
